output/lightning_logs/version_2/checkpoints/epoch=4-step=275.ckpt (torch, 191717 bytes, 188 tensors)

net.model.convblock1.0.weight f4 [10, 1, 3, 3]
0	0xbd03bf8d	-0.0321651
1	0xbe0d7b1e	-0.13816497
2	0x3e25430e	0.1613886
3	0x3da509dd	0.08058522
4	0xbe94b2f3	-0.29042777
5	0x3e057c84	0.1303578
6	0x3e80fbd5	0.25192133
7	0xbe2ebe72	-0.17064837
8	0x3e6be245	0.23035534
9	0xbe0d8a48	-0.13822281
10	0xbe0b3bce	-0.13597032
11	0x3e2b7a4f	0.16745876
12	0xbe270c78	-0.1631335
13	0xbe1a1de8	-0.15050471
14	0x3e17319e	0.14765021
15	0xbeab6dff	-0.33482358
16	0xbea96138	-0.33081985
17	0x3c9acaf6	0.018895607
18	0x3dab54ce	0.083657846
19	0xbd723177	-0.059129205
20	0xbcc985c5	-0.02459992
21	0xbeaf94a0	-0.3429308
22	0xbd6badcc	-0.057538792
23	0x3df22542	0.118235126
24	0x3d94a28e	0.07257567
25	0x3db57ded	0.08861909
26	0xbd814d95	-0.06313626
27	0x3d94ca45	0.07265142
28	0x3c99252f	0.018694488
29	0xbe32730d	-0.17426701
30	0x3d808e04	0.06277087
31	0x3decdd50	0.115656495
32	0xbe9dbb15	-0.30806795
33	0x3e290a8a	0.16507927
34	0x3dd2385d	0.10264657
35	0x3d1c5aea	0.03817264
36	0xbe24a97b	-0.16080277
37	0xbe843d1f	-0.25827882
38	0x3d3cbf20	0.04608071
39	0xbdbfd7c4	-0.09367326
40	0xbe22179f	-0.15829323
41	0x3ea52836	0.3225724
42	0x3e882262	0.26588732
43	0xbe33d1a1	-0.17560436
44	0x3e01eb2c	0.12687367
45	0xbd256995	-0.040383894
46	0x3de8436b	0.11340984
47	0x3e00afd0	0.12567067
48	0x3dcdcd2e	0.100489005
49	0x3e5e2275	0.21692832
50	0x3e80a415	0.25125185
51	0xbe6240c5	-0.2209502
52	0x3e693511	0.2277415
53	0xbebb2164	-0.36548913
54	0xbe8bd4be	-0.27310747
55	0xbea27d26	-0.31736106
56	0xbe8ee2b8	-0.27907348
57	0x3e34a051	0.17639281
58	0x3e54890d	0.20755406
59	0x3e9d8071	0.30762056
60	0x3e4d5d15	0.20055039
61	0xbd807b7d	-0.062735535
62	0xbe1bc451	-0.15211608
63	0xbdec5181	-0.11538983
64	0xbd779233	-0.06044216
65	0x3e6eadc3	0.23308472
66	0xbea0b821	-0.3139048
67	0xbe68432e	-0.22681877
68	0x3e2976c5	0.16549213
69	0x3e4775f3	0.19478588
70	0xbe1daf9f	-0.15399025
71	0x3e8a9ff6	0.27075166
72	0x3e1d2b6b	0.15348594
73	0x3e1fd1b2	0.15607336
74	0xbd8780e3	-0.0661638
75	0xbe3ff6aa	-0.18746439
76	0x3e583d74	0.21117193
77	0xbdda948e	-0.10672866
78	0x3e8496a7	0.2589619
79	0xbdfe63c8	-0.124213755
80	0xbe37e03d	-0.17956634
81	0x3df9c1e5	0.121951856
82	0xbe9545f3	-0.2915493
83	0xbcce2d3e	-0.025168058
84	0x3db1d726	0.086836144
85	0xbe8d5831	-0.27606347
86	0x3e9581ad	0.29200497
87	0xbe2dfd8e	-0.16991255
88	0xbdf8efec	-0.121551365
89	0x3e2b8c85	0.16752823

net.model.convblock1.0.bias f4 [10]
0	0xbe8c7e49	-0.27440098
1	0xbe8879ae	-0.26655334
2	0x3e98f406	0.29873675
3	0x3df846d7	0.12122887
4	0xbd8cbac5	-0.06871561
5	0x3e9d470b	0.30718264
6	0x3dd95b6a	0.10613139
7	0x3e0760be	0.13220498
8	0xbdf047bd	-0.11732433
9	0x3dfe9aec	0.12431893

net.model.convblock1.2.weight f4 [10]
0	0x3f75c292	0.96000016
1	0x3f7ca962	0.9869596
2	0x3f7f010d	0.9961098
3	0x3f8bc7d1	1.0920354
4	0x3f6fe84a	0.9371382
5	0x3f824f2b	1.018041
6	0x3f807e15	1.0038477
7	0x3f7cbf8e	0.9872979
8	0x3f772f48	0.9655652
9	0x3f7c7587	0.9861683

net.model.convblock1.2.bias f4 [10]
0	0xbd8ddfba	-0.06927438
1	0x3dc58374	0.09644213
2	0x3dfee0aa	0.12445195
3	0xbdc206b7	-0.09473937
4	0x3b95cb63	0.0045713647
5	0x3ce74afc	0.028233998
6	0xbcd1b17f	-0.025597332
7	0xbce8d740	-0.028422952
8	0xbd639f56	-0.055571876
9	0xbd8c06ea	-0.06837256

net.model.convblock1.2.running_mean f4 [10]
0	0x3d3cd1ed	0.04609864
1	0x3dda80be	0.10669087
2	0x3eac1a92	0.33614022
3	0x3e319d13	0.17345075
4	0x3d9e541b	0.077308856
5	0x3ea5b49f	0.32364365
6	0x3e4abacb	0.19797818
7	0x3e694db9	0.22783555
8	0x3d8e0a91	0.06935609
9	0x3e5efe79	0.21776761

net.model.convblock1.2.running_var f4 [10]
0	0x3cade9ae	0.021229591
1	0x3c58f8b6	0.013242891
2	0x3cb66831	0.02226648
3	0x3d9a8bf7	0.075462274
4	0x3d4ad999	0.049523924
5	0x3e7d32bf	0.2472639
6	0x3d72f82a	0.0593187
7	0x3dc6b52d	0.09702525
8	0x3d39784f	0.04528075
9	0x3d1467ba	0.036231734

net.model.convblock2.0.weight f4 [16, 10, 3, 3]
0	0x3ddd5208	0.10806662
1	0xbd083d98	-0.033261865
2	0x3da9bc9d	0.08287928
3	0xbd54e449	-0.051975522
4	0x3d05c213	0.032655787
5	0xbd8c8549	-0.068613596
6	0x3ca3f93a	0.020016301
7	0x3d1894b0	0.037251174
8	0xbdb258b6	-0.087083265
9	0x3cd48870	0.025943965
10	0xbb1da3fc	-0.002405404
11	0x3ddadea3	0.10686996
12	0xbd7494a5	-0.05971207
13	0x3be53cdd	0.006995781
14	0x3c116361	0.008873791
15	0x3dd06382	0.101752296
16	0xbd254cac	-0.040356323
17	0xbc1b69d2	-0.009485679
18	0xbd84d2e6	-0.06485538
19	0xbd916b1d	-0.07100508
20	0x3bf5ce7f	0.007501423
21	0xbae9d02f	-0.0017838533
22	0xbd478315	-0.048708994
23	0x3d59caaf	0.05317181
24	0xbd23ee33	-0.040022086
25	0x3d4a503c	0.049392924
26	0xbce3d370	-0.027810782
27	0x3dae8182	0.085207954
28	0x3da8c2d4	0.082402855
29	0x3d5e2f5b	0.05424438
30	0xbd9a4dbf	-0.0753436
31	0xbd29bb02	-0.04143811
32	0xbd1ffc5e	-0.039059035
33	0xbdac465a	-0.08411856
34	0xbe2b31b9	-0.16718186
35	0xbc66ea13	-0.014093894
36	0xbd11a2c4	-0.035555616
37	0x3dff617d	0.12469766
38	0xbcd65e25	-0.026167938
39	0xbdfe6dee	-0.12423311
40	0xbdb057e8	-0.08610517
41	0xbcef60fb	-0.029221049
42	0xbc6df4e5	-0.014523719
43	0xbd493f68	-0.049132735
44	0x3b8b6bfa	0.004254815
45	0xbdf484ae	-0.11939369
46	0xbd92f2c3	-0.071752094
47	0xbd330831	-0.043708984
48	0x3d3897c3	0.045066606
49	0x3dbb0af9	0.09132952
50	0xbd22d337	-0.03975221
51	0x3d422f9e	0.047408693
52	0x3dcc62d0	0.099797845
53	0xbd224348	-0.039614946
54	0xbc8e59eb	-0.01737686
55	0xbc6f8308	-0.014618643
56	0x3d91106f	0.070832126
57	0x3d30cc6c	0.043163702
58	0xbc737218	-0.014858745
59	0x3bce6d9f	0.006299689
60	0x3b3c4c8c	0.002873215
61	0x3daa36fd	0.083112694
62	0x3d71a65a	0.058996536
63	0xbde30cbd	-0.11086414
64	0x3d637e7e	0.055540554
65	0xbd4269b2	-0.04746408
66	0xbcae71d7	-0.021294517
67	0xbd8ac0e1	-0.0677507
68	0x3d3255b1	0.043538753
69	0x3d4887d0	0.048957646
70	0xbcebc213	-0.028779065
71	0xbd171b80	-0.03689146
72	0xbdcb6513	-0.09931388
73	0xbdc2902c	-0.09500155
74	0xbc1675fc	-0.009183403
75	0x3c4498ca	0.011999318
76	0xbbf6ae99	-0.007528138
77	0xbc18620f	-0.009300723
78	0xbc6eedf2	-0.014583098
79	0x3d8abf10	0.067747235
80	0xbd40b492	-0.047047205
81	0x3cacdcca	0.021101374
82	0xbda17bb4	-0.078849226
83	0x3d020436	0.031742297
84	0x3d11b0a5	0.035568852
85	0x3d90b1a6	0.07065134
86	0x3cc51ecd	0.024062539
87	0xbd9069d3	-0.07051434
88	0xbd6351e2	-0.05549801
89	0x3d1c3e6d	0.03814547
90	0x3d31fb8c	0.043452784
91	0xbda04436	-0.0782551
92	0xbd0de45f	-0.03464162
93	0xbdead770	-0.11466873
94	0x39a6164a	0.00031678594
95	0x3cae7e62	0.021300498
96	0xbd0ac6bb	-0.03388093
97	0xbc980230	-0.01855573
98	0xbc825757	-0.015910788
99	0x3d546271	0.051851694
100	0xbce5ccb4	-0.028051712
101	0xbc1416fb	-0.009038682
102	0x3dcc12c6	0.09964518
103	0x3d0cc9ff	0.034372326
104	0xbc865a80	-0.016400576
105	0xbba3ae6e	-0.004995159
106	0xbd89f5ab	-0.067363106
107	0xbc55854e	-0.013032271
108	0x3dd715b0	0.105021834
109	0xbc66d9c3	-0.014090004
110	0xbd1dd0fe	-0.03852939
111	0xbd1121ed	-0.035432745
112	0xbd74553f	-0.05965161
113	0xbcb0e9f6	-0.021595936
114	0xbd060b68	-0.03272572
115	0x3c12de74	0.00896417
116	0x3e110819	0.14163245
117	0xbdb9cdf0	-0.090724826
118	0xbd0cd9c4	-0.034387365
119	0x3cb01db2	0.021498535
120	0x3da8a2f7	0.08234208
121	0x3d0d986c	0.03456919
122	0xbcae7cfa	-0.021299828
123	0xbdc1de27	-0.094662
124	0xbc2d64ba	-0.010583097
125	0xbdf6c0a6	-0.120484635
126	0x3d13b8bb	0.036064845
127	0x3d2b36cc	0.041800305
128	0xbd7c0d77	-0.06153628
129	0xbb89fb95	-0.004210899
130	0xbd108be6	-0.035289668
131	0x39a286d4	0.00030999503
132	0xbdb43bd4	-0.08800474
133	0xbd6750ff	-0.05647373
134	0x3d57fe9d	0.052733053
135	0x3d9b0766	0.075697705
136	0x3dce4197	0.10071104
137	0x3db29554	0.08719888
138	0x3d9b1bb3	0.075736426
139	0xbc3fb95b	-0.011701907
140	0xbce63f1e	-0.028106268
141	0xbd8a3e6c	-0.06750187
142	0xbde63815	-0.112411655
143	0xbcc3892e	-0.023869123
144	0x3cdfc235	0.027314285
145	0xbd61c9a6	-0.055123948
146	0x3cc987c0	0.024600863
147	0xbd80d2e8	-0.06290227
148	0xbc58750f	-0.013211503
149	0x3c3cfc24	0.011534724
150	0x3d78753d	0.060658682
151	0xbde46c0f	-0.11153423
152	0x3d2abd4b	0.04168443
153	0xbd21a301	-0.039462093
154	0x3d56f601	0.0524807
155	0x3d32ad40	0.043622255
156	0xbdb35a64	-0.08757475
157	0x3bf5a0d8	0.0074959807
158	0xbc45841b	-0.012055422
159	0xbdd50c75	-0.104027666
160	0xbd95dffc	-0.07318112
161	0xbd7bf112	-0.0615092
162	0x3b9e8c0a	0.0048384713
163	0xbd9e2c8f	-0.077233426
164	0xbd28fb9f	-0.04125559
165	0x3cfc7a60	0.030820072
166	0x3cd9e05d	0.026596243
167	0xbd1af6c6	-0.037832998
168	0x3d5c70b4	0.05381842
169	0x3d5c02d1	0.053713623
170	0xbd9844cb	-0.07434996
171	0x3d0b4cc1	0.034008745
172	0x3b343be2	0.0027501513
173	0x3c3c5f61	0.0114973495
174	0xbe0755eb	-0.13216369
175	0xbe02b70c	-0.1276514
176	0xbdb36410	-0.0875932
177	0x3dbae0a6	0.091248795
178	0x3d792fd7	0.06083664
179	0xbd43e1ab	-0.047822636
180	0x3d92ceca	0.07168348
181	0x3cbce222	0.023057047
182	0x3c99bdbb	0.018767228
183	0xbcf21031	-0.029548736
184	0xbcb8a5a3	-0.02253992
185	0xbd6b377d	-0.057425965
186	0x3d68c97b	0.05683277
187	0x3dd7a539	0.105295606
188	0x3cc788af	0.024357168
189	0xbdc17b45	-0.0944734
190	0xbbb8601a	-0.0056266906
191	0xbe1503ab	-0.1455218
192	0x3bad3baa	0.0052866535
193	0xbdc1c5f5	-0.094615854
194	0x3d6bdcfe	0.0575838
195	0xbdcea2f2	-0.10089673
196	0xbc61c441	-0.013779701
197	0x3d441e70	0.04788059
198	0x3d98e99e	0.07466434
199	0xbbc542f1	-0.006019943
200	0xbd48771c	-0.048941717
201	0xbcc6bda0	-0.024260342
202	0x3cb1873b	0.021670928
203	0xbc94125e	-0.018075164
204	0xbd0ba84a	-0.03409604
205	0xbd9b857a	-0.07593818
206	0xbc96598b	-0.018353244
207	0xbd8424ab	-0.06452306
208	0x3d0bd65e	0.034139983
209	0xbd656bbb	-0.056010943
210	0xbdcadf2f	-0.0990585
211	0xbd67e800	-0.056617737
212	0xbd9c0082	-0.07617284
213	0xbd4647ee	-0.04840844
214	0x3dbd350c	0.092386335
215	0xbd6bc8d2	-0.057564564
216	0xbd319148	-0.04335144
217	0x3c7dfecc	0.015502643
218	0x3d0990dd	0.033585418
219	0x3d74f19b	0.059800725
220	0xbdff2d7a	-0.12459846
221	0xba31f04c	-0.0006787821
222	0xbc9f2a8f	-0.019429473
223	0xbd25b02f	-0.040451225
224	0xbbb12c94	-0.0054069255
225	0xbc88e631	-0.016711326
226	0xbd906965	-0.070513524
227	0x3d8dc624	0.06922558
228	0xbd498da3	-0.04920734
229	0x3cb41529	0.021982746
230	0x3d020c2b	0.031749886
231	0x3deeb2c3	0.1165519
232	0xbc031be9	-0.00800226
233	0xbd0bab16	-0.034098707
234	0x3da9d3f5	0.08292381
235	0x3d30ec95	0.043194372
236	0xbc460dda	-0.012088263
237	0x3de41d3c	0.111383885
238	0xbd9f6046	-0.077820346
239	0xbe145522	-0.144856
240	0xbd77fb93	-0.060542654
241	0xbe0711c7	-0.13190375
242	0xbc9eb7ab	-0.01937469
243	0xbcc870e7	-0.024467899
244	0x3dffdc55	0.12493197
245	0xbce28f05	-0.027656088
246	0x3c8b2ffb	0.016990652
247	0xbe0ac34a	-0.1355106
248	0xbd8c0265	-0.06836394
249	0x3b1d71f8	0.002402423
250	0x3bdc21f5	0.006717915
251	0xbbe29899	-0.0069151637
252	0xbd0e48fc	-0.034737572
253	0x3c719797	0.0147456145
254	0x3dd42594	0.1035873
255	0xbd31b906	-0.043389343

net.model.convblock2.0.bias f4 [16]
0	0xbbbfb819	-0.0058508036
1	0x3dd737a3	0.10508659
2	0xbddccf36	-0.1078171
3	0xbe18c4d5	-0.14918835
4	0x3dee8076	0.11645596
5	0xbd3665eb	-0.04453079
6	0x3d0f95c1	0.035054926
7	0x3c94f5b7	0.018183572
8	0x3ce94e0b	0.028479597
9	0xbd434c96	-0.04768046
10	0xbe0d2e80	-0.1378727
11	0x3debe6b9	0.11518616
12	0xbbc2621f	-0.005932107
13	0xbd380506	-0.044926666
14	0xbe127a99	-0.1430458
15	0x3d0b3dc6	0.03399446

net.model.convblock2.2.weight f4 [16]
0	0x3f7fb171	0.9988013
1	0x3f75adb3	0.9596817
2	0x3f843b5d	1.0330616
3	0x3f8837cb	1.0642027
4	0x3f7b57ec	0.98181033
5	0x3f7b45c5	0.98153335
6	0x3f71c559	0.94441754
7	0x3f71a046	0.9438518
8	0x3f82aa79	1.0208274
9	0x3f6e75cf	0.9314851
10	0x3f82c935	1.0217654
11	0x3f8079ec	1.0037208
12	0x3f840731	1.0314695
13	0x3f837fa8	1.0273333
14	0x3f85323e	1.0405958
15	0x3f860652	1.0470679

net.model.convblock2.2.bias f4 [16]
0	0xbe1604b2	-0.14650229
1	0xbd80bec7	-0.06286388
2	0xbc0abdd9	-0.008468115
3	0xbdb5bc15	-0.088737644
4	0xbd83ff29	-0.06445152
5	0xbd325d70	-0.04354614
6	0xbd1b0cda	-0.037854053
7	0x3c2e4f85	0.010639076
8	0xbd171571	-0.036885682
9	0xbc47ac77	-0.012187115
10	0xbde80eef	-0.11330973
11	0x3d6fc3a0	0.058536172
12	0xbdd17ec6	-0.10229258
13	0xbd985c08	-0.074394286
14	0xbdaf8d59	-0.08571882
15	0xbdec1c2b	-0.1152881

net.model.convblock2.2.running_mean f4 [16]
0	0x3e49ad39	0.19694985
1	0x3ec0fbfc	0.3769225
2	0x3e084105	0.13306053
3	0x3e4fc8c1	0.20291425
4	0x3ec828eb	0.39093718
5	0x3eb129f6	0.34602326
6	0x3e3cc69c	0.18435138
7	0x3ee00fc1	0.4376202
8	0x3e32e871	0.17471482
9	0x3e8d9201	0.27650455
10	0x3de507aa	0.111831024
11	0x3e9c6c19	0.30551222
12	0x3e1e1065	0.15435942
13	0x3e142c2a	0.14469972
14	0x3e03a76b	0.12856834
15	0x3e25534a	0.16145054

net.model.convblock2.2.running_var f4 [16]
0	0x3d97a946	0.07405333
1	0x3df83fb7	0.12121528
2	0x3e2f99fc	0.17148584
3	0x3e2812b1	0.1641338
4	0x3e2c89be	0.1684942
5	0x3e2052c8	0.15656579
6	0x3e4b3a1f	0.1984639
7	0x3df1e244	0.11810735
8	0x3e253a59	0.16135539
9	0x3ee38de5	0.44444194
10	0x3dff2c58	0.1245963
11	0x3edd1289	0.43178204
12	0x3df761e7	0.1207922
13	0x3de5b85f	0.112168066
14	0x3e097b59	0.1342596
15	0x3e25ae60	0.161798

net.model.convblock3.0.weight f4 [8, 16, 1, 1]
0	0xbe295849	-0.16537584
1	0x3ba03a41	0.004889757
2	0x3e7cf1df	0.24701641
3	0xbcb91543	-0.022593146
4	0xbe65b33a	-0.22431651
5	0x3e3a2568	0.18178332
6	0xbe5520f2	-0.20813349
7	0xbd3e6618	-0.046484083
8	0xbd8dee3e	-0.06930207
9	0xbdbae7e5	-0.091262616
10	0x3cd4dc7d	0.025984043
11	0x3e3fea66	0.1874176
12	0x3d5f3d94	0.054502085
13	0xbaa1aa84	-0.0012334143
14	0x3e34d92e	0.17660972
15	0x3e4c50a7	0.19952641
16	0x3e4ce395	0.2000869
17	0x3ce8781b	0.028377583
18	0xbd9893ca	-0.074500635
19	0xbe649053	-0.2232068
20	0x3d1d5111	0.03840739
21	0xbe6e303c	-0.23260587
22	0xbe1f7e3e	-0.15575501
23	0xbe5258d8	-0.20541704
24	0x3e13f9d0	0.14450765
25	0x3e232442	0.159318
26	0x3e242b10	0.16032052
27	0xbde7a492	-0.11310686
28	0x3e645406	0.22297677
29	0xbe4f1cf2	-0.20225886
30	0x3e978aec	0.29598176
31	0x3dca4499	0.09876365
32	0xbe1fa35c	-0.1558966
33	0xbe9fc00c	-0.31201208
34	0x3bc84b8f	0.006112523
35	0x3d5cb930	0.053887546
36	0x3e1e4489	0.15455832
37	0x3e2d0be8	0.16899073
38	0x3e0ad99c	0.13559574
39	0x3e40be99	0.18822707
40	0x3d8d2a04	0.068927795
41	0x3dfb3198	0.12265319
42	0xbd949c5b	-0.07256385
43	0xbdc4eb5c	-0.09615204
44	0xbded51e4	-0.11587885
45	0x3c1c6ce8	0.00954745
46	0xbd931e1c	-0.07183477
47	0xbe7341d2	-0.23755577
48	0x3d720432	0.059086032
49	0x3e696594	0.22792655
50	0x3e042e89	0.12908377
51	0xbe200589	-0.15627111
52	0x3e658fb2	0.22418097
53	0xbe805ba1	-0.25069907
54	0xbddb9106	-0.107210204
55	0xbe737781	-0.23776056
56	0x3de39bf4	0.1111373
57	0x3de247c9	0.11048848
58	0xbcd290d5	-0.025703827
59	0x3d84ab30	0.06477964
60	0xbd564bf3	-0.052318525
61	0x3e23b40f	0.15986656
62	0xbd0e3189	-0.03471521
63	0xb77ce47e	-1.50735705e-05
64	0x3dd9fb29	0.10643608
65	0xbe40bd3d	-0.18822189
66	0xbd194264	-0.03741683
67	0x3d1d2e70	0.038374364
68	0x3dc84672	0.097790614
69	0x3e3e58b1	0.1858852
70	0x3d0dd966	0.034631155
71	0xbdac40de	-0.0841081
72	0x3e81f3c3	0.25381288
73	0xbd83f17d	-0.064425446
74	0x3e215581	0.15755273
75	0x3dda0bc2	0.10646774
76	0x3e5c3d5b	0.2150778
77	0x3cc07e9d	0.023497874
78	0xbd4dcc82	-0.050243862
79	0x3da9c728	0.08289939
80	0xbe687f17	-0.22704731
81	0xbdcc9f62	-0.09991337
82	0x3dd3d4bd	0.10343311
83	0x3ca87ad5	0.020566383
84	0xbe717f01	-0.23583604
85	0xbe53d303	-0.20685963
86	0x3bf256b8	0.0073955916
87	0xbc824eaa	-0.01590665
88	0xbd97547e	-0.073891625
89	0x3e5dbc58	0.21653879
90	0xbdee4f97	-0.11636274
91	0x3dc304ea	0.09522422
92	0xbcf9819b	-0.030457309
93	0x3e045dda	0.12926427
94	0xbc8f2b11	-0.01747659
95	0x3dd2ff80	0.10302639
96	0x3e32c2d7	0.17457138
97	0xbdf4f2c9	-0.1196037
98	0x3dce994e	0.10087834
99	0xbe1bdd88	-0.15221226
100	0x3e039f95	0.12853844
101	0xbdc7b597	-0.097514324
102	0x3dac0ede	0.08401273
103	0x3dfd924e	0.12381421
104	0xbe35c0df	-0.17749356
105	0x3d984c0a	0.07436378
106	0x3e9b7fc4	0.30370915
107	0x3e0e6935	0.13907321
108	0x3e23f94c	0.16013068
109	0xbe41d99c	-0.18930668
110	0xbdf1a41d	-0.1179888
111	0xbe587e43	-0.21141915
112	0xbdda77c9	-0.106673785
113	0x3e02efa2	0.12786725
114	0xbd80f3dd	-0.06296513
115	0xbe67b0af	-0.22625993
116	0x3cba7ed4	0.022765554
117	0x3de74266	0.11291961
118	0xbe604b2e	-0.21903679
119	0x3d56275b	0.052283626
120	0x3c16b8a7	0.009199298
121	0xbe5f71b6	-0.21820721
122	0x3d6d74af	0.057972606
123	0x3d99cfaf	0.075103156
124	0xbe6e955b	-0.23299162
125	0xbe734532	-0.23756865
126	0xbd37aaed	-0.044840742
127	0xbe3cafc2	-0.18426421

net.model.convblock3.0.bias f4 [8]
0	0xbd9f7922	-0.07786776
1	0x3d811a05	0.06303791
2	0x3e1fb199	0.15595092
3	0xbe38f77e	-0.18063161
4	0x3e825fac	0.25463617
5	0x3e161aaf	0.14658616
6	0x3df119f6	0.1177253
7	0x3da1c41a	0.078987315

net.model.convblock3.2.weight f4 [8]
0	0x3f7ba370	0.9829626
1	0x3f8db3f2	1.107054
2	0x3f8136a4	1.00948
3	0x3f74af1d	0.955797
4	0x3f722d39	0.94600254
5	0x3f7db737	0.9910769
6	0x3f80edfd	1.0072628
7	0x3f6fef70	0.9372473

net.model.convblock3.2.bias f4 [8]
0	0x3b8f4c37	0.004373099
1	0x3dd7cf02	0.105375305
2	0xbe06bb16	-0.13157305
3	0xbde9e5fd	-0.1142082
4	0xbdb539a1	-0.088488825
5	0xbdf3f639	-0.119121976
6	0x3d1112c2	0.03541828
7	0x3da7a5bc	0.08185908

net.model.convblock3.2.running_mean f4 [8]
0	0x3e9a0f5e	0.3008985
1	0x3ee70fc5	0.4512922
2	0x3efc0b4e	0.49227375
3	0x3e8700cc	0.26367795
4	0x3f1cdb3b	0.6127202
5	0x3e74c951	0.23904921
6	0x3ebf1bdf	0.3732595
7	0x3eafb4b7	0.34317562

net.model.convblock3.2.running_var f4 [8]
0	0x3f172612	0.59042466
1	0x3f86ffbb	1.0546793
2	0x3f349676	0.70542085
3	0x3ef1fa93	0.47261485
4	0x3f5d7bce	0.86517036
5	0x3eb15a72	0.34639317
6	0x3f3280fd	0.6972807
7	0x3decddc6	0.115657374

net.model.convblock4.0.weight f4 [16, 8, 3, 3]
0	0x3ccb5799	0.024822043
1	0xbd9529f8	-0.072833955
2	0x3de19598	0.11014861
3	0x3c6cdb21	0.014456541
4	0x3d3588e4	0.044320002
5	0x3dd352c5	0.103185214
6	0x3bda6773	0.006665164
7	0xbc30f756	-0.010801157
8	0x3da1b678	0.07896131
9	0x3d846856	0.06465213
10	0xbd777147	-0.060410764
11	0x3df3f200	0.11911392
12	0x3d6d649d	0.05795728
13	0x3d442152	0.04788334
14	0xbd0dc8ae	-0.03461521
15	0xbd1c5137	-0.03816339
16	0xbd420985	-0.04737236
17	0x3caee91b	0.021351388
18	0x3d568e0b	0.052381556
19	0x3d60a538	0.054845065
20	0xbda4ba97	-0.08043402
21	0xbd60e808	-0.054908782
22	0xbdc45184	-0.0958586
23	0x3c084063	0.008316132
24	0x3dd7a059	0.10528631
25	0xbcfeeac5	-0.031117806
26	0x3d98bfd9	0.07458467
27	0x3dcf6a09	0.101276465
28	0x3db10261	0.08643032
29	0xbcf3a8fa	-0.02974366
30	0x3e0a0ae4	0.13480717
31	0x3da33c1f	0.079704516
32	0x3c774e9c	0.0150944255
33	0xbdd93327	-0.1060546
34	0xbb0f4b06	-0.0021864786
35	0x3d4c5ffb	0.04989622
36	0x3d93942b	0.07205995
37	0xbc919bc8	-0.017774478
38	0x3db09753	0.08622613
39	0x3d1d1da3	0.038358342
40	0x3dad51af	0.084628455
41	0xbd503c9d	-0.050839055
42	0xbd27520b	-0.040849727
43	0x3bf28658	0.007401269
44	0xbcd47008	-0.025932327
45	0x3e0f35b2	0.13985327
46	0xbd9dfc34	-0.077141196
47	0x3dd88fca	0.105743006
48	0x3da2c263	0.079472326
49	0xbd4affa3	-0.0495602
50	0x3dd196da	0.10233851
51	0x3cc55a1f	0.024090825
52	0xbd8a42ca	-0.0675102
53	0xbdb0bcf9	-0.08629794
54	0x3e13a8d4	0.14419872
55	0x3da1e1ac	0.079043716
56	0x3d88b1cb	0.06674536
57	0xbcb70676	-0.022341948
58	0xbd93fe8b	-0.072262846
59	0x3d0c6c79	0.034283135
60	0xbd0a2179	-0.03372333
61	0x3a717b40	0.0009211786
62	0xbb8b56aa	-0.0042522745
63	0xbdd63c74	-0.10460749
64	0xbdee4088	-0.11633402
65	0xbe1bc32b	-0.1521117
66	0x3d2a0305	0.041506786
67	0xbe2577aa	-0.1615893
68	0xbc5d0243	-0.013489309
69	0x3d2ce745	0.042212743
70	0x3d8ce1a1	0.06878973
71	0x3d1509b7	0.036386218
72	0xbd272e81	-0.040815834
73	0xbca81f87	-0.020522846
74	0x3c5e04b7	0.013550929
75	0x3dc899f6	0.09794991
76	0x3cdfebe4	0.027334161
77	0xbda0a96f	-0.07844817
78	0x3da23266	0.07919769
79	0xbd52106e	-0.0512852
80	0x3c0b93b3	0.008519101
81	0x3ceb1d71	0.028700562
82	0xbdf44e24	-0.11928967
83	0xbd42a311	-0.047518793
84	0x3de9b750	0.11411917
85	0xbd1d9cce	-0.03847962
86	0xbe1f6b6a	-0.15568319
87	0x3d0643c6	0.032779478
88	0x3d1949a1	0.037423734
89	0xbe0a7382	-0.13520625
90	0xbd5acf1c	-0.05342017
91	0x3bd81a93	0.006594965
92	0x3d798487	0.060917404
93	0xbdb1bb24	-0.08678272
94	0xbd648899	-0.055794332
95	0xbac5ea4f	-0.0015099737
96	0xbd5aad95	-0.053388197
97	0xbdb00f6f	-0.08596694
98	0x3c9990de	0.018745836
99	0x3c4cfa17	0.012510798
100	0x3c829214	0.015938796
101	0xbc8200b5	-0.015869478
102	0x3d74b1c5	0.059739847
103	0x3d2660b9	0.040619586
104	0xbdd9ad68	-0.10628778
105	0xbd3471de	-0.044053905
106	0x3dbff826	0.093735024
107	0xbd577f5d	-0.052611697
108	0x3de2f5c8	0.11082035
109	0x3cd93e21	0.026518883
110	0x3d5b3d84	0.053525463
111	0xbd7e01b3	-0.06201334
112	0x3dbfddfc	0.09368512
113	0x3c37b8b2	0.011213468
114	0xbd74fb0f	-0.05980974
115	0x3c3a7dcd	0.011382532
116	0xbd105c1d	-0.035244096
117	0x3d2e9050	0.042618096
118	0xbd346880	-0.04404497
119	0x3d99c79b	0.07508775
120	0x3c8e25b0	0.017351955
121	0x3bec06cd	0.007202959
122	0x3d935e85	0.071957625
123	0x3cd598d0	0.026073843
124	0xbd44822e	-0.04797571
125	0x3d6668fb	0.05625246
126	0xbdb2722c	-0.08713183
127	0xbd087a3a	-0.03331969
128	0xbde8ac82	-0.11361028
129	0xbc9f513c	-0.019447915
130	0xbaa6f37c	-0.0012737359
131	0xbd47078c	-0.04859118
132	0xbd5e51cb	-0.054277223
133	0x3d9feeb9	0.078092046
134	0xbc4f5026	-0.012653386
135	0xba967242	-0.0011478143
136	0x3c5a9ccb	0.013343046
137	0xbca66285	-0.02031065
138	0xb9c21f25	-0.00037025768
139	0xbc93ed05	-0.018057356
140	0xbd888ea2	-0.0666783
141	0xbd9df6c5	-0.07713083
142	0xbca92408	-0.020647064
143	0x3d98dd3f	0.07464074
144	0x3d8e61fb	0.06952282
145	0x3b91c818	0.004448902
146	0xbdc8063b	-0.09766813
147	0x3d88b69d	0.06675456
148	0xbbb2492f	-0.005440853
149	0x3d1475ef	0.036245283
150	0xbdcaab87	-0.098959975
151	0xbb9f2483	-0.0048566475
152	0xbd329f68	-0.043609053
153	0xbd896fd7	-0.06710785
154	0xbdeec558	-0.11658734
155	0xbd8c5be2	-0.06853463
156	0x3dcf8f09	0.10134704
157	0x3cdf761c	0.027277999
158	0x3cdad9cc	0.026715182
159	0xbd983100	-0.07431221
160	0x3d1642ce	0.036684804
161	0x3cc9f092	0.024650846
162	0xbd3de1c0	-0.04635787
163	0xbc0125b2	-0.007882522
164	0x3e08b674	0.1335085
165	0x3baa15de	0.005190595
166	0x3d0fcd4b	0.035107892
167	0xbd9d261c	-0.076732844
168	0xbabb5bac	-0.0014294288
169	0xbe0bcb9c	-0.1365189
170	0xbd7f07c2	-0.062263258
171	0x3d6fbcdd	0.058529723
172	0xbd7feb13	-0.062480044
173	0xbdbe83a3	-0.093024515
174	0xbd9e107e	-0.077179894
175	0x3d9577da	0.072982505
176	0x3daedccc	0.085382074
177	0xbc95217e	-0.018204447
178	0x3d48c29f	0.04901373
179	0x3e4160f0	0.18884635
180	0xbc1e91fc	-0.00967836
181	0xbd120212	-0.035646506
182	0x3d5a7487	0.053333785
183	0x3ddbd4cb	0.107339464
184	0x3cc48ed1	0.023993881
185	0x3d8f322e	0.06991993
186	0xbdde4149	-0.10852296
187	0x3c883af9	0.016629683
188	0x3d32363d	0.043508757
189	0x3cb4ded6	0.022078913
190	0xbdf5e80a	-0.120071486
191	0x3b7bcb4f	0.0038420742
192	0xbc830f26	-0.015998434
193	0x3d458976	0.048226796
194	0x3d43b7be	0.047782652
195	0x3d06bf38	0.032897204
196	0x3bf3c281	0.007438958
197	0xbd880a20	-0.06642556
198	0x3cf849be	0.0303086
199	0x3c1e17b3	0.009649205
200	0xbd23dc96	-0.04000529
201	0x3b0b030a	0.0021211528
202	0xbd84ede3	-0.06490686
203	0x3daa7cbe	0.08324574
204	0x3c474a88	0.012163766
205	0x3c989d4e	0.018629696
206	0x3da1c0d8	0.0789811
207	0x3d6c2403	0.05765153
208	0xbd7e528e	-0.06209045
209	0x3d588bd8	0.05286774
210	0x3d761b37	0.060084548
211	0xbe0b4f11	-0.1360438
212	0xbd193796	-0.037406527
213	0x3d1e3cdd	0.038632262
214	0xbd3cd7b8	-0.046104163
215	0x3d49cb2a	0.049266018
216	0xbda7c0d6	-0.081910774
217	0x3d94bf60	0.072630644
218	0xbd8c3880	-0.06846714
219	0x3d41e934	0.04734154
220	0xbd4bb8e4	-0.049736872
221	0x3da54372	0.08069505
222	0x3dd6b3ae	0.1048349
223	0xbdbe92cf	-0.09305345
224	0x3c12dcac	0.008963745
225	0x3d284b68	0.041087538
226	0x3d0f14b2	0.034931846
227	0x3de2f914	0.11082664
228	0x3cfd276d	0.030902589
229	0xbd442a96	-0.047892176
230	0xbdaeced7	-0.08535545
231	0xbdc6127e	-0.09671496
232	0x3d903421	0.07041193
233	0xbdc5985a	-0.096481994
234	0xbad21be8	-0.0016030045
235	0x3dc02b63	0.09383275
236	0x3db74fa8	0.0895074
237	0xbd4b1a65	-0.04958572
238	0xbdd687f7	-0.10475152
239	0x3d90bc9e	0.07067226
240	0xbcdc5199	-0.026894378
241	0x3ce13697	0.02749185
242	0x3d7c7cae	0.06164234
243	0x3ca4ef4a	0.020133633
244	0x3c274388	0.010208972
245	0x3c61e435	0.013787319
246	0xbd6f72c1	-0.058459047
247	0xbdcd4f94	-0.10024944
248	0xbda41914	-0.08012596
249	0x3e1894a6	0.14900455
250	0xb9ad4009	-0.0003304484
251	0xbc28c331	-0.0103004435
252	0xbd36ada3	-0.044599187
253	0xbdc3e88e	-0.09565841
254	0x3dbf2650	0.093334794
255	0xbd8d7bfe	-0.06908415

net.model.convblock4.0.bias f4 [16]
0	0x3d81b544	0.06333402
1	0x3d3f33ab	0.046680134
2	0xbac09721	-0.0014693477
3	0x3d426f76	0.04746958
4	0x3db3b8bb	0.08775469
5	0x3d825ef0	0.06365764
6	0x3e2283cf	0.15870593
7	0xbddbf6e1	-0.10740448
8	0xbd63a3e5	-0.055576224
9	0xbd168720	-0.03674996
10	0x3d7de8e8	0.061989695
11	0xbdb63233	-0.088962935
12	0xbdbe7db9	-0.093013234
13	0x3c53702c	0.012905162
14	0x3e1081e7	0.14112054
15	0xbe3c1db9	-0.18370713

net.model.convblock4.2.weight f4 [16]
0	0x3f824540	1.0177383
1	0x3f8133cd	1.0093933
2	0x3f845e8d	1.0341355
3	0x3f81d977	1.014449
4	0x3f73646a	0.95075095
5	0x3f7cdb52	0.98772156
6	0x3f72200f	0.9458017
7	0x3f8222cc	1.0166869
8	0x3f7cfa57	0.9881949
9	0x3f6d226e	0.9263066
10	0x3f70f113	0.9411785
11	0x3f7963f1	0.97418123
12	0x3f88fff7	1.0703114
13	0x3f7fc214	0.99905515
14	0x3f84a180	1.0361786
15	0x3f85cc30	1.0452938

net.model.convblock4.2.bias f4 [16]
0	0x3d8d905c	0.069123
1	0xbd8ca3ce	-0.06867181
2	0x3cae7b3c	0.021298997
3	0x3d961367	0.073279195
4	0x3d8652ed	0.065587856
5	0xbd5037f9	-0.05083463
6	0x3dbfe716	0.09370248
7	0xbd9421f1	-0.07233036
8	0x3c9abfae	0.018890228
9	0xbe132b22	-0.14371923
10	0x3d4d6aa3	0.050150525
11	0xbcf3630b	-0.029710313
12	0xbc1a0be6	-0.009402251
13	0xbdae0f94	-0.08499065
14	0xbca29130	-0.019844621
15	0x3cbf69c0	0.023365855

net.model.convblock4.2.running_mean f4 [16]
0	0x3ed993d1	0.42495587
1	0x3e4893a5	0.19587572
2	0x3e575c19	0.21031226
3	0x3e90f072	0.28308445
4	0x3e658983	0.22415738
5	0x3ea9ab11	0.33138326
6	0x3ea80187	0.32813665
7	0x3e38feef	0.18066
8	0x3e99b8c5	0.3002378
9	0x3e2d70f6	0.16937622
10	0x3e681af5	0.22666533
11	0x3e1dd149	0.15411867
12	0x3e59cda2	0.21269849
13	0x3e6cd4de	0.23128077
14	0x3e821e83	0.25413904
15	0x3e596ca0	0.21232843

net.model.convblock4.2.running_var f4 [16]
0	0x3f1fa874	0.62366414
1	0x3debea53	0.11519303
2	0x3e547575	0.20747931
3	0x3e523d6d	0.20531245
4	0x3e161ce3	0.14659457
5	0x3ed48c0a	0.4151309
6	0x3e12ba7e	0.14328954
7	0x3e63d032	0.22247389
8	0x3e37d0ab	0.17950694
9	0x3e1ad8eb	0.1512181
10	0x3e046acc	0.12931365
11	0x3dae684f	0.08515989
12	0x3e6fb76d	0.23409815
13	0x3e7e515b	0.24835722
14	0x3e4fa083	0.20276074
15	0x3e7d80b1	0.24756123

net.model.convblock5.0.weight f4 [16, 16, 3, 3]
0	0x3cb6c93a	0.02231275
1	0x3cb19858	0.021679088
2	0xbdcbe1b3	-0.09955158
3	0x3d1d3355	0.038379032
4	0x3ca52387	0.020158542
5	0xbc75aec2	-0.014995279
6	0x3d4eabb7	0.05045673
7	0xbd915b22	-0.0709746
8	0xbd040d47	-0.032239225
9	0xbb103290	-0.0022002794
10	0xbcb75b2a	-0.022382338
11	0x3d462ea5	0.048384327
12	0xbc3d0289	-0.011536249
13	0x3cdafd98	0.026732251
14	0x3d576673	0.052587938
15	0x3ba4907c	0.0050221067
16	0x3db873d1	0.09006465
17	0xbc777c64	-0.015105341
18	0xbb87326b	-0.0041258833
19	0xbdc45420	-0.09586358
20	0xbe2c88c9	-0.16849054
21	0xbb583ab0	-0.0032993965
22	0xbc96433f	-0.018342612
23	0xbdf6ad94	-0.12044826
24	0xbde60ad2	-0.112325326
25	0xbb90a5cf	-0.004414297
26	0xbdb35541	-0.08756495
27	0x3c5d3f9f	0.013503938
28	0xbc5e7167	-0.013576842
29	0xbd175668	-0.036947638
30	0x3cd20277	0.025635941
31	0x3d3bb8d6	0.04583057
32	0xbcc18e65	-0.02362747
33	0x3be520ed	0.0069924504
34	0x3d7f7475	0.06236692
35	0x3b8eb2f0	0.004354827
36	0xbd493158	-0.049119323
37	0x3d5ff785	0.054679412
38	0xbd322e8e	-0.04350143
39	0xbc717d1c	-0.014739301
40	0xbd27356c	-0.04082243
41	0xbc3b59e2	-0.011435004
42	0xbcc2ebde	-0.02379411
43	0x3c76a4c9	0.015053936
44	0x3c7f4c38	0.015582137
45	0xbbfa1424	-0.0076317955
46	0xbcdb42b9	-0.026765214
47	0xbdb53ce1	-0.08849502
48	0xbd2f2b81	-0.042766098
49	0x3d795883	0.060875427
50	0x3c54d6f2	0.0129907
51	0xbcd376fc	-0.025813572
52	0x3d1f2fe4	0.03886403
53	0xbded72bf	-0.11594152
54	0x3d0f4603	0.034978878
55	0xbbba9fae	-0.005695305
56	0x3d60d418	0.05488977
57	0x3c148814	0.009065647
58	0x3c50af37	0.012737087
59	0x3ccbbcec	0.024870358
60	0x3cbd7bfc	0.02313041
61	0x3ce6caab	0.028172811
62	0xbcccf8f2	-0.02502105
63	0x3d27d0e9	0.040970717
64	0x3da2b635	0.079449095
65	0x3d4d325c	0.050096855
66	0x3d90cc4a	0.07070215
67	0xbca28e64	-0.019843288
68	0x3c231f51	0.009956197
69	0x3d1eeae1	0.038798217
70	0xbcdc675a	-0.02690475
71	0x3c150180	0.009094596
72	0x3d1cc620	0.038274884
73	0xbbfe1e0b	-0.0077550462
74	0x3ca11891	0.019665034
75	0x3d370355	0.044680912
76	0xbc179e84	-0.009254102
77	0xbc27bd0c	-0.010237943
78	0x3d81dcc8	0.06340939
79	0xbda12d87	-0.07870012
80	0xbd04a3fa	-0.032382943
81	0x3d71dc5d	0.059048045
82	0xba37246c	-0.0006986323
83	0x3cbb1b67	0.022840215
84	0xbae4fb6f	-0.0017469953
85	0xbd6aeb64	-0.057353392
86	0xbc93ddd4	-0.018050112
87	0xbd399f6a	-0.045318045
88	0xbd30f76e	-0.043204717
89	0x3d427802	0.04747773
90	0x3d256946	0.0403836
91	0x3d735713	0.059409212
92	0xbda31c2d	-0.079643585
93	0xbbcc0a72	-0.006226831
94	0x3cb73545	0.022364268
95	0xbcf6a0d2	-0.030105982
96	0x3c4cbbd3	0.012495953
97	0x3d4f35ec	0.050588533
98	0x3dacea55	0.08443133
99	0xbd08ad5f	-0.033368465
100	0xbb983ba7	-0.004645783
101	0xbcd9ede2	-0.02660269
102	0xbc91ed2c	-0.017813288
103	0x3d256be0	0.04038608
104	0xbc48928a	-0.012241969
105	0x3da2ebac	0.07955107
106	0x3dcc3c28	0.099724114
107	0x3d8f7eab	0.07006582
108	0xbc849f13	-0.016189134
109	0x3d90beaa	0.07067616
110	0xbd4a5391	-0.0493961
111	0x3d68a38a	0.056796588
112	0x3ca56626	0.02019031
113	0xbd8d9e52	-0.06914963
114	0x3d2f0def	0.042737897
115	0x3d1243f8	0.03570935
116	0xbde3886a	-0.11110003
117	0x3dc65cdf	0.096856825
118	0xbd729fac	-0.059234306
119	0xbd19751c	-0.0374652
120	0x3d951eff	0.07281303
121	0x3ccb229c	0.024796776
122	0xbb1cf2f4	-0.0023948522
123	0xbc6b5339	-0.014363104
124	0x3d7f802c	0.062378094
125	0x3ce50bdf	0.027959762
126	0x3d9fde66	0.07806091
127	0xbd6a6489	-0.057224784
128	0xbe08aa42	-0.13346198
129	0x3c09519e	0.008381275
130	0x3d0fef37	0.035140242
131	0xbc8249c4	-0.015904315
132	0x3deee3bd	0.116645314
133	0x3d280ddb	0.04102884
134	0xbd9d5224	-0.07681683
135	0x3c8091a3	0.015694445
136	0x3c749833	0.014928865
137	0xbd43b861	-0.04778326
138	0xbd8650b8	-0.06558365
139	0x3cb88428	0.022523955
140	0x3ca81847	0.020519389
141	0xbdb0fc75	-0.08641902
142	0xbdd8bbcd	-0.10582695
143	0xbcd423b8	-0.025895938
144	0x3d9ffbe9	0.0781172
145	0xbdaa4f6b	-0.08315929
146	0xbc99b037	-0.018760784
147	0xbd791b51	-0.060817067
148	0x3c19764f	0.009366586
149	0xbcbbf74a	-0.022945065
150	0x3ddb7cb2	0.10717143
151	0xbd633661	-0.05547178
152	0x3c252208	0.010078914
153	0xbdab65c2	-0.08369018
154	0x3d6bdb82	0.057582386
155	0x3c8110d8	0.015755102
156	0x3d8c1176	0.06839268
157	0x3d2f46ee	0.042792253
158	0xbd9047b4	-0.07044926
159	0x3c8dba5f	0.017300783
160	0x3d18cf27	0.03730693
161	0xbd96339e	-0.07334064
162	0x3ca90045	0.020630011
163	0x3ce28e0f	0.02765563
164	0x3d31373f	0.043265577
165	0xbd1a1ced	-0.037625242
166	0xbc49b091	-0.012310163
167	0xbd09fc37	-0.033687796
168	0x3d86113b	0.06546255
169	0x3c9f2df7	0.019431097
170	0x3c297561	0.010342927
171	0x3da54bd3	0.08071103
172	0x3dbd6e51	0.09249557
173	0x3deff983	0.117175125
174	0x3cfd65da	0.030932356
175	0x3d0bcce7	0.034130957
176	0x3e1329a5	0.14371355
177	0xbd0f3079	-0.034958337
178	0x3d899a9c	0.067189425
179	0x3d3eaa16	0.046548925
180	0x3b70ac5b	0.0036723826
181	0xbcad5868	-0.02116032
182	0x3cbb15af	0.022837488
183	0x3d431e0b	0.047636073
184	0xbc894f5f	-0.01676148
185	0x3de5b494	0.11216083
186	0x3b86f610	0.0041186884
187	0x3d1e3521	0.038624886
188	0x3d287286	0.041124843
189	0xbd4de04f	-0.050262745
190	0xbc079ae0	-0.008276671
191	0xbc5e137e	-0.013554452
192	0x3a462b3f	0.0007559545
193	0x3d66a161	0.056306247
194	0x3d8a21f6	0.06744759
195	0xbbae1722	-0.0053128162
196	0x3d176859	0.036964748
197	0xbd283221	-0.04106343
198	0x3aea439a	0.001787293
199	0xbd14fe7d	-0.03637551
200	0xbd4b2413	-0.04959495
201	0x3c6dbdea	0.014510611
202	0x3d3e7d89	0.04650644
203	0x3d6ce89c	0.05783902
204	0xbd8a0536	-0.06739275
205	0xbd94b7bf	-0.07261609
206	0x3d25807e	0.040405743
207	0xbce0681f	-0.027393399
208	0x3d1e02a3	0.038576733
209	0x3de15700	0.11002922
210	0xbd95f033	-0.07321205
211	0x3d17337a	0.036914326
212	0xba437486	-0.0007456023
213	0xbdcd1987	-0.100146346
214	0x3cb1a0cd	0.021683121
215	0x3dc58388	0.09644228
216	0xbcd5ae77	-0.026084168
217	0xbc182fb4	-0.009288717
218	0xbda05658	-0.07828969
219	0xbc297471	-0.010342703
220	0x3d358150	0.044312775
221	0xbb46184f	-0.0030226891
222	0x3a6dd921	0.0009073187
223	0x3aa8f7c1	0.0012891219
224	0xbcab311a	-0.020897437
225	0x3c50125d	0.012699691
226	0xba0806b5	-0.00051889877
227	0x3d91c06d	0.071167804
228	0xbd4ef1d8	-0.05052361
229	0xbd9db2b2	-0.07700099
230	0xbc4efe76	-0.01263391
231	0x3d3f9cc0	0.046780348
232	0xbb3b5e85	-0.0028590274
233	0x3b96a5dd	0.004597409
234	0xbcffb99f	-0.03121644
235	0x3bf1cd91	0.0073792418
236	0x3ce9531c	0.028482012
237	0x3cafbf52	0.021453533
238	0xbd0e79e9	-0.03478423
239	0x3d4a0a08	0.049325973
240	0x3ae292c2	0.0017286169
241	0xbd78ebfd	-0.06077193
242	0x3dbe74b8	0.09299606
243	0xbd898ad1	-0.0671593
244	0xbc6ac7b4	-0.0143298395
245	0xb995a419	-0.00028541757
246	0xbda7d243	-0.08194401
247	0x3ce32912	0.027729545
248	0x3d0263fc	0.031833634
249	0xbdab996a	-0.08378871
250	0x3ca655ca	0.02030458
251	0xbcfd1ed3	-0.030898487
252	0x3dabdfb8	0.0839228
253	0xbcc30a64	-0.023808666
254	0xbc9834e0	-0.0185799
255	0x3d774e3d	0.06037735

net.model.convblock5.0.bias f4 [16]
0	0xbccb9ed6	-0.024856012
1	0x3db84b1e	0.089987025
2	0xbb448ad6	-0.002998998
3	0xbda1cf21	-0.07900835
4	0xbe0444e6	-0.12916908
5	0xbd9220d6	-0.07135169
6	0xbd8cb834	-0.068710715
7	0x3b85d50a	0.004084234
8	0xbe1feca5	-0.15617616
9	0xbd87595d	-0.066088416
10	0x3d8d5471	0.069008715
11	0xbcc7fa80	-0.02441144
12	0xbdc45d85	-0.0958815
13	0x3c798ee9	0.015231826
14	0xbd319375	-0.043353517
15	0xba1fafcc	-0.00060915644

net.model.convblock5.2.weight f4 [16]
0	0x3f8447a8	1.0334368
1	0x3f790766	0.97276914
2	0x3f775e8a	0.9662863
3	0x3f8a0d97	1.0785397
4	0x3f7b2487	0.9810261
5	0x3f7f8e5f	0.99826616
6	0x3f7d6f68	0.9899812
7	0x3f790882	0.97278607
8	0x3f767358	0.9626975
9	0x3f81123e	1.0083692
10	0x3f807f75	1.0038897
11	0x3f7ca423	0.9868795
12	0x3f7bd565	0.9837249
13	0x3f7637ec	0.9617908
14	0x3f7871e3	0.9704878
15	0x3f8293f3	1.02014

net.model.convblock5.2.bias f4 [16]
0	0x3e253898	0.1613487
1	0x3d7d4f33	0.06184311
2	0x3d87a512	0.066232815
3	0x3cba9fe5	0.022781322
4	0xbdef1f30	-0.116758704
5	0x3d9076be	0.07053898
6	0x3dd58163	0.10425069
7	0x3d718f36	0.058974467
8	0x3d8733fb	0.06601711
9	0xbdf85572	-0.121256724
10	0x3dde0a4c	0.10841808
11	0xbd9cf4dd	-0.076638915
12	0xbd924469	-0.071419545
13	0x3d9fc0dc	0.07800457
14	0x3dafdbb2	0.085868254
15	0xbcda8cfa	-0.026678551

net.model.convblock5.2.running_mean f4 [16]
0	0x3e83a147	0.25708982
1	0x3ed1d2b1	0.40981057
2	0x3e60a953	0.21939592
3	0x3ecfda40	0.405962
4	0x3e09ed1b	0.13469355
5	0x3e8b30a1	0.27185538
6	0x3e950cca	0.2911132
7	0x3e9ca545	0.3059484
8	0x3e3a4f62	0.18194345
9	0x3e67609b	0.22595446
10	0x3e90f13c	0.28309047
11	0x3e6cca81	0.23124124
12	0x3e25cda5	0.16191728
13	0x3e93cd68	0.2886765
14	0x3ea04eb4	0.31310046
15	0x3e7574d7	0.23970352

net.model.convblock5.2.running_var f4 [16]
0	0x3e66908d	0.22516079
1	0x3eee348d	0.46524468
2	0x3e0f96b2	0.1402233
3	0x3f28e271	0.6597052
4	0x3dc9dd92	0.09856714
5	0x3e78c153	0.24292497
6	0x3ede60f9	0.4343336
7	0x3e89f00f	0.26940963
8	0x3db48244	0.08813909
9	0x3e4373f9	0.19087209
10	0x3e95682c	0.2918104
11	0x3e4a4a1f	0.19754837
12	0x3df13782	0.117781654
13	0x3e19eb15	0.15031083
14	0x3e45ca01	0.1931534
15	0x3e245f35	0.16051944

net.model.convblock6.0.weight f4 [16, 16, 3, 3]
0	0xbd5ef2db	-0.054430824
1	0xbd5b274c	-0.053504273
2	0xbcbf445b	-0.023348024
3	0x3b8b10fa	0.004243967
4	0xbdab31fd	-0.08359144
5	0xbbb71d51	-0.0055882116
6	0xbd66f0ad	-0.05638187
7	0x3bcf50af	0.006326757
8	0x3dca38bd	0.09874103
9	0x3beaf446	0.007170233
10	0xbd0d0f51	-0.034438435
11	0x3d8505ac	0.064952224
12	0xbd84f374	-0.064917475
13	0x3ce6fcb9	0.02819668
14	0x3d81ac28	0.06331664
15	0x3d65b97a	0.056085087
16	0x3d63d184	0.05561973
17	0xbc92beff	-0.01791334
18	0x3cccf498	0.025018975
19	0x3c73095c	0.014833774
20	0xbd68ffa9	-0.05688444
21	0x3d4892fb	0.048968296
22	0x3cfa7d04	0.03057719
23	0xbd0936b5	-0.03349944
24	0xbc5d26e5	-0.013498043
25	0xbd932fbb	-0.07186838
26	0x3c73257c	0.01484048
27	0xbd130485	-0.035892982
28	0xbdd1faf6	-0.10252945
29	0xbd585645	-0.052816648
30	0xb9d0f49f	-0.00039855108
31	0xbdc35e35	-0.09539453
32	0xbd8af826	-0.06785612
33	0x3c62da2b	0.013845961
34	0xbc42d4bb	-0.011891539
35	0x3d8834a5	0.06650666
36	0xbd576238	-0.052583903
37	0xbd97c7a6	-0.07411127
38	0xbd804405	-0.06262974
39	0xbc405e34	-0.01174121
40	0xbd04c740	-0.032416582
41	0xbd0b3c70	-0.033993185
42	0x3cbd71cd	0.023125554
43	0x3baf2afd	0.005345701
44	0x3ca0d4b0	0.019632667
45	0x3d3f6b8e	0.04673343
46	0xbc678701	-0.0141313085
47	0x3c7fbf2b	0.015609543
48	0xbc9b8fb3	-0.01898942
49	0xbb9111d5	-0.0044271746
50	0x3d7d8ee5	0.061903853
51	0xbe1bbe93	-0.15209417
52	0x3afe90ee	0.0019421855
53	0xbd07bd3e	-0.03313946
54	0x3c513f5c	0.012771454
55	0xbd3da0d8	-0.04629597
56	0x3d1c8ea0	0.038221955
57	0xbdb9cd1d	-0.090723254
58	0xbd78d2bb	-0.060747843
59	0xbbc8a559	-0.0061232266
60	0x3d57d83a	0.052696444
61	0x3d846d21	0.06466127
62	0x3d34031b	0.043948274
63	0xbcf48214	-0.029847182
64	0x3c11081f	0.008852034
65	0x3d0082c9	0.031374726
66	0xbdb1ff58	-0.08691281
67	0x3d0b0537	0.03394052
68	0xbd1ba92e	-0.03800314
69	0xbd781c6c	-0.06057398
70	0xbcee202b	-0.029068073
71	0x3d027489	0.031849418
72	0x3cc5d055	0.024147192
73	0x3d84819a	0.06470032
74	0x3d080b4b	0.033213895
75	0xbd1416b8	-0.03615448
76	0xbd18c840	-0.03730035
77	0x3c934efa	0.017981995
78	0x3cb93cab	0.022611937
79	0x3d186698	0.037207216
80	0xbd040ddc	-0.03223978
81	0xbc79d84b	-0.015249322
82	0xbc8f7a4e	-0.017514374
83	0xbda63aac	-0.081166595
84	0xbd2d575d	-0.042319644
85	0xbcbfe4b6	-0.023424488
86	0xbd94094c	-0.07228336
87	0xbddcf715	-0.10789315
88	0xbb75db82	-0.003751487
89	0xbd118bd6	-0.03553375
90	0x3d0c2894	0.034218386
91	0xbc48f5e3	-0.012265655
92	0x3c9f4fc5	0.019447217
93	0xbd3fb9b6	-0.046807967
94	0xbd935213	-0.07193389
95	0xbcc88cbd	-0.024481172
96	0x3c8f5617	0.017497106
97	0x3daeb315	0.08530251
98	0x3bf125a1	0.007359222
99	0xbd7433c5	-0.059619684
100	0x3daf2d51	0.08553565
101	0x3c4f22eb	0.012642602
102	0xbd8cb595	-0.068705715
103	0x3d8fd75c	0.070234984
104	0xbd11ad06	-0.0355654
105	0x3be313f6	0.0069298698
106	0xbc707982	-0.014677407
107	0xbd53a03b	-0.05166648
108	0xbd0db9d6	-0.034601055
109	0xbca14681	-0.01968694
110	0xbcc28cb1	-0.023748728
111	0xbd293809	-0.041313205
112	0xbdd255bc	-0.10270259
113	0xbde78357	-0.11304348
114	0xbdac70b2	-0.084199324
115	0xbd727be0	-0.059200168
116	0xbd78e208	-0.060762435
117	0xbd178d3c	-0.036999926
118	0x3c27201a	0.010200525
119	0xbab8d55a	-0.001410167
120	0xbc963950	-0.018337876
121	0x3a8721b3	0.0010309726
122	0x3c4785aa	0.012177864
123	0xbdb3031a	-0.08740826
124	0xbd005a6a	-0.031336226
125	0x3d1a8f08	0.03773406
126	0x3db2d584	0.08732131
127	0x3d756a5e	0.059915893
128	0x3d86ca3f	0.06581544
129	0xbc9c21dc	-0.019059114
130	0x3d2761ef	0.04086488
131	0x3d0c0a10	0.034189284
132	0xbd7c5e94	-0.061613634
133	0xbd42a273	-0.047518205
134	0x3d82ed10	0.06392872
135	0x3bdbfa55	0.0067131915
136	0xbcb23b5b	-0.021756819
137	0xbd575cb4	-0.052578643
138	0xbd3c8920	-0.04602921
139	0xba4e0eae	-0.0007860464
140	0xbdfe6c94	-0.124230534
141	0x3a5c9dce	0.0008415849
142	0xbd20cc3c	-0.039257273
143	0xbdcc1197	-0.099642925
144	0xbcb7369b	-0.022364905
145	0xbdd90fb5	-0.10598699
146	0xbcca011f	-0.024658738
147	0xbd010525	-0.031499047
148	0xbc9d9487	-0.019235862
149	0xbda91977	-0.0825681
150	0xbd05c200	-0.032655716
151	0xbcbdf38c	-0.023187421
152	0xbd63a700	-0.055579185
153	0x3c5d1df7	0.013495914
154	0x3da70ab1	0.08156336
155	0x3ce340bb	0.027740827
156	0x3cf9ebf5	0.03050802
157	0xbd0602c4	-0.03271748
158	0xbda832f0	-0.082128406
159	0x3b5e994b	0.0033965881
160	0xbb3f6738	-0.002920581
161	0x3cec63cd	0.028856182
162	0xbd807156	-0.06271617
163	0xbd5fadc2	-0.054609068
164	0xbd1a40c6	-0.03765943
165	0xbd3d2e5f	-0.0461868
166	0xbc2c196e	-0.01050411
167	0x3d8c423e	0.06848572
168	0xbc7e1dca	-0.015510032
169	0x3c74a496	0.0149318185
170	0x3b403dd6	0.0029333732
171	0xbd81b1ad	-0.06332717
172	0x3cafcee9	0.021460967
173	0x3aa20317	0.001236054
174	0xbdda5a86	-0.10661797
175	0x3d453040	0.048141718
176	0xbc9514be	-0.018198367
177	0xbdb438f8	-0.087999284
178	0xbd43c6b9	-0.04779694
179	0x3c666640	0.014062464
180	0xbd919ee2	-0.071103826
181	0xbd941bad	-0.07231841
182	0xbd24a645	-0.04019763
183	0xbd9023b4	-0.0703806
184	0x3bf4ea1f	0.0074741985
185	0x3b353099	0.0027647375
186	0x3d4f14c6	0.05055692
187	0x3da2fbb0	0.07958162
188	0x3dd90d33	0.10598221
189	0xbd091a6a	-0.033472456
190	0xbd0fa107	-0.035065677
191	0xbde56640	-0.11201143
192	0xbd92a3dd	-0.07160161
193	0xbd47e325	-0.048800606
194	0xbcaaacae	-0.020834293
195	0xbd5fd34c	-0.054644868
196	0xbcc35e61	-0.023848714
197	0x3d4ec176	0.050477467
198	0xbde66a22	-0.11250712
199	0xbd86bec6	-0.06579356
200	0x3c4d0c8d	0.012515199
201	0xbd6e3457	-0.058155384
202	0xbc8beacf	-0.017079739
203	0xbd9620e1	-0.0733049
204	0xbdd43593	-0.10361781
205	0x3c9318cf	0.017956166
206	0xbc7f3074	-0.015575517
207	0xbc9d0ac1	-0.019170167
208	0xbc7d29aa	-0.015451828
209	0xbd0cf0ca	-0.03440932
210	0xbd695404	-0.05696489
211	0xbcafdb81	-0.021466972
212	0xbd5c0143	-0.05371214
213	0x3ce93f3b	0.028472533
214	0x3c52ada2	0.01285878
215	0x3d074bf3	0.033031415
216	0xbd1b88c3	-0.037972223
217	0x3d23ed03	0.040020954
218	0xbd05c6ab	-0.032660168
219	0x3d52756f	0.051381525
220	0xbb6ad551	-0.0035832713
221	0x3db27973	0.08714571
222	0x3dc39f52	0.09551872
223	0xbaa284aa	-0.0012399156
224	0xbc0df97c	-0.008665439
225	0xbd58a916	-0.052895628
226	0xbd6fcdd7	-0.058545914
227	0xbd8f2e1b	-0.06991216
228	0xbbe17687	-0.0068805846
229	0x3d6d4ed5	0.05793651
230	0x3d92588c	0.07145795
231	0x3c6c21b3	0.014412331
232	0xbc8398b4	-0.016064025
233	0x3d32d100	0.04365635
234	0x3c9aa518	0.018877551
235	0x3cfd3bc6	0.030912291
236	0x3c91a5aa	0.01777919
237	0xbd7bd066	-0.06147804
238	0x3ce8e98b	0.028431674
239	0x3d4d40fb	0.0501108
240	0xbcff6c4c	-0.03117957
241	0xbd73d5e8	-0.05953017
242	0x3d656beb	0.05601112
243	0x3d4ed237	0.050493445
244	0xbd2fe30c	-0.04294114
245	0x3c96d005	0.018409738
246	0x3d283c1c	0.04107295
247	0xbd2ba76b	-0.04190771
248	0x3cef5cc4	0.029219039
249	0x3bf2dcee	0.007411591
250	0x3d8c46cd	0.06849442
251	0x3dab649f	0.08368801
252	0xbbeb244c	-0.007175958
253	0xbe05a5c7	-0.1305152
254	0xbdb3204b	-0.08746394
255	0x3d823340	0.063574314

net.model.convblock6.0.bias f4 [16]
0	0xbb7404b5	-0.003723425
1	0xbd4d2bcd	-0.0500906
2	0xbd79d0ff	-0.06099033
3	0x3d94ab40	0.07259226
4	0xbdaa19f5	-0.08305732
5	0xbd3d0166	-0.04614391
6	0xbd789fd2	-0.06069929
7	0xbc480b14	-0.0122096725
8	0x3d29a56d	0.041417528
9	0xbe48d7e9	-0.19613613
10	0xbde2bbc0	-0.11070967
11	0x3d93e384	0.072211295
12	0xbd3fcdbb	-0.04682706
13	0xbcc736fb	-0.024318209
14	0xbd811c86	-0.063042685
15	0xbdb709bf	-0.08937406

net.model.convblock6.2.weight f4 [16]
0	0x3f74728a	0.9548727
1	0x3f72f1e2	0.94900334
2	0x3f85d59c	1.0455813
3	0x3f7353b4	0.95049596
4	0x3f839f51	1.0282995
5	0x3f80d291	1.006426
6	0x3f84a183	1.036179
7	0x3f829e5b	1.0204576
8	0x3f6ee56f	0.9331884
9	0x3f8a1b92	1.0789664
10	0x3f84189e	1.0320013
11	0x3f6a4084	0.91504693
12	0x3f75831f	0.959032
13	0x3f7f8e6e	0.99826705
14	0x3f82b06e	1.0210092
15	0x3f8138dd	1.0095478

net.model.convblock6.2.bias f4 [16]
0	0xbd77b4d8	-0.0604752
1	0xbde1d7e0	-0.11027503
2	0xbe109c2b	-0.14122073
3	0x3da2e83c	0.079544514
4	0xbe42177e	-0.18954274
5	0xbd81a49e	-0.06330226
6	0xbe36f202	-0.17865756
7	0xbe340ec9	-0.17583765
8	0xbdbe4487	-0.09290414
9	0xbdf2780b	-0.11839303
10	0xbdd3a891	-0.10334886
11	0xbdb27e9d	-0.08715556
12	0xbe4f7e46	-0.20263013
13	0xbe3682c7	-0.17823325
14	0xbe31914b	-0.17340581
15	0xbd9d48b4	-0.07679883

net.model.convblock6.2.running_mean f4 [16]
0	0x3ebe273a	0.37139302
1	0x3e949241	0.29017833
2	0x3eb24cd7	0.3482425
3	0x3eb2136c	0.34780443
4	0x3e7e5d6e	0.24840328
5	0x3ea41f2a	0.32055026
6	0x3e3f63b3	0.18690376
7	0x3e4e2ea9	0.20134987
8	0x3ea75f4b	0.3268989
9	0x3e038509	0.12843718
10	0x3e8681d0	0.26270914
11	0x3ea85833	0.3287979
12	0x3e435570	0.1907556
13	0x3e72d7fe	0.23715207
14	0x3e607224	0.21918541
15	0x3e714a80	0.23563576

net.model.convblock6.2.running_var f4 [16]
0	0x3e1f24f6	0.15541443
1	0x3e141568	0.14461291
2	0x3ebac931	0.36481622
3	0x3e637332	0.22211912
4	0x3e2732dd	0.16327997
5	0x3e75361f	0.23946427
6	0x3e239bd6	0.15977415
7	0x3e2d30d5	0.16913159
8	0x3e84ab74	0.25912058
9	0x3d6dd8d2	0.058068104
10	0x3e24dbd4	0.16099483
11	0x3e16b594	0.14717704
12	0x3e4db959	0.20090236
13	0x3e31f000	0.17376709
14	0x3e667863	0.22506861
15	0x3e6550a4	0.22394043

net.model.convblock7.0.weight f4 [8, 16, 1, 1]
0	0x3c1ad6df	0.009450643
1	0xbdbac51b	-0.09119626
2	0xbc6e3ee6	-0.014541363
3	0x3e2e4e4f	0.1702206
4	0xbddc3ebb	-0.107541524
5	0x3e19cbef	0.150192
6	0xbe87d261	-0.26527694
7	0xbe4a4470	-0.1975267
8	0xbdf22534	-0.11823502
9	0xbdf797cc	-0.120895
10	0x3de79f7c	0.11309716
11	0x3e398e07	0.18120585
12	0xbcbfaf04	-0.023398884
13	0xbcca9cae	-0.024732914
14	0x3d2b925f	0.041887637
15	0xbc12420c	-0.00892688
16	0xbdffc8a9	-0.12489445
17	0x3da33868	0.07969743
18	0xbe16595c	-0.14682525
19	0xbd6d7131	-0.057969276
20	0x3e631618	0.22176397
21	0xbe8b80cd	-0.27246705
22	0xbd3792a6	-0.04481759
23	0x3d9f8fa1	0.07791067
24	0xbe1a67b6	-0.15078625
25	0x3de6e6f1	0.11274517
26	0xbdf90326	-0.12158804
27	0x3e24992e	0.16074058
28	0x3e307184	0.17230803
29	0xbd9354a0	-0.07193875
30	0x3bffa86c	0.00780206
31	0x3e215820	0.15756273
32	0x3e1f46b8	0.15554321
33	0xbdbf8bd0	-0.09352839
34	0x3c20b28d	0.009808195
35	0x3aa1e58a	0.0012351733
36	0xbe627ffe	-0.22119138
37	0x3d17a556	0.03702291
38	0xbe90b374	-0.28261912
39	0xbe178e6f	-0.14800428
40	0x3e7413b9	0.23835649
41	0x3dafbc5f	0.08580851
42	0x3e1b7e44	0.15184885
43	0x3d8a0a91	0.06740297
44	0xbe286e95	-0.16448434
45	0x3e307271	0.17231156
46	0xbd577df3	-0.05261035
47	0xbd1168c6	-0.03550031
48	0xbe5ec4e9	-0.21754803
49	0xbe2c70c8	-0.16839898
50	0xbe8b6aef	-0.2723002
51	0xbd2b263e	-0.041784517
52	0x3e073e45	0.13207348
53	0xbd826023	-0.06365993
54	0xbd8279f6	-0.063709185
55	0x3e3fa79e	0.18716285
56	0xbadfe715	-0.0017082418
57	0xbc3d33ee	-0.0115480255
58	0xbdcda95c	-0.10042068
59	0x3e4a21b7	0.19739424
60	0x3df13d05	0.11779217
61	0xbe7ccf79	-0.2468852
62	0x3e51f234	0.2050255
63	0xbb2c83e5	-0.0026323732
64	0xbe08f991	-0.13376452
65	0xbdd48805	-0.10377506
66	0xbd4c6f1d	-0.049910653
67	0x3e798139	0.24365701
68	0x3e8f6b99	0.28011778
69	0xbd568075	-0.0523686
70	0x3e4c849c	0.19972461
71	0xbd8dda2f	-0.06926381
72	0x3e008799	0.12551726
73	0x3e98cbaf	0.29842898
74	0xbe9c5ed5	-0.305411
75	0x3e247d57	0.16063438
76	0xbe5453b6	-0.20735058
77	0xbe241334	-0.1602295
78	0xbc281a03	-0.010260108
79	0x3e6a5626	0.22884426
80	0xbe264ad3	-0.1623948
81	0x3e6f3b17	0.23362385
82	0xbd2e0d24	-0.042493
83	0x3e5f0834	0.21780473
84	0xbe3f652f	-0.18690942
85	0x3d8be47b	0.068306886
86	0x3d977c01	0.07396699
87	0x3d5c0731	0.053717796
88	0x3cdfb0ba	0.02730595
89	0xbc564fc3	-0.01308054
90	0xbd3afba0	-0.045650125
91	0xbd9773e5	-0.07395152
92	0x3e02932e	0.12751457
93	0x3e1723c3	0.14759736
94	0x3e52c68c	0.20583552
95	0x3e8e248e	0.27762264
96	0x3da25d00	0.079278946
97	0x3e05b37a	0.13056746
98	0xbe71fd85	-0.23631866
99	0x3e170f1b	0.14751856
100	0xbddebf14	-0.10876289
101	0xbcaf1db2	-0.021376465
102	0xbe2453e3	-0.16047625
103	0xbea94f3e	-0.3306827
104	0xbd74aece	-0.05973702
105	0x3e010de6	0.12602958
106	0xbd6e9046	-0.05824306
107	0x3c3651df	0.011127918
108	0xbe0fed7e	-0.1405544
109	0xbd9a5d6e	-0.075373515
110	0xbe87a0a6	-0.26489753
111	0xbcf53fca	-0.029937644
112	0x3de82292	0.11334719
113	0xbe3ea5df	-0.18617962
114	0xbe478afb	-0.1948661
115	0xbda16c5f	-0.07881998
116	0x3ddcf9a1	0.107898004
117	0xbddb6355	-0.107123055
118	0x3db62092	0.08892931
119	0xbd2a4aa6	-0.041575097
120	0x3bf8d75e	0.007594033
121	0x3d503f46	0.050841592
122	0xbd67db54	-0.056605652
123	0xbe3904e3	-0.1806827
124	0x3d1ea655	0.038732845
125	0x3d06c18e	0.032899432
126	0xbdb6dda7	-0.089289956
127	0xbe0279b7	-0.12741743

net.model.convblock7.0.bias f4 [8]
0	0xbd7ac56b	-0.06122343
1	0x3e770aeb	0.24125259
2	0xbda72f7f	-0.08163356
3	0x3e3fe2a1	0.18738796
4	0x3db54318	0.08850688
5	0xbda194d7	-0.07889717
6	0x3da76619	0.081737705
7	0x3e9f9905	0.31171432

net.model.convblock7.2.weight f4 [8]
0	0x3f790c21	0.9728413
1	0x3f7223f0	0.94586086
2	0x3f7a59f7	0.97793525
3	0x3f7786ca	0.96690047
4	0x3f821bf6	1.0164783
5	0x3f8c0c8b	1.0941328
6	0x3f818073	1.0117325
7	0x3f76ec03	0.96453875

net.model.convblock7.2.bias f4 [8]
0	0xbd3c66f3	-0.045996618
1	0x3e2f28bf	0.17105387
2	0xbd8a103c	-0.06741378
3	0x3c0ecfb0	0.008716509
4	0x3d450abc	0.04810594
5	0xbc9f96fa	-0.01948117
6	0x3e2a4a6e	0.16629955
7	0xbe0bb666	-0.13643798

net.model.convblock7.2.running_mean f4 [8]
0	0x3eab1c45	0.33420005
1	0x3f0c0297	0.5469145
2	0x3ede74dd	0.43448535
3	0x3ed25148	0.41077638
4	0x3f1ee074	0.6206124
5	0x3efc1180	0.492321
6	0x3ed3ef2e	0.41393417
7	0x3e864698	0.26225734

net.model.convblock7.2.running_var f4 [8]
0	0x3e8deddc	0.27720535
1	0x3eff2b18	0.49837565
2	0x3ec7fdb0	0.39060736
3	0x3f00615c	0.5014856
4	0x3f49a612	0.7876903
5	0x3f2d45bb	0.67684525
6	0x3e6d5ede	0.2318072
7	0x3ddbe01c	0.10736105
