output/csv/version_0/checkpoints/epoch=4-step=275-v2.ckpt (torch, 179611 bytes, 152 tensors)

net.convblock1.0.weight f4 [10, 1, 3, 3]
00000000: 0679 aa3d 600d 873e b9a5 573d f7e0 b23d
00000010: a72f e23d 06c3 62be 1379 1f3e c8bf c73d
00000020: a344 a03e 6fa2 bebc 39d0 2c3e 1eb8 55be
00000030: fdd4 f53d 66de 023d 5d7b 293e 2929 d9bc
00000040: e4c8 f03c c950 953e 27ff 17be bc6c ac3d
00000050: 7c7b 3f3e 17a4 7d3e 055c 083e 715f 623e
00000060: f235 a43e 17ca 673d caf0 203e 0f54 b23e
00000070: 445b abbd ee09 f03d 2528 08be 3f67 913e
00000080: b546 b13d be88 a9be b467 35be 0074 26be
00000090: 31c8 9dbc ffdd 4c3e 8f9b d3bd ef44 efbd
000000a0: fb44 2e3e ae8b 01be cc04 c63d 14a5 1b3e
000000b0: cc14 febd e8dc a13e 6852 523e aebe d13d
000000c0: a433 97bb 848e 80bd fa8d 423e 1698 efbd
000000d0: acad 7f3e 19c6 fa3b 1abf a8bd 8ad4 19bd
000000e0: bc55 85be 7015 e2bd bbe6 6cbe ad6d 7dbe
000000f0: 8d7a 3a3e 21b0 883e 0568 e03b c85b 58be
00000100: f1c3 a8be 1999 833e c19b 23bc f654 10bd
00000110: 48b3 8e3e 3181 82be 4dca cc3d 541b 8d3e
00000120: 4bb7 8ebe d684 833e 9b48 69be e89f fa3d
00000130: db41 6ebe b507 e63d fce2 d93d b571 1b3d
00000140: de20 46be 4bf0 31be c4b6 3c3e e52e 37be
00000150: eae0 86be e3b0 a7bc d0ca 0dbd 6d57 b8be
00000160: 28c8 373e 97ac a1be
0.08323865 0.26377392 0.05264828 0.08734315 0.11044245 -0.22144708 0.1557353 0.09753376
0.31302366 -0.023270814 0.16876306 -0.20871016 0.12003515 0.031950377 0.16550966 -0.026508885
0.029392667 0.29163197 -0.14843427 0.08419177 0.1869945 0.24769627 0.13316353 0.2210672
0.32072407 0.056589212 0.15716854 0.34829757 -0.08367017 0.11720644 -0.13296564 0.28399083
0.086560644 -0.33112139 -0.17715341 -0.16255188 -0.019260498 0.2000656 -0.10332405 -0.1168307
0.17018501 -0.1265094 0.09668884 0.15199691 -0.124063104 0.3161385 0.20539248 0.102414474
-0.0046143103 -0.06277183 0.18999472 -0.1169893 0.24968594 0.0076530096 -0.08239575 -0.03755621
-0.26041973 -0.11039245 -0.23134892 -0.24748869 0.18210812 0.26696876 0.0068483376 -0.21128762
-0.3296199 0.25702742 -0.009985865 -0.035237275 0.27871156 -0.2548919 0.09999523 0.27559912
-0.27874216 0.25687283 -0.22781603 0.12237531 -0.2326731 0.11231939 0.10638997 0.037950236
-0.19348475 -0.1737682 0.18429095 -0.17888983 -0.2634347 -0.020470088 -0.034617245 -0.360042
0.17947447 -0.31576988

net.convblock1.0.bias f4 [10]
00000000: d48b 98be b641 4a3e 9b29 ae3e e277 97be
00000010: 2e59 fbbd b855 5bbd 0c27 863e 713e 2b3e
00000020: db83 2cbe 4114 703d
-0.2979418 0.19751629 0.34016117 -0.2958365 -0.12272869 -0.053548545 0.26201665 0.16723038
-0.16847174 0.058613066

net.convblock1.2.weight f4 [10]
00000000: 9cc7 773f b0ef 863f 1297 813f e9bf 863f
00000010: c926 853f dd88 723f b712 7d3f f7c9 753f
00000020: ac02 7c3f 19db 843f
0.96788955 1.0541897 1.0124228 1.0527316 1.0402461 0.94740087 0.9885668 0.960113
0.98441577 1.0379363

net.convblock1.2.bias f4 [10]
00000000: 26ae 37bc 1569 19bd f703 56bd ec56 bcbb
00000010: df7d 983b f362 f53a fcd7 22bd 7895 ee3b
00000020: 293c 2a3b 7589 943c
-0.011210954 -0.03745373 -0.052249875 -0.0057476666 0.004653677 0.0018721506 -0.03975676 0.0072810017
0.00259758 0.01813195

net.convblock2.0.weight f4 [16, 10, 3, 3]
00000000: b676 75bd d00f debc 3b47 d2bd 24dd 08bd
00000010: 09e5 a4ba 3096 8fbd c66d 0b3e a51a 493d
00000020: aa2e 413c fc6e 8d3b 4b2d 1a3d 81c2 e7bd
00000030: a812 583c 0d13 b0bd bfdb cdbd 6547 473d
00000040: 0ac5 fa3d 2934 843d 453b d9bc 29a8 84bd
00000050: c680 9c3c 3095 78bd f81a 303d b5da 673d
00000060: 964c 533d 6850 5abd 8adc 113d b46e 1f3d
00000070: 9d79 493d d2af c5bc 9177 db3c 9c9d 9d3d
00000080: ded7 91bd b7bd b03c 57b9 fa3d 96fc 19bd
00000090: 7b3e d2bd 5ab9 3ebd 9c9b 83bd 679f 443c
000000a0: 3ce4 593d 094e 323d a453 34bc be7b 3bbd
000000b0: 625c 7cbd 5aa1 9b3c 835b e1bd 0153 5c3d
000000c0: 88d0 87bd 893f 873d abd2 9f3c 1f98 dd3d
000000d0: 514d b0bd 9776 65bd 2917 b73d f31b d0bc
000000e0: 66b5 823d 7ede 9e3c 86af 8a3c 217e 3b3d
000000f0: 5080 c53c b315 2e3d b2b1 b33d b104 8abd
00000100: 848e 63bd 93df 7ebc 115e de3c 5f55 a1bc
00000110: 5c52 0cbc 353b 3a3d 4b18 43bd f25a 5b3d
00000120: dbb0 6abd 076e 13bd 15e1 233c c6b7 963d
00000130: 8464 fcbb 4aa8 753d 0eea 02bb fdff e33d
00000140: 0ab8 a0bd ba4a 9cbc 0d5d 58bc 5857 c03d
00000150: a076 393d ffce a3bd 6b84 563d 8a83 153d
00000160: 506c 0cbe 15b8 e4bd 581b 2d3d 13dc 4c3d
00000170: a7e4 3fbd 919b ba3d d0d9 993d cfe1 0c3d
00000180: 9e46 a53d b076 bbbd c04f 7bbd 6fdc 023e
00000190: 6579 a33d 635e 70bc e5b5 b43c ff15 a4bb
000001a0: 92a3 98bd 3deb 2d3d 970c f13c c6b7 2fbe
000001b0: 5060 a3bb 9562 3abd 05fb 923c 5486 ab3d
000001c0: 1fad 10bc a290 c3bd c6d9 3b3c d768 99bb
000001d0: 4066 06be 5bce 733c 8a2e f3bd 7bf9 73bd
000001e0: cf77 d6bd ae8a 15bd 0af6 82bd aae0 63bd
000001f0: b0c2 3abe 4d62 b4bd 9a09 cd3b 748f ea3c
00000200: 3fde a93d de9d 073e 0cbb 143e 5634 dabc
00000210: 3591 2a3e a7f9 943d 9813 4f3d a2ad 153d
00000220: 38d1 0f3d 9b2c 443c 1cd0 cabc 2144 52bd
00000230: 8763 bfbd 2cc6 47bd 1eb8 2d3d e3ff 01be
00000240: 31bc 21bd fdf4 89bd fd93 ec3c c742 08be
00000250: 6077 113d 1ac9 ff3c d13a b9bd 7f92 87bd
00000260: 410f bcbb 5958 7dbd 2b1f 9dbd 7e42 d4bc
00000270: 9a41 81b8 1e19 d43c b35f 8dbc 925f 75bd
00000280: b54e 243d d81d f83c 8af7 a83d f9d7 8abd
00000290: 8914 d9bc 3a60 49bd a98e 9fbd 5d29 b6bc
000002a0: 2065 8c3c 1d13 8dbc fd7b a1bd 5fc2 663d
000002b0: 5f05 1dbd 76f4 89bd 98c3 a3bd fc42 a03c
000002c0: db50 ac3d d4c8 e23c 8b26 103d 006a 18bd
000002d0: f23e c5bd 9cc1 963d f162 64bd f84c 64bc
000002e0: 4ac5 8bbd 0731 e6bc b4b0 a53c e715 a3bb
000002f0: 5893 9d3c 7a76 8dbc face 27bd 236b 4abd
00000300: 9343 76bc 91f7 683d 87da f23d 0707 9dbd
00000310: 42c2 17bd a86f dc3d c00a e3bd 0db6 893c
00000320: f9ab a3bb 3697 5abc 8ed1 41bd 0472 e53d
00000330: 9cbe 7d3d dff6 d03a b698 14bd 0047 6ebd
00000340: 11bb 60bd bcf1 ebbd b945 2c3d 7103 2fbd
00000350: 2896 02be 6bfa 60bc dcb3 c5bd 62e7 e4bd
00000360: 39d6 d6bb 562f ca3c 8c55 003e 74cf 37bd
00000370: b55f 283a 5082 803d 3b54 14bd d1e6 bb3c
00000380: a9e9 80bd 4e68 6bbd cf75 4e3d 7b36 50bd
00000390: 0f88 00bd be84 0b3d 4e7f 953d e2ff 73bd
000003a0: 0ce7 20bd 173d 943d 1817 30bd 1ea1 9fbc
000003b0: 3a39 f33c 9572 f13c dea0 1bbd dfe1 0cbe
000003c0: 67e3 99bc 7662 083d 4836 d2bd bba6 dcbc
000003d0: 7a6a 21bd 65b5 b0bd 985b ae3c 13c7 db3d
000003e0: d900 ad3d 4ac4 af3c c91c a1bc 8504 bb3d
000003f0: cee7 7f3c 3508 b7bc 524a 94bd b37d 243d
-0.059927665 -0.02710715 -0.102674924 -0.03341402 -0.0012580465 -0.07011068 0.13616094 0.049097676
0.011790911 0.004316209 0.03764085 -0.113163956 0.013188042 -0.08597384 -0.10051679 0.04865207
0.122446135 0.06455261 -0.02651752 -0.064773865 0.019104373 -0.06068915 0.04299447 0.05660506
0.05158671 -0.053299338 0.035610713 0.038923934 0.049188245 -0.02413169 0.026790412 0.07696077
-0.071212515 0.021574838 0.12242382 -0.0375944 -0.102658235 -0.046563484 -0.064261645 0.012000895
0.053196177 0.04353145 -0.01100627 -0.045772307 -0.06161154 0.018997837 -0.110037826 0.053790096
-0.06631571 0.06603915 0.019509634 0.108200304 -0.08608497 -0.0560213 0.08939964 -0.025403952
0.06382255 0.019393202 0.0169294 0.045774583 0.024109036 0.042501163 0.08774127 -0.06739176
-0.055555835 -0.015556234 0.027144464 -0.019694028 -0.008564558 0.04546662 -0.04763059 0.05355353
-0.05729757 -0.035993602 0.010002394 0.07359271 -0.007702412 0.059974946 -0.0019975933 0.1113281
-0.07847603 -0.019078601 -0.013205779 0.093916595 0.045279145 -0.07998466 0.052372377 0.0365024
-0.13713193 -0.11167923 0.042262405 0.050014567 -0.04684892 0.09111703 0.075122476 0.034395035
0.0807011 -0.09153497 -0.061355352 0.12779401 0.079821385 -0.014670941 0.02205939 -0.005007505
-0.074530736 0.04246067 0.029424949 -0.17159948 -0.0049858466 -0.04550417 0.017941961 0.083752304
-0.008830338 -0.09549071 0.011465495 -0.0046816873 -0.13124943 0.014880742 -0.11874111 -0.059564095
-0.104720704 -0.03650921 -0.063945845 -0.05563418 -0.1823833 -0.08807812 0.006257248 0.028632857
0.08294343 0.13243815 0.14524478 -0.026636284 0.16656955 0.0727418 0.050555795 0.036542542
0.035111636 0.011973525 -0.024757437 -0.051334504 -0.09345155 -0.048772976 0.042411916 -0.1269527
-0.039486114 -0.06736181 0.02887916 -0.13306724 0.035514235 0.031223822 -0.090444215 -0.06619739
-0.005739123 -0.061851833 -0.076719604 -0.025910612 -6.1634186e-05 0.025890883 -0.017257547 -0.059905596
0.040114123 0.030287668 0.08250339 -0.06779475 -0.02649905 -0.049164034 -0.07790882 -0.02223652
0.017138064 -0.017221028 -0.07884977 0.05633771 -0.0383352 -0.0673608 -0.07996291 0.01956319
0.084138595 0.027683653 0.035193007 -0.037210464 -0.096311465 0.07361147 -0.05575842 -0.013934366
-0.06824739 -0.02809955 0.02022586 -0.004976976 0.019235298 -0.017268408 -0.040968873 -0.04941858
-0.015030759 0.056876723 0.11858087 -0.07667356 -0.037050493 0.10763484 -0.11086035 0.016810441
-0.004994866 -0.013341716 -0.047318988 0.112033874 0.061949357 0.0015942714 -0.03627845 -0.05817318
-0.0548659 -0.115207165 0.04205868 -0.04272789 -0.12752593 -0.013731579 -0.09653446 -0.11176945
-0.006556299 0.024680775 0.12532634 -0.044875577 0.0006422953 0.06274855 -0.03621314 0.02293721
-0.06294567 -0.05747252 0.05040532 -0.050833207 -0.031379756 0.03406214 0.07299672 -0.0595702
-0.039282843 0.072382145 -0.042990774 -0.019486006 0.029690374 0.029473582 -0.03799521 -0.13758038
-0.018785192 0.033297025 -0.102642596 -0.026934972 -0.039408185 -0.08628348 0.02128391 0.1073133
0.08447427 0.021455903 -0.019667046 0.091317214 0.015619231 -0.02234278 -0.07240738 0.04015894

net.convblock2.0.bias f4 [16]
00000000: c542 d8bc c13b dabd e232 423d 0b7c 61bc
00000010: 7476 323d efca 9d3d ac33 c13c ac6c c43b
00000020: 6347 c63d 5ea4 bb3d 8315 ca3d 4e0e 183d
00000030: c05b a43c 9c23 803d 1d7a e8bd b75a 023d
-0.026399026 -0.106559284 0.047411807 -0.013762484 0.043569997 0.07704722 0.02358421 0.0059944
0.09681585 0.0916221 0.09867384 0.037123017 0.020063281 0.06256792 -0.11351416 0.031824794

net.convblock2.2.weight f4 [16]
00000000: 4f82 803f 528e 853f e170 833f c8e9 803f
00000010: 464e 843f 87d4 7b3f 57f2 7d3f d8d1 7a3f
00000020: 007a 813f 2ae9 833f a0d8 773f 130f 773f
00000030: 2531 7d3f 6b4b 803f 9ff3 803f 2095 873f
1.0039767 1.0434058 1.0268823 1.0071344 1.0336387 0.98371166 0.99197906 0.97976446
1.0115356 1.0305531 0.9681492 0.96507376 0.98903114 1.0023016 1.0074347 1.0592384

net.convblock2.2.bias f4 [16]
00000000: 9107 c4bc d798 09bd e7f9 34bb edf1 f3bc
00000010: 57b6 87bd d530 bc3c e7ff 05bd dd17 e7bc
00000020: 2ec2 c2bc 008e 3dbd d23b 633d 77f1 453d
00000030: be98 323c eca4 b3bc ff8b 11bc 3f62 42bd
-0.02392939 -0.033593025 -0.0027614774 -0.029778445 -0.066265754 0.022972504 -0.03271475 -0.028209621
-0.023774233 -0.046278 0.05547697 0.048325982 0.010900674 -0.021929227 -0.008883475 -0.047456976

net.convblock3.0.weight f4 [8, 16, 1, 1]
00000000: 0fc2 64be 535e a13d f755 893e a1d7 e33d
00000010: 81cd 3dbe 0df9 3abe 24d3 8cbd aca8 123e
00000020: 4bbe 96bd e1e1 173e 99d1 a03d 6102 d63c
00000030: dcda 673e 7cad 7d3e ca61 293d 3c92 75be
00000040: 2c38 af3d 4ad1 d4bd d736 853d 63c2 1ebe
00000050: 04a8 ca3d d6bf 0b3e 805f 083e 7adc 013e
00000060: a961 7c3e 0093 86be e81a d8bd 9d9a 20be
00000070: 7dbb 27be 0681 023e 769f ec3d ff96 23bd
00000080: dca1 bc3c 9060 a43d 1cb7 f6bc fb30 cbbd
00000090: f93a e0bd 63b1 603e bd72 653e 80ad 0f3c
000000a0: 5bfe 96be 8808 3bbe 7276 bbbd 845d 3ebc
000000b0: c82b afbd f3ee b53d 8101 b83b 511c 3d3e
000000c0: 6234 f33a 5140 12be 7e2e 4c3d 9ff1 b2bd
000000d0: 3af2 22be 209a 8b3d a963 46be 0bfc 00bd
000000e0: fdd3 bc3d 6dc3 23be f90e 4b3e 9876 6e3e
000000f0: e973 8a3d 34ef cabd 09bb 5cbe a4df 55be
00000100: 0f2a 85be a382 953d ba5a 22be 67cc bc3c
00000110: 41dc 9e3d fb5c 5a3e 4494 223d c073 21be
00000120: c07a c63d 8992 713e 624e f13c 26f0 013e
00000130: 0873 513e aac0 46be 9191 023e 1a22 c1bd
00000140: 3100 763d 3ec1 4c3d 1227 9b3e b9a8 01be
00000150: 2790 cebd 22cb 853e d225 bdbc d65d 4b3e
00000160: 4ef1 0abe 42e7 79be 8db1 053e 1e7a 32bd
00000170: 10cf 0b3e a965 22be 143d 21be c255 0fbc
00000180: 7126 523e 4aca 87be 07c3 95bc fbff 013e
00000190: 33b3 62bc 78fd c9bd ab8f 083d 1753 003e
000001a0: a115 2bbd aac2 453e 7c41 6b3c ffec 8ebd
000001b0: 3b67 8dbb b13c 4f3d 7d73 fbbd 43a4 833e
000001c0: 17be 1b3e 4cda 493e 6312 3a3e 1b0e 473e
000001d0: b23c 99be 3d72 ca3c a905 763e 4021 443e
000001e0: 7cda 52be cffc 9a3c e2a9 5b3c 8c4f 393e
000001f0: a4af f9bb ce8c adbd 1891 07be 2c11 7cbc
-0.22339652 0.07879319 0.26823398 0.11125112 -0.18535425 -0.18259068 -0.068762094 0.14322156
-0.07360514 0.1483226 0.078524776 0.026124181 0.22642082 0.2477321 0.041353025 -0.23981565
0.08555636 -0.10391481 0.065046005 -0.1550384 0.09895328 0.13647398 0.1331768 0.12681761
0.2464663 -0.26284027 -0.10552007 -0.1568398 -0.16380115 0.12744531 0.11553852 -0.039938923
0.0230264 0.0802623 -0.03011661 -0.09921452 -0.10948748 0.21942668 0.2240705 0.008769393
-0.29490933 -0.18264973 -0.09153451 -0.011618976 -0.085532725 0.088834666 0.0056154137 0.18467833
0.001855504 -0.14282347 0.049849026 -0.08737492 -0.15912715 0.068165064 -0.19373955 -0.031490367
0.09220121 -0.15992518 0.1982993 0.23287427 0.06760389 -0.099089056 -0.21555723 -0.20886093
-0.2600865 0.073003076 -0.15854922 0.023046685 0.07756854 0.21324532 0.03969218 -0.15766811
0.096913815 0.23591055 0.029456321 0.12689266 0.20454037 -0.19409433 0.12750842 -0.094303325
0.060058776 0.049988978 0.30303246 -0.12662019 -0.10086089 0.2613154 -0.023089323 0.19860014
-0.13568613 -0.24404624 0.13056011 -0.04357349 0.13653207 -0.15859093 -0.15745956 -0.008748474
0.20522477 -0.26521522 -0.018281473 0.12695305 -0.01383667 -0.098627985 0.033340137 0.12531696
-0.041768674 0.1931254 0.014358874 -0.06978797 -0.0043152845 0.05059499 -0.12277887 0.2571126
0.15209232 0.1971218 0.18171076 0.19438975 -0.2992912 0.024712676 0.24025597 0.19153309
-0.20591158 0.018919377 0.013407202 0.18096751 -0.007619815 -0.08474122 -0.13238943 -0.0153849535

net.convblock3.0.bias f4 [8]
00000000: 61e5 9dbd c5a7 803e 4cbf c6bd c7bf 1dbe
00000010: e11c 17bd 6330 32be 1f64 923c 4ba5 6ebd
-0.07709766 0.25127998 -0.09704456 -0.15405189 -0.036892775 -0.1740127 0.017870007 -0.058263104

net.convblock3.2.weight f4 [8]
00000000: 992e 763f dc90 763f 82de 743f 4656 843f
00000010: 3d33 843f 42a6 803f 653b 803f 40c3 7f3f
0.9616485 0.9631479 0.9565202 1.0338829 1.0328137 1.0050738 1.0018126 0.999073

net.convblock3.2.bias f4 [8]
00000000: fdc0 863c 3eba c83c a9c0 023d a089 fcbc
00000010: 0ef2 40bc 69b9 033d 56e5 bcbc dabf efbc
0.016449446 0.02450287 0.031922016 -0.030827343 -0.01177646 0.032159243 -0.023058575 -0.029266287

net.convblock4.0.weight f4 [16, 8, 3, 3]
00000000: f396 28bd 37d6 3ebc 1534 7cbd 537b 4a3d
00000010: 8693 263d c143 eb3d 7d64 03bd 4100 8a3c
00000020: 69c3 3f3d 6b43 13bd a004 6fbd 58f3 a7bd
00000030: 082e c0bc 6ad6 2b3c 703c ae3d 67a8 68bd
00000040: 161f 083d e9d0 853d d5b8 d2bb bc22 af3d
00000050: 19be 4e3c da7f 0cbe b17f 293d c15f aaba
00000060: 948d 173d 9f20 833d 29cc 9a3b c98a 893b
00000070: 9e09 30bc 6dfd 4e3a 0020 703d 633d eb3d
00000080: 62fa b93d 4b1c 0fbd c4e6 93bd 2f33 ce3c
00000090: 3392 11bd 2240 97bd 3d96 b1ba c6ac a93d
000000a0: a390 07bd f9b2 0b3d 140f fabc fc55 663d
000000b0: a562 fc3c 3e7b 923d ef19 c3bc 0ac3 4fbd
000000c0: 8470 ce3d 9477 c63d 2743 913d f7c4 2dbd
000000d0: 0726 db3c a037 a33d d8e0 d13d 4826 26bd
000000e0: 69bb 083e 0bce 1ebd 2b63 36bd d251 a73d
000000f0: fa71 a53d 11e1 71bd 411c 993d 3220 9abd
00000100: 138c 5ebd 9956 04bd 4edb bd3d 8f1d 2abb
00000110: 7654 1fbd 6468 f93d 3f51 1fba c919 a83d
00000120: 925a ddbc d886 143d 4b0f d13d 091a 3a3d
00000130: 880f 74bd 2bc3 81bb 2448 a1bd 4803 ab3d
00000140: 4756 93bd fa2a f43b 6b42 b3bd d22d 4abd
00000150: e955 1bbd 4192 85bc b0b4 59bd 7848 0f3e
00000160: f3cd ad3d d204 a53d d2b6 a93d 78d6 3a3d
00000170: acaf 67bd 37e3 8ebd 898f 3ebd 547a 623d
00000180: 4607 1e3c 96bb 623c 0bed 893d 8618 aa3d
00000190: 851f 4e3d f07c 333d f1f6 a63c c450 643d
000001a0: 0408 0e3e 6bb7 e0bd a779 b3bc 5d19 78bd
000001b0: df16 023e ecec 5b3d b1a2 553d 4ea5 08be
000001c0: ff19 62bc 1471 86bc 7d6a 553d 7d99 7f3d
000001d0: ffec 82bd 2b92 643d 7c3b e3bc 5e00 2fbd
000001e0: 74d2 b2bc ce4a c43d d1d3 a13d d199 19bd
000001f0: 0f2c d73b 9e6d 9abd d99b 53bc 5f7c f93d
00000200: ab3c 02be bca4 863b e903 a13b 45f2 c5bd
00000210: f139 0e3d 3709 aa3d 8d69 b63b 246f ab3c
00000220: 21b4 0b3d 8953 93bd e0ff 3cbc b37f 9e3d
00000230: f8b5 4bbd 828f e63d 8b68 c73d afe7 91bd
00000240: c843 8fbd cb3b 773d 1626 0a3e 9696 b0bd
00000250: a628 c63d 897f e93b 8bac 9b38 4a62 983c
00000260: 4344 f4bd 9237 d5bc f7b4 3ebd acdb c53d
00000270: e167 a53d 04f1 9b3d 3463 4abd 5e6a 46bd
00000280: 4814 b539 b4fd babd 0f58 b3bd 797d a53d
00000290: 4456 01bd d35e fdbd a7ba 3f3d 178b ba3d
000002a0: 88a3 813c ccaa 473d bba0 7e3d a81a b53d
000002b0: 1c1c ad3d f8ae 03be 807c bc3d f186 28bd
000002c0: 2f3b a73d 2081 af3d 8dd0 603d d171 24bc
000002d0: 5695 24bd fd6b b3bc 4b94 0d3e 6dc9 a3bd
000002e0: 20cb 8abd ad77 c33b a806 af3c 97ac 603d
000002f0: bd97 86bd 813b 023e 361d 17b9 48a3 833c
00000300: 27a7 943c e514 3a3d 5909 14be a456 05bc
00000310: c6ea ea3c 1140 1cbe f0b6 8dbd a507 f73c
00000320: 077c 973d 4091 4cbd 169a 8dbd 607a e03c
00000330: 7fdf 73bc 012c 90bd 9a5c 69bd d766 c9bd
00000340: 55e6 38bb db72 7f3d e6bb 0cbd fa78 8fbd
00000350: 538b 81bc c865 02be 1a1d 6d3d 020d e83d
00000360: 5cc8 56bd 9788 c4bc e281 0d3e 665e 0abd
00000370: b8d2 a5bd e269 4cbe cb3d 22bc 58c1 283d
00000380: fe9b 9e3b 90f0 64bd b183 643d ab9c 383d
00000390: a6c8 9f3b 4211 d33d 9e53 43bd 69e2 8f3c
000003a0: 2aca f5bc 69a1 3a3c f764 c23d 2340 a4bd
000003b0: 1b05 62bd 6217 003e ea6f f7bc bac9 553c
000003c0: ae84 babd 5ff3 933d 4623 a3bd 7a3a d1bc
000003d0: e655 813d 449f 10be f820 a53d 8a1f c53c
000003e0: 6d1d 1a3d 487c 54bd 2218 033c 9f4b fe3a
000003f0: 8fb2 6bbd 6811 f53d 187b 0d3d 5135 f1bd
-0.04115958 -0.0116477525 -0.061573107 0.049434017 0.040668033 0.114875324 -0.032078255 0.016845824
0.046817217 -0.035952967 -0.05835402 -0.08200711 -0.02345945 0.010488132 0.08507621 -0.056801226
0.03323277 0.06533987 -0.006430725 0.08551547 0.012618565 -0.13720647 0.04138154 -0.0012998508
0.037000254 0.06402706 0.004724045 0.0041974527 -0.01074448 0.000789604 0.058624268 0.11486318
0.0908096 -0.03493909 -0.072217494 0.02517089 -0.035539817 -0.07385279 -0.0013548803 0.08284907
-0.03309692 0.03410623 -0.030524768 0.056234345 0.030808756 0.07152413 -0.023816077 -0.050723113
0.100800544 0.096907765 0.070928864 -0.04242417 0.026751531 0.07969594 0.10247964 -0.04056385
0.13352741 -0.038770717 -0.044528168 0.08169903 0.0807838 -0.05905253 0.07476092 -0.07525672
-0.054332804 -0.03230915 0.09270345 -0.002595756 -0.038898908 0.12178114 -0.0006077475 0.08208043
-0.027020726 0.03626141 0.10207995 0.045434985 -0.059585124 -0.0039600334 -0.07875088 0.08350235
-0.071941905 0.0074514123 -0.087529026 -0.049360104 -0.037923727 -0.01630509 -0.053150833 0.13992488
0.08486547 0.0805756 0.08286823 0.04561469 -0.056564018 -0.069769315 -0.046523605 0.055292442
0.009645289 0.013838669 0.067346655 0.08305459 0.050323028 0.04382032 0.020381423 0.055741087
0.13870245 -0.10972484 -0.021908594 -0.060571063 0.12704037 0.053692743 0.052157108 -0.13344309
-0.013800143 -0.016411342 0.05210351 0.062402237 -0.0639286 0.05580346 -0.027738325 -0.04272496
-0.021828867 0.0958458 0.07901729 -0.037500206 0.0065665315 -0.07540439 -0.012915575 0.12181925
-0.12718455 0.0041089933 0.004913796 -0.0966535 0.034723226 0.08302539 0.005566782 0.02092702
0.03410733 -0.071936674 -0.011535615 0.077392004 -0.049734086 0.11257841 0.09736737 -0.07124268
-0.0699535 0.060359757 0.13491091 -0.08622472 0.09675722 0.007125799 7.4231146e-05 0.018601555
-0.119270824 -0.026027475 -0.0465593 0.0966104 0.08076454 0.076143295 -0.049411014 -0.048441283
0.0003453812 -0.09130421 -0.0875703 0.08080573 -0.03157641 -0.12371602 0.046808865 0.091085605
0.015825048 0.04874687 0.062165003 0.08842975 0.08452627 -0.12859714 0.09203434 -0.041144315
0.08165585 0.085695505 0.05488639 -0.010036902 -0.04018148 -0.021902079 0.138261 -0.07997403
-0.06777024 0.005965194 0.021365479 0.054852095 -0.065719105 0.12718011 -0.00014411364 0.01606907
0.01814611 0.045430083 -0.14456691 -0.0081383325 0.028676402 -0.15258814 -0.06919658 0.030155012
0.07396703 -0.04994321 -0.06914155 0.027402103 -0.014884829 -0.07039643 -0.056973077 -0.09834068
-0.002821346 0.062365394 -0.03435888 -0.07005496 -0.015813505 -0.12734139 0.05788908 0.11330606
-0.05243717 -0.023990912 0.13819078 -0.03378143 -0.08096832 -0.19962266 -0.009902428 0.041200012
0.004840373 -0.05589348 0.055789653 0.045071285 0.004876214 0.10306026 -0.047687165 0.017564015
-0.030003626 0.011391022 0.09491914 -0.080200456 -0.05518065 0.1250892 -0.030204732 0.013048584
-0.09107338 0.07224154 -0.07965712 -0.02554058 0.06315212 -0.14123255 0.08062929 0.02406289
0.03762572 -0.051876336 0.008001359 0.0019401199 -0.057543334 0.119662106 0.03454122 -0.117777474

net.convblock4.0.bias f4 [16]
00000000: e26d e13d 120b 66bd 00eb 34bd 7a54 993d
00000010: e7d7 d7bd 9bb1 a23c 2663 273d b9e5 373d
00000020: 0706 3ebd 3ad9 a33c e1d1 8739 7f7f 1ebd
00000030: 1006 52bd 4bc8 ad3d ad46 f0bd 6217 003b
0.110072866 -0.0561629 -0.044169426 0.07486816 -0.10539227 0.01986008 0.04086604 0.044896815
-0.046392467 0.020001043 0.00025905579 -0.03869581 -0.051275313 0.084854685 -0.1173223 0.0019545187

net.convblock4.2.weight f4 [16]
00000000: 49fb 7c3f 464c 7b3f b90c 7e3f 2090 883f
00000010: a542 813f 0fc3 873f ce31 783f 216e 843f
00000020: f420 823f 382b 7f3f f23f 853f 150c 723f
00000030: 8596 7f3f 3801 803f c15e 703f d21f 843f
0.9882093 0.9816326 0.99238163 1.0668983 1.0098463 1.0606402 0.96950996 1.0346109
1.0166306 0.9967532 1.041014 0.94549686 0.9983905 1.0000372 0.93894583 1.0322211

net.convblock4.2.bias f4 [16]
00000000: ef46 91bc 3087 c03a c3c1 2d3c 758a 77bc
00000010: 5d17 25bd 090a b8bc 17ff 0a3b 3ed8 763c
00000020: 58ec 4e3c 426b c33c e09c bfbc 9c2f dc3c
00000030: 0fbf 17bc cf54 63bc fefa babc f9b6 ebb7
-0.01773402 0.0014688727 0.010605278 -0.015108694 -0.040305484 -0.022465723 0.0021209174 0.015066205
0.012629591 0.023854855 -0.023390234 0.02687817 -0.0092618605 -0.0138752 -0.02282476 -2.8099386e-05

net.convblock5.0.weight f4 [16, 16, 3, 3]
00000000: f324 2bbd f715 4d3d 97b7 803c 4db4 2b3d
00000010: 9d32 09bc b535 dc3c c1bd 9bbd a18c 8f3d
00000020: ac96 ac3c f1b3 c8bc 6602 3fbd c644 053d
00000030: b825 de3c ccee 90bd f144 f53c a615 5bbc
00000040: c7e2 163d a641 e1bd 6ab6 46bd 3bd8 dd3b
00000050: 7ebb 0f3d 40be 9a3d dec8 c8bb 0439 a7bb
00000060: fffa 36bd e574 253d 6301 f9bb beee 5a3d
00000070: bf9f 6cbd 55e2 babd f99a 14bc 4da7 7ebd
00000080: 237a 8f3c 9236 f8bc 5b96 c93c fdf2 0cbd
00000090: 7758 2939 1ae5 893c fd61 b7bc 4353 5fbd
000000a0: d7e8 7bbd 45db 583d bdbd c13c 5074 6e3d
000000b0: 04f2 af3d c233 903d 75a1 a3bd 1b47 b33c
000000c0: d909 6a3d bcff 7ebd 64bb fdbd 0303 4d3d
000000d0: 61f4 bebc e770 dbbd 47af 223d 702d 4e3d
000000e0: 65df 113d 30a1 dbbc 7543 3d3d f122 1abd
000000f0: 92ba 83bd 631f b8bc 938a cdbc bc0a f73c
00000100: e8f8 70bc bb1f e8bd 75cd f4bc 0888 03be
00000110: 48b3 20be 1cd9 74bb c5c7 bdbc cea8 a5bd
00000120: 7e04 723d ad49 16bd 269c 5e3b 0d62 123d
00000130: 765d b4bc acea 22bd 639d 873b c8d4 343d
00000140: 88d8 0a3c bb45 15bd 2177 bb3c 9fe6 9f3c
00000150: 93b4 0d3d abc2 51bd 0c13 8d3d d508 c1bb
00000160: 3e6c 4cbb 453e 53bd 6747 07bb 769f 7dbd
00000170: 2f93 07be 5c69 833d c395 65bd 2521 dfbd
00000180: de08 41bd 8499 0bbd 4f0a f0bc 7006 a63d
00000190: 8763 84bc f9eb 963b cb67 063d f5c1 06bd
000001a0: d88b 20bd 91fe 62bd df37 f7bc 645c a73d
000001b0: 057c 703c 513d debd 6299 c6b9 ec6a ccbd
000001c0: 5bc6 c3ba 2dd3 38bd 1c6c 563d 1ae8 663d
000001d0: 0859 d33c 10f0 d53c 16c5 aa3c f6ec 84b9
000001e0: 6806 b33d 54be aebd b93a cdbc a483 67bd
000001f0: 941c b4bd da2d 083d 66c4 c8ba d6dd 853d
00000200: 2244 8c3d 6542 683d d7c1 e1bc b779 9d3c
00000210: f553 083d f346 c5bc dc7b 723d a83e b13d
00000220: 6af1 093d e0af 7bbb c45e 1ebc b8ca df3c
00000230: a5c4 87bd c352 27be 5b16 2cbb 1f9c d4bc
00000240: 6030 293c 956c eb3b 3f8c 3bbd 88c5 503a
00000250: e3e5 2fbc 153b 9b3d c643 eabd 1da4 a6bd
00000260: 2a25 c7bd b5c7 213d 6e66 ac3d ca23 103d
00000270: 3f31 e4bd c9f4 a7bd 22c8 aebd 87ea a2bd
00000280: 70a2 bdbd c1e7 f23c d072 89bd e92a b5bc
00000290: 0e52 54bc 68c1 94bd 25fe 8fbd 1367 fbbd
000002a0: 77c4 a13c 0e57 0fbd 9839 723d 0541 923d
000002b0: c7f0 9d3c f9af 343c 8e1e cbbd b821 f3bd
000002c0: 01a1 adbd 9ec2 78bd 7cf5 003d b91d 163d
000002d0: 1588 f43c 964d 9dbd 7ac1 13bc 1918 933d
000002e0: 73e2 f0bc ef49 6ebd 7974 843d 14ec bebc
000002f0: de75 10bc 53e0 1a3d 914a bfbd f7c3 a6bd
00000300: 4d05 aebd d073 bbbd 28c7 7dbb 1d10 c73d
00000310: 2601 ec3b 0efe 2bbd 45e5 06bd 4d68 be3c
00000320: ff60 c5bb fa66 0bbd a831 b7bb d852 75bd
00000330: 1c39 6b3c 52a3 40bd 3270 09bd abd8 4a3b
00000340: d1b7 393d 1dce 693d c13e d23c c4fb b2bd
00000350: 003b 78bd 0eb0 9bbd fe08 3dbd d1fa 3c3d
00000360: 4669 fe3d b3ec c23c e68d 7a3d d394 c2bb
00000370: b885 cabd 6129 a43d c937 9cbd 3c0d 853b
00000380: 528a 0f3d 3f5b 1b3c 59a3 a93c 8f92 c03c
00000390: 560c 34bc c9c2 11bc 4925 f93c dfd2 363d
000003a0: 409f 9c3c 84c9 8f3d 5a05 b13c 1ba2 933d
000003b0: c6a1 14bd bd66 56bd 230a 053d a17c 503d
000003c0: b9c0 dfbc b0d6 80bd 72ea b8bd abb1 7b3c
000003d0: 8817 30bd 16b4 7f3a 4ce0 58bc 1994 883d
000003e0: 8a71 febc 79f5 d9bd db19 153d 6e76 7cbb
000003f0: ed5a 5bbd 21cd 97bc 0881 603d 43ef dfbd
-0.041783284 0.050069775 0.015712542 0.041919995 -0.008373884 0.026881078 -0.07604552 0.07009245
0.02106794 -0.024499865 -0.046633147 0.03253629 0.027117595 -0.07076797 0.0299401 -0.013371861
0.036837365 -0.109988496 -0.048513807 0.0067701614 0.035090916 0.075558186 -0.006127461 -0.0051032323
-0.044672962 0.040394682 -0.0075990423 0.05345034 -0.057769533 -0.09125201 -0.0090701515 -0.06217127
0.017514294 -0.030299459 0.024607828 -0.03441142 0.00016150052 0.016832877 -0.022385592 -0.054522764
-0.06150135 0.052943487 0.023650045 0.058216393 0.08591083 0.07041122 -0.0798978 0.021884492
0.057138298 -0.062255606 -0.123892576 0.0500517 -0.023309888 -0.10714894 0.03971794 0.0503363
0.035613436 -0.026810259 0.04620691 -0.03763098 -0.0643207 -0.022475904 -0.025090491 0.030156486
-0.014707781 -0.11334177 -0.029883126 -0.1284486 -0.1569339 -0.0037360853 -0.023166547 -0.080888376
0.059086315 -0.036691356 0.0033967583 0.03573804 -0.022017222 -0.03977458 0.004138635 0.044148237
0.008474477 -0.036443453 0.022883954 0.019519148 0.034596037 -0.05121104 0.068883985 -0.0058909454
-0.0031192447 -0.051573057 -0.0020641924 -0.061919652 -0.1323974 0.0641658 -0.056051027 -0.10894994
-0.047127597 -0.03408195 -0.02930179 0.081066966 -0.01616074 0.004605767 0.03281383 -0.032899816
-0.039195865 -0.055418555 -0.030178009 0.08171919 0.014678006 -0.10851539 -0.00037879782 -0.09981331
-0.0014936434 -0.045123268 0.052349195 0.056373693 0.02579929 0.026115447 0.020845931 -0.00025353552
0.08741456 -0.08532396 -0.025052415 -0.056522027 -0.08794513 0.033246852 -0.001531732 0.065364525
0.06848933 0.056703944 -0.02755825 0.019223077 0.033283193 -0.024081683 0.059200153 0.08654529
0.033677496 -0.003840439 -0.009666149 0.027318344 -0.06629304 -0.16340165 -0.0026258442 -0.02595335
0.010326475 0.007184575 -0.045788046 0.0007964005 -0.010735962 0.075796284 -0.11438708 -0.08136771
-0.09723885 0.039497096 0.084179744 0.03519038 -0.111422054 -0.08200986 -0.08534266 -0.07954889
-0.09259498 0.029651524 -0.06711352 -0.022115188 -0.0129590165 -0.07263452 -0.07030896 -0.12275519
0.019747002 -0.03499513 0.059136957 0.07141308 0.01927985 0.011028283 -0.09917937 -0.11871666
-0.08477975 -0.060732476 0.031484112 0.03664944 0.029850045 -0.07680814 -0.009018296 0.07182331
-0.029404854 -0.058175977 0.06467528 -0.02330593 -0.008817164 0.03781159 -0.09340394 -0.08142846
-0.08497105 -0.09152949 -0.0038723443 0.0971987 0.0072022853 -0.041990332 -0.032933492 0.023243094
-0.0060235257 -0.034033753 -0.0055906363 -0.05989346 0.014356878 -0.047030754 -0.033554263 0.0030951898
0.045341317 0.05708133 0.025664689 -0.08739427 -0.06060314 -0.07601939 -0.046151154 0.046137635
0.12422423 0.023794508 0.06117048 -0.0059381514 -0.09888786 0.08015705 -0.07627828 0.0040604156
0.035044022 0.009482204 0.020707773 0.023507385 -0.010989269 -0.008896538 0.030413287 0.044634696
0.019118905 0.07020858 0.021608997 0.072086535 -0.03628709 -0.052344073 0.03248037 0.050900105
-0.027313577 -0.062909484 -0.09029092 0.015362184 -0.04299119 0.0009754313 -0.01323707 0.066688724
-0.031059999 -0.10642523 0.03640161 -0.0038522738 -0.05355351 -0.01853043 0.054810554 -0.109343074

net.convblock5.0.bias f4 [16]
00000000: 02e2 40bd ea92 393b 1132 013d 192b 5e3d
00000010: fb8c 8dbc 2f1d bf3b 920d c2bc 9f23 70bd
00000020: b45a 293d 60f4 50bd a454 14bc 3396 a53c
00000030: e8a4 293d 4369 9738 90b5 3abd e691 3f3d
-0.047090538 0.0028316327 0.031541888 0.05424032 -0.017279139 0.0058323364 -0.023688111 -0.05862772
0.041346267 -0.051014304 -0.009053383 0.020213222 0.041417032 7.2198476e-05 -0.045583308 0.04677

net.convblock5.2.weight f4 [16]
00000000: c0d1 7e3f 3dfb 843f 8e14 7e3f b9b4 7b3f
00000010: 3060 813f 96d5 7d3f abc3 7e3f 6168 813f
00000020: 2795 813f 2523 793f f3b9 7a3f 6121 853f
00000030: 09db 843f 6676 7b3f e09c 793f e048 7a3f
0.99538803 1.0389172 0.99250114 0.98322636 1.0107479 0.9915403 0.99517316 1.0109979
1.0123643 0.9731925 0.97939986 1.0400811 1.0379344 0.98227537 0.97505 0.9776745

net.convblock5.2.bias f4 [16]
00000000: 22c5 153c d2fa 0fbc 11e2 f4bc b7b8 d2b9
00000010: a685 e4bc d0b0 1abb d1ce cb3c 311a 1bbc
00000020: e8a1 99bc 2f4b ecbb 5fb4 bf3b 372a dfbc
00000030: 1e83 433a bad7 d23b ce58 0dbd 6503 183c
0.009141238 -0.008787828 -0.029892953 -0.00040191945 -0.02789576 -0.0023603924 0.024878891 -0.009466694
-0.01875396 -0.007211111 0.0058503593 -0.02724181 0.00074581977 0.006434408 -0.03450852 0.009278153

net.convblock6.0.weight f4 [16, 16, 3, 3]
00000000: 9d82 5dbd d53b f0bc cfc7 5d3d 078d 91bd
00000010: deb7 afbd 6176 bebd 12e2 df3c c3f4 b7bc
00000020: 0f1d 66bd ba77 40bd a626 92bc 7757 863d
00000030: fc07 223d fc61 96bb 2666 ddbd 32e5 2d3d
00000040: 9b53 953d 01e8 0b3c f443 e5bc 3859 58bd
00000050: cc60 00bd 3945 02be aed6 6a3d 04dd dabd
00000060: 1fd5 dabb 9ea4 19bb 1537 09bc 9737 fd3c
00000070: dce9 50bd a06e 9dbc eeef 113b adb0 36bd
00000080: 1571 dd3d 1557 80bc 4c59 9f3c a79f 0b3d
00000090: 0bed d73c d64f 733d e113 2ebc 80db 453d
000000a0: d1c3 b93c 120d 133d 41d8 ec3c dc1c b2bc
000000b0: abed 3dbd efbf 82bd cc39 65bd e276 b53d
000000c0: 6e6f bc3c 89ed eebc 8c22 e9bc f588 353c
000000d0: 4784 123d 3fe5 20bc 2c58 10bd 97c2 5fbd
000000e0: 7be0 0b3d 26f6 843c 303e c93c 5517 373d
000000f0: 2c94 58bd 4e65 3d3d 92c6 523c 81ae c33d
00000100: 08d5 843c 22ee 703d 5db6 5f3d f464 ebbc
00000110: 3d6d 333d ea5a 193d 012f bebc d03a 59bc
00000120: 334e c13b d7f3 76bd 3f00 d3bc e5de b03d
00000130: 2d06 153d 1b07 8cbd 9806 5e3c 5c5d ff3c
00000140: 3ced 63bc 2d6b 0fbc fe84 bfbd b641 76bd
00000150: dcca d33d 4b35 363d 59bf 103d 8964 4c3c
00000160: b457 443c c2c3 1b3d 4da3 1c3d 1f29 73bb
00000170: 9bc1 7abd f0b6 b63d 294d 453d 01a0 b13a
00000180: 0f59 56bc 618c 053c c423 123d ae30 873d
00000190: 9e7e 5bbd 749c e23d b9f3 b13c d9fc 22bd
000001a0: 52b8 963d d10e 173d d052 81bd dc9d b63c
000001b0: 7cd1 343d 5f9a c83c 5a00 97bd 1204 05bd
000001c0: 9abe e03a 3649 823c cfec da3d 530d 223d
000001d0: 6262 c63c 90e4 56ba f887 16bd 08ef 0ebd
000001e0: d5a3 c83d d856 643d 117f ae3d d8bd 2abd
000001f0: f478 1d3d 4684 41bd 27a3 88bd 6999 21bd
00000200: 7a5c 87bd c0ed f5bb 5d66 bebc 9cb7 1abc
00000210: 8446 11bd ea19 843d 3e64 aabd aa5f c3bc
00000220: d756 113d a993 2c3d 05d1 173d f602 a23c
00000230: a062 d0bd 1d4a 8dbd 9c13 9fbd a9eb 3dbd
00000240: 7734 423d 0b4e 4e3d 81bf 4a3b ba32 cabd
00000250: 5411 09be 389c b5bd dd00 cdbd 19b0 d4bc
00000260: 31b0 9f3d d131 aebd 72ba fdbc bc41 f7bc
00000270: 4c11 1fbc 5e67 9c3d e51d 863d bb66 36bd
00000280: fdd4 01bd e085 bb39 2cd0 64bd 256a 57bd
00000290: 9a97 b5bb b6ab 833d 6b95 28bd 3cca 973b
000002a0: 67d2 953d bba4 413d fe65 f83c 3e49 c03c
000002b0: 73dd 0abb 33cc a6bc eaf9 40bd 97c7 1f3d
000002c0: 626c bd3c 7857 4e3d f73a a73d 1143 053d
000002d0: 3d13 b33c e51b 0cbd 22ea c63b 9d79 8abd
000002e0: 8c2d 6ebc dce4 2b3d f9a2 e13c 27fb 03bc
000002f0: a586 1f3d 8077 03be 751d cdbd 0134 1ebe
00000300: 0e99 0dbe 895f bc3c f868 a3bd 6768 f6bd
00000310: 3244 73bd 028c 24bd 0cc6 70bd 0807 9dbd
00000320: 6c58 51bd a905 233d c4f3 103c 8ddb ab3d
00000330: ccb3 fa3c e662 b53b 1d69 16bd 8ae2 773d
00000340: f2e4 a73c d20d 3f3d 7d18 943a 76e0 febc
00000350: 6e96 a2bd 49f0 883d c34b 24bd 3acb 74bd
00000360: 9d35 41bd 1161 53bd e073 81bd fd55 40bd
00000370: 02e0 2b3d 9a74 15bd 350a 803d a255 6c3d
00000380: 7812 09bd d849 c0bd 0f4d d7bd cc3a 7bbd
00000390: 99cd ff38 1c1b 69bd ffaf a63d a033 113d
000003a0: 9a26 a73d 6dca a83b d499 1d3d 2b23 4bbd
000003b0: 091e 22bd a10e 3ebd 1c7e 873c 0a73 b1bd
000003c0: 3c39 693c 4d3c 473d 4e2c 28bd c410 19bc
000003d0: f04c d33c af12 b9bd b349 d5bd a17b 553d
000003e0: a2e5 473d c2a0 4d3d 0f4e d93d be67 00bd
000003f0: 07b6 7bbd b333 b63c fb28 ab3d 97fb 3d3d
-0.05407964 -0.029325405 0.05414563 -0.07106977 -0.08579992 -0.09299923 0.027329478 -0.022455579
-0.056180056 -0.04698918 -0.017840695 0.06559651 0.039558396 -0.0045893174 -0.10810499 0.042454906
0.07291337 0.008539201 -0.027986504 -0.05281946 -0.031342313 -0.12721719 0.05733364 -0.10686687
-0.006678238 -0.0023444067 -0.008374949 0.030910296 -0.051004276 -0.01921779 0.0022268253 -0.044602085
0.10812584 -0.015666524 0.01945176 0.034087803 0.026358148 0.05940231 -0.010624857 0.048305035
0.02267638 0.035901137 0.028911712 -0.021742277 -0.046369236 -0.06384265 -0.055963323 0.08860566
0.023002353 -0.029166 -0.028458856 0.011080016 0.03577068 -0.0098202815 -0.035240337 -0.054628935
0.034149628 0.016230654 0.024565786 0.044699986 -0.052875683 0.04623919 0.012864726 0.09554768
0.016214862 0.05882085 0.054617275 -0.028734662 0.04380535 0.037440218 -0.023215773 -0.013258651
0.0058992147 -0.060291138 -0.025756953 0.08636264 0.036382843 -0.06837293 0.013551377 0.031172447
-0.013911542 -0.00875358 -0.09351538 -0.06012126 0.10341427 0.044484418 0.035338733 0.012475141
0.011983801 0.038028486 0.038241673 -0.0037103368 -0.061219793 0.08921611 0.04816929 0.0013551713
-0.013082757 0.008151145 0.03567864 0.06601082 -0.05358755 0.11064997 0.021722661 -0.039791916
0.07359375 0.036879364 -0.06314623 0.02229207 0.044145092 0.024487672 -0.07373114 -0.032474585
0.0017146647 0.01590405 0.10689699 0.03956349 0.024216834 -0.00081975106 -0.036750764 -0.034895927
0.097968735 0.055746883 0.0852033 -0.041684955 0.038445428 -0.047245286 -0.06671744 -0.039452944
-0.066094354 -0.0075051486 -0.02324217 -0.00944319 -0.03546764 0.06450255 -0.08319901 -0.023849327
0.035483208 0.042133007 0.03706457 0.019776803 -0.10175061 -0.068989016 -0.07767412 -0.04636732
0.047413316 0.050367396 0.00309369 -0.098729566 -0.13385516 -0.08867687 -0.1000993 -0.025962876
0.07797278 -0.085055955 -0.030972693 -0.030182712 -0.009708714 0.07636903 0.06548671 -0.044531565
-0.031697262 0.00035767164 -0.05586259 -0.05259146 -0.005541754 0.06429236 -0.04115812 0.0046322625
0.07315522 0.04727624 0.030322071 0.023472425 -0.0021189123 -0.020361042 -0.047113337 0.039008703
0.02312297 0.050376385 0.081655435 0.032534663 0.02185976 -0.03420629 0.0060703913 -0.06761477
-0.014537226 0.041966304 0.027543532 -0.008055485 0.038946766 -0.12838554 -0.10015384 -0.15449525
-0.13827917 0.022994773 -0.079790056 -0.12031632 -0.059391208 -0.040172584 -0.058782622 -0.07667357
-0.051109716 0.03980032 0.008847181 0.08391485 0.030603312 0.0055354713 -0.036721338 0.06051878
0.020494912 0.04664404 0.0011298802 -0.03111289 -0.079388484 0.06686456 -0.040111315 -0.059764124
-0.04717027 -0.05160624 -0.063209295 -0.046957005 0.041961677 -0.036488153 0.06251947 0.057698853
-0.03346488 -0.093890846 -0.10512745 -0.06133537 0.00012197643 -0.05691062 0.08139037 0.035449624
0.081616595 0.005151084 0.03847678 -0.049594086 -0.039579425 -0.04640067 0.016539626 -0.0866452
0.014234837 0.04864149 -0.041057877 -0.009342376 0.025793523 -0.09036767 -0.10414448 0.052119855
0.04880298 0.05020214 0.106105916 -0.031348936 -0.06145289 0.022241449 0.08357426 0.046382513

net.convblock6.0.bias f4 [16]
00000000: 783f 223d 651a a6bb 3387 05be 125c c23d
00000010: 0fe2 0fbd 25f4 9abd 4b59 c53c eb7e 2dbb
00000020: add8 d3bc c0d5 52bd bdce 16bc a2ba 2f3d
00000030: a0f6 5bbc 58b4 22bd a37d 06bb e42a 95bd
0.03961131 -0.0050690644 -0.13039856 0.09490217 -0.035127696 -0.07566098 0.02409043 -0.0026473354
-0.025860155 -0.05147338 -0.009204564 0.042902596 -0.013425499 -0.03972277 -0.0020521663 -0.07283571

net.convblock6.2.weight f4 [16]
00000000: f40d 7a3f df7e 843f a973 843f 1987 783f
00000010: d374 7e3f 5612 7b3f 5fcf 7d3f 0fbd 853f
00000020: 3abc 793f a7be 843f f2bf 803f c61f 823f
00000030: 2aae 813f 336f 7a3f 4eb2 733f f911 7e3f
0.9767754 1.0351218 1.0347797 0.9708114 0.9939701 0.98074853 0.9914455 1.0448321
0.97552836 1.0370682 1.0058577 1.0165946 1.0131276 0.97825927 0.95193946 0.99246174

net.convblock6.2.bias f4 [16]
00000000: 7e03 24bd 8f92 99bd a991 12be 8aef 0cbd
00000010: d8f4 65bd 56ba 85bd e470 4cbd b904 bcbd
00000020: adac 9ebd 9cc1 61bb 2ea9 88bc e679 b4bd
00000030: 1b94 b8bd 0c4e 90bd 9cdb d2bc 27ff 4abd
-0.040042393 -0.07498657 -0.14313377 -0.03440813 -0.056141704 -0.065296814 -0.04991235 -0.09180588
-0.07747779 -0.0034447676 -0.016682234 -0.08812313 -0.09012624 -0.07046136 -0.025739484 -0.04955974

net.convblock7.0.weight f4 [8, 16, 1, 1]
00000000: 5210 61be 5f1a b23d 815c 91be 7444 d73d
00000010: f8a8 6fbe 78e5 2ebe 7066 d3bb bb0e 4f3e
00000020: 3206 dfbd aa9b 0f3e dced 2a3d f3e8 cc3d
00000030: ff81 00be ef86 e1bd 3f3a bbbc 61ac 2cbe
00000040: 220b 16be e95b e53d c10d 74bc 0adc 2cbe
00000050: 97aa a4bd cc8b 6cbe a2f5 bbbd 6493 883e
00000060: 77ac 01be 09f9 f83c 8ff5 2f3e 445d 7a3c
00000070: 5353 c03d b9fb 523d deea 36be a1ff cbbd
00000080: e166 843e 58fc ae3c 3d21 823d 086d 363e
00000090: c03f 19be 2fad 99bd 3fa2 803d 3d1e 2bbe
000000a0: d198 6bbe 1993 2e3e 665e fa3d ad4a 263d
000000b0: 25fd fc3d 1562 91be 27f6 0a3e 68da 733e
000000c0: 4010 d93d d293 f23d a04e f93c 5449 8dbd
000000d0: 6c86 483e 7b19 18be d806 053d 67cd 463d
000000e0: 39e7 f63d 3d3c 31be 202c 453d afc6 643e
000000f0: 58e9 473d 9c81 90bd 47ab fb3d 6347 1cbe
00000100: eb77 fc3d 2002 33be 1382 3cbe c0fe 8cbd
00000110: 2206 273e 1ac1 8b3d 2545 80bd eac3 e7bc
00000120: 44fb 2ebd e0dc 863e f371 333d 2486 77bd
00000130: bbd9 703e 5486 60bc 9a4c f83d 2e53 6e3d
00000140: 9025 493d 6e30 803d c086 eebd 579c c9bc
00000150: 6f32 ae3d 4fa4 293e a915 b53d 1d9f 2c3e
00000160: e20d 193e 4897 803e edce 5e3e 3089 4f3e
00000170: dba3 643d e63d 8fbd ea9a 523e dea2 b8bd
00000180: d003 183e faeb ee3d 4800 3abd 6682 7bbd
00000190: 61a5 603e ca58 6abd e832 23be 0e41 9ebd
000001a0: a27c 0fbd 0583 8dbd 2311 f3bd 1c45 39bd
000001b0: 0b90 3cbe 8cee e13c 71b9 6b3e 9437 823e
000001c0: 2906 ebbc 2919 86be 4a4a 9dbe a429 d93d
000001d0: bb4c 96be ffb3 57be aceb 253e 7083 b6bd
000001e0: 9ab0 30be e2b9 9f3d af10 873d 5d7b 7dbe
000001f0: d75e 133b 913c 5c3e fc96 f5bd cb3f 1c3d
-0.21978882 0.08696436 -0.28390887 0.10511103 -0.234043 -0.17079723 -0.0064514205 0.20220463
-0.108898535 0.14024225 0.041730747 0.10005369 -0.1254959 -0.11012065 -0.022854922 -0.16862632
-0.14652684 0.11199171 -0.014895857 -0.16880813 -0.0804035 -0.23100203 -0.0917771 0.2667495
-0.12663446 0.030392187 0.17183517 0.015281025 0.09390893 0.051509593 -0.17863032 -0.09960867
0.2585974 0.021360561 0.06353996 0.1781503 -0.14965725 -0.07503735 0.06280946 -0.16710754
-0.23007514 0.17048301 0.12225036 0.04059856 0.12352971 -0.28395143 0.13570462 0.23813784
0.105988026 0.11844601 0.030433 -0.06898752 0.19582528 -0.1485347 0.03247723 0.04853573
0.12055821 -0.17308135 0.048137784 0.22341417 0.04880652 -0.07055971 0.12288528 -0.15261607
0.1232756 -0.1748128 -0.18408994 -0.06884527 0.16310933 0.068239406 -0.06263188 -0.028291661
-0.042720094 0.2634039 0.043809842 -0.06043066 0.23520558 -0.013703901 0.121239856 0.058184795
0.049108088 0.06259237 -0.11646795 -0.024610681 0.08505713 0.16566585 0.08842022 0.16857572
0.14946702 0.25115418 0.21758623 0.20267177 0.055820327 -0.06994228 0.20566908 -0.090154395
0.14845204 0.11666103 -0.045410424 -0.061403655 0.21938087 -0.057213582 -0.15937388 -0.07727252
-0.03503097 -0.069097556 -0.11868503 -0.045231923 -0.18414323 0.027579568 0.23019959 0.25433028
-0.02868946 -0.2619107 -0.3072074 0.106036454 -0.29355416 -0.21064757 0.16203183 -0.089117885
-0.17254868 0.07799126 0.06594979 -0.2475409 0.002248695 0.21507479 -0.119916886 0.038146775

net.convblock7.0.bias f4 [8]
00000000: 1108 843d 599c 6b3e 589f 80bb e29b 013d
00000010: 7214 003e e7cc ad3d b640 c1bd 86fb 913d
0.06446851 0.2300886 -0.0039252453 0.031642802 0.125078 0.08486348 -0.09436171 0.071280524

net.convblock7.2.weight f4 [8]
00000000: c087 883f b80e 863f 1f4e 703f cd82 823f
00000010: 7a3e 843f 5e61 743f d19b 7a3f cfe0 7f3f
1.0666428 1.0473242 0.93869203 1.0196167 1.0331566 0.9546107 0.97894007 0.99952406

net.convblock7.2.bias f4 [8]
00000000: 2958 dc3b 059a b3b9 5137 8cbc 901d c4bc
00000010: 665e cdbc 4b8f 903b 8065 963c 958f 483d
0.0067243767 -0.00034256294 -0.01711622 -0.023939878 -0.025069427 0.004411613 0.018358946 0.048965055

net.convblock8.0.weight f4 [10, 8, 3, 3]
00000000: f271 ec39 f65f 43bc 642f 19bd c4b2 993d
00000010: bbc5 73bd 7dc7 e7bd cfe0 bfbb 99bb 04bd
00000020: 95c7 0fbe 9dac f63d 8c6d e63d db98 793d
00000030: 2d80 e63c 4d75 c43d ed08 bb3d 87cd a03d
00000040: 0657 3c3c 86e1 82bd 85fd 32be 7b59 413d
00000050: 8792 8a3d 7f8e d7bc 5db8 acbc f937 8c3d
00000060: c227 91bd 7554 d03c bd7c 85bd 8fd3 9c3d
00000070: 2543 babc c963 c63c c390 6e3d 1133 ccbd
00000080: 4574 80bb f767 853d f7ac 723d b862 e13d
00000090: 3daf 0e3d 10b7 92bd 7b3a b33c 1720 0cbe
000000a0: 5dee f43c 55bd b5bd cd7c 88bd c73b 843d
000000b0: 269b 083e 3761 fe3c d0aa 86bb 6824 a13d
000000c0: 7222 753d 90e7 163d 16f5 cc3d 7537 70bb
000000d0: fe55 163d 8bf3 de3b 266d 18bd f695 7abc
000000e0: 4266 0bbb 7fff 073d dd50 613d 563e 78bd
000000f0: 4e1c 153c 1701 e43c ca9c 333d 912d 07be
00000100: b2af 183d 13ff cdbc 3bbe cabd e38c bebb
00000110: 6efb 9ebd f585 4cbd c74c 8b3c 3cf9 44bd
00000120: 91ab 603d b447 4bbc 5ba6 f53d 402a 2abb
00000130: 3937 cabd 7183 65bd bda9 ebbd 3971 083c
00000140: 4287 03be cf27 44bd 995f 893b 62ef 6a3d
00000150: 9af0 5a3d 7657 2a3d 499f aebd 0ed8 81bd
00000160: e44a 94bd 4cfe 41bd fd9d cebd fe8a 4cbd
00000170: 22de 013c e2ec a9bc 27bf f73d a48f c83d
00000180: b2f4 233e 64cc 443d 4ce7 863d 24b4 70be
00000190: 7556 08be 5269 93bd b080 cbbd 4c79 f2bb
000001a0: 13b6 f4bd d31d 4d3d 9b3d 2dbb 4198 a8bc
000001b0: 4089 39bd b122 813d 0800 fc3d 7819 30bd
000001c0: 4b0c 7dbd b357 e93d 457d a13c 51c2 c33a
000001d0: 6cba 2f3e 405b 87bd 4726 05bc 98a0 3a3d
000001e0: 9dfa 683d 3da9 23bd 26e6 db3d a8cd 7c3b
000001f0: 3a88 b83d dc70 113e f690 1cbe 53a5 babd
00000200: 1970 80bd 5294 f1bd b7c2 883d c942 843d
00000210: b703 8b3b d1c9 103e d310 e93d 012b 103e
00000220: a83c 063e 1485 b23d c065 acbd 5a4c 6fbd
00000230: c6e8 e23c f5f8 e2bc 1bcd 0dbe 6ad9 f6bb
00000240: 0f39 fcbd db32 44be 2584 1abe 5d04 3fbd
00000250: 7024 93bc f0d3 7f3d 2d55 f9bd 3e69 f1bd
00000260: b8ad 4fba 00d2 b0bd c68c bfbd c3b9 9fbd
00000270: 04c6 90bc 998e 8fbc 4447 d43c 4ddc b8bd
00000280: b0cb ff3c 82fa a0bd d6ea 0a3d 4b54 453d
00000290: df60 bb3b 942c 3bbc 19be debd 2924 543d
000002a0: b83d 0f3e ef50 493d 0c83 5a3c b953 463d
000002b0: b228 78bc e032 c13c 7eb5 eebc 4f6d 08bd
000002c0: 46df eabc c255 423d 0c85 bcbc 2c95 4abd
000002d0: 5530 223c e277 113d 9eec 683d 9eeb 883d
000002e0: 2823 453d cb4a 9b3c f795 59bd 2def 4b3d
000002f0: 575f 3fbd bdfc 65bd 85ef 733d aac7 5d3d
00000300: cdb1 92bd 74c8 abbd 10c0 3dbd 689b 003d
00000310: aceb 9e3c 8373 f93d f0bd 933c 7a53 81bc
00000320: 4372 f63c d3e7 a33d 264a 72bd 44c0 1dbd
00000330: dd38 843d 6f5f dcbd 8620 04be 07be b3bc
00000340: 1ef4 a1bd 5806 b9bd 56b6 2abe 3019 10bd
00000350: ff92 2bbe e911 05bd 4215 c3bd 1d32 463c
00000360: 636a 87bd 19bd 0cbd 7ab7 083e 600d 083d
00000370: 4333 9e3c bae8 273d b569 6dbd f439 813d
00000380: 83d1 0bbb c66d 07bd a5d4 72bc 47c1 843d
00000390: 9425 30bd 88b8 cabd 2570 d8bd 83e1 10be
000003a0: 79db 34bd b519 05be 1116 a7bd af9d 81bd
000003b0: f5ea 51bb b66a f2bd e2d3 68bd cdc6 f9bd
000003c0: 450e 9d3c 5887 3f3d 2af8 9bbd 9013 35bc
000003d0: 97ab e3bd e6b2 50be 45de fabd b1ec 20be
000003e0: f2d6 3bbe 420b bdbc 8b3b 8ebc dc09 35be
000003f0: 72e8 c63c 0b09 96bd a7a2 1cbd a363 bc3c
0.00045098324 -0.011924734 -0.03739871 0.075048 -0.059514742 -0.11317346 -0.0058556567 -0.03240547
-0.14040978 0.12044642 0.11251363 0.06093679 0.02813729 0.09592686 0.09132562 0.07851701
0.011495357 -0.063906714 -0.17479523 0.047204476 0.06766229 -0.026313065 -0.021084005 0.068466134
-0.07087661 0.025430897 -0.065179326 0.07657539 -0.022737095 0.024217503 0.058243524 -0.09970678
-0.0039201104 0.0651397 0.059246983 0.11005157 0.03483509 -0.07163823 0.021878472 -0.13684116
0.029898817 -0.08874003 -0.06664429 0.06456714 0.13340434 0.031052215 -0.004109718 0.07868272
0.059847303 0.03684193 0.10007684 -0.0036654149 0.036703102 0.006803935 -0.037213467 -0.015294543
-0.0021270667 0.033202644 0.055008758 -0.060606323 0.009100987 0.02783255 0.043850698 -0.13200976
0.03727693 -0.025146043 -0.09899565 -0.005815135 -0.077628 -0.04993244 0.017004384 -0.04808925
0.05485112 -0.012407232 0.119946204 -0.0025965124 -0.09873814 -0.056033555 -0.115069844 0.008327776
-0.12844566 -0.047889527 0.0041923043 0.0573572 0.05345211 0.041587315 -0.08526475 -0.06340037
-0.07240847 -0.047361657 -0.100887276 -0.04993724 0.007926496 -0.020742837 0.12097006 0.09793022
0.16011313 0.048046485 0.06587085 -0.23506218 -0.1331423 -0.07197823 -0.099366546 -0.0073997136
-0.119487904 0.05007727 -0.0026434425 -0.020580413 -0.045296907 0.06305445 0.123046935 -0.04299304
-0.0617793 0.113936804 0.019713053 0.001493523 0.17160958 -0.066092014 -0.008126802 0.04556331
0.05687963 -0.03995632 0.10737257 0.003857473 0.09010358 0.14203209 -0.15289673 -0.09113564
-0.06271381 -0.11795868 0.06677764 0.06458051 0.004242386 0.14139487 0.11380162 0.14078905
0.13109076 0.08716789 -0.08417845 -0.058422424 0.027698886 -0.027706603 -0.13847773 -0.007533242
-0.123155706 -0.19160025 -0.15089472 -0.04663502 -0.01796171 0.06245798 -0.12174449 -0.117876515
-0.00079223095 -0.08633804 -0.09353022 -0.07799103 -0.017672546 -0.01752405 0.025912888 -0.09026394
0.031225055 -0.078602806 0.033915363 0.04817609 0.005718335 -0.0114242025 -0.10876102 0.051792298
0.13988388 0.04914945 0.013336908 0.048419688 -0.015146421 0.02358383 -0.029139277 -0.03330737
-0.028670918 0.047445066 -0.02301266 -0.049458668 0.009899219 0.03551472 0.05686628 0.066855654
0.04812923 0.018956563 -0.053121533 0.049788643 -0.046721783 -0.056149233 0.059554596 0.054145493
-0.07162819 -0.08387843 -0.046325743 0.031398207 0.019399486 0.12180235 0.018034905 -0.015786875
0.030083781 0.08003201 -0.059152745 -0.038513437 0.06456158 -0.1076039 -0.12903032 -0.021941198
-0.0790789 -0.09034413 -0.16671118 -0.03518027 -0.16755293 -0.032487784 -0.09525539 0.012096909
-0.066120885 -0.034360025 0.13351241 0.03321588 0.019311553 0.04099343 -0.05796214 0.06309882
-0.0021334596 -0.033063672 -0.014821206 0.06482177 -0.043004587 -0.09898478 -0.10568265 -0.14148526
-0.044154618 -0.12998088 -0.08158506 -0.06328904 -0.0032030914 -0.1183676 -0.056842692 -0.12196121
0.019171843 0.046759933 -0.07615693 -0.011052027 -0.111167125 -0.20380744 -0.12249426 -0.1571529
-0.18343714 -0.023076657 -0.017362377 -0.17679542 0.02428076 -0.073259436 -0.038241055 0.02299673

net.convblock8.0.bias f4 [10]
00000000: afa9 dc3d d094 cd3d 78c2 623d 3f55 173e
00000010: b6d2 733c a069 fa3c 6568 0ebd 07d7 e73d
00000020: a85a bd3d 0242 9fbd
0.10774552 0.10038149 0.05536124 0.14778613 0.01488178 0.030567944 -0.034767527 0.1132031
0.09245807 -0.07776262

net.convblock8.2.weight f4 [10]
00000000: 528b 813f 1894 703f 34ee 823f f2d5 823f
00000010: cec8 7c3f a3f6 7a3f 984b 8a3f 3880 683f
00000020: d1f1 6e3f fa49 8a3f
1.0120642 0.93975973 1.0228944 1.0221541 0.98743904 0.9803259 1.0804319 0.90820646
0.9333773 1.0803826

net.convblock8.2.bias f4 [10]
00000000: 2b0c 10bc e092 253d 649b 8d3d 7d4f bcbb
00000010: 06dc 973c 087f 9cbd 865d 8dbd 91ab 863d
00000020: b131 8f39 0b6e 51bc
-0.008791964 0.040423274 0.06914404 -0.0057467804 0.018537533 -0.07641417 -0.06902604 0.065756924
0.00027312108 -0.012782584
