output/csv/version_0/checkpoints/epoch=4-step=275.ckpt (torch, 191717 bytes, 188 tensors)

net.model.convblock1.0.weight f4 [10, 1, 3, 3]
00000000: cb9d 92be 1cd6 333b 76d2 49be fb86 4fbe
00000010: ac41 87be 6c96 c0bd b5ec 05be 5e90 533b
00000020: 34a5 d9bd 4574 1cbe 3422 cb3d d4d9 e33d
00000030: c82a 2f3d 15f2 b23e 64b9 9c3e 10c3 663d
00000040: ae0c 883e 9e44 afbd 89bc 6abe b9d7 44be
00000050: f40a 763e 8541 6ebe 65c1 67be 91bd a5be
00000060: c8b0 773e 75ea 9a3e 330a 63be 677c 293e
00000070: d0cc 7cbe d81e 1d3e bc91 063e 94ae 453e
00000080: d786 8e3d a61e b33d a738 a83e fe2d efbd
00000090: 9567 af3d 7ff9 f1bd dda6 a13e b109 61be
000000a0: 6477 fdbd b047 d9bc 5b2a 26be f9f1 35be
000000b0: cc81 54be b1c6 843e a8eb efbd 9804 513e
000000c0: 3bf9 0ebc 59af 07be 9c9b 34bd 9382 31be
000000d0: fc7f 5cbe 0784 6fbe e378 963e 089d 503e
000000e0: ae9c b3be 9f9d 933d 382e 83bb 6e2d 563e
000000f0: 2af4 45bc ce1c 453e 0d0e 843e 6b8b 91be
00000100: e8a3 8abd b5a9 7e3e 05fb 8cbe 2726 d73c
00000110: e491 9c3d 2f9a 313c bbea 8fbe e632 563e
00000120: efbd 8f3e 7771 b43c dad1 b7be 87bd 4a3e
00000130: 1632 aabe 483b fb3d 83b6 843e 592b f23d
00000140: 2d08 923d ab7b dfbd 48ce 13be 54cb 963e
00000150: 2a6d 9ebe 5767 adbd 6800 5e3e 3d95 a6bc
00000160: e317 01be c0f8 8f3e
-0.2863601 0.0027440852 -0.1970919 -0.20266335 -0.2641729 -0.09403691 -0.13078578 0.0032282094
-0.10627213 -0.15278728 0.09918633 0.11125532 0.04276541 0.3495032 0.30610192 0.05633837
0.26572174 -0.085580096 -0.22923483 -0.19222917 0.24027616 -0.23267181 -0.22632368 -0.3237119
0.2418853 0.30257002 -0.2217186 0.16551362 -0.24687505 0.15343797 0.13141531 0.19304878
0.069593124 0.0874608 0.32855722 -0.11678694 0.085646786 -0.11815166 0.3157262 -0.21976353
-0.123762876 -0.026523441 -0.16227095 -0.17768086 -0.20752639 0.2593284 -0.1171487 0.20411909
-0.008726413 -0.13250484 -0.044093713 -0.17334966 -0.21533197 -0.23390208 0.29389104 0.20372403
-0.35080475 0.07207798 -0.0040033124 0.20915768 -0.012082139 0.1924927 0.2579197 -0.2842668
-0.06769544 0.24869426 -0.27535263 0.02626331 0.07645014 0.010839983 -0.28108773 0.20917854
0.28074595 0.02202676 -0.35902292 0.19798861 -0.33241338 0.122671664 0.25920495 0.11824674
0.07130466 -0.1091226 -0.14434159 0.29452002 -0.3094266 -0.08466976 0.21679842 -0.020334834
-0.12606768 0.2811947

net.model.convblock1.0.bias f4 [10]
00000000: 468f 113e 3b5a 8fbd be5b 1dbe 71d9 723e
00000010: 3c5a 07bd b4d2 693e 9013 c6be b669 2dbe
00000020: cba7 cebe d3a7 7e3e
0.1421481 -0.06999632 -0.15367028 0.2371576 -0.03304504 0.22834283 -0.386868 -0.16934857
-0.4036239 0.24868707

net.model.convblock1.2.weight f4 [10]
00000000: a197 803f ff31 813f f689 7c3f 44f0 863f
00000010: cf38 713f ac30 703f bac8 853f f08c 7a3f
00000020: 1450 873f c522 823f
1.0046273 1.0093383 0.9864801 1.0542073 0.9422731 0.9382427 1.0451882 0.97871304
1.0571313 1.0166861

net.model.convblock1.2.bias f4 [10]
00000000: b38d 0c3d 042d 9d3c 510f fcbb 1e98 9bbc
00000010: af3d 15bd 23ca fa3c 6da7 0abd f67b 48ba
00000020: 3846 cabd fccb 81b9
0.034314822 0.019186504 -0.0076922555 -0.018993434 -0.03643578 0.030613964 -0.033851076 -0.0007647866
-0.098766744 -0.00024756778

net.model.convblock1.2.running_mean f4 [10]
00000000: d4ef f63e 75d6 a33e 1f08 d33d 8cc3 9e3e
00000010: 3ba2 473e 958b c23e 2e8b 423e 63c6 6b3d
00000020: 4e79 c43d c97e ae3e
0.4822985 0.31999555 0.10304283 0.31008565 0.1949548 0.37997118 0.18998405 0.057562243
0.095934495 0.34081104

net.model.convblock1.2.running_var f4 [10]
00000000: fa04 a43d c6a3 173f 6625 973c 2f98 da3e
00000010: 268f ca3c 6e90 653d a81a 663e 806b 1c3d
00000020: 1a41 b03d 2d4b 213e
0.08008762 0.59234273 0.01845045 0.42694232 0.024726462 0.056045942 0.22471106 0.038188457
0.08606167 0.15751334

net.model.convblock2.0.weight f4 [16, 10, 3, 3]
00000000: f386 34bd be36 71bd b9a4 89bc eee1 be3d
00000010: e4c1 013c 1645 133d c53e 893c 539c 213d
00000020: 550c 523c fd18 3cbd 0249 893d 9b81 ed3c
00000030: 96b9 9d3d 9836 0cbd 3a8c 6cbd e311 f4bb
00000040: e42a 59bc 2e20 893c 1aec 063c 3e07 b63b
00000050: fd25 5dbd e319 6e3d 6a8b 85bd d982 4a3c
00000060: 1a98 2cbd 6609 0fbd 0d7b 17bd 69f5 8d3d
00000070: f77c 473d 03a3 ab3d bdb5 a1bd 8113 02bd
00000080: 8877 c43c 66cc 883d 3f3e 80bd a302 4dbd
00000090: 5b76 c73d f90b 5fbd 3233 94bb c60a 2fbc
000000a0: 6120 29bd 3d2b e53d e75d 89bd a7e3 3bbd
000000b0: 412b 29bd f5f0 30bd 9965 5c3d d546 95bd
000000c0: 9232 1cbd 0e8d 9bbd 383f a8bd 74d3 193d
000000d0: c439 d8bb 488b 58bd ea00 0e3e ef59 873d
000000e0: a961 e43d cc27 bd3d f17f 123e 9616 463d
000000f0: 82a5 a4bc 65d4 fe3c 9207 e8bd 4224 b3bd
00000100: 0a54 7cbd 4e8d 953c b20a dabc d239 00bd
00000110: b54e 19bd 3d06 243d fc01 9bbd 8544 0e3d
00000120: c092 bb3d daa6 cb3d 75fa 4d3d 6dc8 5f3d
00000130: 6139 a53d 2f81 863c df0b c0bc 9246 3dbb
00000140: effe bbbc fa7f 423b ec9e d2bd 2ca0 2dbd
00000150: c87a f53c b13b ae3c cb85 753c cf62 803d
00000160: 0028 69bc 2f4f a5bd ca13 f83c 721f c1bd
00000170: 7dd3 473d e468 d13d 3098 db3b 0981 383d
00000180: 109e 703b 64d6 373d 2a34 453d dcbc a93d
00000190: f31e 71bd 612a 093d d512 453d c747 72bd
000001a0: 6b3d 903d 11f3 423d 872d b3bd 0fa4 83bc
000001b0: bef0 183d b241 b3bd b224 1e3d 0c78 cd3d
000001c0: 266a 9f3d 985a 54bd 3c15 933d 181b 1fbc
000001d0: 18fd 4f3d 6504 0fbc df08 763d 5843 66bd
000001e0: 24d4 b0bd bb69 113d c01f de3c 6692 403d
000001f0: 8953 fdbd 6f12 7bbd d535 a1bb 09a7 5dbd
00000200: f963 933c 1d5e 1a3d 28be 78bd eb07 b93d
00000210: 24ee 863d a818 863d afbb 903d 9a04 ab3d
00000220: 9fe6 5fbd 870a a73d 6b81 1a3c 7123 d93d
00000230: 43a4 e7bb 48d9 81bd 64af 8b3d 02d9 28bd
00000240: 8b58 acbc b4e4 d63c b919 8c3d 1156 0cbe
00000250: e888 e3bd 6f72 303d 6e3b 19be 9cab d1bd
00000260: 7872 8ebd a57a 93bd e001 c93c 7844 8d3c
00000270: 230c b23d 1c9b 0f3d 58bd 2abd 75b8 b33d
00000280: 06e2 b13c 026a fb3c ce2c 35bd e282 b0bd
00000290: cf14 783a 2c91 583c b6dd bfbd 1dd2 063d
000002a0: 22ec 75bd 831d f7bd eecf e1bd 7971 df3d
000002b0: 043f 163e 565e 27bd aa46 24bd 8cb4 d23c
000002c0: 9201 4d3c 65d4 efbb b7b2 dabd 461b bebc
000002d0: c942 8bbd 6d0d d5bc 6a99 1e3d 99a8 103d
000002e0: 4426 603d d1db 01be f6ca f03d 90e8 a1bd
000002f0: aff7 9c3d a780 803c a462 c43d 8383 5abd
00000300: 288e bdbd 172f d23d 20ab 34bc 5ffc 07bd
00000310: b504 c43d 27a3 82bd 7e32 f7bc 4498 aabc
00000320: ce27 063c 9617 bbb9 3473 a43c 49fa 86bd
00000330: 5522 573d 3ecb 80bd 10b4 e53b a0a0 b4bc
00000340: b91c d33d 4968 c23d 60d9 0dbd 33c4 70bd
00000350: 4d7c 093d e971 77bb cdf0 65bd 3d57 bbbd
00000360: f358 f8bc 1eb6 f43c f27a c93d b3b7 a8bc
00000370: f23f 493d 4b04 083e 4744 0f3d d98f d33c
00000380: bb10 83bc 911d 3fbc 3f99 f73c 8174 903d
00000390: 894e bc3d f86e a43a e643 c8bd 47e0 2b3d
000003a0: 0c3e 4cbc 2714 6b3d 7491 89bd ce8c 2c3d
000003b0: f7ec 34bc cdec 66bd 7271 70bd 39ea cc3d
000003c0: db9a c03d 8a88 9cbd 1209 03be e506 cfbd
000003d0: 9ed7 053d a732 f2ba 182c 0abd 8a50 00bd
000003e0: b7df f0ba 5c44 743d 8546 4e3c d6ce 9fbd
000003f0: 2f5f aebd 9a70 b0bd d110 243d b0ae c83c
-0.04407401 -0.058890097 -0.016802179 0.093204364 0.007919762 0.035954557 0.016753564 0.039455723
0.012820323 -0.04592227 0.06703378 0.028992465 0.07701413 -0.034231752 -0.057750918 -0.0074484213
-0.013254855 0.016738977 0.008235002 0.0055550626 -0.053991307 0.058130156 -0.06520732 0.012360298
-0.042137243 -0.034921072 -0.036982585 0.06931574 0.04870316 0.083807014 -0.07895992 -0.03175688
0.023982778 0.06679611 -0.062618725 -0.050051343 0.097393714 -0.054454777 -0.0045227045 -0.010683721
-0.041290645 0.11189888 -0.067073636 -0.045871403 -0.041301016 -0.043198545 0.05380783 -0.07288901
-0.038134165 -0.075952634 -0.08215183 0.037555173 -0.006598683 -0.052867204 0.13867536 0.0660895
0.1115144 0.09236106 0.14306618 0.048361383 -0.020098452 0.031107137 -0.11329569 -0.0874715
-0.061603583 0.018255856 -0.026616428 -0.03130514 -0.037428576 0.04004501 -0.07568738 0.034733314
0.0915885 0.09943934 0.050287683 0.0546345 0.08067585 0.016419021 -0.02344316 -0.0028881175
-0.02294871 0.002967833 -0.10284218 -0.04238908 0.029965773 0.021268697 0.014985512 0.06268846
-0.014230728 -0.08071744 0.030282874 -0.09429826 0.048785675 0.102250844 0.006701492 0.045044933
0.0036715306 0.044882193 0.04814545 0.08287975 -0.058867406 0.03348768 0.048113663 -0.059150483
0.070429645 0.047595087 -0.08748918 -0.01606944 0.037338965 -0.08752765 0.038609214 0.10032663
0.07783918 -0.05184421 0.071817845 -0.0097110495 0.05077848 -0.008729075 0.060067054 -0.056216568
-0.086342126 0.035501223 0.027114749 0.047014616 -0.12369449 -0.061296877 -0.0049197474 -0.054114375
0.017992007 0.03768741 -0.060728222 0.09034713 0.065883905 0.065476716 0.07067048 0.08350487
-0.054663297 0.08156305 0.00943027 0.10602463 -0.007069142 -0.06340271 0.068205625 -0.04122258
-0.021038314 0.026232101 0.06840844 -0.13704707 -0.11110097 0.043077882 -0.14964077 -0.1023781
-0.06955427 -0.07201127 0.024537027 0.017244563 0.08693721 0.035060033 -0.04168448 0.08775417
0.021714222 0.030690197 -0.044232182 -0.08618714 0.000946355 0.013218205 -0.0936846 0.032915223
-0.060039647 -0.12066176 -0.110259876 0.10910315 0.14672476 -0.04086145 -0.040106453 0.025720857
0.012512581 -0.0073190206 -0.106786184 -0.023206364 -0.06799848 -0.026007378 0.038720526 0.035317037
0.054723993 -0.1268151 0.11757462 -0.07905686 0.076644294 0.015686346 0.09589127 -0.053348076
-0.0925563 0.10262888 -0.0110271275 -0.033199664 0.0957121 -0.06378775 -0.030175444 -0.020824559
0.008188201 -0.00035684992 0.020074464 -0.06590707 0.052522976 -0.06288765 0.0070099905 -0.022049248
0.10308213 0.09492547 -0.034631133 -0.05878086 0.033565808 -0.0037757105 -0.05613785 -0.09147499
-0.030315852 0.029871996 0.09837903 -0.020595407 0.04913325 0.13282888 0.034977224 0.025825428
-0.015999189 -0.011664764 0.03022444 0.07053471 0.09194667 0.0012545278 -0.097785756 0.041961934
-0.012465965 0.057392266 -0.06717196 0.04212647 -0.011042825 -0.056378175 -0.05870194 0.10005612
0.09404536 -0.0764323 -0.12796429 -0.10108737 0.03267633 -0.001847823 -0.033733457 -0.031326808
-0.0018377219 0.059635505 0.012590055 -0.07803123 -0.085142486 -0.08615227 0.0400551 0.02449736

net.model.convblock2.0.bias f4 [16]
00000000: 3739 bdbc 10f4 bb3d e260 85bc e667 38bd
00000010: 9256 4a3c ecff 723b 2537 8c3c d3d1 be3d
00000020: 09ed 2c3e 13d0 5ebc 4642 a63c 11e7 91bd
00000030: 9452 083d 2dfb 7cbd 3895 c03d 4503 903d
-0.023098571 0.091774106 -0.016281549 -0.04502096 0.0123497415 0.003707881 0.017116139 0.093173645
0.16887297 -0.013599413 0.020295274 -0.071241505 0.033281878 -0.061762977 0.09403461 0.070318736

net.model.convblock2.2.weight f4 [16]
00000000: b0cd 723f 2698 853f 34c4 813f e406 813f
00000010: 4bdd 803f b51a 773f 15c1 863f 0bf3 713f
00000020: 04a5 6f3f b40a 863f 677e 843f 32f4 853f
00000030: 299e 803f 92fd 863f 83ff 783f 950a 823f
0.94845104 1.0437057 1.0138001 1.0080228 1.0067533 0.96525127 1.0527674 0.9451148
0.9361117 1.0472016 1.0351075 1.0465147 1.0048267 1.0546134 0.9726488 1.0159479

net.model.convblock2.2.bias f4 [16]
00000000: cb63 1dbe 0724 8cbc 2578 2dbc 585e 1dbe
00000010: fb10 273d 864b 47bd bc6a ad3c a9ad 263d
00000020: 3a97 1bbd e81f fcbd 5e79 febd 6338 f83c
00000030: 890f 1b3c f659 76bd 0c22 5fbd 1185 e4bd
-0.15370099 -0.017107023 -0.010587727 -0.1536802 0.04078768 -0.04865601 0.021169059 0.04069296
-0.037986018 -0.12310773 -0.12425493 0.030300325 0.009464153 -0.060144387 -0.05447583 -0.11158193

net.model.convblock2.2.running_mean f4 [16]
00000000: 41fc 923e df6b 0e3f 2040 583e d65a 633e
00000010: 8207 583e c651 093e 13aa 733e 7f1f 823e
00000020: d17d ac3e d8e7 ca3e 1842 983e 2ef1 223e
00000030: 0a4c bb3e 514e 0c3f ab20 d53e 3ba9 5c3e
0.2870808 0.5563335 0.21118212 0.2220262 0.21096614 0.134101 0.23795347 0.25414655
0.3368974 0.39630008 0.29737926 0.15912315 0.3658145 0.54807 0.41626486 0.21548931

net.model.convblock2.2.running_var f4 [16]
00000000: c3c8 183f 4d87 343e 0377 883d 3710 413e
00000010: c705 853e 5816 ce3d 6494 003e f2d3 a33e
00000020: 76f1 363e 5a3f eb3d 2409 293e bc79 ae3d
00000030: ec82 2e3e d09c 283e 3419 443e 2c32 b33d
0.5968134 0.17629738 0.06663325 0.18853842 0.2598097 0.100628555 0.12556607 0.3199764
0.17865548 0.11486693 0.16507393 0.08519313 0.1704213 0.16466069 0.19150239 0.08749804

net.model.convblock3.0.weight f4 [8, 16, 1, 1]
00000000: e928 48be 92c3 a1bd ecad 36be 1efd 6bbe
00000010: 221d 78bd 14bc 533d 49d6 de3d f6cd 0e3e
00000020: 5abc efbb fb45 21be 7140 873d db23 3c3e
00000030: a617 753d e70c 343e e14b 5f3e 3bb3 6bbe
00000040: c66c a83e e39c 9fbd 3a37 ae3d 6d6e 343d
00000050: c6ab 3a3e 50d8 9fbc 9981 75be 2ade 503e
00000060: 1d04 dcbb b95b 963c 4985 883d 0a81 e03d
00000070: 2972 b43d 4757 39be 2ef1 a93a f11d 1e3d
00000080: 8a7d a1bd 011e 6e3e 0b83 6a3e d658 14be
00000090: 6e47 e43d 3d90 ad3c 9d3e 4f3d 18eb 313e
000000a0: ac93 44be 687a d4bd 2e6a 423e fa00 f93c
000000b0: 667a bfbd 747f 763d 40b1 8d3e f7b0 2b3e
000000c0: 2a7c 47bb 4ea2 2e3d 1848 c23d 4392 67bd
000000d0: 5a06 7c3e f92d 37bd dc4d 07be d273 3d3e
000000e0: 5797 083e 533a 44be cdfc 90bc 8719 333e
000000f0: 5e53 753d 200b 883d 5ec2 c73d d009 203c
00000100: 8c6c 0cbe bc11 8b3d a5d6 553e 3e36 bb3c
00000110: fe6f 423e 0db6 7cbb 1a4e db3d 7fd1 6d3e
00000120: 5414 7f3e 1f92 d73d d053 27be dd18 50bc
00000130: e7c6 7ebd 93e4 64be 4023 55be ab1f 4fbe
00000140: 6538 6b3d efea 0ebe e0a9 a5bc ec0f a5bd
00000150: e3b9 5d3e bcbe bbbd 83d7 843e 191d 223e
00000160: ff8a 05be ec2c 86be 3af8 a9bd 27f6 44be
00000170: cbdc 88be 03dc 693c 81b8 233e 72c5 7ebe
00000180: c75c 843d cd33 56be 8c3d 153d ee14 4b3e
00000190: ac5d 23bd 65d2 263e 9a8c 33bd 466c 243e
000001a0: 9a69 0d3e ae14 3dbe a376 00be d536 233e
000001b0: d49a 9dbd 05f8 92be 2811 ab3d afa3 07be
000001c0: 9de1 17be a17d 8bbe 5cf4 12be 36c8 08bb
000001d0: 5ce9 473d 977e ff3d 2b36 323e 63ba 073e
000001e0: 1761 563d 6318 cbbd 552e e63d 9e0d 493e
000001f0: 5cfc ee3d 4b5e 83be 674d 3abd 27b7 dd3d
-0.19546856 -0.0789863 -0.17839783 -0.23045775 -0.06057466 0.051693037 0.108807154 0.13945755
-0.0073161544 -0.15749352 0.06604088 0.18373053 0.059837006 0.17583047 0.2180629 -0.2301759
0.32895488 -0.07793596 0.085066274 0.044050623 0.18229589 -0.019512326 -0.23975219 0.20397249
-0.0067143575 0.018354284 0.06666047 0.10962112 0.08810837 -0.180997 0.0012965554 0.038602773
-0.07885273 0.23253633 0.22901551 -0.14487013 0.11146437 0.021186942 0.050596822 0.17374837
-0.19196957 -0.1037491 0.18985817 0.030395973 -0.093495175 0.060180143 0.27674294 0.16766725
-0.0030438998 0.042635255 0.09486407 -0.05653597 0.24611798 -0.044721577 -0.13213295 0.18501213
0.13338982 -0.19162874 -0.01769867 0.17490207 0.05989396 0.06642747 0.097538695 0.0097679645
-0.13713282 0.06790492 0.20882662 0.022853013 0.18988034 -0.003856066 0.10708256 0.23224448
0.24910098 0.10525917 -0.16340566 -0.01270124 -0.062201407 -0.22352819 -0.20814228 -0.20226924
0.05742683 -0.13956808 -0.020222604 -0.080596775 0.21652941 -0.09167239 0.25945672 0.15831412
-0.13041304 -0.26206148 -0.082992986 -0.19234525 -0.26730952 0.014273646 0.15988351 -0.24880007
0.064630084 -0.20918198 0.03643565 0.19832203 -0.039884254 0.16291197 -0.04383526 0.16056928
0.13809815 -0.1846492 -0.12545256 0.15938886 -0.07695547 -0.2870485 0.08352882 -0.13246034
-0.14832158 -0.27244285 -0.14351028 -0.0020871288 0.048806533 0.12475317 0.17403476 0.13254695
0.052338686 -0.09916761 0.11239306 0.19634101 0.116692275 -0.25657877 -0.045483973 0.10825949

net.model.convblock3.0.bias f4 [8]
00000000: b09d bdbd 830d 7dbc d1b2 28be b65c c13d
00000010: 1c4b 87bd 55b3 473e 98ef 43be 089c 9cbd
-0.09258592 -0.015445116 -0.16474463 0.09441511 -0.06606123 0.19502003 -0.19134367 -0.07646948

net.model.convblock3.2.weight f4 [8]
00000000: bc5f 7b3f 3520 803f 8cdc 7b3f 4677 803f
00000010: d429 7a3f 9877 833f e4ae 813f 59fa 813f
0.98192954 1.0009829 0.983834 1.0036399 0.97720075 1.0270872 1.0131497 1.0154525

net.model.convblock3.2.bias f4 [8]
00000000: ee5d bdbd 9ec8 a4bb 317d a53d b673 f7bc
00000010: 0b16 2bbd f9d8 123d cb42 05bd 3bea ec3b
-0.09246431 -0.0050287982 0.08080519 -0.030206542 -0.04176907 0.035851452 -0.032534402 0.007230071

net.model.convblock3.2.running_mean f4 [8]
00000000: 2862 c23e 48e5 d13e cb02 cc3e 2eef d73e
00000010: b3b7 a93e c999 e13e e3a2 a53e 21e3 d43e
0.37965512 0.4099524 0.3984588 0.42174667 0.33147964 0.4406264 0.32350835 0.41579536

net.model.convblock3.2.running_var f4 [8]
00000000: 6d32 d73e a988 443f 5721 513f c8f7 023f
00000010: 38c4 f53e fab1 193f 5e19 113f 60bb 2c3f
0.4203066 0.76771027 0.816915 0.51159334 0.48001266 0.60037196 0.5667933 0.6747341

net.model.convblock4.0.weight f4 [16, 8, 3, 3]
00000000: 5b6e 1d3c d36a ff3d bd9d ab3d 5b47 0abd
00000010: 9e29 c7bc 9e67 483d bf1c 39bd b5ba c03c
00000020: 2d08 95bd 8028 883c d26b 443d 2b09 8a3d
00000030: e4e0 c83d b2fe 243d 2da9 da3c 3f81 623c
00000040: fea3 923c 73d4 a2bd 9619 4c3d 46ca 72bd
00000050: 3c37 c0bd 3bcc 24bd 1c05 15bd 8ee1 04bc
00000060: 8743 1b3c 2408 c33d 273d e4bc e180 b1bb
00000070: c621 23bd 66fe 7dbc 656a 40ba 60b5 2e3c
00000080: 02fb 333d e9e1 f63d 264a 433d 0946 cd3d
00000090: e717 363c edb8 e73d 8a87 c23d 6295 b93d
000000a0: 9c4b a5bd 97f7 9a3d 2cd7 053d 6787 68bd
000000b0: 4735 b73d 869b 393c 50f2 41bd 3f86 b9bc
000000c0: 5824 61bd c1ea aa3c e5bf 623d 6474 f4bd
000000d0: 825b 53bd 7e9c 0f3b d4b5 ef3c e448 f73c
000000e0: ce3f 4bbd 036f 6dbd 5e75 e2bd dd28 2b3d
000000f0: 429b 983c 740d 3cbd 1e64 c3bd 85b6 bf3d
00000100: 9c51 afbc 05c8 7e3c 0998 81bd 1d97 27bd
00000110: 32be a6bd 995c 2bbe e06b 7cbd 5ef8 25be
00000120: d387 cbbd e76c 3a3d 55e1 00be 84f7 ab3d
00000130: 5300 acbc 8087 2bbd 1392 c13d 7417 063d
00000140: 2d9c b23d 5429 b13b 150f 3d3d fcfb 8e3d
00000150: 6eec e1bd e068 8c3d 8fb6 4cbe b86f 143d
00000160: a9e7 223b fba9 81bd b15e d33d c70b 2a3d
00000170: 667f a83d cc82 193d cd89 2abe 716b a4bd
00000180: 772b 11bd 9a37 223d 7e49 3d3d a1e9 2d3d
00000190: 87ee a7bb 6861 99bd 5063 663d 8f73 733d
000001a0: 932d 6abd 8581 30bd d495 133b 8efe 023d
000001b0: 3668 6a3d 13f9 783d d3c4 953d 7b76 3fbd
000001c0: bee4 51bd afb7 36bd 6a0e 253b d616 203d
000001d0: 03f1 c3bd 3fc7 dcbd e4c2 bebd 3ec2 d7bd
000001e0: fb1a 303d 9724 a43c 992c 883d 4e5d 763d
000001f0: b186 66bb b629 723c 82a8 afbd 171d 0e3d
00000200: df3d 0bbb 326b 55bd 3f42 efbd 44e8 1abe
00000210: 8c48 c63d 998b ef3d 529e 56bd 4861 d4bc
00000220: 85c4 5ebc e4a2 0cbe ffb1 bebc 9966 35be
00000230: 6a40 fc3c cdbe b63c 4825 b53d 9841 77bc
00000240: ab06 c5bd eda2 f03c 0a1f 3a3d aa97 383c
00000250: b9b4 91bd a8fc 91bd 8532 923d 93d2 30bc
00000260: ea52 763d 73be 6cbd 0143 87bd 5392 8b3d
00000270: 7317 5d3d c2b8 6dbd a9e3 a93d af84 393d
00000280: 97a9 27be 7174 f0bc c4cf db3c 76f9 33bc
00000290: fecf 043d 8832 50bd d750 c03c 6d18 9f3d
000002a0: 0490 86bd b273 d5bd 4d7b c5bd 6882 1bbe
000002b0: 05e9 14be b40c ad3d c049 ee3d d7a6 903d
000002c0: 367d 013d 0cab d03d 9122 91bd 44e1 20be
000002d0: f6b6 2ebd 9296 f3bd 86d7 2d3c 1094 a1bc
000002e0: 1eea 8d3d e2f4 923d b1d0 48bd 0337 83bd
000002f0: d13c c03a 674a ddbd 3337 f53d b861 f9bc
00000300: 76bf 1ebd f74d 71bd f9b5 66bd 4732 33bd
00000310: 275b d63d aefc c23d 1464 983c 4cf1 823d
00000320: 9e7b 003e 7489 e8bd 9db3 b6bd af36 5fbd
00000330: 27fe cabd 14b8 07ba ce62 983c fc3d 12be
00000340: d677 cfbd 0ba4 e33c c2a1 5fbc cdec 9fbd
00000350: 6b29 c0bd ee77 babc 5b58 1f3e de7e abbc
00000360: 632d c3bd 866c 683d 727d b9bd f7cf 0d3d
00000370: b48d 213c 41d9 b6bd 4489 043e 10b1 64bd
00000380: 16be 9dbd 6139 ccbd e272 acbd afd1 dd3d
00000390: ed69 80bc 5c4a 593d 0e89 b4bc 7e49 01bc
000003a0: dec0 b93c 789a 853d b482 853d c2e7 283c
000003b0: e89c cb3b 02b3 b83c f54c 8d3c cb08 953d
000003c0: 26f1 b0bd c592 51bd 6166 f33c 8ec9 5e3d
000003d0: 24ca c9bc 50b9 d53d f3ce bebc f280 adbd
000003e0: d530 63bd d4d0 0bbc d932 87bd 88ee 81bd
000003f0: 56cf c03d 324b b53d 0394 b8bd ba11 1d3d
0.00960883 0.12471547 0.083796956 -0.033759456 -0.024311837 0.048926942 -0.04519343 0.023526529
-0.0727695 0.016620874 0.047954388 0.0674003 0.098085195 0.04028196 0.026691997 0.01382476
0.017900463 -0.07950678 0.04982909 -0.059274934 -0.09385535 -0.04023383 -0.036381826 -0.008110417
0.009476549 0.09523037 -0.027861191 -0.005416975 -0.03982713 -0.015502548 -0.0007340073 0.01066336
0.04394055 0.12054808 0.047678135 0.10023124 0.011114097 0.11314569 0.09498508 0.09061696
-0.08071062 0.07566755 0.032675907 -0.056769755 0.08945709 0.011328584 -0.047350228 -0.022647021
-0.0549663 0.020863893 0.055358786 -0.11936262 -0.05160094 0.0021913345 0.029261507 0.030186124
-0.049621396 -0.057967197 -0.11057542 0.041787017 0.01862872 -0.045911267 -0.0954058 0.09360985
-0.02140122 0.015550618 -0.063278265 -0.040915597 -0.081417456 -0.16734542 -0.061626315 -0.16208026
-0.09938016 0.045514014 -0.12585957 0.08396819 -0.020996248 -0.04187727 0.094516896 0.03273721
0.087211944 0.005406538 0.04615696 0.06981656 -0.110314235 0.06855941 -0.19991516 0.036239356
0.0024857318 -0.06331249 0.10320795 0.041515138 0.08227424 0.037478253 -0.1665413 -0.08028305
-0.035441842 0.039603807 0.046212666 0.042459134 -0.00512487 -0.07489282 0.056247056 0.059436377
-0.05717237 -0.04309227 0.0022519724 0.031981044 0.05722829 0.06078441 0.07312932 -0.04674385
-0.051243536 -0.044608768 0.0025185593 0.039084278 -0.09567454 -0.10780191 -0.09314516 -0.10535096
0.04299448 0.020036979 0.06649131 0.060147576 -0.0035175497 0.0147804525 -0.08577062 0.03469571
-0.0021246595 -0.052104183 -0.11682557 -0.15127665 0.09681806 0.11696548 -0.05239708 -0.025925294
-0.013596659 -0.13734013 -0.023278235 -0.17714919 0.030792434 0.022307778 0.088450015 -0.015091322
-0.096204124 0.029374564 0.045439757 0.011266628 -0.07114548 -0.071282685 0.07138542 -0.010792392
0.060137667 -0.057798814 -0.06604577 0.068150185 0.05397744 -0.058037527 0.08295376 0.045292553
-0.16373287 -0.029352399 0.026832469 -0.010984769 0.03242492 -0.05082944 0.023476047 0.07768331
-0.065704376 -0.10422458 -0.096426584 -0.15186465 -0.14542015 0.084496886 0.116351604 0.07063072
0.03161355 0.101888746 -0.07086671 -0.15710932 -0.042654954 -0.118939534 0.010610467 -0.019723922
0.0692942 0.07175614 -0.04902715 -0.06406977 0.0014666562 -0.10805207 0.11973419 -0.030442104
-0.03875681 -0.058912244 -0.056325886 -0.04374912 0.10466605 0.09520851 0.018602408 0.0639368
0.12547156 -0.11354342 -0.08920977 -0.05449551 -0.09911757 -0.0005177271 0.018601801 -0.14281458
-0.10130279 0.027788183 -0.013649406 -0.07808838 -0.093829 -0.022762265 0.15561049 -0.020934518
-0.09530141 0.05674412 -0.0905713 0.03462216 0.009860445 -0.08928157 0.12942988 -0.055832922
-0.07702272 -0.09971882 -0.0842035 0.108310096 -0.01567551 0.05304943 -0.022038009 -0.007891057
0.022674974 0.06523603 0.0651907 0.010309162 0.006213773 0.022546295 0.01724861 0.07277068
-0.086397454 -0.05116536 0.029711904 0.054391436 -0.024632521 0.10435736 -0.02329204 -0.0847186
-0.05546649 -0.008533675 -0.06601495 -0.06344324 0.09414546 0.08852233 -0.09012606 0.038346983

net.model.convblock4.0.bias f4 [16]
00000000: 1bc3 c13c 2f5c b43a cf20 ca3d deb0 abbd
00000010: 27f6 013c a1f1 613d f6c9 f33a d6f4 933d
00000020: 6ad5 f93c a196 64bd e67d 42bb 0727 633c
00000030: da7a 41bd fb9f 3bbd 9151 9d3a 3084 fd3d
0.023652604 0.0013760383 0.09869539 -0.08383344 0.007932222 0.055162076 0.0018599618 0.07224433
0.030497272 -0.055807713 -0.0029677092 0.013864285 -0.0472363 -0.045806866 0.0012002458 0.123787284

net.model.convblock4.2.weight f4 [16]
00000000: 98ff 7a3f f79f 783f 652c 833f 3b65 823f
00000010: dddf 733f aedd 763f 7961 763f aef7 7e3f
00000020: ab8f 803f 204e 833f aec2 723f 5588 803f
00000030: 002c 7b3f 0084 833f cf78 833f 1556 853f
0.98046255 0.97119087 1.0247923 1.0187143 0.95263463 0.96432006 0.9624248 0.9959668
1.0043844 1.0258217 0.9482831 1.0041605 0.98114014 1.0274658 1.0271243 1.0416895

net.model.convblock4.2.bias f4 [16]
00000000: 162c c2bc b5b4 52bc f83f f9bd 34c3 113d
00000010: 2f88 e6bd 6b8a 633d 4968 7d3d b2bc e5bd
00000020: 744c 1dbd 73c0 053d cbd6 d23c 8ae6 af3d
00000030: 3eed 25bd 41ce b9bd 4ef1 bebc f816 a73d
-0.023702662 -0.012860467 -0.12170404 0.03558655 -0.11256444 0.055551928 0.061867032 -0.112176314
-0.03840299 0.032654237 0.025737187 0.08588894 -0.040509455 -0.09072543 -0.023308422 0.08158678

net.model.convblock4.2.running_mean f4 [16]
00000000: c829 673e 934a ae3e f9b5 bd3e 7481 843e
00000010: 02d4 3c3e 7fcd 8a3e 80e1 b73e ae51 893e
00000020: e076 5e3e 5664 763e ca11 7d3e 8aeb ca3e
00000030: 8df2 6d3e 9cff 7d3e 198b 883e f361 a53e
0.22574532 0.3404127 0.37052897 0.25880015 0.1844025 0.27109906 0.3591423 0.2682013
0.21725035 0.24061713 0.24713817 0.39632827 0.23237057 0.24804538 0.26668623 0.32301292

net.model.convblock4.2.running_var f4 [16]
00000000: 1f1f 563e 8ffd 3a3e e77a 023e 7044 bd3e
00000010: 08da 8d3d d010 4e3e 572c 323e 9819 5b3e
00000020: 444c 2d3e 58a2 333e 56a6 343e 1ce6 393e
00000030: 2f19 de3d 067b 9e3e fbd8 523e 4b69 ea3d
0.2091031 0.18260787 0.12742196 0.36966276 0.06926352 0.20123601 0.17399727 0.21396482
0.16923624 0.17542398 0.17641577 0.18154186 0.10844647 0.30953234 0.20590584 0.11445864

net.model.convblock5.0.weight f4 [16, 16, 3, 3]
00000000: 828a 863d 4b25 a1bd b4cb b2bd d749 9f3d
00000010: 0f7d 5cbd 9668 6fbd 6676 2a3b ba77 02bd
00000020: 9ef8 eb3c 7f9a 85bd 0669 a6bd d838 34bd
00000030: 7e1e 083d 57b7 e53c 7929 ff39 afa2 0b3e
00000040: 6bd0 6d3d 3cac 583d a5e3 c13b bce8 0ebd
00000050: 47c2 89bd 316e a4bc 300b 9abd 8dd0 683b
00000060: ff45 693d 63b9 5f3d 6a12 303d df78 ab3d
00000070: 4297 74bc 1df0 ce3d 87f6 cdbc bdb4 cdbc
00000080: 3479 6ebd 6d0a eabd 0496 1e3d 3429 063d
00000090: ea67 95ba 36e2 b53d 9199 813b 5e02 1d3d
000000a0: 562d 0d3c 59eb 5b3b 707e 51bd 91b4 87bd
000000b0: ffec 91bd a852 943d 469b 64bd 1b0a bbbd
000000c0: c67d 193d d84c e3bb 0dcd 8b3c 73fa 013d
000000d0: 8bbf 3f3d 89bc c73c 6ffa fabc 12ef c7bb
000000e0: 8b54 a43c ed2f b9bd 0478 c6bb b661 f6bd
000000f0: bb30 753d 1f5a a43d 4517 1f3c 5e3d 80bd
00000100: e5b7 123d 17f8 073c 6e12 5d3d 47a4 b33c
00000110: 3cf1 a9bc 9b2e 9a3b ac34 f2bc d543 ecbd
00000120: 234a 4c3d ca57 a6bd 1cfe d83c 76c3 01bd
00000130: 54e8 c2bb 0f8d 94bd 1f7d babd a93b 40bd
00000140: b48e 1abd 6125 423d 7aa1 21bb 9333 89bc
00000150: 1f17 e83c 677e 50bd 5f76 353d f7b3 253b
00000160: 197b 3639 fcd0 10bc a5ec 903d 83a2 85bc
00000170: 2452 c13d be71 3c3d 5793 dc3c 95b7 943d
00000180: c126 5abd ba9e babd b93a f3bb f8ce b63b
00000190: bc22 0abe 8e76 83bd 37a7 23bd 3296 393d
000001a0: cc75 23bd bf99 3c3c 03cd 523c 7cf4 83bc
000001b0: 1534 b438 36c5 05bc 3082 003d 34c3 a93d
000001c0: 6e6f 9f3c f638 2f3c 638b b2bc 5e18 0a3d
000001d0: 95f7 14bd 08e0 2cbc 35a6 323d 98ae afbd
000001e0: a60f e6bc 44bc ebbc d06a d5bd 422a 2a3c
000001f0: 6a5a 1abd a70d 02be e8cb 0d3c 38fd 963d
00000200: 3beb 6cbd 09e7 9a39 a1a0 08bd 66a1 c3bc
00000210: 87b3 c93c f99d 6fbd ea61 64bd 9d55 63bd
00000220: 9df1 94bd 4092 cebd ece6 8fbd 4253 1cbd
00000230: d6ac b7bc b3bc 823c 37ee ce3d 626c 48bc
00000240: 9b21 11bd 0612 833d d096 d13c 1c2e c93c
00000250: 4b9b 803b 09f7 60bd a22c 97bd 5fa4 233d
00000260: a387 36bc 5ded 02bd 6e09 993c 1ed6 b33d
00000270: 8abc 83bd f1dc f03d 394e 3a3d cd74 593d
00000280: c950 143d 8790 223c a493 243d 5a08 82bd
00000290: 2c32 573c ede6 34bd 9e75 dc3c ca10 49bc
000002a0: 5afe c23c 9cb7 78bd fd6b ce3c facf dd3c
000002b0: 0268 9fbd a948 c9bc 1d41 dfbc d6a9 43bd
000002c0: f631 9ebd f4b4 bd3d b8eb 423c bfb0 25bd
000002d0: 6840 14bd 1cce bc3c fbf9 2f3d e93f f9bc
000002e0: 99f6 abbc d431 063d 5175 2a3d cc76 15bd
000002f0: 5252 a4bd dc6e e7bc e54b cebb 057d e4bd
00000300: 3634 00be 9412 60bd 6ebe fcbc 0939 72bd
00000310: 2766 5abd d5b4 bd3c b16b 123c e6f1 4bbd
00000320: db27 adbc 9f79 bc3c 5fd8 16bc 787d 503d
00000330: 400b 2b3c ccb2 bbbd b1c4 0cbd 57ef b4bd
00000340: 3ec9 583d cd83 d9bb 1820 38bd ab1a e4bc
00000350: 78db e43c bb91 bc3d e8e8 863d 9cf7 46bc
00000360: 88ab 3bbe 2b36 143c 2a6a 95bd 79e9 f4bd
00000370: 85fa 6d3c aa1a 2c3d 1883 c1bd 6e93 b6bc
00000380: 306a 843b 07cf ae3c 5b2c cbbc d1e8 61bc
00000390: e334 963d 07ef 8c3d dcea 843d 0bb4 b93d
000003a0: 3ba0 893d e2bd 143d 8b8d 5fbd 3258 d43c
000003b0: 02a2 5d3d b6d5 a1bd ac7a 5ebc fd51 683a
000003c0: e3bb 5b3d b5e1 c9bc 7095 693d cd24 9bbd
000003d0: 468f 26bd 6e56 b43d afda 843c 7908 1f3c
000003e0: 5a10 ad3d bd3c 4dbd 9ac3 b5bc fad5 8dbc
000003f0: 734a 49bc 75a8 c9bc d39f b33d 494e a0bd
0.06569387 -0.07868441 -0.087302595 0.07777756 -0.053830203 -0.05844935 0.0026010512 -0.03185246
0.028805073 -0.065236084 -0.081255004 -0.043999523 0.033232205 0.028041525 0.0004866829 0.13636278
0.05806009 0.05289863 0.00591703 -0.03488992 -0.067265086 -0.020072075 -0.07521665 0.0035524697
0.05695152 0.054620158 0.04298631 0.08372664 -0.014928641 0.10104392 -0.025141967 -0.025110597
-0.058221057 -0.1142777 0.038717285 0.032754138 -0.0011398767 0.08881037 0.003955074 0.038332336
0.008616766 0.0033557026 -0.05114597 -0.06626237 -0.071252815 0.07242328 -0.055812143 -0.09132787
0.037473463 -0.0069366507 0.01706555 0.031732988 0.04681353 0.024381893 -0.030636994 -0.0061014974
0.020059844 -0.09042344 -0.0060567874 -0.12030356 0.059860926 0.08025002 0.009710138 -0.06261705
0.035819907 0.008298895 0.053972654 0.02192892 -0.020744912 0.004705263 -0.029566132 -0.115363754
0.04987539 -0.08122213 0.026488356 -0.031680547 -0.005948106 -0.07253467 -0.09105896 -0.046931896
-0.03773375 0.04739893 -0.0024662898 -0.016748225 0.028331337 -0.050901797 0.04430234 0.002528427
0.0001740273 -0.008838888 0.07076386 -0.016312843 0.09439495 0.04600691 0.026925726 0.07261578
-0.053259615 -0.09112306 -0.007422772 0.005578872 -0.13489813 -0.06419097 -0.03995439 0.045309253
-0.03990726 0.011511265 0.012866261 -0.01610779 8.59277e-05 -0.0081646945 0.031374156 0.08289185
0.019462314 0.010694733 -0.02179498 0.033714645 -0.036368925 -0.01055146 0.04361554 -0.08578223
-0.028083634 -0.028776295 -0.104207635 0.010386052 -0.03768388 -0.1270052 0.008654572 0.073725164
-0.05784152 0.00029545304 -0.033356313 -0.023880672 0.024621738 -0.058500264 -0.05575744 -0.05550157
-0.072726466 -0.10086489 -0.07026467 -0.03816534 -0.022421282 0.01595912 0.101040296 -0.012232872
-0.03543244 0.06399922 0.025584608 0.02455812 0.0039247624 -0.05492309 -0.0738156 0.03995168
-0.011140737 -0.03196465 0.018681254 0.08781074 -0.06432445 0.11760891 0.045484755 0.053089906
0.036209855 0.009922153 0.040179864 -0.06349249 0.0131345205 -0.04416554 0.026911553 -0.012272069
0.023802925 -0.06072198 0.025197977 0.02707671 -0.0778351 -0.02457078 -0.027252728 -0.04776939
-0.07724373 0.0926303 0.01189702 -0.04045176 -0.036194235 0.0230475 0.04296301 -0.030425983
-0.02099161 0.032762364 0.041615788 -0.036490247 -0.08023514 -0.028251104 -0.0062956684 -0.11156658
-0.12519917 -0.054705217 -0.030852523 -0.059136424 -0.053320076 0.023157516 0.008936808 -0.04979124
-0.021137169 0.023007212 -0.00920686 0.050900906 0.010439694 -0.09164962 -0.034367267 -0.08834713
0.052926295 -0.0066380263 -0.044952482 -0.027844748 0.027936682 0.092074834 0.06587392 -0.012143996
-0.18327153 0.009046118 -0.0729564 -0.11958594 0.014525061 0.042017616 -0.09448832 -0.022287097
0.004040979 0.021338953 -0.024801424 -0.013788418 0.07334306 0.06881528 0.06490108 0.090675436
0.06720015 0.0363139 -0.054578345 0.025920961 0.05410958 -0.0790209 -0.013579052 0.0008862315
0.05364598 -0.024643758 0.05702728 -0.075753786 -0.04066398 0.08805548 0.016217558 0.00970661
0.084503844 -0.050106753 -0.022187997 -0.017313946 -0.0122858165 -0.02461646 0.087707184 -0.07827432

net.model.convblock5.0.bias f4 [16]
00000000: 993b 89bd a4b8 d13d ae9f 073e 73c4 3f3d
00000010: 7bfe 8ebd fa6c c43d b677 27be 1c59 80bd
00000020: e271 d6bc dc3d 1bbe ada3 febc 0b69 013e
00000030: 755d 803d e954 3e3d 0616 d1bd d5f1 ecbd
-0.067008205 0.102402955 0.13244507 0.046818208 -0.06982132 0.09591098 -0.1635426 -0.06266996
-0.02617735 -0.15160316 -0.031083906 0.12637727 0.062678255 0.046467695 -0.10209279 -0.11569563

net.model.convblock5.2.weight f4 [16]
00000000: 2eb9 7f3f 0a11 873f 3717 823f 994f 793f
00000010: 86af 7b3f 6110 713f 1b93 813f fb47 793f
00000020: c38e 893f 6834 7f3f 17b0 823f 125c 6d3f
00000030: 8e09 743f 9b84 823f 5d00 843f f98b 853f
0.99891937 1.0552075 1.0163335 0.9738708 0.983147 0.9416562 1.0123018 0.9737546
1.0746692 0.9968934 1.0209988 0.92718613 0.9532708 1.0196718 1.0312611 1.0433341

net.model.convblock5.2.bias f4 [16]
00000000: 0ea5 87bd 09cc 96bc 6019 ec3d 9556 e1bd
00000010: 4ca4 5cbd 0851 2c3a ee25 21bd 9fd5 c2bc
00000020: 31bb 263d b7eb b4bd efee 433c 922f 43bd
00000030: 24d2 7a3d 4d6d 0d3e 0511 0c3d 9da7 efbb
-0.066232786 -0.018407838 0.115282774 -0.11002842 -0.053867623 0.0006573354 -0.039342813 -0.023783503
0.040705863 -0.088340215 0.011958822 -0.04765279 0.061235562 0.13811226 0.03419592 -0.007313682

net.model.convblock5.2.running_mean f4 [16]
00000000: 0271 a83e d462 b53e ae36 063f 0a69 9d3e
00000010: cdb4 3d3e 9267 873e df3c 243e 43c2 343e
00000020: d3f3 a43e ead9 303e 2290 9d3e ae50 b43e
00000030: b6d2 e73e 7655 873e 8dad 433e a382 8f3e
0.32898718 0.35426962 0.52427185 0.307442 0.18526001 0.26446205 0.16038845 0.1765223
0.32217273 0.17270628 0.30774027 0.35217804 0.45277947 0.2643239 0.19109173 0.28029355

net.model.convblock5.2.running_var f4 [16]
00000000: 9719 5b3e a0d1 623e 58d9 6e3e 9cac 803e
00000010: 9b5b d53d 34de 363e 8cfa e53d 4060 e83d
00000020: 4630 533e 3b40 db3d 8f02 983e 5f06 2d3e
00000030: 7897 9b3e 98be f03d 8362 e83d d762 ac3e
0.2139648 0.22150278 0.23325098 0.2513169 0.10417863 0.17858201 0.11229429 0.11346483
0.20623884 0.1070561 0.29689452 0.16896962 0.30389 0.11755103 0.113469146 0.3366916

net.model.convblock6.0.weight f4 [16, 16, 3, 3]
00000000: 4bc5 e8bc 0a75 b8bd 7354 98bd 9693 ac3c
00000010: 75a2 e63c cfdb 66bc b57e 01bd 68f9 ff3c
00000020: ef8c 69bb a45a fc39 2c69 d1bd 17f1 3bbd
00000030: a0dc 39bb 85bb c33d 7640 b53d 3928 fcbb
00000040: a202 a8bd 4d01 ec3c 5779 cebc 34e2 0a3d
00000050: 5a11 30bd 9dd0 babd 704a 1c3d 18cc 24bd
00000060: 0ad8 5bbd 6029 0b3c 4073 e3bb bb1f ddbd
00000070: 1957 52bd 75e8 9dbb 0125 9cbb f218 b0bd
00000080: ef32 85bd 6190 3f3a 2247 f13c 50ec b7bc
00000090: f94d bbbc aaaa 49bd bc49 a43c ec2a 1a3d
000000a0: effd aebd 1186 673d 2619 dabc cc06 08bd
000000b0: b737 7abd 65f2 843c 9b1f 28bc 4d54 21bd
000000c0: 14ab c53c 30a8 823d ffdf c73c cc8d 9e3d
000000d0: 5224 18bd 5a87 5c3d 7b85 da3d f3c6 993d
000000e0: ea88 963d 9cb7 263d dc00 9f3d 7cb3 7b3d
000000f0: 7b1a 803d 5944 743d 59a2 a33d 65bb 11bd
00000100: 70ad 64bc 2793 b33c 4de0 a43d f3ad 76bd
00000110: d952 923d 8361 3e3b e1cd 743d 517c 8c3c
00000120: 7367 5fbd a712 97ba 27e3 bf3c 3e0c 613c
00000130: 7479 4abd d921 60bd e7fd c43d 8505 173d
00000140: 6aac 09bc d048 e53c e45a a1bb b75f dbba
00000150: e3c4 173d e488 05bc 2886 fa3c c3d1 143c
00000160: f061 81bd 58d3 18bd 068e c3bb 4068 64bd
00000170: 9d92 7c3d eabd 003e 93cb 1d3d 9666 d63b
00000180: 5977 ebbc bf9f c7bb 34b3 713d 45f6 87bd
00000190: d18d 353d a2d7 23bd e753 80bd 57cc 9dbc
000001a0: 0900 ab3d 4242 253d 432f 793d 4f47 ce39
000001b0: 9e6f 71bd 2e1f 24bd d69e 04bd 982c 62bd
000001c0: f6bb 83bd 48c5 943b 3dd8 0e3d ffeb 713d
000001d0: 32b0 883d da73 6f3c 3163 c03d e297 bd3d
000001e0: 6995 85bd 67f4 443c 8d8a 783d ef54 09bd
000001f0: 7b4d c4bd 2960 e9bd 7b57 53bc 36a9 263d
00000200: 9e44 55bd ddc8 19bc 32ee 8a3d 0694 f7bc
00000210: 8d02 e03c 5dc4 663d 38bf ac3d 82cb a33c
00000220: 679a 8ebc 4156 aabc d621 563a 2697 6c3d
00000230: ac09 0abd 85f3 4d3d ed8e b0bc 98fa e2bd
00000240: b849 4fbd 3c71 95bd 5d66 553d 73e1 3c3d
00000250: 1628 273d 5b8c 513c 142a c43d 37d4 123b
00000260: 76d4 553c c3e6 94bd 4dea dfbd d4eb c0bc
00000270: 8d4f 74bd 05c1 2dbd b043 2c3c 37c3 12bb
00000280: 224b a0bc 20d2 92bd 3097 cdbb 5218 a43d
00000290: 9e5c 223d 9999 683c 1e3d cf3c b16d 3ebc
000002a0: 52ea 603d 751e ac3d 1297 fe3c aeca 31bd
000002b0: df7c 64bd fa4c 24be 8923 963d 7cee 87bc
000002c0: 3eb5 413d 514b 4fbc 9baa 4fbd d2f8 643d
000002d0: 2c5a 403d b6a1 333d 6ca7 1fba 6eb6 963d
000002e0: a4ce 0d3d 9124 923d a4a2 793d 0aa7 043d
000002f0: d6fa d63d 0b55 193d 15ba 763c 81d6 a5bd
00000300: 70cd 523b 129d d43c d1b1 ee3b 0e32 0d3c
00000310: 9ea8 963d af1c cabc 2f1d 08be 6889 f4bd
00000320: 2f82 33bd 41f3 44bc b56e 3bbd 568f 673d
00000330: 7739 7c3c e61f e0bc 2653 2dbd a663 403c
00000340: fd08 a2bc 1c3c 153d 7101 b0bd cc3a 723d
00000350: beeb 5dbd 0116 84bc b906 ce3c 465b cabd
00000360: 6b29 1e3d 06f9 143a 2b7e d5bd 3269 dfbc
00000370: 1303 733c c6fa 86bc 94e5 82bc f720 a43d
00000380: d122 343d af2c 9dbc b31c e83c c4d6 acbb
00000390: 9583 5f3c 50ad bf3c 46b2 573d 494e 0f3e
000003a0: bd5a 1e3b 169f aa3c 3694 a7bc 68f9 423b
000003b0: 65f4 dfbb 7e48 c0bd f554 5abd 287e 52bd
000003c0: d43a d1bd b706 d2bc ecfd b4bd 661e 183b
000003d0: 0a4d 82bd ab45 81bc 1704 a7bd c618 8fbc
000003e0: 473f 88bd ec4f 133c 0eb7 aa3c 064d c53c
000003f0: 2a76 1ebd c9cc 66bc fc2f 88bd 26c2 debc
-0.02841439 -0.090066984 -0.074379824 0.021066468 0.028153637 -0.014090492 -0.031614978 0.031246856
-0.0035636981 0.00048132718 -0.10225138 -0.045884218 -0.0028360263 0.09557251 0.088501856 -0.0076952246
-0.08203627 0.028809214 -0.025204344 0.03390713 -0.042985298 -0.09121821 0.038156927 -0.0402337
-0.053672828 0.008493751 -0.006941229 -0.10797068 -0.051352594 -0.004818971 -0.0047651534 -0.08598508
-0.065038554 0.0007307586 0.029452864 -0.02245155 -0.022864329 -0.049235024 0.02005469 0.03763859
-0.08544528 0.05652434 -0.02662332 -0.033209607 -0.06108829 0.016228864 -0.010261442 -0.039387036
0.024129428 0.063797355 0.024398802 0.07741889 -0.037144013 0.05384002 0.10669991 0.0750865
0.07350333 0.040702447 0.07763836 0.061450467 0.06255051 0.059635494 0.0798995 -0.035579104
-0.013957366 0.021920754 0.080505945 -0.060224485 0.07144708 0.002904982 0.059766654 0.017149122
-0.054542016 -0.0011525945 0.023423744 0.013735829 -0.049432233 -0.05471978 0.096187405 0.0368705
-0.008402923 0.027988821 -0.004924165 -0.0016736899 0.037053 -0.008150313 0.030581549 0.009083214
-0.06317508 -0.037310928 -0.0059678582 -0.055763483 0.06166326 0.12572446 0.03852422 0.006542991
-0.028743433 -0.0060920413 0.059008792 -0.06638769 0.0443247 -0.040000565 -0.06266003 -0.019262476
0.08349616 0.04034639 0.060836088 0.0003934451 -0.058944337 -0.040068798 -0.03237804 -0.05521831
-0.06432335 0.0045401193 0.03487419 0.059062954 0.066742316 0.0146150235 0.09393919 0.09257485
-0.06522638 0.012021161 0.060679007 -0.033528265 -0.09585091 -0.11395294 -0.012899275 0.040688716
-0.05206739 -0.009386268 0.067837134 -0.03022195 0.027344966 0.05633961 0.084349096 0.019994501
-0.01740761 -0.020793082 0.0008168494 0.057761334 -0.03370063 0.050281066 -0.021552527 -0.11082953
-0.050607413 -0.07296988 0.052099574 0.046113443 0.040809713 0.012789811 0.09578338 0.0022404322
0.013051143 -0.07270577 -0.10933361 -0.023549952 -0.059646178 -0.042420406 0.010514185 -0.002239419
-0.019567076 -0.071689844 -0.0062741265 0.08012451 0.039639108 0.014196777 0.025297698 -0.011622832
0.054910965 0.08404247 0.031077895 -0.04340618 -0.05578315 -0.16044989 0.073309965 -0.01659321
0.047291987 -0.012652234 -0.05069981 0.055901356 0.046960995 0.04385539 -0.00060903165 0.073590145
0.034620896 0.07135881 0.06094612 0.032385863 0.10497062 0.03743462 0.015059014 -0.08097554
0.0032165907 0.025953803 0.007284381 0.008617891 0.0735638 -0.02467188 -0.13292383 -0.11940271
-0.043825325 -0.012020887 -0.045759875 0.05653318 0.01539456 -0.02735896 -0.042315625 0.011742508
-0.019779677 0.036434278 -0.08594025 0.059138104 -0.0541799 -0.016123774 0.02514969 -0.0988069
0.038613718 0.00056828593 -0.10424455 -0.02727184 0.014832276 -0.016477 -0.015978612 0.080141
0.043978516 -0.019186346 0.028333997 -0.0052746255 0.013642211 0.023398072 0.05266025 0.13994707
0.002416297 0.020827811 -0.020456415 0.0029750708 -0.006834554 -0.09388827 -0.053303678 -0.051389843
-0.10216299 -0.025637968 -0.08837494 0.0023211478 -0.0636235 -0.01578029 -0.08155077 -0.017467868
-0.06652694 0.008991223 0.02083924 0.02408458 -0.03868691 -0.0140869105 -0.06649777 -0.027192187

net.model.convblock6.0.bias f4 [16]
00000000: 5832 833d 5a30 523d 5be2 063e 78bb ad3d
00000010: 21c5 de3a 97e9 983c e3f1 11be 052f cbbc
00000020: 7015 683c 1b3a 1fbd 058a e6bd 9d1a 19bb
00000030: a3ec 813d 9182 fe3c 5d72 673d 4058 85bd
0.06406087 0.051315643 0.13172285 0.084830225 0.0016996005 0.018666072 -0.14252429 -0.024802694
0.014165267 -0.038873773 -0.11256794 -0.002336181 0.06343963 0.031068118 0.05650555 -0.06510973

net.model.convblock6.2.weight f4 [16]
00000000: 2faa 863f 3b5b 863f 319c 813f c301 743f
00000010: f8f0 803f 60c3 7f3f ce7d 7e3f d825 803f
00000020: 9c20 683f 79ec 843f a00d 7e3f 3bbd 833f
00000030: a0bc 763f e902 773f 7c90 823f 68c4 733f
1.0520686 1.0496591 1.0125791 0.9531519 1.0073538 0.99907494 0.9941071 1.0011549
0.9067476 1.0384666 0.9923954 1.0292124 0.9638157 0.96488816 1.0200343 0.9522157

net.model.convblock6.2.bias f4 [16]
00000000: 99c0 d9bc 0098 42be 41d5 19bd ce3c 30be
00000010: 3f5e bfbc a043 3bbe 26cb 54be bdb7 02be
00000020: 6d55 13be 9911 2cbd d122 c1bd 2dc6 a5bd
00000030: 39cb bbbd d3f4 15be 34cb 6cbc 15a5 9fbd
-0.026581096 -0.19003296 -0.03755689 -0.17210695 -0.02336037 -0.18287516 -0.2078062 -0.12765403
-0.14388056 -0.04200897 -0.09430469 -0.0809444 -0.09169621 -0.14644174 -0.014452744 -0.07795159

net.model.convblock6.2.running_mean f4 [16]
00000000: f663 a43e cc27 a83e fb04 bf3e e60b 873e
00000010: 375d a73e 183d 973e ffa2 a13e b3ca 913e
00000020: fcad 963e 5542 953e 98e4 533e 796d 993e
00000030: 274d b43e ae2a 853e 9368 a73e 44cd 703e
0.32107514 0.32842863 0.37308487 0.26376265 0.32688305 0.29538798 0.3156967 0.2847496
0.29429615 0.2915217 0.2069267 0.29966334 0.35215113 0.26009125 0.3269697 0.23515803

net.model.convblock6.2.running_var f4 [16]
00000000: 57f3 993e fc6d 643e 7f47 9d3e 2f58 273e
00000010: e05a 833e 3394 1c3e 4a4a 7f3e 6a35 533e
00000020: 53c2 c73e fbd0 423e 95df 793e 51c7 3a3e
00000030: 396e 783e fd75 193e 5839 af3e 5b6c 4a3e
0.30068466 0.2230758 0.3071861 0.16342233 0.2565527 0.15290909 0.24930683 0.20625845
0.39015445 0.19025032 0.24401696 0.18240096 0.24260797 0.14986415 0.34223437 0.19767897

net.model.convblock7.0.weight f4 [8, 16, 1, 1]
00000000: a091 5d3e 563c 1abe 8d8d ca3d b7b9 1abd
00000010: 1c0d 1d3e 9d8f 23be be5a 36be cfe5 2dbc
00000020: 6e9b 9c3d 5552 393d b780 bc3d d439 8e3d
00000030: ad70 51be 1b0d c2bd 3f91 803e 30ec c43d
00000040: 8764 77bc 62c2 913e acc6 cd3d 9cde 953d
00000050: 9841 d33d 5ac2 393c 9939 90be 2462 d93d
00000060: 69ff 913d 79b0 92be a81b 523e 0faa 23be
00000070: a941 c63d c434 063e ae91 92bd 8795 cb3c
00000080: f90c e2bd d50f 21bd 1f98 873d b8f5 c9bd
00000090: 339f 75be 4a6a 5fbe 6298 8b3d 2b87 0d3e
000000a0: 951e c23d ac4a 16bd 3676 2c3e 132f 343e
000000b0: 6aa2 1f3e ef83 053e f4f8 2fbc e138 313e
000000c0: f140 503d db06 f03d 735c 453e 159e bcbd
000000d0: e48b 7c3e ffe6 43be 82a4 303e efe9 ad3e
000000e0: 0e20 15be 4480 013e ee8c 6abd 9b3e 53b9
000000f0: 558b 233c ca4e 12bb 8a38 0f3d d07c 27bb
00000100: 841b 1b3d 536e f7bd ee36 323e 7d85 c43d
00000110: 62b2 083e af70 3c3e 9991 90be 2afc 913a
00000120: 8d0f 3b3e fafb 973e bf76 3d3e 21c4 163c
00000130: 1557 0abe 9613 903e 8c1f 0b3d dc0c 03be
00000140: e50b 7dbe 4cf7 1c3d 6cf4 3ebe c6bd 91be
00000150: e29b 5bbd 5b68 42bd c784 21bd 702a 16be
00000160: f586 223e 445a ec3c 5c51 3fbe ef95 5bbe
00000170: bcfa a5be a911 fc3d 5f83 5cbe d114 47be
00000180: ca4d d63d f0b7 ad3c 9d7f f6bd 4a44 efbd
00000190: 36a3 5e3e 0802 c43d dbb3 a0bd a541 813e
000001a0: c184 953c 750c 8abd afe8 87bd eb5a e93d
000001b0: edb2 ab3d 2c43 c13d 931b 053e b971 8b3e
000001c0: 17c2 15be a95d 01bd 9547 9bbe e1ad 293e
000001d0: 0127 8e3d 87b0 453d 48a9 ccbc bde8 acbd
000001e0: 84e6 4cbd fc29 d33d 4c77 98be 5e15 08be
000001f0: d380 12be e84f 503d 99d3 76be e9ab 82bd
0.21637583 -0.15062079 0.0989028 -0.037774768 0.15337032 -0.15972753 -0.17808053 -0.010613873
0.07646833 0.045244534 0.09204238 0.069446236 -0.20453139 -0.09475156 0.25110814 0.09615362
-0.015099651 0.28468615 0.10047659 0.0731785 0.103152454 0.011337841 -0.28168944 0.10614422
0.07128794 -0.28650263 0.20518363 -0.15982841 0.096804924 0.13106066 -0.071566924 0.024851574
-0.110376306 -0.03932174 0.06620812 -0.0986132 -0.23986511 -0.2181789 0.06816174 0.13821094
0.09478489 -0.036692306 0.16841969 0.17596082 0.155893 0.1303861 -0.010740507 0.17306854
0.050843183 0.117200576 0.19273548 -0.09209839 0.24662739 -0.19131087 0.17250255 0.3396754
-0.14563009 0.12646586 -0.057263307 -0.0002014585 0.00998195 -0.0022324794 0.03496603 -0.0025556572
0.037868038 -0.120815895 0.17403767 0.09595773 0.13349298 0.1840236 -0.28236082 0.0011137773
0.18267651 0.2968443 0.1850233 0.009202034 -0.13509782 0.28139943 0.033965632 -0.12797874
-0.24711569 0.03832178 -0.18647927 -0.28465098 -0.05361546 -0.047462802 -0.039433267 -0.14664626
0.15871795 0.028851636 -0.1868338 -0.21443914 -0.32417858 0.12308056 -0.21534489 -0.19441535
0.10464056 0.021205872 -0.12036059 -0.11682947 0.21741948 0.095707 -0.07846805 0.25245395
0.018251779 -0.06740657 -0.06636178 0.11394294 0.08383737 0.0943664 0.129988 0.272352
-0.1462482 -0.031583462 -0.3032805 0.16570236 0.06941033 0.048264053 -0.024983063 -0.08442829
-0.050024524 0.10310742 -0.29778516 -0.13289401 -0.14306955 0.050857455 -0.24104156 -0.063804455

net.model.convblock7.0.bias f4 [8]
00000000: e303 2e3e ab7e b83e 4988 6cbe 2fd5 273e
00000010: cb58 abbd 8ce6 2a3e babf 343e 11b9 523e
0.1699367 0.3603414 -0.23098864 0.16389917 -0.08366545 0.16689509 0.17651263 0.2057841

net.model.convblock7.2.weight f4 [8]
00000000: 3e03 813f ee02 6b3f 9d27 803f b521 843f
00000010: 94d6 7d3f a529 743f f7ed 8a3f 849c 733f
1.0079114 0.91801345 1.0012089 1.0322787 0.99155545 0.95376045 1.0853871 0.951607

net.model.convblock7.2.bias f4 [8]
00000000: 05c4 273e 8bbb a13d d6d4 babd 9256 a73d
00000010: 1fed b6bd 0af0 18be 1e3e 043e f21a efbd
0.1638337 0.07897099 -0.091226265 0.08170809 -0.08931946 -0.14935318 0.12914321 -0.11675061

net.model.convblock7.2.running_mean f4 [8]
00000000: 5ff4 0a3f 13c0 203f 893a 983e 66f7 373f
00000010: 2614 2f3f a9a5 4d3e dc06 393f af4d a43e
0.5427913 0.6279308 0.2973216 0.71861875 0.6839012 0.20082726 0.7227609 0.32090518

net.model.convblock7.2.running_var f4 [8]
00000000: cd8c 293f 1351 0f3f cb7b af3e 8390 2d3f
00000010: a89b 643f ec50 233e b474 353f 0e71 473e
0.6623047 0.55983084 0.34274134 0.6779863 0.8930001 0.15948838 0.708812 0.1947672
