output/csv/version_0/checkpoints/epoch=4-step=275-v1.ckpt (torch, 179611 bytes, 152 tensors)

net.convblock1.0.weight f4 [10, 1, 3, 3]
00000000: 3a0d 9dbe 552d 783d af58 883e 02d7 eb3d
00000010: e041 913e 6585 33bb f60c 65be 57c2 85be
00000020: 8539 35be 0eb5 22be 447f 023e fa0d 453e
00000030: 8031 9b3e 27e3 63be cbe5 5c3e 9c42 aebd
00000040: 46f5 4bbe 8985 153d 11f7 16be 52f5 833d
00000050: 4931 50be c1cd 24be 8ba2 c83d 913a 8d3d
00000060: ad0a 3d3e df08 71be 00a5 903e b502 1abe
00000070: 2d77 26bc 9655 08be 5980 8fbe ef25 a13d
00000080: a226 353e ab37 c03d 9c94 8f3e d618 0bbe
00000090: a57e 73be cfd1 e83d dd32 933d 1780 8abe
000000a0: c0ea 9bbe 3352 9a3e 9a83 5abe 843d 1fbe
000000b0: 3989 a4be 686c 603e 1f6d 103e c061 44be
000000c0: 6e3a b83e 1e4a cc3d 280a d23d a077 463e
000000d0: f76f ac3e c01b b7bd c629 913e 541f 8f3a
000000e0: 6660 44be 4fca 54be 52c3 30be 4b22 a9bd
000000f0: 32b1 383e f03e 483e 161d 1a3e b1b9 913e
00000100: 8b9d 71be f0e0 8c3e d071 86be ae8c 803d
00000110: 69b9 a83e 69da 69be 78c5 b03e a3ac c3bd
00000120: 1762 743e 21b2 823e ada9 7fbe 6f3a f1ba
00000130: 347f 7b3d 67b2 973e a216 273e 63ac 883e
00000140: 45db 59be 998e 963d b9fd 753e 683b 56bd
00000150: 9a13 993e 5cba 2dbe 66b6 94be 1991 c8bd
00000160: ee19 983d 8f5c bdbe
-0.30674154 0.060590107 0.2663016 0.11515619 0.2837057 -0.0027392742 -0.22368225 -0.26124832
-0.17697723 -0.1588938 0.1274386 0.19243613 0.30311203 -0.2225462 0.21572034 -0.085087985
-0.19917783 0.036504302 -0.14742686 0.064432755 -0.20331301 -0.16094114 0.097966276 0.06895936
0.18461104 -0.2353854 0.28250885 -0.15040095 -0.01016025 -0.13313898 -0.2802761 0.078685634
0.17690518 0.09385618 0.28043067 -0.13583693 -0.2377878 0.11368143 0.07187436 -0.2705085
-0.30452538 0.30140838 -0.21339265 -0.1555081 -0.32135943 0.21916354 0.14104126 -0.19177914
0.35982078 0.09975074 0.102558434 0.19381571 0.33679172 -0.0894084 0.28352183 0.0010919371
-0.19177398 -0.207803 -0.17262009 -0.08258494 0.18036345 0.19555259 0.15050158 0.28461984
-0.23595254 0.27515364 -0.26258707 0.062768325 0.32953957 -0.22837223 0.34525657 -0.09554412
0.23865543 0.25526527 -0.2496707 -0.0018404255 0.061400607 0.29628298 0.16317227 0.2669402
-0.21275051 0.07351417 0.24022569 -0.052302748 0.29897767 -0.16965622 -0.2904541 -0.097933
0.07426821 -0.3698468

net.convblock1.0.bias f4 [10]
00000000: 03de 96bb 58a5 f53c 6a0c 4f3e 5ae5 263d
00000010: ffea 703e f431 223e 55f0 9c3d a01d 9abe
00000020: c94d 073e bb11 5ebe
-0.0046041026 0.029986069 0.2021958 0.04074607 0.23527144 0.15839368 0.07663027 -0.30100727
0.13213266 -0.21686451

net.convblock1.2.weight f4 [10]
00000000: 3308 813f e434 783f a144 7a3f 4e75 7d3f
00000010: 582d 873f dcbc 793f 59d6 863f bbdd 803f
00000020: f8cc 773f ef4c 833f
1.0080627 0.96955705 0.9776097 0.9900712 1.0560713 0.975538 1.0534164 1.0067667
0.9679713 1.0257853

net.convblock1.2.bias f4 [10]
00000000: 8fbe a83c 17c8 303c 46e3 de3c 64e9 e9bc
00000010: 8d5f 5fbc 3364 e0bc e9ce 9ebc 4e97 c7bb
00000020: cb76 97bd f3a2 8d3a
0.020598678 0.010789893 0.027207982 -0.028553672 -0.013633621 -0.027391529 -0.019385772 -0.006091035
-0.07395705 0.0010806009

net.convblock2.0.weight f4 [16, 10, 3, 3]
00000000: 8d3b 0f3d 5d71 eab9 9fc1 86bd a7e6 45bd
00000010: bec4 b7bd 153b c53c c8b5 88bc 552f c7bd
00000020: 6244 2f3c 55b4 a0bd e209 0a3d 5ceb 00be
00000030: 780c aa3d 258d 0b3d 976b 59bd 9dd1 993d
00000040: 5150 21bc e255 653d 6bab b53c c473 0b3d
00000050: 618c 053d 80d7 1bbd dffb 05bd d3d8 cebd
00000060: d291 c93d 6e6b 613d 54a5 8cbd 1c59 883c
00000070: 974b 43bc dca4 bd3d 3c8d babc 469e 193d
00000080: 362e 4abd ed76 10bc ae2d e13b 66f4 a73d
00000090: a581 15bd 9412 5dbd 23e5 ba3d ecae 383c
000000a0: f290 ca3d 18ae 763d 32f9 a13d a688 b73d
000000b0: 4b5b e83b 8326 a3bc fbd2 b73a bbad d73b
000000c0: 88a5 4ebc 1f00 adbd aae0 423d ba16 d3bc
000000d0: 3a95 febc 6377 413c 0f6a b3bc 1a46 63bd
000000e0: 4bd8 e43c f07a 47bd 0ffe 40bc 899a 1dbd
000000f0: 0902 0dbd 9288 8c3d 46c4 e53d d2b6 8a3d
00000100: 62d9 683d a2c4 a1ba c9cf 2dbc 9dff 86bd
00000110: 0745 f23b 61f0 c23d 0f68 ba3d c85c d53b
00000120: 87d6 973d 716b a13b 3b0f 083a a1e8 d63d
00000130: 4ef9 113d 5c29 c93d 3918 53bb f9d7 19bd
00000140: 5028 94bd 78ee d8bc 8873 c23c a435 1ebd
00000150: 8f89 aebd 4ff9 91bd 4df6 cf3d dc44 2b3d
00000160: aee9 0f3c 5494 bd3d eb78 ed3d d4d6 4ebd
00000170: 35d0 223d 99cb cabd 29a6 8d3d 51a1 f83d
00000180: 82a7 9f3d 9059 90bd 0452 443b e8a2 ce3d
00000190: 3ba2 4fbd 388a 0dbe 9599 70bc 34c1 24bd
000001a0: 4e6b 30bd fcf6 bd3d 094f e13c 20d8 543d
000001b0: e26a 42bc a5d9 12bd 2970 2b3c ff4f 48bd
000001c0: caaf 753d 9b05 8a3c 77f3 123d f3f5 263d
000001d0: 2efd d03d 29af b93b f0da 4d3d e1d1 023d
000001e0: f921 243d 13bd 8f3d d780 41bd 0011 9fbd
000001f0: 9a2f 3ebd 1b43 9dbd eca4 003d a4f1 30bd
00000200: 6803 a5bc 0ee2 b3bd 37fb 003c aead 523c
00000210: 40f6 aabc 78af ccbb df95 1ebd 8ba8 7ebd
00000220: 67f5 3cbd 1e83 e1bc 1e96 51bd 529a 503d
00000230: 248e 02bd 9757 83bc 5c66 b43d 4e7a 83bd
00000240: 6dbc e13d e428 02bb 81c3 aa3d 76e6 a43d
00000250: ebbd e8bd 7c81 df3d fbc2 03be 7567 28bc
00000260: 6e80 82bb fea7 52bc 2348 a93d ce7b dc3d
00000270: 8078 5dbd 4b9f 993d 5a4a 14be 83eb febc
00000280: c90d 373d c32e d53c c97c 103d 63c5 15bd
00000290: 50bb 6bbd ad70 d33b 5ae4 063d 67da a53d
000002a0: 0ed7 253c 1bd0 853d 0aa5 0b3d 3192 603d
000002b0: da2c aebd ae64 333d 9fd5 2a3d c2e8 9b3d
000002c0: 30e3 c73d 7ebe 123d 2a02 98bd fd3b 673d
000002d0: 0fed f93c e27e 99bd b0e2 563d 21ca ac3d
000002e0: 46fc 95bd e138 c53d 25ed d6bd 963e 73bd
000002f0: 2185 f5bc 7332 453d c918 73bc 51e1 033d
00000300: 613d bd3d 0beb bcbc 2057 e6bc daf3 a3bd
00000310: 0aa4 273d 9ab3 ca3d 2faa 1c3d cc57 dd3d
00000320: c80b 843d ecc2 f13d 2854 02bd 0713 4cbd
00000330: 0159 c4bd 7fe9 0ebd 98b6 28bd 8ea3 153e
00000340: 924e e4bc e663 8a3d dcc1 c83c 5748 9c3d
00000350: 44cb e33c b6e4 883d d8fd c0bd 5ace eb3c
00000360: d085 5c3d a9a0 f53b 844f 0fbe 781f cabd
00000370: e59f 8fbd e82e 3a3d bf2b 3cbe 8376 38bd
00000380: cc62 ccbc 420f dd3c 9a06 48bd c89e ac3c
00000390: 039b 113d a57d 08bc 99bc b13d ad77 003d
000003a0: 535b 89bd b9ac febc 9b2e d0bd 0a4f 04be
000003b0: 257c 58bd 61a1 e8bd 23f5 89bd eb49 fbbd
000003c0: 1788 8fbc 66ac edbd 8d18 c5bc e6ca b63d
000003d0: 23fa 9ebd a285 38bc 48ba a93c edbe cf3d
000003e0: f968 06bd b681 d13b 92d6 523d 052f bdbd
000003f0: b828 8dbd 3f96 a53d 23fa 543d 65ed 21bc
0.0349689 -0.0004471642 -0.06579899 -0.04831567 -0.089730725 0.024076024 -0.016688243 -0.09725825
0.010697456 -0.078468956 0.03370083 -0.12589782 0.083031595 0.034070153 -0.05308112 0.07510684
-0.009845809 0.055990107 0.022176465 0.03404595 0.03260458 -0.038047314 -0.032710906 -0.1009995
0.09842266 0.055034094 -0.06867471 0.016644053 -0.0119198775 0.0925996 -0.022772424 0.037504457
-0.049360476 -0.008817417 0.0068719005 0.08200912 -0.03650059 -0.053972796 0.091257356 0.011272173
0.098909274 0.060224622 0.07908858 0.089616105 0.007090961 -0.019915825 0.0014024669 0.0065819896
-0.012612708 -0.08447289 0.047577538 -0.025767673 -0.031077016 0.011808249 -0.021901159 -0.055486776
0.027935168 -0.048701227 -0.011779322 -0.038477454 -0.03442577 0.06861986 0.11219077 0.067731515
0.056847937 -0.0012341926 -0.010608622 -0.06591723 0.0073934826 0.09518505 0.09101879 0.0065113045
0.07413965 0.004926138 0.0005190258 0.10493589 0.035638146 0.09822342 -0.0032210483 -0.037559483
-0.072342515 -0.026480898 0.02373673 -0.038625374 -0.08522331 -0.0712763 0.101544 0.041813716
0.008783741 0.09256807 0.11595329 -0.050497845 0.039749343 -0.099021144 0.06916458 0.12140144
0.077956215 -0.07048333 0.0029956112 0.10089666 -0.050691824 -0.13822258 -0.014685054 -0.040223315
-0.043071084 0.09275624 0.027503507 0.051963925 -0.011866303 -0.035852093 0.010463753 -0.048904415
0.0599821 0.016848376 0.035876717 0.0407619 0.1020454 0.0056666327 0.050257623 0.031938437
0.04007146 0.07018485 -0.047242012 -0.07766914 -0.046432115 -0.07678815 0.03140728 -0.043199196
-0.020143226 -0.08783351 0.007872394 0.012858791 -0.020869374 -0.0062465034 -0.038717147 -0.062172454
-0.04613247 -0.027528342 -0.051168554 0.05092842 -0.031873837 -0.016032977 0.08808586 -0.06419812
0.110222675 -0.0019860798 0.08338071 0.080517694 -0.11364349 0.10913369 -0.12867348 -0.010278572
-0.003982595 -0.012857435 0.08265712 0.10765801 -0.054069996 0.07501086 -0.14481488 -0.03111816
0.04469088 0.026023274 0.035275254 -0.036565196 -0.057551682 0.006452641 0.032932617 0.080982976
0.010122074 0.065338336 0.03409294 0.05482692 -0.085046485 0.043797188 0.04170763 0.076127544
0.097601295 0.0358262 -0.07422288 0.056453694 0.030508546 -0.07494904 0.05246228 0.084369905
-0.07323508 0.096299894 -0.104944505 -0.05938586 -0.029970707 0.048143815 -0.014837452 0.0321973
0.09240223 -0.023061296 -0.028117716 -0.08005495 0.040927924 0.098975375 0.038248237 0.108077615
0.064475596 0.118047565 -0.03181854 -0.049822833 -0.09587289 -0.034890648 -0.04118976 0.14613172
-0.027869496 0.06757335 0.024506502 0.07630985 0.027806886 0.06684248 -0.09423417 0.02878492
0.05383855 0.007495959 -0.13995177 -0.098692834 -0.07012919 0.04545489 -0.18376063 -0.045034897
-0.024949454 0.026984815 -0.04883442 0.021071807 0.03554822 -0.008330737 0.0867855 0.03136413
-0.06706872 -0.03108822 -0.10165139 -0.12920776 -0.05285277 -0.113589056 -0.06736209 -0.12269958
-0.017520947 -0.11605148 -0.024059558 0.089254186 -0.077625535 -0.011262329 0.020718709 0.10143838
-0.032814953 0.0063936366 0.05147416 -0.09237484 -0.06892532 0.08085298 0.05199636 -0.009883259

net.convblock2.0.bias f4 [16]
00000000: 228c c0bd 7747 aa3d 9651 f4bb c907 513d
00000010: 3d3c bf3d 6855 d53c f0c9 473d 94ee 09bc
00000020: d3a5 a9bd c9e3 253d e294 0b3d a656 623d
00000030: 3f2c c2bc 0021 89bd 963a 47bd 510f a73d
-0.09401728 0.08314412 -0.007456015 0.051032815 0.093376614 0.026041701 0.048776567 -0.008418698
-0.082835816 0.040500436 0.034077533 0.055258416 -0.023702739 -0.066957474 -0.048639856 0.08157218

net.convblock2.2.weight f4 [16]
00000000: c587 7d3f df02 7e3f 561b 843f 940b 823f
00000010: 1b1a 813f c308 783f a0a1 843f 36e3 813f
00000020: 497f 783f 9c44 853f 26a7 7c3f ef60 843f
00000030: 35ec 7f3f 9947 813f 9f97 833f a90f 793f
0.9903529 0.9922313 1.0320842 1.0159783 1.0086092 0.9688837 1.0361824 1.0147464
0.9706922 1.0411563 0.9869255 1.0342082 0.999698 1.0099975 1.0280646 0.9728952

net.convblock2.2.bias f4 [16]
00000000: d438 81bb a59f d2bb 5bf5 acbc 5088 f8bb
00000010: 0c45 12bc 5cc0 bf3b 7fb1 a3bc 6c88 7cbd
00000020: 0913 8e3d a6b5 1bbd 8a53 b2bb 9ffb d1ba
00000030: 602e 0c3d 9b68 4b3c cf36 68bd 28d5 023d
-0.003943542 -0.0064277225 -0.021113088 -0.007584609 -0.008927595 0.0058517884 -0.019982098 -0.06165354
0.069372244 -0.03801503 -0.0054420875 -0.0016020423 0.034223914 0.012415077 -0.056692895 0.031941563

net.convblock3.0.weight f4 [8, 16, 1, 1]
00000000: dcfd 423d ea1b 8ebd c7e3 50be b35e f93d
00000010: bbae 8dbb d7a0 163e b389 a23c f0f2 70be
00000020: e150 733e 0bf3 09be 9f38 033e c4f4 6abe
00000030: 21c5 6a3e e009 d63d 5ff0 98bc 69d2 34be
00000040: 7488 5a3e f9a7 24bd 5b0f 03be 6d3a 88be
00000050: f08a 1fbe 4f4f 0fbe 10b3 fd3c b998 0fbc
00000060: b3b6 cf3d 9f5d 68be 87c2 333e ecfc 5e3e
00000070: debd 7f3e 3e68 553e 611b b4bd 4797 82bd
00000080: e55b 1c3e a892 253e 300b 173d ba0e 493d
00000090: cd4b df3c 46ba 3dbe 0750 213e ea53 83be
000000a0: 4e07 043e 96c5 b8bc c690 183e 72a5 01be
000000b0: 6c51 8a3d 229c 573d d2bd af3d 1e1b 96bd
000000c0: e80b 4fbe 11ef bcbd 9cb1 dbbd d25b 723c
000000d0: 96d5 05be c200 15be deef 773d 0a94 563e
000000e0: e7be 393d 3754 8d3e 4268 5f3e bb71 2c3e
000000f0: 0d89 0d3e 1fd1 88bd 135b 88bd db24 8a3d
00000100: 6641 c5bd d410 4a3e 1878 193c 6e89 6fbe
00000110: 5c45 bd3d bd8c 833e 29e5 3d3d a246 8dbd
00000120: 1212 e03d 6d4e 1c3e ccec 20be 9a8a 333c
00000130: 0b81 1cbe aeda f73c 2dca 2cbe da98 233e
00000140: 2196 843d 1823 fdbc d5a9 ea3d 5c4f 333e
00000150: 63fb 8e3e 6329 cd3c 0ae9 643e 8709 173e
00000160: 63bd 643e 269d 08be 0099 5f3d 3a2b 00be
00000170: fb1f e5bd 078b 833d 2dca 04be b594 383e
00000180: 17f7 44be 1309 313e a6c6 f43d 796f 1d3e
00000190: 58df 2e3d 950e 083e b83a 05be 95b2 313e
000001a0: 9513 573e 4afa 17be 129b 62be 8606 df3d
000001b0: 3659 a7bc 8f59 d1bc d6d8 4c3e 7b8c 0b3e
000001c0: eee5 9dbd 7688 1ebe 3d9d 233d e5d3 223d
000001d0: befd df3c a8ca 9fbc dfc7 2ebe 2311 943e
000001e0: 8ca1 3a3e 33af 17be 0de0 8bbd 6621 e63d
000001f0: fac4 11be c037 74be cdfb 0b3d 95d0 2e3e
0.04760538 -0.06938918 -0.2039939 0.121762656 -0.004323808 0.14709793 0.01984105 -0.23530173
0.23761322 -0.1347162 0.12814568 -0.22944933 0.22926761 0.10451102 -0.018669305 -0.1765839
0.21341115 -0.040199254 -0.12798826 -0.26607075 -0.15580344 -0.13995098 0.030969173 -0.008764439
0.10142269 -0.22691964 0.17554675 0.2177617 0.24974772 0.20840546 -0.087942846 -0.0637651
0.1526943 0.16169226 0.036875904 0.04908631 0.027257824 -0.18528089 0.15753184 -0.2564996
0.12893412 -0.022555154 0.14898977 -0.12660769 0.06753811 0.052639134 0.08581127 -0.07329391
-0.20219386 -0.09225286 -0.10727236 0.0147923995 -0.13069758 -0.1455107 0.06053149 0.2095491
0.045348074 0.27603313 0.21817115 0.1684026 0.13821812 -0.06680512 -0.06657996 0.06745311
-0.096316144 0.19732982 0.0093670115 -0.23392269 0.09241745 0.25693312 0.046361122 -0.06898238
0.10940947 0.15264292 -0.15715331 0.010958338 -0.15283601 0.030255642 -0.16873999 0.15976277
0.06473947 -0.030900523 0.11458174 0.17510742 0.27926168 0.025044149 0.22354522 0.14749728
0.2233787 -0.13341197 0.05458927 -0.1251649 -0.111877404 0.06423002 -0.12967749 0.18025477
-0.19234882 0.17288618 0.11951952 0.15374555 0.042693466 0.13286813 -0.1301068 0.1735328
0.21003564 -0.14841571 -0.22129467 0.10889916 -0.020428281 -0.0255554 0.20004591 0.13627808
-0.07709871 -0.15481743 0.039944876 0.03975286 0.027342673 -0.019505814 -0.17068432 0.28919324
0.18225688 -0.14812927 -0.06829844 0.11236839 -0.14235297 -0.23849392 0.034175683 0.17071755

net.convblock3.0.bias f4 [8]
00000000: 5126 aebc 2066 bbbd 128c 3fbd 6b54 6a3e
00000010: 5532 19bd c812 f7bd 819d 4ebe 20d0 90bd
-0.021258505 -0.09150338 -0.04676444 0.22883765 -0.037401516 -0.12064129 -0.2017727 -0.07070947

net.convblock3.2.weight f4 [8]
00000000: 4161 793f 72b9 793f 1dde 7f3f e69f 813f
00000010: a3d5 773f 1450 833f b570 803f 0828 853f
0.9741402 0.9754859 0.9994829 1.0126922 0.9681036 1.0258813 1.0034395 1.0402842

net.convblock3.2.bias f4 [8]
00000000: b3d4 3f3c f327 a73c 009f c8bc fa41 d4bc
00000010: dec6 883b 69d3 06bd fd25 f93c c739 ac3c
0.011708426 0.020404791 -0.02448988 -0.025910366 0.0041740974 -0.03291646 0.030413622 0.021023644

net.convblock4.0.weight f4 [16, 8, 3, 3]
00000000: 271c b4bd 880c acbc e83f df3c d8c5 b4bd
00000010: cf30 cabc 221e 66bd d8ab cc3d a5fd 093d
00000020: 5ffe 0ebd 4b52 123d 695b b5bd f5bc dcbd
00000030: f677 9a3d 41f1 6f3c 9c5e 083d a438 8b3c
00000040: a08e b3bd 3e7c b3bd cc38 9dbc 16a9 843d
00000050: 86d0 a33d 8df7 ea3d 41da 963c 1dfe 863d
00000060: 001b b13d 281d d1bd d6d7 b8bd eb65 1fbe
00000070: 9c76 c73d 2d19 5a3c a65b 34ba d50c 823c
00000080: b03b a43b b528 10bd 7d22 8abd 86ea 0f3d
00000090: 25c5 ebbd 9d74 4d3d 7d8f 163d 63c4 3cbd
000000a0: 521d 6cbd febd 5ebd 77c9 aabd df7f 443d
000000b0: e531 073d ab0b 84bc fa10 3dbb 6db7 223d
000000c0: 094d c93d 766d bbbb 1585 453d 2a9e ab3d
000000d0: 5f1f a83c 99e0 93bd c0b0 f83d a8be a6bd
000000e0: aaa6 87bc 0ea2 023c 69da bb3d b7fe 96bd
000000f0: 5c2c 12be a33e e43c 8da6 2fbc bbf3 5ebd
00000100: 9573 8bba f219 553c dee8 1bbd 7ff8 933d
00000110: ae62 a9bc 9628 6f3d 64ff a13d b4ca 963d
00000120: b27f 003d 2cba d63d 0528 f5bb 10aa 95bd
00000130: 31cc db3d f129 e13c c597 eb3d ec84 8dbc
00000140: a1ea e2bd d4a5 07be 79a2 b53d 7b64 f43d
00000150: 2143 ce3d 6343 b1bc 75de 86bd b534 b0bd
00000160: 3f8e 153d e4c4 31bd 0616 0638 2860 cf3c
00000170: fe37 81bd bd69 5fbc 3dce c3bd 936f 623d
00000180: 99eb ee3c accf a23d cac4 873d a327 36be
00000190: fdeb 443c ca3d 2abd c7ff 2c3d 645b 99bc
000001a0: 2c72 18bd 9645 d83d 65a7 f93b 020c c43c
000001b0: e788 1a3d ea7b e0bd 5712 253d cc30 963d
000001c0: 989e 2c3c a367 833d e55a 9bbc 9c2d 2939
000001d0: 9763 ee3b b1e0 4dbd 331f 903d e122 a4bd
000001e0: 5ea4 c0bd 93fe dbba 54dd cb3d a21e 9bbd
000001f0: bf0b cc3c a884 9d3d b63b 6b3d 00fd 513c
00000200: ab27 b4bc b962 9cbb 43a7 083d 7cb7 bc3d
00000210: a7f0 fa3b 3d9e 88bd 21bd 343c f855 d9bc
00000220: 92c4 e7bd 3211 5fbc e1bb 04be 3b4b a8bd
00000230: 9599 d33d 6a36 9abd 50df 55bd 7546 173d
00000240: 7207 b13d 3ea3 643d a478 1ebd 6ace 85bc
00000250: d3de 10bc 8dc4 833d 8742 2f3d b50a f5bd
00000260: 2cb3 f4bd 1f6e 2bbd c632 3f3d 9071 79bd
00000270: 3edf 15be d249 2e3d 5445 0cbe 3e64 8b3d
00000280: 5e16 b0bd 82cd 35be 0f3a 85bc 9d12 9b3d
00000290: 1f9b d23c 4dc9 ce3d 9aae 4cbd b4a1 f5bc
000002a0: 33b7 c9bd 4241 e5bd a965 edbd 1461 2e3d
000002b0: 87d6 bcbc 2269 fcbc 9245 b0bd 209d 3a3d
000002c0: cd78 a83c 77d0 2c3d 2529 ab3b bf8f 38bd
000002d0: 522f 3dbd 2679 f43d eb16 e93d f70d 033d
000002e0: bb0d 973d 63c2 aebd f06b 75bd a167 16be
000002f0: b21e 9abd 4525 223d 1119 893d 815b 6f3d
00000300: b485 8fbd b75b ff3d aeaa 97bd 4196 64bd
00000310: 999e efbd 87c5 b0bd d9b7 f03b 354e 123e
00000320: f8bc 74bb 0970 e03c 5221 d6bd b135 ddbc
00000330: 57b6 26bd 72d7 a8bd 18df eabc f9c6 173d
00000340: 949f 25bc 4bf8 793d 1e5f 03be be5c 1c3c
00000350: 54bb afbd 257e 30bb cbfd d93d 285c 863b
00000360: 4529 213c ac54 58bc 8707 45bd 66c0 443d
00000370: 6f7e e1bd 5698 56bd 8882 91bb 434b dfbc
00000380: 1726 c33c 5eb0 ea3d f734 e0bc 25e5 273d
00000390: 9576 0b3d 0d6e 0e3d de5a ba3d bb53 733d
000003a0: d0ae 84bc e2dd 13bd e4a5 863d dbb4 55bc
000003b0: 81c9 bdbd bb0d dbbd a6ac 1b3c b9d5 e9bd
000003c0: 4ae5 bd3d 2efa 4cbc be25 e4bc 7774 80bc
000003d0: 15d9 5abd 6c8b 0cbe e1cb 97bc e7fa 963d
000003e0: 4edc e3bc bd68 fc3d 13f2 143e 3e4f e83d
000003f0: 263d 4abd a263 e0bd 835a 9cbd b3f7 3e3d
-0.08794432 -0.02100207 0.027252153 -0.08826798 -0.024681477 -0.05618108 0.09993714 0.03368916
-0.034910556 0.035723012 -0.08855326 -0.10778228 0.07542412 0.014644922 0.03329335 0.016994782
-0.08767438 -0.08763932 -0.019192122 0.06477563 0.07998757 0.11472998 0.018414618 0.06591437
0.08647728 -0.10210639 -0.090255424 -0.15566222 0.0973942 0.013311666 -0.0006880112 0.01587526
0.005011998 -0.03519507 -0.06744859 0.03513577 -0.11512212 0.05016004 0.036757935 -0.046085726
-0.05764515 -0.05438041 -0.083392076 0.04797351 0.033006568 -0.016118845 -0.002884923 0.03972571
0.098291464 -0.005719836 0.04822262 0.08379777 0.020522771 -0.07220573 0.121430874 -0.081418335
-0.016558964 0.007973207 0.09172518 -0.07372802 -0.14274734 0.027861899 -0.010720861 -0.05443166
-0.0010639305 0.013006674 -0.038063876 0.07225131 -0.020676937 0.058388315 0.0791004 0.07362881
0.03137178 0.10484728 -0.0074815773 -0.073078275 0.10732306 0.02748582 0.11503557 -0.017275296
-0.11079908 -0.13246852 0.0886888 0.11933228 0.100713976 -0.021638578 -0.06585399 -0.08603803
0.03651261 -0.04340066 3.19686e-05 0.025314406 -0.06309508 -0.01363605 -0.09560821 0.055282187
0.029165076 0.079497665 0.066293314 -0.17788558 0.012019155 -0.041562833 0.042236116 -0.018720336
-0.037218258 0.105601475 0.007618832 0.023931507 0.037728216 -0.10961135 0.040300693 0.07333526
0.010535859 0.064162515 -0.01896424 0.00016134087 0.0072750556 -0.05026311 0.07037201 -0.08014465
-0.094063506 -0.0016784243 0.09954324 -0.07574202 0.024907945 0.07691318 0.05742999 0.012816668
-0.021991571 -0.004772511 0.03336264 0.09214684 0.0076580825 -0.066708066 0.01103142 -0.02653025
-0.1131679 -0.0136149395 -0.12962295 -0.08217474 0.10332028 -0.0752991 -0.05221492 0.036932427
0.08643998 0.055819742 -0.03868927 -0.016333777 -0.008842188 0.064339735 0.042788055 -0.11964933
-0.11948237 -0.041853067 0.04667928 -0.060899317 -0.14635941 0.04255087 -0.13698322 0.06806229
-0.08598016 -0.17754176 -0.016263036 0.075719096 0.025708733 0.10096989 -0.0499712 -0.029984333
-0.098493956 -0.111940876 -0.11591656 0.04257305 -0.023051513 -0.03081185 -0.086070195 0.045560002
0.020565415 0.042190995 0.0052234107 -0.045058962 -0.046187706 0.1193717 0.113813244 0.03199574
0.07375666 -0.0853317 -0.05991739 -0.14687969 -0.07525386 0.039586324 0.06694234 0.058436874
-0.07007924 0.12468665 -0.074056014 -0.055807356 -0.11700172 -0.08631425 0.007346135 0.14287646
-0.003734408 0.027397173 -0.10455574 -0.027003141 -0.040701237 -0.08244218 -0.028670833 0.03705499
-0.010108847 0.061027806 -0.12829253 0.009543596 -0.08580652 -0.0026930657 0.1064411 0.0041003413
0.0098365 -0.013203781 -0.04810288 0.048035048 -0.110104434 -0.052391373 -0.0044406094 -0.027257567
0.023821874 0.114594206 -0.027369006 0.040990014 0.034048636 0.03477292 0.09099363 0.059406023
-0.016196638 -0.036100276 0.0657461 -0.013043608 -0.092669494 -0.10695978 0.009501612 -0.114177175
0.09272249 -0.012510819 -0.027850028 -0.015680535 -0.05342968 -0.1372506 -0.018529834 0.073720746
-0.02781501 0.12324665 0.14545469 0.11343239 -0.049374722 -0.109565035 -0.07634451 0.046622943

net.convblock4.0.bias f4 [16]
00000000: fb62 48bd 480b 94bc cdf3 7d3d a6da 0e3e
00000010: 6857 23bd 933f 733d 9fcb a23c b8b1 a63c
00000020: 47f0 abbd b944 803d 416c e4bc 65cb 21bd
00000030: 9570 5b3d b898 64bd c0b7 abbc cc58 3ab9
-0.04892252 -0.018071786 0.062000085 0.13950595 -0.03987828 0.0593868 0.019872485 0.020348415
-0.08395439 0.06263108 -0.02788365 -0.039500613 0.053574163 -0.055809706 -0.020961642 -0.00017771422

net.convblock4.2.weight f4 [16]
00000000: 2962 783f 725f 783f 9e8e 883f 3a3f 823f
00000010: 4df9 833f 26ba 7e3f 3f4f 793f 680d 743f
00000020: f4ce 7f3f d040 793f 8938 803f 75e9 833f
00000030: 3bfa 7f3f 622d 753f f74c 753f 4fe0 893f
0.9702478 0.9702064 1.0668523 1.0175545 1.0310456 0.9950279 0.97386545 0.95332956
0.9992516 0.9736452 1.0017253 1.030562 0.99991196 0.95772374 0.95820564 1.0771579

net.convblock4.2.bias f4 [16]
00000000: ea7a 8bbc 16c5 5ebc 02a6 acbc 2e0f 9abc
00000010: 1d37 b4bc f9ce 083c b9f4 573c b992 ce3c
00000020: 856d f33c 3a57 663c 7967 febc 9903 bebb
00000030: 45f3 29bb 5d80 db3c 99cd 513d 9183 93bb
-0.017026383 -0.013596794 -0.021075252 -0.018806066 -0.021998936 0.008350127 0.013180905 0.025216447
0.029715309 0.014058882 -0.031055199 -0.0057987687 -0.0025932353 0.026794607 0.051221464 -0.004501768

net.convblock5.0.weight f4 [16, 16, 3, 3]
00000000: bb1a 213d 28f8 a83d 97df cabc 7ba9 373d
00000010: a56f 89bd a1ab 3fbd 4acc d8bd a8c2 0abd
00000020: 6657 26bd 8d2b f13c e2c5 da3b 4c39 aa3d
00000030: 1632 aabd 6028 a6bd c25f b33c b289 b83b
00000040: 9360 063d 91de a83d 11d5 dbbd 2431 9bbd
00000050: c359 c23d ecd3 1fbc abbb 463d 3df8 a23d
00000060: cfd4 23bd 8037 bebd 8d70 c9bd 239b eb3c
00000070: 954a ae3c 9cac 5fbc df29 11bd 2c62 f23c
00000080: ef99 a1bd f6d7 46bc ed90 4a3d e4bf 4d3d
00000090: cb03 3b3c 93b4 92bc 6cf5 d0bc 951a 723d
000000a0: 97c4 a33d ae48 773d f4e6 c13d f206 31bd
000000b0: b61d 81bc 198a a9bb 8f29 8a3c 4d29 9bbd
000000c0: ba5a ab3b 263d b23c 850f 84bb 62e0 693d
000000d0: d217 063d 255b b13b ee82 22bd e8bd 5aba
000000e0: 72bd 8b3d a2c6 4f3d bcd4 05bb f11e 483d
000000f0: 8057 a0bd bbca 333c 0631 4cbb a6e2 84bc
00000100: ec9e 513d 2d8e 9abc 961a a6bd 30e1 6e3c
00000110: e73d 263c 33b1 0b3d 03e0 843b 5934 2fbd
00000120: 809b 75bd 4454 703d 289f 74bc 099d 8c3d
00000130: 3be8 1abd ad01 30bb de13 7b3d 9d12 f93d
00000140: a117 573d 8fd5 7fbd dbbf 8ebb 147b 41bd
00000150: d501 a4bd 64a7 753d df71 b4bc 2b8c b0bd
00000160: 912b 6fbd 774b f13c 9d80 dd3a e1c1 bf3d
00000170: 34e1 c23c 5d4e 903b f284 9e3d 7c8b 873c
00000180: 058d 033c 2684 413d 7284 dc3a 2e19 cc3d
00000190: 7531 3cbc e795 ca3d 4f1b 333d 0237 a03c
000001a0: 83d2 a6bd c66e b9bd 73a6 8abc 8ac3 bb3d
000001b0: 2abb e03c f1ca babc c666 4a3d f8ee b4bd
000001c0: ed9d 4cbd 3984 febc 8752 083c 0591 733d
000001d0: 853d be3d ada5 e8bc 5a77 a93d 52fd 28bd
000001e0: cfcb 243d ea91 64bb 4248 043d adb0 313c
000001f0: a274 f3bd dac0 213c 5a8c 5cbd 2efa 87ba
00000200: efed bcbd db69 81bd 5dd8 b2bc ee52 60bd
00000210: c37f a13c 6335 103d 7746 c4bc 7f4a 72bd
00000220: fad2 a9bd 24e1 8dbd 23ed f13d 6aab ae3d
00000230: 5680 b83b c72d 8f3b 84fd 52bd 6bfb 1f3d
00000240: c47b 0e3d 2e15 0bbd 1f7e 4b3d 2e35 103d
00000250: b4a7 ebbc d26b 983c c713 0c3c a42e 99bd
00000260: 4382 0e3d d08a b9bc db26 96bc b32b 01bc
00000270: f139 6bbc 9c37 d33b 63b1 b8bc 8739 bbbc
00000280: 82d1 d6bb ae3d 54bd 4440 4f3c 220e 4b3c
00000290: d5da c53d e7a2 7e3d 3cb1 433d 26a9 1fbb
000002a0: 8cc6 a8bc 7720 2d3d 47e2 e43d 9cf8 29bd
000002b0: 76ec 9c3d d8b2 4a3c 8105 833d de32 993d
000002c0: 6ba6 2abd e8a0 90bd 2460 bbbd 4eee 8ebd
000002d0: 79cd a73c 4eac 113a 81da af3d c455 693c
000002e0: a837 bb3d a00b ce3c 9a93 983d dc89 083d
000002f0: 50f1 60bc f6a6 6abd 8007 93bd 6d23 5b3d
00000300: 7e4f 683d cdbf 8fbb e091 abbd f480 07bc
00000310: 802a 99bc a0b5 63bc ff82 2a3c cd1a fe3b
00000320: c2bc b63d 563b 243d 6adb 893c 5a44 303d
00000330: eebd 8e3d 4565 a33b 58eb 6a3b ef2c 863b
00000340: 654c 76bd 9e9d c73c 3613 0d3c 985a 8d3c
00000350: 0727 8abc 1998 69bd b606 48bd 10f2 6a3d
00000360: dbfa 9abd 4cb8 e1bc a8c8 0bbe 1168 64bc
00000370: b237 dc3a f88e 103d 652e b03b 6e95 ec3c
00000380: 2484 593d 62ee a33d 78e3 3cbc 0375 893b
00000390: 639b d73d aee5 413d 04ab 22bc bf7e 06bd
000003a0: a4f2 b83d 40a8 473d 9f09 acbd bbb9 463c
000003b0: 09c7 ef3d 2032 823d 37b3 a53d 10e9 873d
000003c0: 751d 0c3c fb36 90bc 0421 b23d c2c5 84bd
000003d0: 431e 64bd b9cf a93a 0647 203d af2b ac3d
000003e0: 069c 83bc f2fb 4c3c 693d 513d 95b7 a6bd
000003f0: 6ac7 4dbd 70ef c5bc 4d49 f1bd 4147 273d
0.039332133 0.08250457 -0.02476482 0.044839364 -0.06710748 -0.046794537 -0.1058584 -0.033877045
-0.040610693 0.029439712 0.0066764215 0.0831171 -0.083103344 -0.0811317 0.021896247 0.005631649
0.032806944 0.08245576 -0.107339986 -0.07577732 0.09489777 -0.009755116 0.048518818 0.07957504
-0.039997872 -0.092879295 -0.098359205 0.028760498 0.021275798 -0.013651993 -0.035440322 0.029587828
-0.07890689 -0.01213645 0.04945462 0.05023183 0.0114144785 -0.01790837 -0.025507651 0.05910738
0.07996481 0.060372047 0.09467879 -0.043219514 -0.015761238 -0.005173933 0.01686552 -0.07576237
0.0052293213 0.021757673 -0.0040301704 0.057098754 0.03273756 0.0054124766 -0.039675646 -0.0008344338
0.06823243 0.05072654 -0.002042099 0.048857633 -0.07829189 0.010973628 -0.003115715 -0.016221356
0.05117695 -0.018866623 -0.081105396 0.014580056 0.010146595 0.034104537 0.0040550246 -0.042774532
-0.05996275 0.058674112 -0.014930524 0.068658896 -0.03781913 -0.0026856468 0.061298244 0.12161753
0.05251277 -0.062459525 -0.004356367 -0.047236517 -0.08008162 0.05997409 -0.022026954 -0.08620485
-0.058391158 0.02945493 0.0016899292 0.09363151 0.023789026 0.004403873 0.07740201 0.016546004
0.008029227 0.047245167 0.001682414 0.0996574 -0.011486401 0.09891873 0.043727215 0.01955748
-0.08145621 -0.090543315 -0.016925072 0.091681555 0.027432997 -0.022801848 0.04941442 -0.08834642
-0.049955297 -0.031068908 0.008320457 0.059464473 0.09289078 -0.028399313 0.08274718 -0.04125721
0.04023343 -0.003487701 0.032295473 0.010845345 -0.1188748 0.00987264 -0.053844787 -0.0010374242
-0.0922507 -0.063190185 -0.021831686 -0.054766588 0.019714242 0.035207164 -0.023959382 -0.059153076
-0.08292194 -0.06927708 0.11812808 0.085287884 0.005630533 0.0043694708 -0.051511303 0.03905813
0.034786 -0.033955745 0.049680825 0.035206966 -0.02876649 0.0186061 0.008549637 -0.07479599
0.034792196 -0.022649199 -0.018329075 -0.007883954 -0.014357076 0.006445838 -0.022545522 -0.02285458
-0.006555737 -0.051816635 0.012649599 0.012393506 0.096608795 0.062167075 0.047776446 -0.0024362295
-0.020602487 0.04226729 0.111759715 -0.041496858 0.07662289 0.012371741 0.06397534 0.07480405
-0.041662615 -0.070619404 -0.09149197 -0.06979047 0.02048372 0.00055569864 0.08586598 0.0142416395
0.09141475 0.025152028 0.07450028 0.033334598 -0.013729408 -0.057288133 -0.07179165 0.05350058
0.056716435 -0.004386878 -0.08377433 -0.008270491 -0.018697023 -0.013898283 0.010407208 0.0077546597
0.089227214 0.04009565 0.016828258 0.043033935 0.0696982 0.0049864375 0.0035845842 0.004094712
-0.06013145 0.02436715 0.008610537 0.017255113 -0.016864313 -0.057029817 -0.048834525 0.057359755
-0.07567378 -0.0275537 -0.13650763 -0.013940827 0.0016801266 0.035292596 0.0053766244 0.028879847
0.053104535 0.08004452 -0.011528842 0.004194857 0.105276845 0.04733818 -0.009928469 -0.03283572
0.09030655 0.04874444 -0.084002726 0.0121292425 0.11707885 0.06357217 0.08090823 0.0663625
0.008551945 -0.017604342 0.086977035 -0.06483032 -0.055692922 0.0012955583 0.039130233 0.084067695
-0.016065609 0.01251124 0.051083956 -0.08140484 -0.050239004 -0.024162024 -0.11781559 0.040839437

net.convblock5.0.bias f4 [16]
00000000: 4f7a d2bc 1eaa 8b3d 4517 a2bd 11ac 3ebc
00000010: b730 663d de7c c13d f9f8 8b3d 6a42 9a3c
00000020: 2ffd 8abd 4487 94bd 93d7 05bb d2c5 b6bd
00000030: 51d6 a6bc 0cea aabc 6db5 81bd 6796 9fbd
-0.025693087 0.06819557 -0.079145946 -0.0116377035 0.0561988 0.09447645 0.06834597 0.018830497
-0.06786572 -0.07252362 -0.0020422682 -0.0892445 -0.020365866 -0.020863555 -0.06333432 -0.07792359

net.convblock5.2.weight f4 [16]
00000000: 6c8f 853f 23a3 7f3f cf17 803f 9ce3 803f
00000010: ee0b 753f 3d05 763f 9745 803f b231 823f
00000020: 4ed5 843f e7a5 823f 8979 7a3f d979 833f
00000030: 80d0 803f 2b17 7b3f e06f 7e3f db60 813f
1.0434394 0.998583 1.0007266 1.0069461 0.9572133 0.96101743 1.0021237 1.0171416
1.0377595 1.0206879 0.978417 1.027156 1.0063629 0.98082227 0.9938946 1.0107683

net.convblock5.2.bias f4 [16]
00000000: 9543 10bd 5ea3 c2bc aab2 bcbc be86 c2bc
00000010: 7a1f f83c 869a a23a eee8 6d3c e965 86bc
00000020: cef5 d9bc a38d 403c e541 9b3c 20d9 b8bc
00000030: 7b22 133c e140 353d 437a 4cbb d7c4 643d
-0.0352207 -0.02375954 -0.023034412 -0.02374589 0.030288447 0.0012405671 0.014520867 -0.016406016
-0.026606467 0.011752519 0.01895232 -0.02256447 0.008980389 0.044251326 -0.0031200803 0.055851784

net.convblock6.0.weight f4 [16, 16, 3, 3]
00000000: 8012 5ebb 6e8a 9e3d e905 2ebc 7ab6 2bbd
00000010: 3354 643d 6d8b 0bbd 6601 63bc 60ee 46bd
00000020: c92d b2bc 6e96 71bc c0b7 73bc d5d0 52bd
00000030: 5553 5fbd 2d87 de3c f2df f73a 7656 93bd
00000040: 6b32 c13c 00b5 8f3b 8a2e 623c 3259 493d
00000050: 9ed1 d13d 5c04 463c 67ac 8bbd fcf5 a53c
00000060: cdfb cf3d 4090 b1bc 3fea 9d3d e6da d83c
00000070: b9f5 d83d 4ae8 8b3c 81bb 02bd 0e2c 4c3d
00000080: 153c 163d 82eb 9a3d 3067 d23d aae9 403c
00000090: 33ed 86ba 1800 8abd f18a 853d 5989 2ebd
000000a0: fa3d 28bc c534 d13c 97a6 c8bc cde3 633d
000000b0: 238e 483d 86d6 893d f610 e5bc fbf2 543d
000000c0: ef89 90bd 7169 4c3b ee13 3aba 3be5 5d3d
000000d0: 9ee8 8c3d fb66 bc3d dc38 c33d a2f6 a33d
000000e0: 8b06 cc3d 5b4f 6d3c 5c6e bdbb b70b 713d
000000f0: a769 b6bd 46ab 2e3d 2723 273d 2479 a83d
00000100: 68c2 c5bd 4b0a a7bd 5662 853d 8e32 f03b
00000110: 66de 403d ce9c 753d 4aa2 8a3c 5800 03bd
00000120: 86e7 d73c a946 c5bd ff9f 57bc ba51 4dbd
00000130: 1c7d 5ebc d65a f2bc 33d1 bb3c 5246 9cbc
00000140: 3bb2 943c e3f5 5b3d 1b13 143d d75f 123d
00000150: 5f16 9c3a 9c14 413d 4d44 febc d1a8 16bd
00000160: 23eb 5b3c 69d0 0e3d f8c6 083d 9978 3dbb
00000170: 9a77 b1bd 157e 5b3d c5f1 c13c 6ea8 ea3a
00000180: 697f 313d 0e88 85bd 2414 e13c 1866 593a
00000190: 6eca d1bc 37d7 fa3c 67ed d23c cfde 3fbc
000001a0: 1060 abbd cba1 bf3c d438 b8bd 50d7 a4bd
000001b0: 0252 8e3d 6eb9 793d ba3f 2f3c 6902 3c3d
000001c0: 6256 893d 145d d83a 1116 183d 6579 e53b
000001d0: dd72 b33d 8078 49bd e0f6 a03b ed1e 943c
000001e0: 2ee3 b13d af9e 2e3d 23d0 853b fe93 413d
000001f0: 5db0 c73c 71fe 643d b037 af3d ee3e a9b9
00000200: 6c17 383d 83a7 313c 4a56 04bc 22cb 123d
00000210: 5791 923d c4ce 9f3c aeee d03d cdaa 3d3c
00000220: 03cd 0f3d 1bbb 103c d934 ebbd 23c2 6d3d
00000230: a6ca 633d c932 c2bc eb2a 243d 7fee b3bb
00000240: 6a24 c93c 1f15 bfbc 81bf e33c 7b95 8cbd
00000250: 0169 85bd f9ff 21bc 3900 10bc e5d1 8cbc
00000260: 4efd 65bd 3d0e 363d 465f 48bd 83ee 09be
00000270: f6d5 a1bc fb55 c4bd 75f4 3cbd c8b0 bdbc
00000280: 19fa 28bc 9a8b 013d f0a2 8bbd 5dc6 dbba
00000290: a7a8 593d 53df 90bc e8fc f1bc 0b2c 643b
000002a0: 4532 0e3d ed5f b43d cfc1 4d3d 4ba5 233d
000002b0: d6af 0a3c aeaa f53d 0d31 b73c 03b4 1cbb
000002c0: 9d27 fd3c 1675 cb3d f830 4d3a 3bd6 25bd
000002d0: 9133 463c 80c9 12bd d1d1 8a3c 188e 46bd
000002e0: ee1b 2a3d e155 363d 53a6 b43d c705 4d3d
000002f0: 01e8 fd3c 5d27 9b3d 8168 0bbd dcb3 123c
00000300: 1b2b 373d 54df a3bc ddbf 413d 7d89 d03d
00000310: 21cd c03c 8048 9e3c 2b82 563d 6e34 fbbc
00000320: 2e2e 653d fbc9 e43d 959f 0f3d 24d0 b33d
00000330: a37f a3bd 54b4 7f3b 0f9b 8a3d f13b 91bd
00000340: b95e b5bd 77d4 a9bc bd4d 913d cc63 283d
00000350: 1663 02bd ba60 ee3b 8a20 7cbd 93bb 7ebd
00000360: c69e 3fbd 7973 233c e979 00be 2df1 14bd
00000370: 4a6c 01bd 820b 8abd 9a2e 60bd 01d5 40bd
00000380: b30e 423d 2fc0 243d d95e 153d ab9b 863d
00000390: 169e a53d 525c a33c 001d d63c ecb1 303d
000003a0: 369a 80bc 0f0d 833d 5a74 0ebc bc97 7f3d
000003b0: 4ce4 98ba 7ae2 473d 6efa 9a3d ab96 ebbc
000003c0: 3fa3 0cbd b274 883d b6b4 35bd d9ab 01bd
000003d0: 4b4c 743c 2915 443c 3562 76bd 41f7 59bd
000003e0: 2ea0 3a3d f341 a8bd e338 eabd 1914 cebd
000003f0: 7391 4e3d e406 643c f13f 483d 6875 48bd
-0.0033885539 0.07741247 -0.010621526 -0.04192207 0.05574436 -0.034068514 -0.013855314 -0.048567176
-0.021750348 -0.014745338 -0.014875352 -0.05146869 -0.05452283 0.027164066 0.0018911345 -0.071942255
0.023583611 0.0043855906 0.013805041 0.04915733 0.102450594 0.012086 -0.068199925 0.020258896
0.10155449 -0.02167523 0.077106945 0.026471566 0.10593743 0.017078537 -0.0319171 0.0498467
0.036678392 0.07564451 0.10273588 0.01177446 -0.001029408 -0.06738299 0.065206416 -0.042611454
-0.010268683 0.025537858 -0.024493499 0.05563717 0.048963677 0.0673037 -0.02796219 0.051989537
-0.07057559 0.0031190778 -0.00070983067 0.05417369 0.06880306 0.091993295 0.095323294 0.08006026
0.099621855 0.014484252 -0.005780978 0.058849063 -0.0890687 0.042643808 0.04080501 0.08226231
-0.09656221 -0.0815626 0.06512897 0.0073302453 0.047087096 0.059963994 0.016923089 -0.03198275
0.026355516 -0.09632618 -0.013160705 -0.05012677 -0.013579633 -0.02958433 0.022926902 -0.0190765
0.018151393 0.053701293 0.036151033 0.03573593 0.0011908523 0.047138795 -0.031038428 -0.03678209
0.01342276 0.034866724 0.033392876 -0.0028910993 -0.0866539 0.053587038 0.023674855 0.0017902979
0.0433344 -0.06520091 0.027475424 0.0008293106 -0.025609221 0.0306202 0.025747968 -0.011710837
-0.08367932 0.023392579 -0.08995214 -0.0804888 0.069492355 0.060967855 0.010696346 0.045900736
0.06705929 0.0016507232 0.03713042 0.0070029967 0.08762143 -0.049187183 0.0049122423 0.018081153
0.08685909 0.0426318 0.0040836497 0.047260277 0.024376089 0.055906717 0.085555434 -0.00032281078
0.04494421 0.010843161 -0.008077214 0.035838254 0.071566276 0.019507773 0.102017745 0.011576367
0.035107624 0.008833672 -0.11484689 0.05804647 0.055613182 -0.023705857 0.040079992 -0.0054910774
0.024553496 -0.023325501 0.027801277 -0.06864449 -0.065141685 -0.009887689 -0.008789116 -0.01718993
-0.056149773 0.044447172 -0.048918985 -0.13469891 -0.019755345 -0.09586712 -0.04613157 -0.023155585
-0.010313534 0.031627275 -0.06818187 -0.0016767491 0.053139355 -0.017684614 -0.02953954 0.003481629
0.03471591 0.08807359 0.05023366 0.039952558 0.008464774 0.11995445 0.022362256 -0.0023911006
0.030902678 0.09934442 0.00078274263 -0.04048751 0.012097255 -0.035836697 0.016945751 -0.048475355
0.041530542 0.044515494 0.08820786 0.050054338 0.030994417 0.07575867 -0.03403521 0.008954015
0.044718843 -0.020003952 0.047302116 0.10182474 0.023535313 0.01932168 0.05237023 -0.030664649
0.055952244 0.11171337 0.0350643 0.08779934 -0.07983329 0.0039017396 0.06767856 -0.07091511
-0.088559575 -0.020731194 0.070949055 0.0411108 -0.031832777 0.0072747143 -0.06155447 -0.062190603
-0.046782278 0.009976261 -0.12546505 -0.036362816 -0.031597413 -0.06740476 -0.054731943 -0.047078136
0.0473773 0.040222343 0.036467407 0.0657266 0.08086793 0.019941483 0.026136875 0.04313843
-0.015698534 0.06398975 -0.008694733 0.062400565 -0.0011664717 0.04879997 0.07567297 -0.028758368
-0.03433537 0.06662883 -0.044361793 -0.031658027 0.014910768 0.011967936 -0.06015225 -0.053214315
0.045562916 -0.08215704 -0.114366315 -0.10062427 0.05043168 0.0139176585 0.048889104 -0.048940092

net.convblock6.0.bias f4 [16]
00000000: 0566 37bd 2434 a7bd 525c 04bd 7561 4f3d
00000010: 1f53 7ebc 9cf1 cebd dca0 143d 1864 6f3d
00000020: 70c6 a73d 2255 673c 2623 a03c b654 a8bd
00000030: b0af b83d 5172 ab3d b39c 91bd 8f8c 8cbd
-0.044775028 -0.08164242 -0.032314606 0.05063005 -0.015522747 -0.10104677 0.03628622 0.058445066
0.08192146 0.014119418 0.01954801 -0.08219282 0.09017885 0.083714135 -0.07109966 -0.06862747

net.convblock6.2.weight f4 [16]
00000000: b844 6f3f 4c8e 713f 6ce7 843f 0dc5 813f
00000010: 75ea 853f cc1d 873f 31c7 803f a3fb 7e3f
00000020: b440 7b3f ed1c 803f 0ede 813f 45ed 793f
00000030: 0d87 763f 73d4 803f f3c3 873f d0a4 853f
0.9346423 0.9435775 1.0383124 1.013826 1.0462176 1.0555968 1.0060788 0.9960272
0.98145604 1.0008827 1.0145891 0.9762767 0.9629982 1.0064834 1.0606674 1.0440922

net.convblock6.2.bias f4 [16]
00000000: df71 f1ba 45b9 c7bc 77ae 62bd 7de3 53bd
00000010: 9ae4 3739 3fe9 aabd 2d7d 94ba 98ea 8ebc
00000020: 7181 87bc 4ed2 5abd 348a d7bd 313f f4bd
00000030: 4477 8d3d 65a1 003d 4b4f adbd 411b 88bd
-0.0018420777 -0.024380336 -0.055342164 -0.05173062 0.000175374 -0.083452694 -0.0011328809 -0.017445847
-0.016541215 -0.05342322 -0.10524407 -0.11926115 0.06907514 0.031403918 -0.084623896 -0.06645823

net.convblock7.0.weight f4 [8, 16, 1, 1]
00000000: 9d88 b1bc f988 4dbd 7cf7 97be 52fa 2bbd
00000010: 0717 423e d048 9ebe 5234 c33d d557 02be
00000020: bd2d 853d 04c8 7fba 83bc 7bbe e857 95be
00000030: 64e8 4b3e 2798 e13d aa08 1dbe 37c5 16bd
00000040: 0b7f 063d 93df 433d 67d8 e93d 04be 0f3e
00000050: dee6 65bd 058a 1d3e ad59 9ebd 0894 1d3e
00000060: eb4e 523e c777 503d d4c6 863d 858d 513d
00000070: 72b8 803e 9afc fb3d 6d76 76be d658 6e3e
00000080: 45ba 423c ecbb 943d aa2e b63a c9f4 05bd
00000090: 4a07 c33b 2d7f dabd 82f8 543e cc99 23be
000000a0: a112 2a3c 47c5 21bd 6091 7b3e 1c0c 753d
000000b0: 485a 123d 2957 233e 51e7 c3bd cac8 2c3e
000000c0: 3d63 4b3e 2aa4 623e 16e3 bbbd b3f9 9fbc
000000d0: db67 8ebd 37bb 05be ee9e 35bd 5c06 3f3e
000000e0: bbf6 d13c 8fd7 653e 0938 fe3d 68a4 163e
000000f0: 6c94 673e 9a6f b53d 3599 8bbd e917 823d
00000100: 0d6b 343e beb9 043e 1add 21be 1a0f 63be
00000110: 9248 0dbe 3d54 88be 60f4 ccbb db69 eabd
00000120: 7bd8 10be 2be6 e0bc f491 3cbe 08da 59be
00000130: 969f ad3d 74a5 a63c 7f38 493e ba16 9fbd
00000140: 6794 eebb 1b0a 08bc 2bfd 063e e767 943e
00000150: 6ea2 39bd ee23 8cbc eeeb 753e c0a2 273e
00000160: 92b7 a33c bdb3 ac3d 41c5 483d 966b 98bd
00000170: 980f fabd 0ee1 163b 8427 acbe f64f 90be
00000180: d3b2 273e af50 1e3e ea3a 73be d425 d9bd
00000190: 0e58 873e 9935 d4bd f78b 27bc 2c4d 313e
000001a0: 4466 873b a00b eebc 6279 90bd 34ef f9bd
000001b0: 355c 80bd 82d9 263e 8a4a aabd 34cd b63d
000001c0: 077d fabc c233 74be 0558 e53c 6972 343d
000001d0: 4726 e93a 72fb 893e cc86 0ebd 5e0b 183e
000001e0: e34a 743e be66 6abe 1d1c dfbd 02ac 0fbe
000001f0: 7e00 2a3e 98fa efbd 8441 1dbe db73 8dbe
-0.021671588 -0.050179455 -0.29681003 -0.04198677 0.18954097 -0.30914927 0.09531464 -0.12728818
0.065028645 -0.00097572827 -0.2458363 -0.2916863 0.19912869 0.11015349 -0.15335336 -0.036809172
0.032836 0.04782064 0.114182286 0.14037329 -0.056128375 0.15384682 -0.07731948 0.153885
0.20537917 0.05089548 0.06580892 0.051160354 0.2514072 0.12304039 -0.24068613 0.23276076
0.01188523 0.07262406 0.0013899405 -0.03270415 0.0059517967 -0.10668788 0.20797923 -0.15976638
0.010380418 -0.03949478 0.24567175 0.059826 0.03573063 0.15951218 -0.095656045 0.1687347
0.19862075 0.22132936 -0.091741726 -0.019528246 -0.069534026 -0.13059698 -0.04434102 0.1865477
0.025630346 0.2244551 0.124130316 0.14711154 0.22615212 0.08859177 -0.06816331 0.06352217
0.17618962 0.1296148 -0.15807 -0.2217373 -0.13797215 -0.2662677 -0.0062547177 -0.114459716
-0.14145081 -0.027453503 -0.18415052 -0.21274579 0.08477704 0.020342566 0.19650458 -0.077680066
-0.0072808745 -0.008303191 0.13182513 0.2898552 -0.04532092 -0.017106976 0.24015781 0.16370678
0.019984994 0.0843272 0.04901624 -0.074423954 -0.122100055 0.0023022327 -0.33623898 -0.28186005
0.1637681 0.15460466 -0.23752943 -0.10602918 0.26434368 -0.103617854 -0.010226241 0.17314595
0.004132064 -0.029058278 -0.07054402 -0.122038275 -0.06267587 0.1629391 -0.083149984 0.08925858
-0.030577196 -0.23847869 0.027996073 0.044054423 0.0017787897 0.2694965 -0.03479652 0.14848086
0.23856692 -0.22890756 -0.10894034 -0.1403046 0.1660175 -0.11717719 -0.15357023 -0.27627453

net.convblock7.0.bias f4 [8]
00000000: dc51 693e 819b d6bd f3e0 60be 2a76 623e
00000010: 1f24 ad3d 2d18 eebd 06b5 283e 5aca 41be
0.22785133 -0.10478879 -0.21960811 0.22115389 0.08454155 -0.11625705 0.16475305 -0.18924847

net.convblock7.2.weight f4 [8]
00000000: 1258 8a3f 744c 773f 8a4a 803f 5a27 6f3f
00000010: 5f26 823f e898 7f3f 0b4e 803f 21d9 7b3f
1.0808127 0.96601033 1.0022748 0.9341942 1.016796 0.9984269 1.0023817 0.9837819

net.convblock7.2.bias f4 [8]
00000000: d58a 823c dcc4 82bd 45e1 d4bc 8e3d e63c
00000010: dbcd 31bc a1b9 713d c620 57bd 13de 023d
0.01593534 -0.06385204 -0.025986323 0.028105523 -0.010852302 0.05901492 -0.05252149 0.031950068

net.convblock8.0.weight f4 [10, 8, 3, 3]
00000000: 3390 cb3d 0093 613d c172 c43d 07aa 9f3d
00000010: c320 2abd 1d5b 41bd cdab e43b dd91 2e3d
00000020: 4c33 cc3d 2691 833d b86a fe3c 23df 79bd
00000030: 21b7 d7bd d28e 80bd da6e c33c 2d33 e73c
00000040: 773c 0b3d f953 143e 3e95 17ba 4487 2f3d
00000050: 849c 5b3c 0759 3f3d 408a 38bd 0461 bf3c
00000060: 39a8 c73d 545d cdbc 66e9 d73c 9f78 643d
00000070: 4ba0 923d 78b5 b8bc e8e3 75bc f850 6bbb
00000080: 2721 853d 915d 18bd 7357 07bd d89b 93bd
00000090: db3b c93d cdf0 f3bd 1ef3 20bd 679c 743d
000000a0: b1a8 0dbc c9f9 923c 2f94 0a3d 14c7 2abb
000000b0: 44a7 cb3c fd40 d63c 799a 043d 9e2f 9cbc
000000c0: d014 653b 9425 77bd 4203 a13c 2df3 96bc
000000d0: d0c1 c6bc 132a 6fbd 185c dd3c 780b 863c
000000e0: eb39 0abd 13e6 81bc b1fe 27bb e8ef 37bc
000000f0: 802f 27bd 44e2 59bd 0888 ed3c 9903 a93b
00000100: 93f1 073e 12d7 503d e909 0dbd a7b2 8c3c
00000110: 5f6b 9c3d 6d41 0a3d b2a4 aa3d 3d8f a93d
00000120: daf0 17be f911 6a3c 9461 1dbe caea 73bd
00000130: 1c59 3f3a efe1 b2bd 79a2 023e ab63 e93c
00000140: 3612 193c fa07 553d 0174 993c 2ca7 643d
00000150: 7c2d 95bd 802c e93d 6e03 8f3d 2533 b8bc
00000160: e3b9 e5bd 741d 883d 7eda bdbd 8605 853c
00000170: f706 6a3c effc 25bd 0736 b3bd 8807 ccbc
00000180: 58e9 583d 995b f0bd a0b7 eabd cc47 063d
00000190: 8e31 81bc 71d8 8f3d e4b6 7c3d 2be9 a83d
000001a0: 8189 9e3d 1cac 22bd 93e1 8dbb 90ed 6ebd
000001b0: 5b96 6abd 5953 6e39 9f3c 163c 751b 833d
000001c0: 43a3 2cbd 372a e6bc 17d7 4a3d 584c 8d3d
000001d0: e6ec d8bc ebf9 d5bd c416 cfbd 44f9 49bd
000001e0: c1a1 9dbd 56e7 1fbe 983c 0bbe 1f03 343d
000001f0: c6ce 1abd 5c80 f6bd bf5e 3dbd 8ea5 2f3d
00000200: b418 c2bd aff3 6c3c 94d9 0cbd 55e0 133d
00000210: c7f4 1e3c 80aa 7c3d 6e13 893d ca5c fdbd
00000220: 7326 103c 3533 0e3c c37f 40bb f0c6 ff3c
00000230: 6b70 adbd 1c69 743d 5f6d 1f3d 7d13 25bd
00000240: e53a 603d ac6d 2d3e 2ccf a83d 707e debd
00000250: 811c 273d cc3f 86bd 5a86 05be ff6a 6e3d
00000260: 3858 69bd bb4e 1d3e 6b40 7e3d 8edc c33d
00000270: 5643 de3c 23c6 7d3d 8705 ea3d afbb e8bb
00000280: ce72 30be 959a d639 4bd8 113e d331 ad3d
00000290: eb60 1abd d12e 923d e965 653c 2b63 80bc
000002a0: f99d 12be 14f6 b0bd 195a f3bd 388f 733c
000002b0: 3090 d13d f533 c53d 755a 7c3d 2053 7b3d
000002c0: 2d0d d8bc 16e1 31be adc7 11bd dbba e6bd
000002d0: 2d6a 9c3d 79e3 c2bb 81fa a83d d5b6 52be
000002e0: 0951 75bd 9419 8f3b 7419 17be c0f6 efbb
000002f0: 5c05 c03c 6077 e9bc 1de8 493c d5e5 0b3d
00000300: 326b 173d 37e4 9e3d 2e9e 3dbd 93ff f73c
00000310: 96d5 9bbd 500d 30bd 36ac 9fbb 5fd6 7b3d
00000320: f527 e63d c673 b0bd d271 76bc 6314 fabc
00000330: 2501 31be a6cd 05be 872d 62bd c8c3 77bd
00000340: d54c 083e 63b9 07bd ec76 e93c c43d 023d
00000350: a2ec 873d 3db8 9ebc e5cd 0dbd 4c01 8cbd
00000360: 7378 203e f876 263e e8dc 473d dba7 973d
00000370: 4bf2 d43b 4d96 d03d d860 e23d c56f 7b3d
00000380: e279 123e 05dd 17bd 69e3 06be f058 36be
00000390: ff37 ba3c a121 063d 7d7f ea3c f572 40bd
000003a0: 1e51 c03c 9c41 26bd cad8 453d 1816 33bd
000003b0: 6262 283d a4c3 063b 6a7e 34bd a2b7 adbb
000003c0: fd9a 39bd e2db c1bd 24b7 06bd c2eb c33d
000003d0: 97fd babb 4d01 2bbd 3f2a 35bd 5de9 ecbc
000003e0: 9dfb 5c3c e75a 84bc 67f1 fd3d b13e 8e3c
000003f0: c9cd 1d3e ce75 85bb 10c9 e73c 9f05 0f3e
0.09939613 0.05507183 0.095922 0.07796102 -0.04153515 -0.047206033 0.006978488 0.042619575
0.099707216 0.06424169 0.031056747 -0.061003815 -0.10532976 -0.06277241 0.02385657 0.028222645
0.03399321 0.14485158 -0.00057824317 0.04285361 0.013404015 0.046715762 -0.04505372 0.02336169
0.09748883 -0.025068916 0.02635641 0.055779096 0.0715948 -0.022547469 -0.01500795 -0.0035906415
0.06500464 -0.037198607 -0.033042382 -0.07207459 0.0982587 -0.119111635 -0.039294355 0.05971947
-0.008646176 0.017941372 0.033832725 -0.0026058601 0.024860032 0.026154036 0.03237388 -0.019065674
0.0034955032 -0.06033857 0.019654874 -0.018426502 -0.024262339 -0.058389734 0.027021453 0.01636289
-0.03374664 -0.015856778 -0.0025633986 -0.011226632 -0.040816784 -0.0531943 0.028995529 0.0051578996
0.13275747 0.050986357 -0.03443328 0.017175032 0.07637667 0.0337538 0.083321944 0.08279274
-0.14837971 0.014286512 -0.15369254 -0.059550084 0.000729935 -0.087345 0.12757291 0.028489908
0.009342721 0.05200956 0.018732073 0.05582349 -0.07284066 0.11385441 0.06983076 -0.022485325
-0.11217096 0.06646243 -0.0927019 0.016237985 0.014283887 -0.04052442 -0.08750539 -0.024905935
0.05295691 -0.11736221 -0.11460805 0.032783315 -0.0157707 0.07023705 0.061697856 0.08247598
0.077410705 -0.039714918 -0.004329869 -0.058332026 -0.057272296 0.00022728498 0.009169727 0.064017214
-0.042147886 -0.028096301 0.049521532 0.06899327 -0.02648015 -0.10448059 -0.10111764 -0.049309984
-0.07696868 -0.15615591 -0.13597333 0.04394829 -0.03779485 -0.12036201 -0.046232935 0.042882495
-0.09477368 0.014462396 -0.034387186 0.03610261 0.009701914 0.06168604 0.06693159 -0.12371214
0.0087982295 0.008679201 -0.0029373027 0.03122279 -0.08468708 0.059670553 0.038922664 -0.04030179
0.054743666 0.16936368 0.0824264 -0.1086396 0.040798668 -0.06555137 -0.13039532 0.05820751
-0.056968898 0.15362065 0.062073153 0.09563552 0.027131718 0.061956536 0.114268355 -0.0071024518
-0.17231295 0.00040932433 0.14242665 0.08456769 -0.037690084 0.07137836 0.014001348 -0.015672287
-0.14318074 -0.08640686 -0.11882419 0.014865689 0.1023258 0.09629051 0.061609704 0.06135857
-0.02637347 -0.1737102 -0.035590816 -0.112661086 0.07637439 -0.005947527 0.08250905 -0.20577557
-0.059891734 0.004367063 -0.14755803 -0.007323116 0.023440056 -0.028499305 0.0123234065 0.03415473
0.036967464 0.07758372 -0.04629343 0.030273234 -0.07609098 -0.042981446 -0.004872824 0.061483737
0.1123809 -0.08615832 -0.015041785 -0.0305273 -0.17285593 -0.1306673 -0.0552192 -0.060489446
0.13310559 -0.033135783 0.02849909 0.031797186 0.06636931 -0.019374961 -0.034620184 -0.06836185
0.15670948 0.1625632 0.048794657 0.07405063 0.00649861 0.101849176 0.11053628 0.06138589
0.14304307 -0.037076015 -0.13172688 -0.17807364 0.02273178 0.032746915 0.028625244 -0.04698463
0.02347618 -0.040589914 0.04830245 -0.043722242 0.04110945 0.0020563388 -0.04406587 -0.0053014318
-0.045313824 -0.094657674 -0.0328895 0.095664516 -0.0057065 -0.041749287 -0.044229742 -0.02891987
0.013487724 -0.016156627 0.123995595 0.017363878 0.15410532 -0.0040728813 0.028294116 0.13966988

net.convblock8.0.bias f4 [10]
00000000: 8e60 38bc ccad 8cbc f6cc 2c3c b519 21bd
00000010: 4ff8 873d 00b0 b03d cf7f f6bb 69d9 923d
00000020: 3570 a2bd 94b2 1b3e
-0.011253489 -0.017172717 0.010546913 -0.039331157 0.06639158 0.08627319 -0.00752256 0.07170374
-0.07931558 0.15204841

net.convblock8.2.weight f4 [10]
00000000: c556 823f a7e4 753f 4a4c 7e3f a57e 783f
00000010: 51b0 703f c921 823f d17a 7e3f 97aa 843f
00000020: fda6 8a3f ad2a 7e3f
1.018273 0.9605202 0.9933516 0.97068244 0.9401904 1.016656 0.9940615 1.036456
1.0832211 0.9928387

net.convblock8.2.bias f4 [10]
00000000: 819c 03be 34cb 01bd 03c0 4dbd 4150 703c
00000010: 2482 a2bd 6fe3 3bbd c67e 223d 709a 39bd
00000020: cb96 89bc 03f6 393d
-0.1285267 -0.03168793 -0.050231945 0.0146675715 -0.079349786 -0.045871194 0.03967168 -0.0453133
-0.016795537 0.04540063
