output/lightning_logs/version_3/checkpoints/epoch=2-step=165.ckpt (torch, 191717 bytes, 188 tensors)

net.model.convblock1.0.weight f4 [10, 1, 3, 3]
000000 99 00 5e be f5 89 26 3d 24 ad 57 bd 0c f5 bf 3d
       -0.21679915 0.04065891 -0.052655354 0.09372911
000010 21 7d 82 3d 67 1c e9 3d 4a 1a 77 be 8d 5a a8 bd
       0.06371523 0.113823704 -0.24131122 -0.08220396
000020 cd 5a 8c 3e 81 75 17 bd 66 cf 5b be 62 09 8d bd
       0.27413025 -0.036977295 -0.21465835 -0.06886555
000030 d6 bb 34 3d 19 8b 21 3d db 84 55 bd f2 0c 8f 3e
       0.044124447 0.039439294 -0.052128654 0.27939564
000040 8d 99 43 3d 52 20 aa 3d 80 c2 92 3e 1c c8 a4 be
       0.04775386 0.08306946 0.28664017 -0.3218392
000050 ea 49 8b 3e 9e 69 22 3e d9 e9 11 bd c0 34 a3 be
       0.2720483 0.15860602 -0.035623405 -0.31876183
000060 2c 93 df 3d 32 98 86 bd 87 37 9b 3e 4e e7 64 be
       0.10916743 -0.06571998 0.30315802 -0.2235386
000070 97 9c 32 be b7 c6 26 3e c9 6b 34 bd 4a 1c 30 be
       -0.17442547 0.16286741 -0.044048104 -0.17198291
000080 e1 32 db bc 02 42 91 bd 27 48 44 be 67 aa bc be
       -0.02675766 -0.07092668 -0.19168149 -0.36848757
000090 fd 0c bd be 2b 5c 84 bd d4 d7 1a be 27 8a b9 bb
       -0.36923972 -0.06462892 -0.15121394 -0.005662221
0000a0 39 a6 05 be 62 4a a1 3e 5e 32 44 be 14 53 a4 3e
       -0.1305169 0.31502062 -0.19159839 0.32094634
0000b0 54 8c ec bc 51 26 fc 3d e5 db ac be 8b e3 48 be
       -0.028875507 0.12311996 -0.33761516 -0.19618051
0000c0 71 c7 95 bd ae 9d 5c be c0 f9 76 3d 4e 9e 87 3e
       -0.07313431 -0.21544525 0.060296774 0.26487964
0000d0 f0 34 83 be 5b 57 73 3e 3c 8a 64 3e f2 b2 bf 3d
       -0.25626326 0.23763792 0.22318357 0.09360303
0000e0 45 f4 20 3d a6 61 41 3e 90 40 0b 3e 18 15 a6 3e
       0.039295454 0.18884906 0.13598847 0.32437968
0000f0 98 98 ab be 9f e7 48 3d 25 e2 8f bd 8d 5a c9 3d
       -0.33514857 0.049049016 -0.070255555 0.09831724
000100 87 f8 50 3d d7 c7 3b be b7 31 ef 3d 43 be c9 3d
       0.051018264 -0.18337952 0.11679404 0.09850743
000110 1f 02 52 be ed 26 5a be cf 76 81 3e bb ca 19 3d
       -0.20508622 -0.21303912 0.25285956 0.037546854
000120 2a 0b 68 be 70 b7 39 be 41 dd 89 3d 4b 79 e7 bc
       -0.22660509 -0.18136382 0.06731654 -0.02825608
000130 97 46 8e bd 41 0b 80 3d b8 d9 b5 3e c1 11 98 3e
       -0.06947058 0.062521465 0.3551767 0.29701045
000140 bc d4 80 3c 4f 61 86 3e e1 ec 99 be 47 7f 9d 3e
       0.01572644 0.26246116 -0.30063537 0.30761167
000150 94 5a ff bc f7 a8 30 3e 87 e4 51 3e c1 81 37 3e
       -0.03117112 0.17251955 0.20497333 0.17920591
000160 23 1a 83 be 50 f6 c4 be
       -0.25605878 -0.38469172

net.model.convblock1.0.bias f4 [10]
000000 f9 a4 e7 3d 6b d9 07 be 64 15 26 3d a5 32 7f be
       0.11310763 -0.13266532 0.040547743 -0.24921663
000010 06 69 c6 3d aa d9 24 3e 47 f9 84 3e 3c 6f 66 3e
       0.096880004 0.16098657 0.25971434 0.2250337
000020 6e 98 87 be dc f1 60 3c
       -0.26483482 0.013729539

net.model.convblock1.2.weight f4 [10]
000000 a1 5f 87 3f e5 5c 77 3f cc 5b 71 3f 48 02 7e 3f
       1.0576059 0.9662612 0.94280696 0.9922223
000010 05 7a 82 3f 2b ae 79 3f 2f c9 84 3f 8d a5 7d 3f
       1.0193487 0.97531384 1.0373896 0.99080735
000020 60 1e 86 3f c7 db 76 3f
       1.047802 0.96429104

net.model.convblock1.2.bias f4 [10]
000000 3e 8c 44 3a 5b bb 4f 3d 09 e3 84 bc da 2b ee 3c
       0.00074977044 0.050715785 -0.01622154 0.029073644
000010 e1 ec 73 3d 05 e9 a7 bd 20 77 f8 3c 52 b8 a1 3a
       0.059552077 -0.08198742 0.03033024 0.0012338257
000020 82 af 0e 3c 79 0e c4 3c
       0.0087088365 0.023932682

net.model.convblock1.2.running_mean f4 [10]
000000 5e 1c 2b 3e af c2 89 3d a7 15 11 3e 8f 0c 13 3e
       0.1671004 0.06726586 0.14168416 0.1436026
000010 bc b5 67 3e b2 3c a0 3e 5e 9d 98 3e cf a1 71 3e
       0.2262792 0.31296307 0.29807562 0.23596881
000020 85 35 e7 3d d5 e2 fe 3d
       0.11289505 0.124456085

net.model.convblock1.2.running_var f4 [10]
000000 c1 34 5e 3d f5 dc 39 3d f3 c7 b2 3d 67 a4 39 3c
       0.05424953 0.045376737 0.087295435 0.0113307005
000010 2c 47 5d 3d f3 e0 19 3d 4d 14 c4 3e e9 11 28 3d
       0.054022953 0.037568044 0.38296738 0.041032705
000020 7d 80 ec 3d 24 b2 cb 3d
       0.11547945 0.09946087

net.model.convblock2.0.weight f4 [16, 10, 3, 3]
000000 a0 b3 a9 bd 90 b5 6e 3c fa dc ba bd 06 6c 08 3e
       -0.08286214 0.014569655 -0.09124179 0.13322458
000010 48 82 78 3d 18 b6 f0 3c 43 24 1e 3c ae c9 7b 3d
       0.06067112 0.029383704 0.0096522 0.061471634
000020 69 c3 0d bd c6 3c 9d bd 64 c4 23 3d 15 8c b5 3d
       -0.034610186 -0.07677607 0.039982215 0.08864609
000030 50 28 9b bd cc b5 33 bd 9c b2 95 3d 14 e2 ab bc
       -0.075760484 -0.043874547 0.07309458 -0.020981826
000040 58 f5 2d bd 19 0a 30 3c e6 9f 6c 3c 87 8b 84 3d
       -0.042470306 0.010744595 0.01444242 0.06471925
000050 8b 4e b3 bb 1e f6 c3 3d 25 c7 e4 bc 5f b7 13 3c
       -0.0054720095 0.095684275 -0.02792699 0.009015887
000060 01 6e 01 3d 0d 00 77 3d c7 0e 95 bc 80 bd 87 3d
       0.03159905 0.060302783 -0.018195523 0.06627941
000070 81 8c e7 3d 9d 57 29 bd e1 1b d9 ba 33 95 89 bc
       0.11306096 -0.04134332 -0.0016564095 -0.016794777
000080 dc 34 a6 bc 12 eb b5 3d 90 80 06 3d 8c 76 80 bd
       -0.020288877 0.08882727 0.03283745 -0.06272611
000090 6a 77 18 3c 16 a6 3a bd 6e 64 97 bc 86 3a 43 bd
       0.009305814 -0.04556855 -0.018480506 -0.047663234
0000a0 e4 3a ac bd 21 1a 6a bd f3 31 d8 3d 64 87 39 bc
       -0.0840967 -0.057153825 0.10556402 -0.011323784
0000b0 bf 62 01 3d c6 95 04 be 72 75 d5 bd c1 bb 56 3d
       0.031588312 -0.12947759 -0.104227915 0.05242515
0000c0 31 4b 8e bd 2a 89 13 3d dd 4c 98 bd 6e 48 fb bc
       -0.069479354 0.03601948 -0.074365355 -0.030674186
0000d0 06 ba 04 3c 7c cf fa bb 86 a3 d0 3d aa 52 62 bc
       0.008100992 -0.0076541286 0.101874396 -0.013813654
0000e0 49 c1 bf bd a0 52 f3 3d 10 1f a1 3d 91 db ad bd
       -0.09363038 0.11880994 0.07867253 -0.084891446
0000f0 22 01 46 3d 75 86 59 3d 99 1f 8e bd 7b f4 71 bc
       0.048340924 0.053106744 -0.069396205 -0.014767761
000100 aa 00 49 bb 04 d7 4e bd 10 a1 55 3d 65 ad 7f 3d
       -0.0030670562 -0.050498024 0.052155554 0.06242122
000110 d4 e2 be bc aa 3d 76 3d b7 96 bf bc 28 b7 8c bd
       -0.02330152 0.0601174 -0.023387296 -0.06870872
000120 ad ad 95 3c 96 91 8a bd cb fa 94 3d e6 86 a6 bc
       0.018271292 -0.067660496 0.072743975 -0.020327996
000130 7d 42 15 bc 22 c3 22 3d 23 6d 83 bd d1 64 47 bc
       -0.00911009 0.039736874 -0.064173006 -0.012170033
000140 40 03 a9 bc bd c4 4a bd 7e e4 82 3d 30 aa 9d bd
       -0.020631433 -0.04950403 0.06391238 -0.07698476
000150 ba aa 82 3d 23 cb c0 3d 92 5a dd 3d 00 9e ca ba
       0.0638022 0.09413745 0.108082905 -0.0015458465
000160 71 9d 1a 3d b8 79 fd 3b 69 e1 23 3d 10 4c 6b 3d
       0.037747804 0.0077354573 0.04000989 0.057445586
000170 9f e7 0a 3b 1d 91 b1 3b 77 dd 94 bd d6 06 e9 bd
       0.0021195186 0.00541891 -0.072688036 -0.11378257
000180 5b 06 03 3e 04 14 18 3d 3f 9b 04 be ed bb 1b bd
       0.12795393 0.037128463 -0.12949847 -0.038021017
000190 60 84 36 bd 1d 67 53 bd a7 84 69 bd 92 f2 91 bd
       -0.044559836 -0.05161201 -0.057011273 -0.07126345
0001a0 1e 92 c0 bb 78 00 4b 3d 42 e4 e8 bc f5 29 31 bc
       -0.0058767935 0.049560994 -0.028429154 -0.010813226
0001b0 d3 75 97 3d ae cd 2c 3c 1e ff 41 3d 43 38 c3 bc
       0.0739552 0.010547085 0.04736244 -0.023830539
0001c0 1e 8c 53 bc b8 2a ad bc 30 1d 10 bd 55 84 72 3d
       -0.0129118245 -0.021138534 -0.035184085 0.059208233
0001d0 33 33 75 bd 30 a8 7f bd bb bf e2 bb a8 9a a1 bc
       -0.05986328 -0.062416255 -0.0069198287 -0.019727066
0001e0 aa 75 10 bd 5a e2 92 bd 46 a6 0b bc 6f fa 8a bc
       -0.035268463 -0.071720794 -0.008523529 -0.01696512
0001f0 3f 07 0c 3d f1 f6 b0 3c be 0b a9 bd 90 2c cc 3b
       0.034186598 0.021602126 -0.08254193 0.006230898
000200 f3 15 2f 3d 19 29 c7 bc b3 05 b1 bd c2 f7 d1 bd
       0.04274554 -0.02431159 -0.08643665 -0.10252334
000210 e9 19 d2 3c bd 22 5f bd 5f 4a 71 bd 23 e2 dc 3d
       0.02564712 -0.05447649 -0.058908816 0.1078532
000220 f9 a0 bb bd b6 50 c2 3d f9 47 fa 3c cf c1 af bd
       -0.091615625 0.09488051 0.030551897 -0.08581888
000230 dc 43 b7 bd dc 60 0f bd 83 30 a5 bc 33 ef 89 3d
       -0.0894849 -0.03500448 -0.020164734 0.06735077
000240 4d 1a 8f 3d b8 5c 09 3d 74 1a 17 be c9 ab b1 3d
       0.06987438 0.03353569 -0.14756185 0.086753435
000250 46 36 b2 3d 02 5f 01 be 5a 9e cb bd 41 f6 61 3d
       0.08701758 -0.12633899 -0.099423125 0.055166487
000260 f1 58 3f 3b 3f d5 99 bc 78 8b da bb 94 96 2c bd
       0.00291973 -0.018778441 -0.006669458 -0.04213579
000270 cb 1a c9 3d f2 af aa 3d 05 86 64 3d 85 fe b1 3d
       0.098195635 0.0833434 0.055791873 0.08691124
000280 b5 c4 2f 3d b0 16 ef 3d 3f 59 a1 3d 7a 3d f8 bd
       0.042912204 0.11674249 0.078783505 -0.12121101
000290 5d ac c8 bb 4d 42 ae bd b9 e1 97 ba 94 78 45 3d
       -0.006124063 -0.085087396 -0.0011587656 0.048210695
0002a0 fb 16 5d 3d 51 7e 20 bd fd 1e 3e 3d 53 06 32 bd
       0.053976994 -0.039182965 0.04641627 -0.043463062
0002b0 92 3d 02 bd 6f 5c b5 3c 79 c6 c0 bd 17 5e d2 bc
       -0.031797 0.022138802 -0.09412856 -0.025679631
0002c0 bb bd 83 3c 32 a7 35 bc 00 ef 86 bd 04 d1 94 3d
       0.016081681 -0.011087226 -0.065885544 0.07266429
0002d0 25 5b c2 3d b8 c7 97 bd d8 31 cc bc 84 ed bd bb
       0.09490041 -0.0741114 -0.024926111 -0.0057961363
0002e0 67 bd a4 bd 35 64 9d bd 9b 77 8f 3c 9e 53 14 be
       -0.08043938 -0.076851286 0.017513087 -0.14485022
0002f0 61 04 75 bc 70 7a b4 bc b4 ef dd 3c bb bb 21 bd
       -0.014954657 -0.022031039 0.027091838 -0.039485674
000300 46 36 4b bc ad 98 13 3d 98 2f 6e bd 65 ad 5b bd
       -0.0124030765 0.036034275 -0.058150858 -0.05363216
000310 7d fd 0a 3c 35 d2 a0 bd ec 48 80 bd c7 f9 0d 3c
       0.008483288 -0.07852594 -0.06263909 0.008665509
000320 42 e1 e8 3c fe a4 0e 3d 31 43 8c bd a8 c0 05 3c
       0.028427724 0.034825318 -0.06848753 0.008163609
000330 0b f7 c7 b9 ee bb 19 3d 43 45 03 3b f1 dd e4 bb
       -0.000381403 0.03753274 0.0020030297 -0.0069844653
000340 d4 c4 31 bd 51 14 da 3d 76 31 df bd 67 e0 07 bd
       -0.0434006 0.10648406 -0.10898106 -0.03317299
000350 e3 63 08 3c bb cf 2b bd bc d5 d7 3d 22 1c 11 3e
       0.008324596 -0.041946154 0.105388135 0.14170888
000360 1d ea bd 3b 2c 9f a4 bd 0a 5c 2e bd 9a ef 00 bd
       0.0057957307 -0.08038172 -0.042568244 -0.0314785
000370 04 10 b7 3c ef ae 68 bd 91 9d e6 bd 9e 2d f0 3d
       0.022346504 -0.056807455 -0.11260522 0.11727451
000380 9f 6d 94 bd 45 8f 05 bd ff 34 5a bd 0f 32 38 3d
       -0.07247471 -0.032607336 -0.053273197 0.044969615
000390 f5 d4 1a 3d 22 33 a7 bd 3c 5a c4 3c fc 68 63 bd
       0.037800748 -0.0816405 0.023968808 -0.055520043
0003a0 31 49 b9 bc 8f cf 3d 38 c1 00 bf bd 2d a9 87 bd
       -0.022617908 4.5254415e-05 -0.09326316 -0.066240646
0003b0 fd d7 8b ba 7b 7a 38 ba 01 a5 dd 3c 17 fe 31 bd
       -0.0010669228 -0.0007037294 0.027056219 -0.04345521
0003c0 e7 ba f0 3d 91 10 1b bd 63 d2 92 bc 89 fa 97 3d
       0.11754399 -0.037857596 -0.017922586 0.07420833
0003d0 94 0b a0 bb aa 58 da 3c 73 05 a4 bc 91 6d c0 bc
       -0.0048841927 0.026653606 -0.02002213 -0.023489745
0003e0 12 f7 6c bb a2 13 71 3c 60 db e0 3c 75 58 7c 3d
       -0.0036158008 0.0147141535 0.027448356 0.061607797
0003f0 39 3b 20 3e e9 f7 93 bd e3 67 84 bd 2f 87 2e bb
       0.15647592 -0.072250195 -0.06465127 -0.0026630869

net.model.convblock2.0.bias f4 [16]
000000 96 99 01 3d 4b 93 5f bd 45 c0 c8 bd 1b b3 88 3b
       0.03164061 -0.05458383 -0.098022975 0.0041717417
000010 06 22 8e 3c 26 68 f3 3d a7 38 d9 bc de 08 ce 3d
       0.017350208 0.11885099 -0.026516272 0.10060285
000020 24 37 27 bd 77 6b 51 3c 74 ae 0c 3e bb c8 ce 3c
       -0.04082407 0.012781969 0.13738424 0.0252422
000030 53 6f dd bd 39 51 e3 3c bf 81 02 be fc 41 a1 3d
       -0.10812249 0.02774869 -0.12744807 0.07873914

net.model.convblock2.2.weight f4 [16]
000000 04 68 81 3f 8a f8 7f 3f 7a 77 83 3f f7 56 7b 3f
       1.0109868 0.99988616 1.0270836 0.9817957
000010 a5 fa 78 3f 05 65 7b 3f 94 7f 7a 3f cb 6f 7d 3f
       0.97257453 0.9820102 0.9785092 0.9899871
000020 26 12 7c 3f fc 44 80 3f ab 40 80 3f fc 67 81 3f
       0.9846519 1.0021052 1.0019735 1.0109859
000030 19 cf 83 3f d8 5f 75 3f c8 07 86 3f ff ad 7c 3f
       1.0297576 0.9584937 1.0471125 0.98702997

net.model.convblock2.2.bias f4 [16]
000000 2f 12 87 3d b4 ff 34 bd 57 8f 95 bd 30 ab 31 bd
       0.06595265 -0.04418917 -0.073027305 -0.043376148
000010 e0 2c e8 bc a3 02 23 bd ba cb 61 3c 8e 86 80 bd
       -0.02834171 -0.039797436 0.013781482 -0.06275664
000020 eb c3 f8 bb 3b 6f 71 bd 51 71 81 bc cf cf cf 3c
       -0.0075917146 -0.05894397 -0.015801104 0.025367646
000030 99 45 ba bd 24 9b 9d bc e7 4e 96 bd 62 a2 8d bc
       -0.09095306 -0.019239016 -0.07339268 -0.017289344

net.model.convblock2.2.running_mean f4 [16]
000000 64 88 74 3e ca 87 1b 3e ea b4 65 3e 09 28 64 3e
       0.23880154 0.15188518 0.22432294 0.22280897
000010 1a 8f 3c 3e 0d 29 8d 3e 0e 0c d6 3e 04 77 cd 3e
       0.18413964 0.27570382 0.41806072 0.40129864
000020 35 50 71 3e 57 40 53 3e 8c 55 bc 3e 3a 9a 4d 3e
       0.23565753 0.20630012 0.36784017 0.20078364
000030 63 c6 72 3e 63 a9 27 3e 78 9c 82 3d f6 15 75 3e
       0.23708491 0.1637321 0.063775 0.23934159

net.model.convblock2.2.running_var f4 [16]
000000 08 31 a9 3e b4 a2 23 3e 35 d0 d1 3d 23 c6 5d 3e
       0.3304522 0.15980035 0.102447905 0.21657614
000010 b6 99 1d 3e 9f 33 a1 3d 89 f3 cf 3d ed af fb 3d
       0.15390667 0.07871174 0.101538725 0.122894146
000020 bc 8a a0 3e bb 4a ae 3d 3d c8 10 3e 53 25 73 3e
       0.31355846 0.085103475 0.14138885 0.23744707
000030 1a 24 ff 3d 06 1f c1 3d 02 ae 20 3d b2 24 fb 3d
       0.12458058 0.094297454 0.039228447 0.122628585

net.model.convblock3.0.weight f4 [8, 16, 1, 1]
000000 93 c9 b7 bd 5d 48 8c 3d 98 30 ce bd 74 0f b6 bd
       -0.08973994 0.0684974 -0.10067862 -0.08889666
000010 ff b8 e2 3b 74 9a 26 3c 2f cf 81 bd d6 6f 04 be
       0.006919026 0.01016866 -0.06338345 -0.12933287
000020 38 ba 75 bd bd 1b 3c 3d e4 df 63 3e 6f ee 96 3d
       -0.059992045 0.04592489 0.22253376 0.07369696
000030 b8 42 90 be 48 4d ff 3d ea 6c 8b 3c 18 40 cc bd
       -0.28175902 0.12465912 0.017019708 -0.099731624
000040 9f 7d 8a 3e 3c 5a c2 3b 24 1e 68 3e d2 54 e7 bc
       0.27048966 0.005931167 0.22667748 -0.028238688
000050 50 b3 06 3e 6a 49 4a 3e 37 6c da 3d 48 5a 6a 3d
       0.1315434 0.19754568 0.106651716 0.057215005
000060 fa 1c 2d 3e d8 f7 30 be c3 81 3c bd 72 6b 74 3e
       0.16905585 -0.17282045 -0.046022188 0.23869112
000070 a3 b5 22 3e 10 a3 43 3e ad cd 40 bc 46 d3 1f bc
       0.15889601 0.19105172 -0.011767787 -0.009754961
000080 d6 3f 06 3d 75 63 05 be c6 38 99 bc 75 05 41 3e
       0.032775722 -0.13026221 -0.01870383 0.18849738
000090 37 61 b8 bd 4f b7 73 be e4 88 f9 3d a8 f7 0d be
       -0.09002917 -0.23800395 0.12184313 -0.13864005
0000a0 1e 2d 99 3e f2 fb d2 3d 56 a6 e5 3d 1c 1b 4f 3e
       0.29917234 0.10301961 0.11213367 0.20225185
0000b0 ae ea 5c 3e d6 7b 71 3d 08 1c 43 3e cb 70 06 be
       0.21573898 0.05895599 0.19053662 -0.13128965
0000c0 ec 64 b7 3d 87 81 57 be 6d bd c3 bd 7d bf 82 bb
       0.08954796 -0.21045505 -0.095576145 -0.0039901123
0000d0 06 f4 b7 bc 2a cc 4a be 0c 17 28 bd c2 7c 7e bd
       -0.022455227 -0.19804445 -0.041037604 -0.062130697
0000e0 67 99 77 3c e7 54 6b 3e e0 84 84 bd 65 db 19 3e
       0.015112258 0.22981606 -0.064706564 0.15025099
0000f0 d2 c5 61 be 2e e9 84 be 9d d0 f9 3d d7 84 4f 3d
       -0.22048119 -0.25959152 0.12197993 0.050663795
000100 36 84 2a 3e 19 79 11 3e 95 f3 d6 bd f4 73 56 be
       0.16651997 0.14206351 -0.10495678 -0.2094267
000110 1e 01 b6 3d 6e a3 a6 bd e6 0f 49 3e 51 4c 21 be
       0.08886932 -0.081366405 0.19634971 -0.15751769
000120 42 69 06 be c0 ed c8 bc 34 ed e6 3d 07 a0 ed bd
       -0.1312609 -0.02452743 0.11275712 -0.116027884
000130 23 98 70 bc 97 a6 10 bd e0 8a 25 bd af 68 0a be
       -0.01468471 -0.035315122 -0.040415645 -0.13516496
000140 dc 82 52 3e 3d 7c 6d 3e c9 97 09 3e 61 d1 67 3e
       0.20557731 0.23191924 0.13436808 0.22638465
000150 1f 29 3e 3e ae 3b 8d 3c 32 cb 13 bc d3 14 3e be
       0.18570374 0.017240372 -0.0090206135 -0.18562631
000160 d5 79 07 be 63 af 08 be 0b 9d 6a be 8b c8 eb bd
       -0.13230069 -0.13348155 -0.2291147 -0.1151286
000170 69 89 9a be 18 b7 0d 3c a0 92 96 3d dd 1b 7b ba
       -0.3018296 0.00864961 0.07352185 -0.0009579042
000180 0f f0 91 3c 73 48 31 be e6 7e ff bd 30 98 0f 3c
       0.017814664 -0.17312793 -0.12475376 0.008764312
000190 bf b0 14 be 14 75 31 3e 2e 14 c2 3d 03 da aa 3d
       -0.14520548 0.17329818 0.09476505 0.08342364
0001a0 46 ba bb bd 20 e5 31 be 45 89 a4 bc 50 33 7a be
       -0.09166388 -0.1737256 -0.020084986 -0.24433637
0001b0 1b 76 86 bd 56 e2 53 3e 2d c4 8b 3e 01 9f c5 3d
       -0.065654956 0.20691809 0.27298108 0.09649468
0001c0 3b 7c ca bd db 07 ef bd 53 b2 c5 bd 0f 5b 58 3e
       -0.09886976 -0.1167142 -0.09653153 0.21128486
0001d0 f3 df 3e 3e fd 7b 22 3e 94 60 76 be c3 63 51 be
       0.18640117 0.1586761 -0.24060279 -0.20448212
0001e0 09 de 72 3e 54 03 d8 bd a8 2a 0a bd bc 96 02 bb
       0.23717512 -0.1054751 -0.033732086 -0.001992627
0001f0 f3 ec 26 be f3 61 01 3e 6c ae 0c 3e f5 72 34 3e
       -0.16301326 0.12635021 0.13738412 0.17621978

net.model.convblock3.0.bias f4 [8]
000000 eb e7 91 3e f4 dc 03 3c 58 35 98 bd 97 3a ae bd
       0.28497252 0.008048285 -0.074320495 -0.08507269
000010 03 fd 2b 3e c9 9e 9b 3e 75 2b 95 3e 57 3f a7 3c
       0.16795735 0.3039458 0.29134718 0.020415945

net.model.convblock3.2.weight f4 [8]
000000 b0 09 71 3f 3a 8a 80 3f 19 53 7f 3f a3 93 80 3f
       0.94155407 1.0042183 0.9973617 1.0045055
000010 22 a0 7e 3f 21 f0 82 3f b7 c3 7f 3f cd 07 83 3f
       0.99463093 1.0229532 0.9990801 1.0236756

net.model.convblock3.2.bias f4 [8]
000000 f1 e6 cc 3b ae 5a 58 3c 1e 75 03 3d 33 68 c8 bb
       0.0062531163 0.0132052135 0.032094114 -0.006115937
000010 89 2b 19 3d cc 48 2f bd ec 5b 5f bd 42 fb 11 bd
       0.037395034 -0.042794034 -0.054531023 -0.03564001

net.model.convblock3.2.running_mean f4 [8]
000000 e2 38 ac 3e 3c 34 37 3f 2c 4f f1 3e 4f dd 2a 3e
       0.33637148 0.7156408 0.47130716 0.16685985
000010 4a 1a 86 3e 3a 2f 11 3f 55 fb 01 3f ad b0 e1 3e
       0.26191932 0.56712687 0.5077413 0.44080105

net.model.convblock3.2.running_var f4 [8]
000000 dc ca 42 3e e8 d6 7d 3f 51 b0 89 3f eb 8a a5 3e
       0.19022697 0.99156046 1.0756932 0.32332548
000010 a4 07 18 3e ce c9 72 3f 0e fc 9c 3e de 18 3d 3f
       0.14846665 0.9483918 0.30661052 0.7386607

net.model.convblock4.0.weight f4 [16, 8, 3, 3]
000000 e2 10 54 3d 1b 1f b6 3c f7 ff a6 3d f6 b6 cb 3d
       0.051773913 0.02223163 0.0815429 0.099470064
000010 db 53 4a bd 1e 33 80 3d 87 af 55 3d bf 65 44 3d
       -0.049396377 0.0625975 0.05216935 0.047948595
000020 84 55 a2 3d e4 f6 b9 bc 18 48 9c 3b 81 ae 63 3d
       0.07926467 -0.022700734 0.0047693364 0.05558634
000030 bf ca 2b 3d b5 10 9b bd ae d2 b0 bd 76 92 10 3e
       0.0419414 -0.07571546 -0.08633934 0.1411837
000040 03 bb 4b bd 95 de d6 bb 40 68 5d bd 00 84 96 3d
       -0.049738895 -0.0065572956 -0.0540545 0.07349396
000050 ee db da 3d 37 2c 5e bd 13 61 f9 bd fc 9c 57 bd
       0.106864795 -0.054241385 -0.121767186 -0.052639946
000060 f0 f2 60 3a 9d 73 3f bc 8a d5 62 bd e1 d1 11 3c
       0.00085811224 -0.011685279 -0.055379428 0.008900137
000070 7b dc 01 3d a6 67 6c 3d 1c 34 53 3d 8a 92 b2 3c
       0.031704407 0.057716034 0.051563367 0.02179839
000080 82 49 7b bd 94 45 37 3c db 49 ef bc 1e 8d af 3d
       -0.0613494 0.011186022 -0.029210022 0.08571838
000090 4e 67 4f bd c7 e4 2a bd bc 0e 74 bd 87 65 01 be
       -0.05063563 -0.041722085 -0.059584364 -0.12636386
0000a0 bc 5f 13 3d ab 9b 3b 3d 0f e9 07 3e 35 67 4c 3d
       0.03597997 0.045802753 0.13272499 0.049903113
0000b0 85 7b 97 3d 36 ed a2 bc d3 ca b8 3d 6d e9 bf 3d
       0.07396606 -0.019888502 0.09023061 0.09370694
0000c0 49 c3 c7 3d 53 ae 0c bd 27 29 df 3d 0c b3 2c 3e
       0.097540446 -0.034345936 0.10896521 0.16865176
0000d0 6d c3 81 bd f4 89 d3 3d fc b6 b5 3b 54 44 5a bc
       -0.06336103 0.10329047 0.005545495 -0.013321955
0000e0 ec 36 96 3d 31 47 4e bd e8 50 a8 3d d0 98 93 3c
       0.07334694 -0.050360862 0.08218557 0.018017203
0000f0 02 85 23 bd 00 22 d8 3d a3 0a 4c 3b 3d ec 09 3e
       -0.039921768 0.1055336 0.003113427 0.13469024
000100 f8 5c 82 3d 4b 8b a6 3d b3 59 a7 3d 80 c5 74 3d
       0.06365389 0.08132037 0.08171406 0.059758663
000110 2a bd a9 3b c8 7b 09 3e 7f 21 17 bc 10 75 87 bb
       0.005180021 0.13426125 -0.009224295 -0.004133828
000120 7e b8 65 3c a1 90 a2 bd 7b 25 3b 3d e4 41 72 3d
       0.014021037 -0.07937742 0.04569004 0.05914487
000130 67 4f 0b 3d ff f3 69 bd c1 ce 80 3c 93 cc a8 3d
       0.03401127 -0.05711746 0.015723588 0.082421444
000140 0c 16 cf 3a 21 2c b9 bc 23 19 d7 3d 69 12 8c bd
       0.0015799417 -0.02260405 0.10502841 -0.06839449
000150 07 54 d9 bd 95 ce 8a 3d b9 42 45 3d a3 b1 23 bd
       -0.1061173 0.06777684 0.048159335 -0.03996433
000160 bc 50 21 3b 4b 9a e2 3c 31 66 20 3e d3 b8 7e 3d
       0.0024614772 0.027661463 0.15663983 0.06218798
000170 06 ed a3 3d 59 40 53 bc 0d a5 46 3d b2 e8 9c bd
       0.08004193 -0.01289376 0.04849725 -0.076615706
000180 b4 64 a4 bd ab ff 03 3d 00 63 ac 3d cc c0 94 3d
       -0.0802702 0.032226246 0.0841732 0.072633356
000190 17 3b 62 3d 56 22 08 3e f9 b7 4b 3d 55 80 d1 3d
       0.055232134 0.13294348 0.049735997 0.102295555
0001a0 09 e9 d5 3d 8f 56 18 3d a2 c1 97 bd 32 64 18 3d
       0.104448386 0.037191924 -0.074099794 0.03720493
0001b0 77 76 ff bb b3 04 4f bd d8 68 f2 bd 5c 1a 05 3d
       -0.0077961045 -0.05054159 -0.118364036 0.03249584
0001c0 6e 81 7b bd 7c 4b b7 3d b2 15 bb 3d 30 f5 8b ba
       -0.06140273 0.089499444 0.091349974 -0.001067793
0001d0 ca 2a 9e bd 05 53 a0 bd b8 4f 87 bc a1 9e 92 bd
       -0.07723005 -0.07828335 -0.016517505 -0.07159162
0001e0 97 1f ec bc 86 e5 94 3d b5 eb 98 bc 47 1d ac 3d
       -0.028823657 0.072703406 -0.018667081 0.08404022
0001f0 bc 90 4d bd f2 8f ed bc 81 f6 5d 3d 37 1c cb bd
       -0.050186858 -0.028999303 0.054190163 -0.09917491
000200 22 7d 05 bd 85 12 c0 bd eb 75 ad bd 50 c8 96 3d
       -0.03259004 -0.09378532 -0.08469757 0.07362425
000210 cc 86 d2 3b 07 23 e2 3d d3 af 13 3e 5c 8e e4 bc
       0.0064247604 0.11041837 0.1442254 -0.027899913
000220 be 66 f1 bc d9 53 a6 3d a9 f5 8b 3d c4 72 48 bc
       -0.029467937 0.081214614 0.06833965 -0.0122343935
000230 be 32 ee 3d e3 b4 22 bd fa 46 8e bd ef 8b ec bc
       0.11630772 -0.03972329 -0.069471315 -0.02887532
000240 88 e1 4d 3d 7d 51 41 bc 31 0e 2a bc eb 39 a9 3b
       0.05026391 -0.0117992135 -0.01037936 0.005164375
000250 ac a5 2b 3d f3 77 19 bd 37 b3 a5 bc 15 16 c2 3d
       0.041906044 -0.037467908 -0.020227058 0.09476868
000260 4f ee 88 bd 70 30 42 bd 6c d0 5b 3d 86 b4 c6 bd
       -0.06686079 -0.047409475 0.053665563 -0.09702401
000270 90 68 32 bd 21 c5 1d 3d e5 05 2d bd 4a f9 cd 3d
       -0.04355675 0.038518075 -0.04224195 0.10057314
000280 52 77 da bc 5a 58 bc 3d c4 e7 92 3d 12 c5 8e 3d
       -0.026668224 0.09196539 0.07173112 0.06971182
000290 99 86 02 be e0 85 b5 bd 09 b3 e1 bb ab 43 0e be
       -0.12746657 -0.08863425 -0.0068877977 -0.13893001
0002a0 8d 7f c9 3d 95 d5 34 3d 07 a8 a2 bd b3 9c da bd
       0.098387815 0.044149 -0.07942205 -0.10674419
0002b0 ff 61 ae bd 7a 79 a3 bd 5b 38 71 bd 5c 1d aa bd
       -0.08514785 -0.07982154 -0.058891635 -0.08306381
0002c0 50 6b 22 bd 40 81 1a bc da 94 e0 bd 62 ee 82 bd
       -0.039653122 -0.00943023 -0.10965891 -0.06393124
0002d0 18 15 7d bd a4 29 a8 3d 91 59 78 3d a8 19 0d 3d
       -0.061787695 0.08211067 0.060632292 0.034448296
0002e0 57 93 d2 3c 86 14 1d be 33 e0 2f bd f1 31 8c 3d
       0.025705023 -0.1533986 -0.042938422 0.06845463
0002f0 f9 2a e2 bd ad 1f 3b 3c 1e 7c 8f 3c 82 29 47 bc
       -0.11043353 0.011421126 0.017515238 -0.012155892
000300 39 6d 0a bd 5d 71 88 3c 08 89 8c bd fc 49 d8 3d
       -0.03379557 0.016655618 -0.06862074 0.105609864
000310 df 65 03 3e 2c 40 ae 3d 34 58 cd bd 04 77 92 3d
       0.1283183 0.085083336 -0.10026589 0.07151607
000320 ad 58 44 3c 06 fc b4 bd fa 30 b4 bd d5 44 be 3b
       0.011984033 -0.08837132 -0.08798404 0.0058065453
000330 2c bd af 3b a7 a5 71 3d d5 fd eb 3b da d6 98 3d
       0.005363127 0.05899587 0.00720189 0.07462855
000340 70 99 b4 bd dd e1 05 be 53 4a 0b bd af 71 bf 3d
       -0.088183284 -0.13074441 -0.034006428 0.09347855
000350 6c 41 e1 bd b2 df 15 3e df d2 8a bd bb 4d 22 bc
       -0.10998806 0.14636114 -0.06778502 -0.009906228
000360 ee 16 ac ba 18 17 15 3b 2b 7d dd bd 6e 2d 9a bd
       -0.0013129392 0.002274936 -0.108148895 -0.07528196
000370 38 de 55 bd 73 63 a3 3d 75 2b 88 bd 2a 6d 6e 3d
       -0.052213877 0.07977953 -0.06648914 0.058209576
000380 5d f0 2f bd 74 29 e5 3d 9d 08 94 bd 59 39 4a bd
       -0.042953838 0.11189547 -0.07228205 -0.049371097
000390 d3 9a e9 3c 53 42 a4 bd 37 e7 da 3d c2 7a 80 bd
       0.028516209 -0.08020463 0.10688632 -0.06273414
0003a0 c8 22 c3 bd 17 8c b3 3d 39 38 4c bd 72 26 8a bd
       -0.09528118 0.087669544 -0.049858306 -0.06745614
0003b0 f2 1b 06 3e fc a0 99 bd 46 13 84 bd 9c ba 90 3d
       0.13096598 -0.075014085 -0.064489886 0.07066843
0003c0 9b 2a 85 3c 38 a7 8b bc 4b d4 00 3e df d4 10 3d
       0.016255667 -0.01704751 0.12580983 0.03535926
0003d0 a0 17 03 be a2 54 8d 3d 47 48 8d 3d 43 46 a0 3d
       -0.12801981 0.06900908 0.068985514 0.07825901
0003e0 b9 c4 24 3d ac d2 37 3c b2 e0 c2 bd b2 20 4e 3d
       0.04022667 0.011219662 -0.095155135 0.05032415
0003f0 df 31 82 3d c0 1c 51 bd 4d c8 46 bc df c3 02 3e
       0.063571684 -0.05105281 -0.012132716 0.12770031

net.model.convblock4.0.bias f4 [16]
000000 35 8a dd bd c8 80 11 be 85 30 e6 3c 7a 34 a8 3c
       -0.108173765 -0.14209282 0.028099308 0.020532835
000010 5a a4 8a bd 44 68 af bc 5c 70 46 3d 7d c5 bd 3c
       -0.06769629 -0.021412022 0.048446998 0.023165459
000020 be 86 66 3c e0 25 fe bd 8e 80 50 3d d9 47 0d 3e
       0.014070211 -0.12409568 0.05090385 0.13796939
000030 a1 4a 42 3e 06 d1 83 3d c6 23 b1 3d 31 39 a0 3d
       0.18973781 0.064363524 0.08649401 0.078234084

net.model.convblock4.2.weight f4 [16]
000000 af 43 83 3f 7f 5b 7f 3f 1e 7a 7d 3f bb 9d 7b 3f
       1.025503 0.99748987 0.9901446 0.9828755
000010 6a 5d 75 3f e8 8c 7d 3f 97 e7 7f 3f bd 41 80 3f
       0.95845664 0.9904313 0.99962753 1.0020062
000020 00 c4 7a 3f 37 ed 83 3f eb 35 7b 3f 0c 67 81 3f
       0.9795532 1.0306767 0.9812915 1.0109572
000030 ae d8 86 3f 99 97 7f 3f 9b fc 78 3f f9 9c 7e 3f
       1.0534875 0.99840695 0.97260445 0.9945827

net.model.convblock4.2.bias f4 [16]
000000 bd e0 a2 bd 26 0a 38 3d cc 8d a1 3b c7 23 ef 3d
       -0.07953022 0.044931553 0.0049302336 0.11676746
000010 f0 b5 41 3d 1a ca 89 3b 6c 5d 1c 3c 97 f5 98 3d
       0.04729265 0.0042050006 0.009543758 0.074687175
000020 8d 76 99 bd d2 14 0e bd 41 9f 9b 3d d1 f2 9d bc
       -0.07493315 -0.034687825 0.07598735 -0.019280823
000030 98 9d 42 3d 37 88 63 bd d1 f9 c9 3d 35 11 03 3c
       0.047513574 -0.055549826 0.09862102 0.007999708

net.model.convblock4.2.running_mean f4 [16]
000000 1e 04 9e 3e f1 7b 4b 3e e3 a0 86 3e d4 16 8f 3e
       0.30862516 0.19871499 0.26294622 0.27947104
000010 fc 8a a2 3e cc 67 5f 3e c7 ea 51 3e bf ea 90 3e
       0.31746662 0.21816939 0.20499717 0.28304097
000020 c3 7b 44 3e ea a0 14 3e 3b 30 6a 3e 71 f2 99 3e
       0.19187836 0.14514509 0.22869961 0.3006778
000030 e5 83 c8 3e a9 a5 61 3e e0 b7 b9 3e d8 ab 8c 3e
       0.39163128 0.2203585 0.36273098 0.27474856

net.model.convblock4.2.running_var f4 [16]
000000 fe 5d d0 3e d2 f2 8b 3e 1a 8f 26 3e fa 07 fc 3d
       0.4069671 0.27333695 0.16265526 0.12306209
000010 fc fb 17 3e 1e 79 a9 3d 80 c9 f0 3d 66 05 82 3e
       0.14842218 0.082750544 0.11757183 0.25394744
000020 8e 84 d1 3d 51 db f3 3d 39 c0 6f 3e 77 20 78 3e
       0.10230361 0.11907066 0.23413171 0.24231134
000030 8d 7e 7a 3e d4 d7 93 3d e6 15 2c 3e 66 a0 f0 3d
       0.24462338 0.072189 0.16805229 0.117493436

net.model.convblock5.0.weight f4 [16, 16, 3, 3]
000000 43 2d 92 3c 71 23 e4 3c 90 e5 1b 3d ed 83 be bd
       0.017843848 0.027848931 0.038060725 -0.093025066
000010 7b c8 4c bd ef 1e d3 bd db b6 66 3d ce 1d 4d bc
       -0.04999588 -0.103086345 0.05632673 -0.012519313
000020 a2 88 11 bd 7c 1f ef bc 5f 85 a8 3c 4f 64 d8 3d
       -0.035530694 -0.029189818 0.020571409 0.10566007
000030 f1 ba 13 bc ea 02 2e bd 8e 99 04 bd 1a 7c c4 3b
       -0.009016738 -0.042483248 -0.032373004 0.0059962394
000040 90 e1 a8 bc f5 14 2d 3d a5 98 18 bd a2 57 64 bd
       -0.02061537 0.042256314 -0.03725495 -0.055747636
000050 05 96 38 bd 60 52 9a 3c a0 4a ae bc 9a 15 18 bd
       -0.045064945 0.018838108 -0.021275818 -0.037129976
000060 82 54 88 bd c0 08 b3 ba 03 b9 15 bd 5c 99 83 38
       -0.066567436 -0.0013659224 -0.036553394 6.275132e-05
000070 cb bf 92 3d 0f 48 11 ba fa e0 3d bd 4a a3 43 bd
       0.07165488 -0.00055420486 -0.046357132 -0.047763146
000080 0b 52 06 bc a0 9b 6e bb 24 da 10 bd 76 0a 9f bd
       -0.0081982715 -0.0036408678 -0.035364285 -0.07765667
000090 7d 2c b8 3d a3 52 0c bd 38 bb cf bc ca 8d 62 bd
       0.089928605 -0.034258496 -0.025357828 -0.055311
0000a0 13 68 41 3c 6e 12 6f bd c0 26 69 3c e8 43 6a bd
       0.011804598 -0.058367185 0.01423043 -0.057193667
0000b0 16 41 e2 3c 6b 24 8d 3d c8 11 af 3d 72 25 23 3d
       0.027618926 0.06891712 0.085483134 0.039830633
0000c0 02 a3 89 bd 84 b4 9b bd 95 56 d0 bd 69 5f cd bc
       -0.067205444 -0.0760279 -0.10172764 -0.02506991
0000d0 68 7a 6c 3c a2 e3 1d bc 82 d4 40 3c 00 7e 45 bc
       0.014433481 -0.009636791 0.011769416 -0.0120539665
0000e0 cb 28 d5 bc 6c 98 9d bd 1c fb 0d bd 03 e9 d3 bd
       -0.026020428 -0.07695088 -0.034663305 -0.10347178
0000f0 08 8e 18 3d 68 b2 72 3d 84 08 3e 3d 4d 61 c4 bd
       0.037244827 0.059252173 0.04639484 -0.09588871
000100 4c 5f 86 3d e2 ce a5 3c d4 9f 24 bd 34 b4 01 3b
       0.06561145 0.020240251 -0.040191486 0.0019791247
000110 7e 6d 3e bd 35 55 e0 bd 22 b0 84 3c 49 1b e5 3c
       -0.04649114 -0.10953752 0.016197268 0.027967112
000120 56 29 63 bd ee a9 b4 bc 38 52 58 bd e2 be 51 bd
       -0.055459343 -0.022053685 -0.052812785 -0.05120743
000130 2b da 87 3d 51 5f 82 bd c4 52 55 3d 85 ab 9c 3d
       0.06633409 -0.063658364 0.052080885 0.07649902
000140 15 cc 8e bd 12 8d ff bc cb 04 82 bd 74 68 9d 3c
       -0.06972519 -0.031195197 -0.063485704 0.019214846
000150 c7 57 dc bc 2a 5f 6e 3a 5e bd a1 3d b0 77 59 bc
       -0.026897324 0.000909316 0.07897447 -0.013273165
000160 e5 00 9a 3d 1e 3f ce 3d 70 05 54 3d df 8e 24 3d
       0.07519702 0.100706324 0.051762998 0.040175315
000170 31 4c 6f bd 46 33 bf bc f8 bd c4 bc 5d 1e b1 bc
       -0.05842227 -0.023339879 -0.024016365 -0.021620924
000180 d2 fd 86 bd 41 9f 81 bc 4c b5 a9 3c e8 17 e5 3c
       -0.06591381 -0.015823008 0.020716332 0.027965501
000190 db 74 60 3d ce b6 f5 3c 90 11 76 bd ce 08 28 bc
       0.054798942 0.029994395 -0.060075343 -0.010256005
0001a0 d7 61 40 bd 6b 79 88 3c f4 df 43 3d 6f 83 67 bb
       -0.046968307 0.01665946 0.047821 -0.0035326143
0001b0 26 fc 47 bc 43 fe de bc 80 f3 f3 3d c2 6e 09 bd
       -0.012206113 -0.02722085 0.11911678 -0.033552893
0001c0 5f da ae bc 83 59 5f 3b 84 43 8e bc 0a 0d f8 bc
       -0.021344362 0.0034080453 -0.017366178 -0.030279655
0001d0 79 6e ec 3c 2e 75 89 3d 68 b5 58 bc 04 e3 bc bb
       0.028861271 0.067118034 -0.013226844 -0.005764367
0001e0 a3 48 78 3d f3 36 81 bc bf 33 47 3d 7e 52 8a 3d
       0.060616147 -0.015773272 0.048633333 0.067540154
0001f0 17 64 a1 3d 2d 26 19 bc 4d 0e 6f 3d 8e 2a 2e 3c
       0.07880419 -0.009347481 0.058363248 0.010630263
000200 d3 d8 f7 bd 6e f5 a2 bd 55 fd 63 bc c1 02 26 bd
       -0.12101903 -0.07956968 -0.0139153795 -0.04052997
000210 77 4d db bb e0 89 09 3d b3 da f6 3c 66 0f 2f bb
       -0.006692584 0.033578753 0.03013358 -0.002671206
000220 07 79 b6 bd a6 96 a0 3d 04 2e f1 3c 96 4b 2d 3d
       -0.08909803 0.07841234 0.029440887 0.042308412
000230 de 6c 92 bd 9b 49 80 3c fc 5c 7e 3c 9a 32 8a 3c
       -0.07149671 0.015660098 0.015525099 0.016869832
000240 20 75 9a bd c8 69 ca bc 94 32 fd 3c 4a bd e0 bd
       -0.07541871 -0.024708644 0.030907907 -0.10973604
000250 1f cb 73 3d c2 a3 50 3d 62 73 19 bd e9 fd 81 3c
       0.059519883 0.05093742 -0.037463553 0.015868144
000260 12 2c 98 bd 7d ce 63 bd c9 67 77 bd 88 62 27 bc
       -0.07430281 -0.055616844 -0.06040171 -0.010216363
000270 1d 06 be bc f4 61 3f bd c5 e7 2c bd 99 26 44 3c
       -0.023196274 -0.046724275 -0.04221322 0.011972093
000280 20 7d bf bd 32 44 aa bc 16 76 46 bc c9 c4 57 3b
       -0.093500376 -0.020784471 -0.012113115 0.003292369
000290 c8 1b 69 bd 57 a0 27 bd a3 c7 f1 3c 64 21 06 3d
       -0.05691126 -0.040924396 0.02951414 0.032746688
0002a0 3f c5 1f bc 43 9a bb 3d fc a0 a1 3d 76 33 67 bc
       -0.009751617 0.091602825 0.078920335 -0.01411139
0002b0 24 bb c7 bc eb 66 73 bd 59 f7 90 bc 69 fa a4 bd
       -0.024381228 -0.059424322 -0.01769607 -0.080555744
0002c0 16 39 39 bd 29 cd 2f bc 6b 44 d4 3c 5c cc a3 3c
       -0.045220457 -0.010730066 0.02591153 0.019994907
0002d0 d3 04 36 3d 98 e1 1b bc 0a aa 0c 3b 93 d1 c0 3d
       0.044438194 -0.009514235 0.0021463656 0.09414973
0002e0 22 f4 a0 bc 88 46 14 bd c9 e3 fa bc e3 9e a5 3d
       -0.019647662 -0.036200076 -0.030626195 0.08086946
0002f0 d9 1a 02 bb 19 cb b1 3d d6 5d e1 bd 13 f5 f3 bd
       -0.0019852428 0.08681316 -0.11004226 -0.119119786
000300 22 9e 8b 3d ef fc 5b bc a8 46 e3 bd 4c d1 1b 3e
       0.06817271 -0.013427003 -0.11097461 0.15216559
000310 78 2d 92 bb 20 92 df bc 28 7e c7 ba 98 12 ba 3c
       -0.0044609867 -0.027291358 -0.0015220093 0.022713944
000320 7e ba 19 3d 9a 8d 44 bd 21 2f fa 3a 71 25 df 3c
       0.03753137 -0.047986604 0.0019087532 0.027239533
000330 fb 35 e9 bd 02 10 47 bd 05 94 62 3c 47 cd 33 3d
       -0.11387249 -0.04859925 0.013829236 0.04389694
000340 a6 c2 39 bb fc 1e a5 3b 0b 78 18 bc 03 e1 ca 3b
       -0.002834478 0.005039094 -0.009305964 0.0061913743
000350 7d 0c 3c 3d 0e 0c a5 3a 08 f9 06 bc 29 86 8c bd
       0.045910347 0.0012592094 -0.008238085 -0.068615265
000360 fb d1 b5 ba 23 ec 05 bd 0c 94 87 bd d9 e3 d2 3b
       -0.0013871783 -0.0326959 -0.066200346 0.006435853
000370 1e b5 09 bd d7 31 28 3d 5e 63 c2 bd b4 2d aa bc
       -0.033619992 0.041063156 -0.09491609 -0.020773746
000380 13 f5 56 bd 4f 73 96 3c 66 e6 88 bc 6a 9e f6 3d
       -0.052479815 0.01836553 -0.016711425 0.12041934
000390 eb ad fd bc 10 af f2 bb 58 3a fe bb b5 9c 38 3c
       -0.03096672 -0.007406123 -0.00775842 0.011267831
0003a0 28 c1 0c bd 66 b3 9a 3c a7 6a 55 bd 80 f5 83 bb
       -0.034363896 0.018884372 -0.052103665 -0.0040270686
0003b0 c5 27 94 bd 8e 4d f3 3c bd 80 89 bd ae 3b d4 bd
       -0.07234148 0.029700067 -0.06714008 -0.103629455
0003c0 9a be 28 bd c7 4f 81 bd 26 6f 85 bc 62 87 bb 3c
       -0.041197397 -0.063140444 -0.016288351 0.022891704
0003d0 86 86 6e bd a3 86 42 bc 8b 91 4c bd c6 89 d8 bc
       -0.05823376 -0.01187292 -0.049943488 -0.026432883
0003e0 95 45 f8 b7 e3 1e ca bd 74 0e 5f bd 9c b2 b8 bd
       -2.9596305e-05 -0.098691724 -0.054457143 -0.09018442
0003f0 9c a7 55 bc 50 6a 18 3c b2 fa 61 3d c0 32 61 bd
       -0.0130404495 0.009302691 0.055170722 -0.05498004

net.model.convblock5.0.bias f4 [16]
000000 4f f6 f0 3c b1 50 d4 3c 4a 77 10 bd 62 01 af bd
       0.029414324 0.025917383 -0.035270013 -0.085451856
000010 01 6e 8a 3c f7 14 16 3d 7a ee a2 bd 38 e8 01 be
       0.016898157 0.036641087 -0.07955642 -0.1268624
000020 eb 14 71 bd 92 d2 9b bd 20 b0 d2 bd 53 2a 2d bc
       -0.05885784 -0.076085225 -0.102874994 -0.010569173
000030 a4 e4 b7 bd 5d 8e 06 3e 06 d0 7c bd 80 4d b8 bc
       -0.089791566 0.13140245 -0.061721824 -0.022497892

net.model.convblock5.2.weight f4 [16]
000000 8b 84 81 3f 01 36 81 3f e3 8a 80 3f aa 5d 82 3f
       1.0118574 1.0094606 1.0042385 1.0184834
000010 79 a6 7e 3f bc 8c 76 3f 3f ec 7f 3f 19 95 74 3f
       0.9947277 0.96308494 0.9996986 0.95540005
000020 1f ea 7b 3f e4 9e 79 3f ad 53 82 3f 4e 8b 81 3f
       0.98404115 0.9750807 1.0181786 1.0120637
000030 6e 23 84 3f 0c 9f 85 3f 54 70 7a 3f 98 d9 7f 3f
       1.0323312 1.0439162 0.9782765 0.99941397

net.model.convblock5.2.bias f4 [16]
000000 da 6c b4 bc 4b 1e a0 ba 13 3e 45 3b 5a 9d 30 bd
       -0.02202456 -0.0012216059 0.0030096814 -0.043118812
000010 d9 83 fd bc 2f 53 29 bd 01 84 57 bd 93 dc b8 3d
       -0.030946659 -0.041339096 -0.052616123 0.09026446
000020 f3 b3 3d 3d 2d df 1c bd 8b 0e 97 3d d2 69 96 3d
       0.04631419 -0.038298775 0.07375821 0.073444024
000030 23 02 cf bd 47 dc 94 3d 1a b5 5c bd 5b 66 af bd
       -0.101078294 0.07268577 -0.05388365 -0.08564445

net.model.convblock5.2.running_mean f4 [16]
000000 43 0b 85 3e 49 32 a5 3e 48 75 8f 3e 4a 8e ac 3e
       0.25985155 0.32264927 0.28019166 0.33702308
000010 31 af 8a 3e 78 6f c9 3e 38 9e 7b 3e e9 02 5b 3e
       0.27086785 0.39342856 0.24572074 0.21387829
000020 75 8c 96 3e 5d 1e 36 3e a7 34 45 3e e0 8d 59 3e
       0.29404035 0.1778502 0.19258367 0.21245527
000030 d0 a0 50 3e cf d0 e5 3e b1 d9 4c 3e e6 86 59 3e
       0.20373845 0.4488587 0.20004918 0.21242866

net.model.convblock5.2.running_var f4 [16]
000000 5b 2f 4c 3e 8b c5 36 3e c6 88 8e 3e 89 e0 de 3e
       0.1993994 0.17848794 0.27838725 0.43530682
000010 1d df 7f 3e 82 1b 5c 3e a1 40 7a 3e 08 52 26 3e
       0.24987455 0.21494868 0.24438716 0.1624223
000020 96 78 1a 3e 5b 0a 04 3e db de 12 3e 87 be 1e 3e
       0.15085062 0.12894575 0.14342825 0.15502368
000030 bf f4 04 3e 85 2e 72 3e 48 37 d7 3d 61 66 e5 3d
       0.12983988 0.23650558 0.10508591 0.11201168

net.model.convblock6.0.weight f4 [16, 16, 3, 3]
000000 6c 13 ab 3d 51 a8 0f bb c0 ae 71 bd a5 e4 bf bc
       0.08353314 -0.0021920393 -0.059004545 -0.023424456
000010 32 f4 4f 3d 44 83 80 bb d9 a6 7a 3d f5 98 0a bd
       0.050769992 -0.003921898 0.061194275 -0.033837277
000020 69 32 c8 3d 92 11 4a 3d 76 0e 01 3b 72 d4 91 bc
       0.0977524 0.049333163 0.0019692457 -0.017801497
000030 89 0e 4e 3d c3 4f 48 3d 37 b2 07 bd 30 2c 86 3d
       0.05030683 0.04890419 -0.033128943 0.06551397
000040 e2 34 6e bc 9b 96 47 bd 3a 9e 4d bd 7d 12 85 3c
       -0.014538975 -0.048727613 -0.050199725 0.016244167
000050 e4 16 2d 3d b4 01 7a bd de 0b 17 3d 55 a9 0b 3d
       0.04225816 -0.06103678 0.03687655 0.034097034
000060 9c 23 af 3a 07 79 9c bd 20 bc 62 bd c3 da bd bc
       0.0013362053 -0.07640272 -0.05535519 -0.023175603
000070 b6 66 51 bd cc 16 55 bd 3d 15 80 bd 77 5c 1e 3c
       -0.051123343 -0.052023694 -0.06254051 0.0096656
000080 44 e5 6e bd d5 06 f3 3c b5 1d d3 bd bf e6 2c 3c
       -0.058324113 0.029666344 -0.103084005 0.010553061
000090 a8 72 6a 3d 6e 43 43 3c 5a 4e b3 3d f7 02 9b bc
       0.05723825 0.011917932 0.08755179 -0.018922312
0000a0 ce 27 12 3d 30 3d 4b 3d 81 46 a7 3d 26 98 33 3d
       0.035682492 0.0496189 0.081677444 0.043846272
0000b0 43 6e 97 3d 6a 77 54 bd 5f 27 a1 3c 09 09 f9 3c
       0.07394078 -0.051871695 0.019672094 0.030399816
0000c0 07 a4 e1 bc 3a 2e 5f 3d d3 b4 13 bd f5 4a 75 bd
       -0.027544035 0.054487444 -0.03606112 -0.059885938
0000d0 b8 e6 dc bc f5 df 91 bd de 75 94 3d 37 b9 82 3d
       -0.026965484 -0.071227945 0.07249044 0.06382983
0000e0 12 65 95 bc 9d 25 8d 3d 9e 2b 7d 3d 40 01 e0 bc
       -0.01823667 0.0689194 0.061809175 -0.027344346
0000f0 78 90 9c 3c 7b ab 39 bd 34 69 31 3c e1 a3 7e bd
       0.019111857 -0.045329552 0.010828305 -0.062168006
000100 02 f3 11 bd 56 4a ca bc ea 44 59 bd 3f 53 e4 bc
       -0.03563214 -0.02469365 -0.053044237 -0.027871726
000110 4a 2a 09 bc dd 56 ca bd 3c 6a 4c bc e6 51 44 bb
       -0.008371899 -0.09879849 -0.0124765 -0.0029956042
000120 7f 76 48 3d 9e 48 80 bd c5 93 af 3a 8d 23 0c 3c
       0.04894113 -0.06263851 0.0013395479 0.008553398
000130 4e 8e 60 bd 0c 36 53 bd bc 53 90 3d 9e 8b 03 bc
       -0.054823212 -0.051565215 0.07047221 -0.008028893
000140 69 de 9a bc 47 ef 12 bd 1b 85 78 bd f1 34 09 3d
       -0.018904882 -0.035872724 -0.060673814 0.033497754
000150 22 d6 29 bc 45 e6 4a 3d 16 95 aa bc 4e d7 8f bd
       -0.010365995 0.04953601 -0.020823043 -0.07023488
000160 f2 86 15 bd c6 05 42 3d 24 7f 9a bb e7 de 97 bd
       -0.036505647 0.047368787 -0.0047148634 -0.07415562
000170 07 f7 40 bc a5 42 05 bd ff ee 79 bd d2 9b 16 bd
       -0.011777646 -0.03253426 -0.06101894 -0.036769696
000180 c3 00 78 bd 25 be 7b bc db a5 c6 bc 75 25 ba 3c
       -0.0605476 -0.015365158 -0.024249008 0.022722939
000190 1a e1 8c 3d 86 9f 9a bd fc fb 85 bd 93 ac a8 bd
       0.06878872 -0.07549958 -0.06542203 -0.08236041
0001a0 fe 98 91 3d 84 31 4d bd a0 dd b9 bc 6e 58 80 bd
       0.07109259 -0.05009605 -0.022688687 -0.062668666
0001b0 04 d7 ff bb 14 6b 12 bd 1e 62 98 bd 83 4a a7 bc
       -0.0078076143 -0.03574665 -0.07440589 -0.020421272
0001c0 08 75 98 bd 29 3f b8 bd 88 ad 28 bd b8 20 27 3c
       -0.07444197 -0.08996422 -0.041181117 0.010200672
0001d0 6e 7e 9d bc 51 50 ac 3c 1f ab b4 3d 05 26 90 3c
       -0.019225325 0.021034392 0.08821701 0.017596254
0001e0 ea 94 70 3d d8 7a 33 3d 12 1b 40 3c 4c d6 13 3d
       0.058735766 0.043818325 0.011725204 0.03609304
0001f0 e7 98 89 bd 3d e3 9e bd 29 51 3f 3d 71 a1 38 3d
       -0.06718617 -0.07758186 0.04670826 0.045075838
000200 b9 88 83 bd 3d a5 c8 bc b4 74 a3 3d 54 d8 83 3d
       -0.06422562 -0.024492854 0.07981244 0.06437746
000210 53 ca 4f 3d 8a 06 b8 3d 96 5f 83 3d f3 63 c8 bd
       0.05073006 0.08985622 0.06414716 -0.09784689
000220 ef 99 b7 bd 9c 3a 32 3d e8 e1 39 3d 92 d8 be 3c
       -0.089649074 0.043512926 0.045381457 0.023296628
000230 49 c8 af 3d 4b 20 72 bd 89 e5 8b bd 46 22 d8 bd
       0.08583123 -0.05911283 -0.0683089 -0.10553412
000240 ca 07 0c bd 01 55 36 bd c5 aa 8d 3d 03 ca c5 bc
       -0.034187116 -0.04451466 0.06917337 -0.024144178
000250 76 bf 8a 3c 39 df c6 3d fb af d0 3d cd b8 66 3d
       0.016936999 0.09710545 0.101898156 0.056328584
000260 85 42 77 ba e9 ce d2 bc 07 ac 96 bd 5c e6 fd 3c
       -0.00094322144 -0.025733428 -0.0735703 0.030993633
000270 6d a7 16 3c 5f 1d 66 bd e8 97 1f 3d fe e7 12 3d
       0.009195191 -0.056180354 0.03896323 0.035865776
000280 ab 8b b8 bd 1a 62 18 bc a1 04 86 3d fe ea 87 3d
       -0.090110146 -0.009300733 0.06543852 0.06636618
000290 b5 1d d2 3d a6 d2 ff bc 4f 6a b0 3c f7 63 1d bd
       0.102595724 -0.031228375 0.021535067 -0.038425412
0002a0 63 86 94 bd d2 ca 12 bd b2 d5 87 ba a4 e7 a7 bd
       -0.07252195 -0.035837956 -0.0010363369 -0.08198479
0002b0 02 a9 73 bd dc 8d b8 bd b4 19 05 bb 40 5e cd 3c
       -0.05948735 -0.090114325 -0.002030951 0.025069356
0002c0 9f fc 7f bd 0d 98 fa bb 1c 6a 89 3d 4d cf 7e 3b
       -0.062496778 -0.0076475204 0.06709692 0.0038880885
0002d0 3c 34 fd 3d 1e 5a a6 3c 7b b6 e4 3b 75 af dc 3c
       0.123634785 0.020306643 0.006979761 0.026939133
0002e0 7a 39 3b 3d 8e c8 49 3d 21 24 6b 3d 33 e6 c3 bc
       0.04570911 0.04926353 0.057407502 -0.023913478
0002f0 78 b0 84 3d 23 2f 8f 3c 01 e5 1f 3d 9f 1a c6 3d
       0.06478971 0.017478531 0.039036755 0.09673046
000300 ff 44 a7 bd 2b d8 8c bc 66 e4 b9 3d 0f 24 33 bd
       -0.08167457 -0.01719292 0.09076767 -0.04373556
000310 1a 99 a5 bd 7f 86 81 3d f1 76 aa bc b7 ac 63 3d
       -0.080858424 0.06324481 -0.020808669 0.055584636
000320 f0 6a c3 bc 9a 85 37 3d 1e 65 71 3d dc 16 a4 bd
       -0.023854703 0.044805147 0.058934323 -0.080121726
000330 f3 0a 7b 3c 59 e0 74 bd dc 5e dd 3a 5d a2 f5 3c
       0.015322435 -0.059784267 0.0016889232 0.029984647
000340 22 80 47 3d ac e6 8a bc d4 2e a3 bb bb d0 8d bd
       0.04870618 -0.016955696 -0.0049799476 -0.06924578
000350 2a 08 0e bd c3 5b 0e bd f4 76 ee bb dc 5d a6 3b
       -0.034675755 -0.03475548 -0.007277364 0.005077107
000360 04 b6 f0 3d b8 d1 a3 3c 3b 61 e0 bd 6b bc b7 bc
       0.11753467 0.019997463 -0.10956045 -0.022428712
000370 86 ae 97 3d 2c 9b 9c bd 7a f6 86 3b 6b 49 aa 3a
       0.074063346 -0.07646784 0.0041187378 0.0012991851
000380 70 65 0c bc 36 69 d2 3c 08 d4 9e 3c 7b a7 e7 3d
       -0.008569106 0.025684934 0.019388214 0.11311241
000390 56 ec 4e bd 4b 9e 6e 3d d1 26 6d 3d d2 12 f5 bc
       -0.050518356 0.05825643 0.057898346 -0.0299162
0003a0 87 54 c5 3c ca bb 4b 3d 48 61 07 bd 30 57 95 3d
       0.024088157 0.049739636 -0.03305176 0.0729202
0003b0 8e 6d 33 3d 95 5b e8 bc 67 05 f3 3c e0 9c 95 3c
       0.04380565 -0.028363982 0.029665662 0.01826328
0003c0 52 0d 80 3d f4 0c 11 bd 53 d4 f0 bc de 2c b1 3c
       0.06252541 -0.035412744 -0.02939812 0.02162784
0003d0 1f 23 49 bb 7e 30 7d 3c da ef a5 bd 5c cf a2 bd
       -0.00306911 0.015453456 -0.08102389 -0.07949707
0003e0 03 9f 0b bd 24 02 3e bd 5c 8d 28 3b c5 f2 30 bd
       -0.034087192 -0.04638876 0.0025719022 -0.043200273
0003f0 ab a6 b4 bd 7c 14 22 3d a0 dc c3 3d 34 ca cd bd
       -0.08820852 0.039570317 0.09563565 -0.10048333

net.model.convblock6.0.bias f4 [16]
000000 46 39 3b bd d7 ac 96 bb 11 cd 86 bd 01 27 c6 bd
       -0.045708917 -0.004598241 -0.06582082 -0.09675408
000010 db 69 18 3d 5c f0 ce 3c 06 fc b8 bc fe 1a ef ba
       0.037210327 0.025261097 -0.022581112 -0.0018242297
000020 b3 07 89 bc 1a 3c 34 3d 88 8f d0 bc 47 67 2d 3d
       -0.016727304 0.04400263 -0.025459066 0.04233482
000030 d9 6d ac bb c0 4b ba 3d 6f 65 63 bd 44 d1 e2 3d
       -0.0052621183 0.090964794 -0.055516656 0.110750705

net.model.convblock6.2.weight f4 [16]
000000 11 9b 7b 3f b7 39 83 3f 83 7a 8b 3f 83 56 85 3f
       0.9828349 1.0251988 1.0896763 1.0417026
000010 60 28 7b 3f a8 96 85 3f 6f 90 74 3f 1e 7c 87 3f
       0.9810848 1.0436602 0.9553289 1.0584753
000020 62 00 80 3f d2 8f 7d 3f 24 92 74 3f 77 a0 7e 3f
       1.0000117 0.9904758 0.9553549 0.994636
000030 a3 60 6e 3f b8 4a 75 3f 79 36 86 3f 73 94 6c 3f
       0.93116206 0.95817137 1.0485374 0.92414016

net.model.convblock6.2.bias f4 [16]
000000 db 3f c5 bd be 63 09 be e5 e8 99 bd 90 95 98 bd
       -0.0963132 -0.13416955 -0.07515124 -0.07450402
000010 94 3c 94 bd 11 9e 78 bc 21 33 17 be b3 60 32 bd
       -0.07238117 -0.015174405 -0.14765598 -0.04354925
000020 37 8d d2 bd 6d d1 27 bd d5 27 0f be 8d 30 f6 3b
       -0.10280841 -0.04097121 -0.13980038 0.007513112
000030 b9 7e 09 be 3b be ed bd 4f b0 36 3d 42 a1 57 ba
       -0.13427247 -0.11608549 0.044601735 -0.00082256284

net.model.convblock6.2.running_mean f4 [16]
000000 04 be a6 3e 3f 71 8b 3e 31 21 a3 3e 27 42 5c 3e
       0.32566845 0.27234837 0.3186126 0.2150961
000010 81 66 a8 3e 7e f5 97 3e 0d 77 af 3e ab fd 88 3e
       0.32890704 0.29679483 0.34270516 0.26756033
000020 2c c9 8d 3e c1 1e ae 3e 84 46 98 3e 38 ea a3 3e
       0.27692544 0.34007838 0.297413 0.32014632
000030 2e f4 ce 3e 81 29 8a 3e 85 35 79 3e 74 a2 95 3e
       0.4042067 0.2698479 0.24336822 0.29225504

net.model.convblock6.2.running_var f4 [16]
000000 8c 74 80 3e 3f 18 83 3e 15 bb c2 3e 93 5d 35 3e
       0.25088918 0.25604436 0.38033357 0.17711477
000010 fe 1c 84 3e 9f 21 81 3e 11 fd a2 3e 0e f3 41 3e
       0.2580337 0.25220963 0.318337 0.18940374
000020 d4 e0 70 3e c9 e0 63 3e d8 61 1e 3e 60 22 a4 3e
       0.23523265 0.22253717 0.15467012 0.32057476
000030 b6 89 04 3f 37 ac 0d 3e 5e 14 18 3e 83 27 82 3e
       0.5177263 0.13835226 0.1485152 0.2542077

net.model.convblock7.0.weight f4 [8, 16, 1, 1]
000000 3b e0 87 3c 9b aa 5f 3d 83 fc 4c bc f7 ea 6d 3e
       0.016586414 0.05460606 -0.012511375 0.23234163
000010 bd 1e 75 3d cf 7e 6b bb eb c3 0a 3e d8 f9 58 3d
       0.059843767 -0.0035933738 0.135513 0.052972645
000020 b3 8f 78 3e 66 08 ae be 96 a0 0e be 7f 75 b0 3c
       0.24273567 -0.33990782 -0.13928446 0.021540402
000030 ad a8 88 3c 9a c0 3b 3e 5f 3b 8e be ac 7f 1d 3e
       0.016681993 0.1833519 -0.27779672 0.15380734
000040 fe 86 93 3d 51 20 08 3e c2 df de bc 6a 40 b7 3d
       0.07203482 0.13293578 -0.027206305 0.08947833
000050 55 05 68 3e 34 02 35 3e 60 98 28 be 1a ee 2c 3e
       0.22658284 0.17676622 -0.16464376 0.16887704
000060 72 bf 9d bd 1e 2f 6a bd 6d 7f ea bd ac 23 5b 3e
       -0.07702531 -0.05717384 -0.11450086 0.21400326
000070 4b 7f 55 3e 15 a3 7c bd c6 60 64 3e 45 bc 49 3e
       0.2084934 -0.061678965 0.22302541 0.19700725
000080 fa 08 84 3e 2a e0 18 be 63 92 10 be 5e bc 40 3e
       0.257881 -0.14929262 -0.14118342 0.18821856
000090 d0 86 42 3e e9 5e 61 3c 5d a0 4d be e8 1a be bd
       0.1899674 0.0137555385 -0.20080705 -0.09282476
0000a0 f1 cf 16 be ff 08 3d 3e 3d 71 b6 3d c2 0b 69 3e
       -0.14727761 0.18460463 0.08908317 0.22758391
0000b0 43 db 69 be 8e e8 ce 3b c7 c2 de 3d e5 a5 55 3d
       -0.22837548 0.006314344 0.108769946 0.052160162
0000c0 0d 10 6d be 59 8f 1a 3e 1d 49 50 3e d0 d7 13 3e
       -0.23150654 0.15093745 0.2034039 0.14437795
0000d0 5c 5c 04 3e 66 11 71 3b dd 4c 54 bd 36 70 8a 3c
       0.12925857 0.0036784052 -0.051831115 0.01689921
0000e0 aa ed 4b 3e 88 30 6a 3e 97 7e 5f 3e 5a cb 33 3d
       0.1991488 0.22870076 0.21825634 0.043895103
0000f0 a7 f5 24 bd f2 68 96 3b 54 be 81 3e 4a af fc 3d
       -0.040273335 0.004590147 0.2534052 0.12338121
000100 a6 62 f6 bd f6 8a 2d be ef ed 93 3d 6f 5e 67 3e
       -0.120305344 -0.1694754 0.072231166 0.22594617
000110 e7 ba d9 bd 42 a6 3f 3e cd a9 0e be a1 1d 39 3e
       -0.10631352 0.18715766 -0.13931961 0.18077709
000120 86 31 cc 3c 1e ba 29 3e dd 6a 3f be 8f 2c aa 3d
       0.024925958 0.16574904 -0.18693109 0.0830928
000130 23 ba 0f be d6 a6 1c bc 42 34 7d bb ed 07 4d 3e
       -0.1403585 -0.009561261 -0.0038635884 0.20022555
000140 5c d0 7f be 0a d4 ce 3d 5c d9 48 3e 40 70 38 bd
       -0.24981827 0.10099037 0.19614166 -0.045028925
000150 9c d5 39 be 64 9b 88 bd 1a 69 65 3d 5b 1d 85 3e
       -0.18147892 -0.066702634 0.056008436 0.2599896
000160 92 28 1f be 23 ce 8a 3b 1e c9 da 3c 9a 80 52 bd
       -0.1554282 0.004235999 0.026707228 -0.051392175
000170 dd a8 1e be 14 05 ac 3d fa cc 4d 3e d6 4c 77 3e
       -0.15494104 0.08399406 0.20097724 0.24150404
000180 f5 d9 07 3e 3f cd 65 3e 80 29 b7 3c 8d bc 14 3e
       0.13266738 0.22441576 0.022358656 0.14525051
000190 f3 3d ce bd 74 9b 6e bd 90 d8 b1 bd b0 83 cd bd
       -0.100704096 -0.05825372 -0.08683884 -0.10034883
0001a0 5d e1 e8 bd a1 b5 34 3e a3 2a 2e 3e bf b4 0d be
       -0.1137111 0.17647411 0.17008452 -0.1383848
0001b0 ff d0 2e be 47 e6 0e 3e af 00 84 3d 3f a8 e3 3d
       -0.17071913 0.13955031 0.06445443 0.11116075
0001c0 75 18 d4 3d 0f d8 82 be 70 36 b8 bd 16 11 74 be
       0.10356227 -0.25555465 -0.08994758 -0.23834643
0001d0 d3 93 42 be ff db 25 be 88 27 28 be e5 e1 9b be
       -0.19001703 -0.16197203 -0.1642133 -0.3044578
0001e0 b5 81 fc bc 4f 32 52 bb fd a8 22 be 2c 33 2f be
       -0.030823568 -0.0032073443 -0.15884776 -0.17109364
0001f0 5f 4c 27 be f9 a7 3b 3e df 1f ff 3d 34 f4 5b 3e
       -0.16337727 0.18325795 0.12457251 0.21479875

net.model.convblock7.0.bias f4 [8]
000000 69 c6 ea 3d 3f e4 1b 3e 22 ea 60 3e f1 f0 44 3e
       0.11463625 0.15223788 0.21964315 0.19232537
000010 83 5e 84 3e 3c 01 11 be 0b 35 2e 3e 49 99 8a bd
       0.25853357 -0.14160627 0.17012422 -0.06767518

net.model.convblock7.2.weight f4 [8]
000000 1b db 84 3f 10 ea 83 3f 03 62 80 3f 51 00 79 3f
       1.0379366 1.0305805 1.0029911 0.9726611
000010 86 a0 77 3f 7c 3e 7a 3f a7 31 7c 3f 4f b3 80 3f
       0.96729314 0.97751594 0.98513263 1.0054721

net.model.convblock7.2.bias f4 [8]
000000 b0 df a1 3d d0 6b 07 3e ae be 1c bd 2c e8 fe 3c
       0.07903993 0.13224721 -0.038267784 0.031116568
000010 3c d5 8c 3d 35 2b 3f 3d 47 32 b2 3b 24 eb 3f bd
       0.06876609 0.046672065 0.0054381224 -0.046855107

net.model.convblock7.2.running_mean f4 [8]
000000 22 36 0a 3f d3 c0 53 3f 03 df 44 3f 60 0e 74 3f
       0.5398885 0.827161 0.7690279 0.95334435
000010 31 ec 23 3f 8a f9 e2 3e 7b 72 2e 3f ac d0 63 3e
       0.64032274 0.44331008 0.68143433 0.22247571

net.model.convblock7.2.running_var f4 [8]
000000 be 0c 33 3f b8 1f 72 3f 3a f9 0d 3f 11 ea 52 3f
       0.6994132 0.9457965 0.55458415 0.82388407
000010 0b 9a 07 3f 23 52 0d 3f 85 e9 e8 3e 9e 99 18 3e
       0.52969426 0.55203456 0.4549066 0.1490235
