output/csv/version_1/checkpoints/epoch=4-step=275-v2.ckpt (torch, 179611 bytes, 152 tensors)

net.convblock1.0.weight f4 [10, 1, 3, 3]
0	0x3eb7ac66	0.35873717
1	0xbe05dbaa	-0.13072076
2	0xbe1104e3	-0.1416202
3	0x3d2749e5	0.040841956
4	0x3dc5707a	0.09640594
5	0xbe925602	-0.28581244
6	0xbd266c9a	-0.040630914
7	0xbe8e8e44	-0.27842915
8	0xbe919aad	-0.2843832
9	0x3e9131a1	0.28358176
10	0xbe614318	-0.2199825
11	0xbe06e89f	-0.13174675
12	0x3d303347	0.043017652
13	0x3e801d26	0.25022238
14	0x3e8325e0	0.25614834
15	0xbe9ec1c1	-0.31007197
16	0xbdfe65c5	-0.12421755
17	0x3e7831be	0.24237725
18	0x3de6954f	0.11258947
19	0x3e986ed5	0.29772058
20	0x3e8c20d3	0.27368793
21	0xbe52c7eb	-0.20584075
22	0x3b9e286b	0.0048265955
23	0x3e9abe57	0.30223343
24	0x3e50c87a	0.20388976
25	0x3e012ef5	0.12615569
26	0xbe082dd9	-0.1329874
27	0x3e83b2eb	0.2572244
28	0xbd3e480a	-0.04645542
29	0x3d874760	0.066054106
30	0xbd2af63b	-0.04173873
31	0x3e8d6270	0.27614164
32	0xbbdd5ba7	-0.0067553106
33	0xbba9524a	-0.0051672803
34	0x3e306749	0.172269
35	0xbe5d8d01	-0.2163582
36	0x3df752c6	0.12076335
37	0x3e70c6fd	0.23513408
38	0xbe62f45d	-0.2216353
39	0xbe52cf72	-0.20586947
40	0xbe66ac6f	-0.22526716
41	0x3cff65cd	0.031176472
42	0xbe619586	-0.22029695
43	0xbe70d1e5	-0.23517568
44	0xbe610682	-0.21975139
45	0xbe000adf	-0.12504147
46	0x3ec5f7c2	0.38665587
47	0xbe36efb1	-0.17864873
48	0xbeb80f92	-0.3594938
49	0xbeae0801	-0.33990481
50	0xbe438609	-0.19094099
51	0x3e49f279	0.19721402
52	0xbd23428d	-0.03985839
53	0xbe5775f5	-0.21041091
54	0x3df46a35	0.1193432
55	0xbe8ae104	-0.27124798
56	0x3e9ddbfe	0.30831903
57	0xbe280154	-0.16406757
58	0xbe7de83a	-0.24795619
59	0xbe4bbc67	-0.19896089
60	0xbe422431	-0.18959118
61	0xbe15baf4	-0.14622098
62	0xbe272322	-0.16321996
63	0xbe43d09b	-0.19122545
64	0xbd575469	-0.052570734
65	0xbd8068aa	-0.06269963
66	0xbd02ecd8	-0.031964153
67	0x3e447238	0.19184196
68	0x3deb3617	0.11484926
69	0x3dfd19f3	0.12358465
70	0x3e49b8cb	0.19699399
71	0xbe489a7f	-0.19590186
72	0x3e5be696	0.2147468
73	0x3d79e3c9	0.06100825
74	0x3d88bd6e	0.06676756
75	0xbd14f6ce	-0.036368184
76	0x3e859203	0.2608796
77	0xbe01a49d	-0.12660451
78	0xbebd0d04	-0.36923993
79	0xbdf6f807	-0.12059026
80	0x3d8d13fd	0.06888578
81	0xbc44dd4c	-0.012015652
82	0xbe8a4b0e	-0.27010387
83	0xbe13a4ef	-0.14418386
84	0xbe64e53f	-0.22353075
85	0x3d9e4451	0.07727874
86	0x3da651a2	0.08121039
87	0x3e4473c7	0.1918479
88	0x3e01b658	0.12667215
89	0x3da4d428	0.08048278

net.convblock1.0.bias f4 [10]
0	0xbe15422d	-0.14576025
1	0xbc8d177a	-0.017223109
2	0xbcc9e4c9	-0.024645226
3	0xbe2cf104	-0.16888815
4	0xbe9ff4b0	-0.3124137
5	0xbd06324d	-0.032762814
6	0xbe94d9aa	-0.29072315
7	0x3e4368cc	0.19082946
8	0x3e3354fa	0.17512885
9	0x3d8906f2	0.06690778

net.convblock1.2.weight f4 [10]
0	0x3f8d0621	1.1017495
1	0x3f792652	0.973241
2	0x3f6b6bf5	0.91961604
3	0x3f81ca54	1.0139871
4	0x3f86b408	1.0523691
5	0x3f86679d	1.050037
6	0x3f80429e	1.002033
7	0x3f7cee8a	0.9880148
8	0x3f837225	1.0269209
9	0x3f811c95	1.0086848

net.convblock1.2.bias f4 [10]
0	0x3d124fbf	0.035720583
1	0x3d120935	0.03565331
2	0x3ca645b8	0.020296916
3	0x3d258546	0.040410303
4	0xbb94248d	-0.0045209588
5	0xbcca33ab	-0.02468284
6	0xbc6242bd	-0.013809857
7	0x3bbbda8d	0.0057328404
8	0xbce0baca	-0.027432818
9	0xbcd0ca84	-0.025487192

net.convblock2.0.weight f4 [16, 10, 3, 3]
0	0xbcaf0d69	-0.0213687
1	0xbcb52f5c	-0.02211731
2	0x3cc4c1d5	0.024018208
3	0xbe2add7e	-0.16686055
4	0xbd43f5c4	-0.047841802
5	0x3dbc21b4	0.09186116
6	0x3d0a9031	0.033828918
7	0xbb1caf30	-0.002390813
8	0xbde33292	-0.1109363
9	0x3d8a6456	0.06757419
10	0x3c095591	0.008382217
11	0xbd2b4d60	-0.041821837
12	0x3d060411	0.03271872
13	0xbd57c9f1	-0.05268282
14	0xbcc9a261	-0.024613561
15	0xbdf4da03	-0.11955645
16	0x3d9931e0	0.07480216
17	0x3cb57640	0.022151113
18	0xbcf63be9	-0.030057864
19	0x3ced6b73	0.0289819
20	0x3db4a094	0.0881969
21	0xbaaa1e58	-0.0012979014
22	0x3d8374d6	0.06418769
23	0xbd76ad7c	-0.06022404
24	0xbd9d15ae	-0.07670151
25	0x3a468f6b	0.00075744715
26	0xbd424079	-0.047424767
27	0x3db5bd54	0.08874002
28	0x3b7eb7f5	0.003886697
29	0x3cf9df11	0.030501874
30	0x3cab3879	0.020900952
31	0x3d6bf377	0.057605233
32	0x3bfa53db	0.007639391
33	0xbce0ecda	-0.02745669
34	0xbd57dcc0	-0.052700758
35	0xbd84b5ba	-0.06479974
36	0x3c60f12a	0.013729373
37	0x3db2ce6a	0.087307766
38	0x3d03e70e	0.032202773
39	0x3db275c0	0.08713865
40	0x3e036be0	0.1283412
41	0x3d26c816	0.04071816
42	0x3c882780	0.016620398
43	0xbd11402b	-0.035461586
44	0x3be568ba	0.00700101
45	0xbd8d2e01	-0.0689354
46	0x3d84f126	0.06491308
47	0xbd615270	-0.05501026
48	0x3d280624	0.04102148
49	0x3d0cdd3e	0.03439068
50	0xbc706c2c	-0.014674228
51	0x3d51464b	0.051092427
52	0x3dd086b8	0.101819456
53	0x3e136045	0.14392193
54	0x3d4354b9	0.04768822
55	0xbd6e9da5	-0.05825581
56	0x3d80f1a7	0.062960915
57	0x3d94e6d7	0.07270592
58	0xbc43bacb	-0.01194639
59	0xbd740c30	-0.059581935
60	0x3a814907	0.0009863683
61	0xbc389277	-0.011265389
62	0xbd2f0e8c	-0.042738482
63	0xbe03ea6d	-0.12882395
64	0x3b553b93	0.003253673
65	0xbd7b09d4	-0.06128867
66	0x3cf432db	0.029809406
67	0xbd91dcb0	-0.07122171
68	0xbd339153	-0.043839764
69	0xbd7f732a	-0.06236569
70	0xbcc81018	-0.024421737
71	0x3c970784	0.0184362
72	0xbc8e3dc4	-0.017363437
73	0x3d7ee88f	0.062233504
74	0x3c2f78d7	0.010709963
75	0xbd10d1a0	-0.035356164
76	0x3d1a5f98	0.03768882
77	0xbd1f6560	-0.038915038
78	0xbcc85895	-0.024456302
79	0xbe046604	-0.12929541
80	0xbd0afb3e	-0.03393101
81	0xbd652afa	-0.05594919
82	0xbcea54b1	-0.028604837
83	0xbc05c654	-0.008164961
84	0xbc34a658	-0.011025988
85	0x3dbdf492	0.09275164
86	0x3dcb138f	0.0991584
87	0x3d4fb74d	0.05071192
88	0x3bcc52ea	0.00623547
89	0x3d9958f5	0.0748767
90	0x3d7d6c3f	0.06187081
91	0x3cd89579	0.026438462
92	0xbc8a3c44	-0.01687444
93	0xbd6065c2	-0.054784544
94	0xbb732ce3	-0.0037105612
95	0xbc032511	-0.008004443
96	0xbd8d831c	-0.06909773
97	0xbc87b799	-0.016567038
98	0xbdd07304	-0.101781875
99	0x3dd3bed6	0.103391334
100	0xbd6d5b03	-0.057948124
101	0x3d5953bc	0.05305837
102	0x3d35e372	0.044406362
103	0xbdb925f2	-0.090404406
104	0xbc4fc0c7	-0.012680239
105	0x3dc2470a	0.09486206
106	0x3dcec2ab	0.10095724
107	0x3d988c14	0.07448593
108	0xbcdd43d3	-0.02700988
109	0x3d024708	0.031806022
110	0xbcaa2c1e	-0.02077299
111	0xbd6a8bc7	-0.05726221
112	0x3d2ee8ff	0.04270267
113	0x3c51b965	0.012800549
114	0x3d4cf329	0.050036583
115	0xbd076726	-0.033057354
116	0x3d456e6e	0.048201017
117	0xbdde08e7	-0.10841542
118	0xbdf6a2e4	-0.12042788
119	0xbd9bb48f	-0.07602798
120	0x3d4aa178	0.049470395
121	0xbd662df5	-0.05619617
122	0x3d9f4e7a	0.0777864
123	0xbcb461ad	-0.022019232
124	0x3df7eb3d	0.12105415
125	0x3d99a1a5	0.075015344
126	0x3d687270	0.05674976
127	0xbc19bea5	-0.009383832
128	0x3dc9d9ca	0.09855993
129	0x3db87036	0.090057775
130	0x3c99a0e8	0.018753484
131	0xbd661ed7	-0.056181755
132	0xbd2d142c	-0.042255566
133	0xbcbce872	-0.023060057
134	0x3dbe7e26	0.09301405
135	0x3e0b7890	0.1362021
136	0x3db556d3	0.08854451
137	0x3dd619aa	0.10454114
138	0x3dda1c22	0.10649897
139	0xbc27ae04	-0.01023436
140	0xbd271daa	-0.040799774
141	0x3db466aa	0.08808644
142	0xbd55d898	-0.052208513
143	0x3d8afa75	0.06786052
144	0x3cc98711	0.024600537
145	0xbad3eb21	-0.0016168096
146	0x3d02f4e7	0.03197184
147	0x3d78b097	0.060715284
148	0x3d8a136f	0.06741988
149	0x3d6c8c83	0.05775119
150	0xbc4f1931	-0.012640283
151	0xbd4dd40e	-0.05025106
152	0x3a2f40da	0.0006685384
153	0x3d3936f1	0.04521841
154	0xbd0fdc62	-0.035122283
155	0xbd81e487	-0.06342416
156	0x3decd6f2	0.11564435
157	0x3c901474	0.017587878
158	0xbc504229	-0.012711086
159	0xbc67416d	-0.01411472
160	0x3d8f0670	0.0698365
161	0x3d89abd8	0.0672223
162	0xbe07d48a	-0.13264671
163	0xbd32aa9c	-0.043619737
164	0xbb2a55a3	-0.0025990985
165	0x3c63828d	0.013886106
166	0x3d52b3e5	0.051441092
167	0xbc7697b8	-0.015050821
168	0xbb12ffd9	-0.002243033
169	0xbdeb0889	-0.11476237
170	0x3d7584fa	0.05994127
171	0xbd345711	-0.044028345
172	0x3df31c7f	0.118706696
173	0x3ca0eb5e	0.019643482
174	0x3dbcd6b3	0.09220638
175	0x3d421481	0.047382835
176	0xbcd94432	-0.026521776
177	0x3cb6354b	0.022242209
178	0xbcd4db09	-0.02598335
179	0x3e0b2ce8	0.13591349
180	0xbe114cf9	-0.14189519
181	0xbe2b975a	-0.16756955
182	0xbcf604d6	-0.030031603
183	0xbe1897c9	-0.14901651
184	0xbd8d8c2a	-0.069115
185	0xbd9059cf	-0.0704838
186	0x3db8abde	0.09017156
187	0x3c2fb546	0.010724371
188	0xbe35cb79	-0.177534
189	0x3ac87bab	0.0015295645
190	0x3d1df75f	0.03856599
191	0xbba2ff78	-0.004974302
192	0x3dcc6fac	0.09982237
193	0x3d92bd48	0.07165009
194	0x3d2d4008	0.042297393
195	0x3d529098	0.051407427
196	0x3e2a0fd7	0.16607605
197	0x3d1fdeb0	0.03903073
198	0xbc616e55	-0.013759215
199	0x3c99f148	0.01879181
200	0xbb30bc9a	-0.0026967884
201	0xbd167bb2	-0.03673906
202	0xbb863a4a	-0.004096304
203	0xbc9a2470	-0.018816203
204	0x3dc95d9f	0.0983231
205	0xbd705b8d	-0.05868106
206	0xbd5649cb	-0.05231647
207	0x3cdd940f	0.027048139
208	0xbc784926	-0.015154159
209	0x3d382282	0.044954784
210	0xbcee477b	-0.029086819
211	0xbca8c407	-0.020601286
212	0xba906db5	-0.0011019023
213	0x3da6c421	0.08142877
214	0x3da0452f	0.07825696
215	0x3da52916	0.08064477
216	0xbdd0e0d7	-0.10199135
217	0x3dc39bcb	0.095511995
218	0xbdd0865f	-0.10181879
219	0x3c293849	0.010328361
220	0x3df62b06	0.12019925
221	0x3ca87d59	0.020567583
222	0x3dc7cdcd	0.0975605
223	0x3c1f0cbb	0.009707625
224	0xbd2c2745	-0.042029638
225	0x3ca4de1d	0.020125443
226	0x3d3c79f6	0.04601475
227	0xbc8fbb58	-0.017545387
228	0xbd1b69a8	-0.03794256
229	0xbd1f50e5	-0.038895506
230	0x3c30dfec	0.010795575
231	0xbde345cc	-0.11097297
232	0x3dc630c4	0.0967727
233	0x3d38657d	0.04501866
234	0x3b2f5d08	0.0026758332
235	0x3d1534b8	0.03642723
236	0xbd0621b8	-0.032747
237	0xbcce5a69	-0.025189595
238	0xbd3a0161	-0.04541147
239	0xbdc0c3e2	-0.09412362
240	0x3db161d0	0.086612344
241	0x3d176bb7	0.03696796
242	0x3e10519e	0.14093634
243	0x3dae6b17	0.085165195
244	0x3b6dc52f	0.003628086
245	0xbda00f27	-0.0781539
246	0xbdd7c9da	-0.10536547
247	0x3d92ff96	0.071776554
248	0xbdb00171	-0.08594025
249	0xbe008cb7	-0.12553678
250	0x3da68664	0.08131102
251	0xbdab519f	-0.08365177
252	0x3dc6bc05	0.09703831
253	0x3ba0cb86	0.0049070744
254	0xbd32d587	-0.043660667
255	0x3d0550d3	0.032547783

net.convblock2.0.bias f4 [16]
0	0xbdc6dcd0	-0.097100854
1	0xbd19ec37	-0.037578788
2	0x3d8cf767	0.06883126
3	0x3d7e4628	0.062078625
4	0x3d4303f8	0.047611207
5	0x3d8eb22d	0.06967578
6	0x3ccafc8a	0.024778623
7	0xbc5ce6a4	-0.013482723
8	0xbb7ad8be	-0.003827616
9	0xbdc4749f	-0.09592556
10	0x3ded73f0	0.11594379
11	0x3d7c3488	0.061573535
12	0x3d711c3e	0.058864824
13	0xbd9e2d06	-0.07723431
14	0xbe26b206	-0.16278848
15	0x3c8b573c	0.01700937

net.convblock2.2.weight f4 [16]
0	0x3f81fbb0	1.0154934
1	0x3f82117b	1.0161585
2	0x3f837cc7	1.0272454
3	0x3f7aff56	0.9804586
4	0x3f85b9bc	1.0447307
5	0x3f7df995	0.99208957
6	0x3f7b26ef	0.9810628
7	0x3f7b198a	0.98085845
8	0x3f843f62	1.0331843
9	0x3f7abcc3	0.9794428
10	0x3f7f12b7	0.9963793
11	0x3f823d60	1.017498
12	0x3f8221c3	1.0166553
13	0x3f6c5e6b	0.9233157
14	0x3f857ee6	1.0429351
15	0x3f8211ae	1.0161645

net.convblock2.2.bias f4 [16]
0	0xbd42b9eb	-0.047540586
1	0xbdb7a6e0	-0.08967376
2	0x3c7f495a	0.015581453
3	0x3c21104a	0.009830544
4	0x3c89dd50	0.016829163
5	0xbafe8ffd	-0.0019421574
6	0xbc8e29f7	-0.017353995
7	0xbc4cca75	-0.012499441
8	0xbc7176e0	-0.014737815
9	0xbcc4c877	-0.02402137
10	0x3d512eca	0.051070012
11	0xbd3331d5	-0.043748695
12	0xbd300712	-0.042975493
13	0x3da8c1c9	0.082400866
14	0xbd04ed7c	-0.032453045
15	0x3c5803dc	0.013184514

net.convblock3.0.weight f4 [8, 16, 1, 1]
0	0xbe5432c8	-0.20722497
1	0xbdeaf5f5	-0.11472694
2	0x3c8ee147	0.017441405
3	0x3e78b5b4	0.24288064
4	0x3d87fa56	0.06639545
5	0x3d0bf94d	0.0341733
6	0x3e4440e0	0.19165373
7	0x3d14de93	0.036345076
8	0xbccefe74	-0.025267817
9	0x3d8dae89	0.069180556
10	0x3e802eb9	0.25035647
11	0xbdf56699	-0.119824596
12	0xbe2ea96a	-0.17056814
13	0x3df476a0	0.119366884
14	0xbe12a2a2	-0.14319852
15	0x3dfbe1db	0.12298938
16	0x3da90b2a	0.082540825
17	0x3e66258c	0.2247526
18	0x3d568509	0.052372966
19	0x3ddff269	0.10934908
20	0x3e7ffa80	0.24997902
21	0xbe3d05d2	-0.18459252
22	0xbe1d08a8	-0.15335333
23	0xbe2e95b2	-0.17049292
24	0x3e106414	0.14100677
25	0x3d9bb2f9	0.07602496
26	0x3e10469b	0.14089434
27	0xbe706139	-0.23474588
28	0xbdbf8a3d	-0.09352539
29	0x3e25ecbf	0.16203593
30	0xbe368346	-0.17823514
31	0x3dd25e29	0.10271866
32	0xbe622a41	-0.22086431
33	0x3e500bcd	0.20317002
34	0x3de33df9	0.11095805
35	0x3e650a47	0.22367202
36	0xbe4ab1a4	-0.19794327
37	0xbd88c03a	-0.06677289
38	0xbe4381f5	-0.19092543
39	0x3db6adbf	0.08919858
40	0xbe21e48c	-0.1580984
41	0x3e3a0a69	0.18168034
42	0xbc174154	-0.009231884
43	0x3c82edcc	0.015982531
44	0x3dd9f545	0.106424846
45	0x3de75a51	0.11296523
46	0x3c8e0a66	0.017338943
47	0x3cd0e05f	0.025497613
48	0x3e1ad41d	0.15119977
49	0xbdbe193c	-0.09282157
50	0x3dccdbd0	0.100028634
51	0xbe5b158e	-0.21394941
52	0x3e86eb8e	0.2635159
53	0x3e3d01ef	0.18457769
54	0xbe327cb8	-0.17430389
55	0xbde40924	-0.11134556
56	0x3d225c61	0.03963888
57	0x3b257874	0.0025248798
58	0xbd53dbf4	-0.051723436
59	0xbe45d651	-0.19320036
60	0x3e921b58	0.28536487
61	0x3e0fa182	0.14026454
62	0xbdc82014	-0.097717434
63	0x3b0e6da2	0.0021732827
64	0xbe3fd3c1	-0.18733121
65	0xbe180500	-0.14845657
66	0x3cf80594	0.030276097
67	0x3da7f70c	0.08201417
68	0x3e204cf1	0.15654351
69	0x3e862228	0.26197934
70	0x3cd1c8e3	0.025608486
71	0x3dd84565	0.10560111
72	0xbe192bc1	-0.14958097
73	0xbe479ba3	-0.19492964
74	0xbcb23ec2	-0.02175844
75	0xbe2006b6	-0.1562756
76	0x3e26b2d6	0.16279158
77	0x3e3b6e81	0.18303873
78	0xbe6cef57	-0.23138176
79	0x3d6c515a	0.05769477
80	0x3db56f15	0.08859078
81	0x3c9a8dd8	0.018866464
82	0x3878fca1	5.9363087e-05
83	0x3d2cd394	0.042193964
84	0xbe8b801a	-0.2724617
85	0xbdcc11d3	-0.09964337
86	0xbe49f845	-0.19723614
87	0xbe7780dc	-0.2417025
88	0x3d66aa3a	0.056314684
89	0xbd991382	-0.07474424
90	0x3e2ab4f4	0.1667059
91	0x3e27e6f1	0.16396691
92	0xbe893e00	-0.26805115
93	0xbc9eadb2	-0.019369934
94	0x3e276402	0.16346744
95	0xbdaaaa09	-0.08333213
96	0x3e80d6e7	0.25163957
97	0xbe85b30a	-0.26113158
98	0x3d915c4a	0.07097681
99	0xbe2cee72	-0.16887835
100	0x3e8a0f2d	0.26964703
101	0x3e1cadce	0.15300676
102	0x3ded0a1e	0.11574195
103	0x3c8320ca	0.016006846
104	0x3e5a64f0	0.21327567
105	0x3e1d4fc4	0.1536246
106	0xbe662e44	-0.22478586
107	0x3e8050de	0.25061697
108	0xbe7739a1	-0.24143077
109	0x3dafa3b6	0.08576147
110	0x3dd3d353	0.10343041
111	0x3e1a3c60	0.15062094
112	0xbe48d65f	-0.19613026
113	0xbd5aeeca	-0.053450383
114	0x3e98d55f	0.2985029
115	0xbc8c7be4	-0.01714892
116	0x3e88ce0e	0.26719707
117	0xbddb034b	-0.106939875
118	0x3e39efcc	0.18157881
119	0xbda86800	-0.082229614
120	0x3dac4338	0.084112585
121	0xbe622863	-0.22085719
122	0x3e405a2c	0.18784398
123	0x3b2829fa	0.0025659786
124	0xbd22ac26	-0.039714955
125	0xbe41c56f	-0.18922971
126	0xbcb0bf92	-0.021575723
127	0x3e1e3404	0.1544953

net.convblock3.0.bias f4 [8]
0	0x3cbe5ccb	0.023237607
1	0xbe6eb4df	-0.23311184
2	0xbda61091	-0.081086285
3	0x3d93dffd	0.07220457
4	0x3ca12482	0.019670729
5	0x3df4dae3	0.11955812
6	0x3d358a84	0.044321552
7	0xbe5e5df1	-0.21715523

net.convblock3.2.weight f4 [8]
0	0x3f830d16	1.0238369
1	0x3f7b3019	0.98120266
2	0x3f7d2ade	0.98893535
3	0x3f781835	0.96911937
4	0x3f7b46e6	0.9815506
5	0x3f8fc5bc	1.1232219
6	0x3f82445d	1.0177113
7	0x3f757049	0.9587446

net.convblock3.2.bias f4 [8]
0	0xbb4e6897	-0.0031495446
1	0x3cb4b8bc	0.022060744
2	0xbcdb9176	-0.02680276
3	0x3cc5835e	0.024110492
4	0xbc8c2dcd	-0.017111683
5	0xbcd8158d	-0.026377464
6	0xbb27d319	-0.0025608002
7	0x3d01c55c	0.031682357

net.convblock4.0.weight f4 [16, 8, 3, 3]
0	0x3e0e6239	0.13904656
1	0x3de64374	0.112433344
2	0x3dbc2d69	0.09188349
3	0xbdacacc2	-0.084313884
4	0xbdb78e99	-0.08962745
5	0x3b9e0060	0.004821822
6	0xbe0ee782	-0.139555
7	0xbc39d8fa	-0.011343235
8	0xbddf53c4	-0.10904649
9	0x3cc02280	0.02345395
10	0x3d6fea93	0.058573317
11	0x3d06e4ed	0.032933164
12	0xbd29f62a	-0.041494526
13	0xbd454949	-0.048165593
14	0x3cc0142e	0.023447122
15	0xbcc711bd	-0.02430045
16	0x3d51a1a2	0.051179536
17	0x3c989b7d	0.01862883
18	0x3dad0e39	0.084499784
19	0x3dc3b66e	0.0955628
20	0x3d6f5669	0.058432017
21	0x3cf0bd5a	0.029387165
22	0xbdffd9af	-0.12492692
23	0x3d2ca58c	0.042150065
24	0xbd4e4ed7	-0.050368156
25	0x3c6be6c1	0.014398278
26	0x3da73316	0.08164041
27	0xbbded3eb	-0.006800165
28	0xbd07e070	-0.033173025
29	0x3dae021f	0.08496498
30	0x3cccf090	0.025017053
31	0xbdba5ce6	-0.0909975
32	0xbd5695fa	-0.052389123
33	0xbd482893	-0.04886682
34	0xbc7cf235	-0.015438606
35	0xbe1d5851	-0.15365721
36	0xb9db7f07	-0.00041865578
37	0xbd9c6dd2	-0.07638134
38	0x3d4d0dd7	0.050062027
39	0xbce04bbd	-0.027379865
40	0x3e168089	0.1469747
41	0xbdbc7cfd	-0.09203527
42	0xbe26ac6e	-0.16276714
43	0xbe148bb6	-0.1450642
44	0x3d0da1e1	0.034578208
45	0x3d5b6189	0.053559814
46	0xbcbcbcb8	-0.023039207
47	0x3d40b785	0.047050018
48	0xbc8e9dc3	-0.017409211
49	0x3dadd39b	0.08487626
50	0x3c9f8efd	0.019477362
51	0x3c84cf4f	0.016212134
52	0x3d788958	0.060677856
53	0x3cfd52d6	0.030923288
54	0x3bfae380	0.0076565146
55	0xbda32b3d	-0.079672314
56	0x3c8c4e3b	0.017127147
57	0x3de93625	0.113872804
58	0x3d149e0e	0.036283545
59	0x3c1fcf1c	0.009753969
60	0x3d03c960	0.032174468
61	0xbdddfe08	-0.10839468
62	0x3d30b0f9	0.043137524
63	0x3c8f950c	0.017527126
64	0x3cd0b818	0.025478408
65	0x3d7d350f	0.06181818
66	0xbdabb171	-0.08383454
67	0x3d54add6	0.051923595
68	0xbd123d7a	-0.03570316
69	0xbc4dc407	-0.012558944
70	0xbcd606fe	-0.026126381
71	0xbe334779	-0.17507733
72	0xbdea9e8b	-0.11456021
73	0xbd663c34	-0.056209758
74	0xbe09c757	-0.13454948
75	0xbdf533c3	-0.119727634
76	0x3d60b616	0.05486115
77	0x3c37c2b1	0.011215852
78	0xbd982350	-0.0742861
79	0x3b47388c	0.0030398695
80	0x3d2e0cd8	0.042492718
81	0xbdc161ba	-0.09442468
82	0xbd0055cf	-0.031331833
83	0x3c51eff4	0.012813557
84	0xbdd8364f	-0.105572335
85	0x3d627419	0.0552865
86	0x3d773deb	0.060361784
87	0x3c11fa08	0.00890971
88	0x3d15e100	0.03659153
89	0x3d617a05	0.055048008
90	0x3d3664d0	0.044529736
91	0x3d9fc7df	0.07801794
92	0xbe0172fd	-0.12641521
93	0xbca67c69	-0.020322995
94	0xbdd68258	-0.1047408
95	0x3cb28092	0.021789823
96	0x3db422f6	0.08795731
97	0x3d60b002	0.054855354
98	0xbd3784a9	-0.04480425
99	0xbdb90db0	-0.09035814
100	0x3c0e2d76	0.008677831
101	0xbe0190f5	-0.12652953
102	0x3dae263c	0.085033864
103	0xbd4d4ead	-0.05012386
104	0x3da0fcc5	0.07860712
105	0xbd5bb128	-0.053635746
106	0xbe0ae104	-0.13562399
107	0x3db9b97f	0.09068584
108	0xbdc6ba3e	-0.09703492
109	0xbc9a953e	-0.018869992
110	0xbdcf7cf7	-0.10131257
111	0x3d721af3	0.059107732
112	0x3ddfb713	0.109235905
113	0xbd5d818d	-0.054078627
114	0xbdbb6875	-0.09150783
115	0xbdc1c794	-0.09461895
116	0xbc71a5ef	-0.014749034
117	0xbc198d6a	-0.009372095
118	0x3d9ab824	0.07554653
119	0xbc80fe9b	-0.015746405
120	0x3df1c044	0.1180425
121	0xbdbb01e7	-0.09131222
122	0x3bda392f	0.006659649
123	0xbd57d4c2	-0.052693136
124	0x3db50698	0.08839148
125	0xbdba313a	-0.090914205
126	0xbccb5294	-0.02481965
127	0xbd12e56d	-0.03586333
128	0xbdb3b639	-0.087749906
129	0x3dda1f2c	0.10650477
130	0xba051d20	-0.00050778873
131	0x3cd4999e	0.025952157
132	0x3bb93f55	0.0056533017
133	0xbc9d4a3f	-0.019200442
134	0xbcfbe41d	-0.030748421
135	0x3d428bf3	0.047496747
136	0xbd82200f	-0.06353771
137	0xbe016271	-0.12635209
138	0x3dc539e9	0.09630186
139	0xba86dc1d	-0.0010288988
140	0x3b2bcce6	0.0026214658
141	0x3d910799	0.07081527
142	0xbd5a361f	-0.05327427
143	0xbe26bbe8	-0.16282618
144	0xbd17f63b	-0.037100058
145	0xbd46173f	-0.048362013
146	0x3dbcd9c3	0.09221222
147	0xbe0b2652	-0.13588837
148	0xbe0da31c	-0.13831753
149	0xbdde320b	-0.10849389
150	0xbe06d2a9	-0.13166298
151	0xbd9a8237	-0.07544368
152	0xba03007e	-0.0004997327
153	0xbd5ad448	-0.053425103
154	0xbdc9d34a	-0.09854753
155	0x3b3c3928	0.0028720591
156	0x3da49bfa	0.08037563
157	0xbdd9c2ce	-0.10632859
158	0xbcb4819e	-0.022034463
159	0xbde94abd	-0.11391208
160	0x3db73186	0.08944993
161	0xbdf16d90	-0.117884755
162	0xbb074d26	-0.002064535
163	0xbdfd52da	-0.12369318
164	0xbd9661c7	-0.07342868
165	0xbd060fb6	-0.032729827
166	0x3d8bc923	0.06825473
167	0x3caadcf3	0.02085731
168	0xbdaa21e7	-0.083072476
169	0xbdb51809	-0.08842475
170	0xbdb8514d	-0.08999882
171	0x3d96b545	0.07358793
172	0x3d9fb00c	0.0779725
173	0x3d7c61c3	0.06161667
174	0x3d9e285d	0.077225424
175	0xbcf265b0	-0.029589504
176	0xbdf1dd6f	-0.11809813
177	0xbe104a9a	-0.14090958
178	0xbdb284f4	-0.08716765
179	0xbda0b0fd	-0.07846258
180	0xbcec97c9	-0.02888097
181	0xbb11e623	-0.0022262416
182	0xbb9ba1ee	-0.004749528
183	0xbe10b9ce	-0.14133379
184	0xbdc5b6de	-0.0965402
185	0x3cf615a0	0.030039608
186	0xbd93c5da	-0.072154716
187	0xbdade50c	-0.08490953
188	0xbdb44a42	-0.08803226
189	0xbe181a32	-0.14853743
190	0xbe1f417b	-0.15552323
191	0xbe714807	-0.23562633
192	0xbcb33e28	-0.021880224
193	0xbc1cca5e	-0.0095697325
194	0xbe266ead	-0.16253157
195	0x3d81fa03	0.06346514
196	0xbe031778	-0.12801921
197	0x3cbed6f8	0.023295864
198	0xbd9a0b63	-0.07521703
199	0xbdb76055	-0.08953921
200	0xbddc370e	-0.10752688
201	0xbcfa7df2	-0.030577634
202	0xbdab2ed3	-0.083585404
203	0x3c223783	0.00990093
204	0xbd3e4f7a	-0.046462514
205	0xbe0b5347	-0.13605987
206	0xbc6f976b	-0.014623503
207	0xbd9892bc	-0.07449862
208	0xbd6e71ee	-0.05821412
209	0xbd7a8f21	-0.061171655
210	0xbde65b64	-0.112479
211	0x3da1b71b	0.07896253
212	0x3d579eb7	0.052641597
213	0x3d8adfe4	0.06780985
214	0xbdafad43	-0.08577969
215	0xbe06f0e6	-0.13177833
216	0x3cff91af	0.031197397
217	0xbc64ac9d	-0.01395717
218	0xbe060f25	-0.13091715
219	0x3c98ea9f	0.018666564
220	0xbe01d2fc	-0.1267814
221	0x3d3adc59	0.045620296
222	0x3d88f2d4	0.06686941
223	0x3d8bb709	0.068220206
224	0x3d6dccae	0.058056526
225	0xbd2838fb	-0.041069966
226	0xbdb87cb5	-0.09008161
227	0xbdb0a8db	-0.086259566
228	0x3c01b3fc	0.007916447
229	0x3d6e891d	0.05823623
230	0xbe0365f0	-0.12831855
231	0x3cdb88ed	0.02679869
232	0xbcb5fea7	-0.022216154
233	0x3e3aa6f3	0.18227749
234	0xbd6a218d	-0.057160903
235	0xbd65551d	-0.055989373
236	0xbe01e7a8	-0.12686026
237	0x3c1b2522	0.009469302
238	0xbce85f2b	-0.028365692
239	0xbd687261	-0.056749705
240	0xbc51674c	-0.012780976
241	0x3d7d2b25	0.061808724
242	0x3dca057a	0.09864326
243	0x3c53c531	0.012925432
244	0x3d50f22d	0.051012207
245	0xbc78c7b1	-0.015184329
246	0xbd3f4dcc	-0.046705052
247	0xbba1a5c7	-0.0049330923
248	0x3d0b09f5	0.033945043
249	0xbd910d1e	-0.0708258
250	0xbdad88cf	-0.0847336
251	0xbd737360	-0.059436202
252	0x3ad71049	0.0016408052
253	0xbdb3bde1	-0.08776451
254	0x3d0269b1	0.031839076
255	0xbe09dcea	-0.13463178

net.convblock4.0.bias f4 [16]
0	0x3d287a8b	0.04113249
1	0xbd85e92d	-0.065386154
2	0xbde392a9	-0.111119576
3	0x3d83b87e	0.064316735
4	0xbdcf9055	-0.10134951
5	0x3d32a163	0.04361094
6	0x3e0b3fc3	0.13598542
7	0x3d056e08	0.032575637
8	0xbdd7be67	-0.10534363
9	0x3d258d6e	0.04041808
10	0xbcab26a3	-0.020892447
11	0xbe021869	-0.12704624
12	0xbd13fbe1	-0.036128882
13	0xbc80e66a	-0.01573487
14	0xbda071b0	-0.07834184
15	0xbe029bba	-0.12754717

net.convblock4.2.weight f4 [16]
0	0x3f8311f8	1.0239859
1	0x3f7bf119	0.9841476
2	0x3f861bd0	1.0477238
3	0x3f866d44	1.0502095
4	0x3f823dae	1.0175073
5	0x3f772d85	0.9655383
6	0x3f7761bd	0.9663351
7	0x3f86642e	1.0499322
8	0x3f80e5be	1.0070112
9	0x3f7c1afa	0.9847866
10	0x3f71ee86	0.9450458
11	0x3f7ae40a	0.9800421
12	0x3f8418fb	1.0320123
13	0x3f80ac62	1.0052607
14	0x3f7d142d	0.9885891
15	0x3f80dea1	1.0067941

net.convblock4.2.bias f4 [16]
0	0xbcb6dd43	-0.022322303
1	0x3c88810a	0.016663093
2	0x3c7b6ae5	0.01534531
3	0xbca1d129	-0.019753056
4	0xbcce4099	-0.025177287
5	0x3cd36229	0.025803642
6	0x3b77f8ea	0.0037837573
7	0xbb7ba345	-0.0038396877
8	0xbae02c25	-0.0017103
9	0x3c047ccf	0.008086397
10	0x3cf97a42	0.030453805
11	0x3b977d42	0.004623086
12	0x3d07d9f6	0.033166848
13	0x3b23f58a	0.002501818
14	0xbbf6ce87	-0.007531944
15	0xbb1bc24e	-0.0023766938

net.convblock5.0.weight f4 [16, 16, 3, 3]
0	0xbcc87ec4	-0.024474509
1	0xbd7c569e	-0.061606042
2	0x3da009e6	0.07814388
3	0x3ce7b07a	0.028282393
4	0x3d0e234b	0.034701627
5	0xbad45c99	-0.0016201913
6	0xbd4a5e21	-0.049406175
7	0x3ce515e6	0.027964544
8	0x3c9a2744	0.018817551
9	0x3dc0b912	0.09410299
10	0xbd752c2d	-0.059856582
11	0xbd072b47	-0.033000257
12	0x3d830c45	0.063988246
13	0x3d82a048	0.063782275
14	0xbd1fc132	-0.039002605
15	0xbd1ba63e	-0.038000338
16	0xbd228427	-0.03967681
17	0x3caaf4d5	0.020868698
18	0x3d2f795e	0.042840354
19	0x3cc68732	0.024234388
20	0x3d84c993	0.0648376
21	0x3d8b78b3	0.06810131
22	0xbd5a649c	-0.053318605
23	0xbcd74c12	-0.02628139
24	0x3b8bfa64	0.0042717922
25	0x3dd047b1	0.10169924
26	0x3c297c34	0.010344554
27	0xbd16fd38	-0.036862582
28	0xbd81658f	-0.06318199
29	0xbce3d227	-0.02781017
30	0x3dd13870	0.10215843
31	0xbc65d541	-0.0140278945
32	0x3ccb6f3f	0.02483332
33	0xbd00d250	-0.03145057
34	0x3ca2186c	0.019787036
35	0x3ddeb433	0.10874214
36	0xbd00d29d	-0.031450856
37	0xbbbea5e9	-0.005818118
38	0x3cbdd8bf	0.023174642
39	0x3cecf1e9	0.028923946
40	0xbb796048	-0.0038051773
41	0xb8d107f0	-9.967375e-05
42	0x3d2101e3	0.03930844
43	0xbd06b1da	-0.032884456
44	0xbcd80e6a	-0.02637406
45	0xbc834a2f	-0.016026584
46	0x3d6ecca5	0.058300633
47	0xbcc84297	-0.024445815
48	0xbc05501d	-0.008136776
49	0xbc780ef1	-0.015140281
50	0x3c783a9f	0.015150695
51	0x3c2730a8	0.010204472
52	0x3d855d95	0.0651199
53	0x3d49e2ab	0.049288433
54	0x3cf09aab	0.029370626
55	0x3d08afe9	0.033370886
56	0x3c8b380f	0.016994504
57	0xbd4b56fa	-0.049643494
58	0x3d51db2d	0.051234413
59	0xbd18ba8d	-0.037287284
60	0x3c36f6bb	0.011167224
61	0x3c85fe0c	0.01635649
62	0x3d2763ed	0.04086678
63	0x3bbdc807	0.0057916674
64	0x3bef0bcb	0.007295107
65	0x3caba611	0.02095321
66	0x3d037887	0.032097366
67	0xbcb41f58	-0.021987602
68	0x3d916fd7	0.0710141
69	0xbd13577a	-0.035972096
70	0xbdd986a8	-0.10621387
71	0xbd5b4260	-0.053530097
72	0xbdb08aba	-0.0862021
73	0xbdd4fcef	-0.10399806
74	0xbd6cc2b2	-0.057802863
75	0xbd03f238	-0.03221342
76	0x3d3d770b	0.046256106
77	0x3d2fb218	0.042894453
78	0x3b8cdb77	0.004298623
79	0xbd151a93	-0.036402296
80	0xbc5605ad	-0.013062877
81	0xbc519b8a	-0.012793431
82	0xbcab7287	-0.020928634
83	0x3c3d0ac1	0.011538208
84	0xbda46030	-0.08026159
85	0xbd5fb6d0	-0.054617703
86	0x3bf9cc53	0.0076232343
87	0x3d4213b4	0.04738207
88	0x3da3453e	0.07972191
89	0x3d96baaf	0.07359826
90	0x3bb7ac42	0.0056052515
91	0xbdbe3df9	-0.09289164
92	0x3d1893fe	0.03725051
93	0xbd8700a5	-0.0659192
94	0xbda8d2cf	-0.082433335
95	0xbb871fce	-0.0041236645
96	0x3d62bdf4	0.055356935
97	0xbd8083d0	-0.06275141
98	0x3d6be957	0.057595577
99	0xbd9e7da2	-0.07738806
100	0x3d6eb3de	0.058277003
101	0xbcfd3d08	-0.030912891
102	0x3c19dfe5	0.0093917595
103	0x3d374aa5	0.04474892
104	0xbd4afd61	-0.049558047
105	0x3da0633b	0.07831427
106	0xbbf2ac2c	-0.0074057784
107	0xbc20e0b9	-0.009819203
108	0xbd2fd891	-0.042931143
109	0xbd07e8f8	-0.03318116
110	0x3c84d6c0	0.016215682
111	0x3d72a5fb	0.059240323
112	0xbd8a759f	-0.06760716
113	0xbd08950b	-0.033345263
114	0x3d82778d	0.06370459
115	0x3b81def6	0.0039633466
116	0xbd850e65	-0.06496886
117	0xbcee3415	-0.029077569
118	0x3d80a8f0	0.06282222
119	0x3beb8af7	0.0071881968
120	0x3d5f407a	0.05450485
121	0xbc9c29ad	-0.019062841
122	0xbd8b686b	-0.068070255
123	0xbcbc9508	-0.023020282
124	0x3d28c016	0.041198812
125	0x3d3a1add	0.045435775
126	0x3bdb00fe	0.006683468
127	0xbda7ed28	-0.08199531
128	0x3c2caf16	0.010539791
129	0xb96bd078	-0.00022489007
130	0xbc8d84f2	-0.017275307
131	0x3db9ef41	0.09078837
132	0x3d82ac07	0.06380468
133	0xbdaacaee	-0.08339487
134	0xbd218d62	-0.039441474
135	0x3d09be53	0.033628773
136	0x3cc8d8eb	0.024517497
137	0xbc4e6f0d	-0.012599719
138	0x3d2a81c1	0.04162765
139	0x3c66b88d	0.014082086
140	0x3c718ca3	0.014743003
141	0x3d280a7d	0.041025627
142	0xbaf20ee8	-0.0018467577
143	0xbc950332	-0.01819
144	0xbde467e7	-0.1115263
145	0xbd61c345	-0.055117864
146	0xbd0f429c	-0.034975633
147	0xbc2d499f	-0.010576635
148	0xbd05b2f9	-0.032641385
149	0xbcc83bb1	-0.024442526
150	0x3d1fd54b	0.03902177
151	0x3cd868fd	0.02641725
152	0x3c8c5624	0.017130919
153	0x3db5945c	0.08866188
154	0xbc017c02	-0.007903101
155	0x3e19dbcf	0.15025257
156	0x3d87d2fd	0.0663204
157	0x3d90024c	0.07031688
158	0x3cb3c666	0.02194519
159	0x3da9e8eb	0.08296379
160	0x3d0c712d	0.03428762
161	0x3d034000	0.032043457
162	0xbd8b2bff	-0.06795501
163	0xbc8408b7	-0.016117437
164	0x3d66143b	0.056171637
165	0x3c412928	0.011789598
166	0x3d93ab45	0.072104014
167	0x3c884315	0.01663355
168	0xbdcc97bf	-0.09989881
169	0x3d845520	0.06461549
170	0xbca50dcd	-0.020148182
171	0xbd386b9d	-0.045024503
172	0xbd8b2e0b	-0.067958914
173	0x3d9766e8	0.07392675
174	0x3da6da3a	0.08147092
175	0x3cda5921	0.026653828
176	0xbb3e84d0	-0.0029070862
177	0x3d72401f	0.059143182
178	0x3d918d06	0.07106976
179	0x3d9da6c5	0.076978244
180	0x3c29ff1e	0.010375766
181	0xbbdb8913	-0.00669969
182	0x3bf748c1	0.0075465147
183	0x3d8fc271	0.07019509
184	0xbcd7ad37	-0.026327712
185	0x3c53b85f	0.012922375
186	0x3ad41134	0.0016179443
187	0xbcd77f5c	-0.026305847
188	0x3cbbb31e	0.022912558
189	0x3cc006ed	0.023440802
190	0xbb801ab5	-0.0039094337
191	0xbcb7e03b	-0.022445789
192	0xbc53815e	-0.0129092615
193	0xbc5003a9	-0.012696185
194	0xbd1064f3	-0.035252523
195	0x3d1f5465	0.038898844
196	0x3d85b809	0.065292425
197	0x3c3abbd3	0.01139732
198	0x3d480b1f	0.04883873
199	0xbd2a272f	-0.041541275
200	0x3b46d2a8	0.0030337963
201	0xbd1baadb	-0.038004737
202	0x3d2e6812	0.042579718
203	0x3d77d1bd	0.060502756
204	0x3dafc67e	0.08582781
205	0xbd0db1e1	-0.034593467
206	0x3d8fc039	0.070190854
207	0x3da0799b	0.078356944
208	0x3d88c18c	0.06677541
209	0x3db9fd21	0.09081484
210	0xbce7fb01	-0.02831793
211	0x3cda57ad	0.026653135
212	0xbd3eece2	-0.046612628
213	0x3d596b24	0.053080693
214	0x3b8ce8b3	0.004300201
215	0x3caed0e3	0.02133984
216	0xbd89374e	-0.06700002
217	0x3d11b276	0.035570584
218	0x39bdc2d5	0.0003619405
219	0x3d80619d	0.06268618
220	0xbce25183	-0.027626758
221	0x3d8c3c2b	0.06847414
222	0x3dc3f7ab	0.09568723
223	0xbd43263b	-0.04764388
224	0xbc4c137b	-0.012455816
225	0xbd93f283	-0.0722399
226	0xbbb1dc6d	-0.005427888
227	0x3d374461	0.044742946
228	0x3d4725ec	0.04862015
229	0x3d18e477	0.037327256
230	0x3d43d532	0.04781074
231	0xbd75ad1d	-0.059979547
232	0xbd0bbc1e	-0.03411495
233	0x3cfded55	0.030996958
234	0x3cc6bfce	0.024261381
235	0x3d02ee25	0.031965394
236	0x3ce97f0f	0.02850297
237	0xbd4769b2	-0.048684783
238	0x3d295e3a	0.041349627
239	0x3d1ab4e5	0.03777017
240	0x3d9549a8	0.072894394
241	0xbcae116a	-0.021248538
242	0x3d98fc34	0.07469979
243	0xbd15e1a8	-0.036592156
244	0xbc923bfb	-0.017850867
245	0x3d9d0e1d	0.076687075
246	0x3b3b153c	0.0028546592
247	0x3d15cc7d	0.03657197
248	0x3d57577b	0.052573662
249	0x3d1fdb07	0.03902724
250	0x3ce53780	0.027980566
251	0xbcb3115a	-0.02185886
252	0xbdc30fa4	-0.095244676
253	0xbd3e936f	-0.046527322
254	0x3d91282b	0.070877396
255	0x3d4b1935	0.049584586

net.convblock5.0.bias f4 [16]
0	0xbcc11384	-0.023568876
1	0x3c9f89d3	0.0194749
2	0x3db75379	0.08951468
3	0xbb2daf09	-0.0026502034
4	0x3cdd89f3	0.027043318
5	0x3c59bccf	0.013289644
6	0xbdc711bb	-0.09720179
7	0xbceb5974	-0.028729178
8	0x3dc583f3	0.09644308
9	0xbd9641b6	-0.07336752
10	0xbc4e87d8	-0.01260563
11	0xbd087f8c	-0.033324763
12	0xbbdd5897	-0.0067549455
13	0x3cf46139	0.029831516
14	0x3da42bcf	0.08016168
15	0x3d59287c	0.053017125

net.convblock5.2.weight f4 [16]
0	0x3f7b84c1	0.9824944
1	0x3f74fb95	0.95696384
2	0x3f81ff0d	1.015596
3	0x3f7f5f85	0.99755126
4	0x3f8790ea	1.0591099
5	0x3f89392d	1.0720574
6	0x3f8445c5	1.0333792
7	0x3f7f45d1	0.99715906
8	0x3f7c6f38	0.98607206
9	0x3f7aa800	0.979126
10	0x3f8096a0	1.0045967
11	0x3f830a4c	1.0237517
12	0x3f7d7a9b	0.99015206
13	0x3f7a39ae	0.9774426
14	0x3f77e68c	0.9683616
15	0x3f81af4f	1.0131625

net.convblock5.2.bias f4 [16]
0	0xbd34ef69	-0.04417363
1	0xbd22decc	-0.039763257
2	0x3c63dd6f	0.013907774
3	0xbda5b439	-0.08091015
4	0x3ba84cf3	0.005136126
5	0xbc8f5f42	-0.017501477
6	0xbcd04e92	-0.02542809
7	0xbba03e84	-0.004890265
8	0xbb0bf0ae	-0.0021353173
9	0xbc770e34	-0.01507907
10	0xbc895e32	-0.016768549
11	0x3bb93b28	0.005652804
12	0xbcf6b16b	-0.030113896
13	0xbbc932cf	-0.00614009
14	0x3c0fb67b	0.008771534
15	0xbc10ea37	-0.008844904

net.convblock6.0.weight f4 [16, 16, 3, 3]
0	0x3d078974	0.03309007
1	0x3ca0254d	0.019549036
2	0xbc1bfd62	-0.00952086
3	0xbc35621f	-0.011070757
4	0x3d66546c	0.056232855
5	0x3d246cd4	0.04014285
6	0x3cc350be	0.023842212
7	0x3daccdb7	0.084376745
8	0x3d14205e	0.03616368
9	0x3c6884bf	0.014191805
10	0x3c0c499a	0.00856247
11	0xbda289ba	-0.079364255
12	0x3c73afac	0.014873426
13	0x3cf7bd41	0.03024161
14	0x3dafa146	0.08575682
15	0xbab04c38	-0.0013450449
16	0xbd1ab7c3	-0.037772905
17	0x3bacc283	0.005272211
18	0xbb8be7bb	-0.004269568
19	0x3c8172cd	0.015801812
20	0x3ce30ab3	0.027715063
21	0x3ca68a2f	0.020329563
22	0xbda816e8	-0.08207494
23	0xbd0129cf	-0.031534012
24	0xbca69d0e	-0.020338561
25	0x3db49ab6	0.08818571
26	0xbd2f5fa2	-0.042815812
27	0x3d890757	0.06690853
28	0x3c6d4213	0.014481085
29	0xba9a61db	-0.0011778431
30	0xbd335c61	-0.04378927
31	0xbc6b4dae	-0.014361782
32	0xbd9cd722	-0.07658221
33	0xbd3dfd6f	-0.04638427
34	0x3d0756c5	0.033041734
35	0x3d41f39f	0.047351476
36	0x3c85e40e	0.016344097
37	0x3d30bd6d	0.0431494
38	0x3db3445d	0.08753274
39	0x3d11c343	0.035586607
40	0xbda19aa2	-0.07890822
41	0xbd9cc65c	-0.076550215
42	0xbd3c269c	-0.04593526
43	0xbdee43e1	-0.116340406
44	0xbdb1f168	-0.08688623
45	0xbbcce833	-0.0062532662
46	0x3ad155c8	0.0015970999
47	0xbd4087fc	-0.047004685
48	0x3c99b06f	0.018760888
49	0xbc6bdf5d	-0.014396516
50	0xbd0fb27b	-0.03508232
51	0xbdbce88f	-0.092240445
52	0x3d8d0122	0.06884982
53	0x3ca13cdd	0.019682342
54	0x3d9c4adf	0.07631468
55	0x3daa749b	0.08323022
56	0x3c55762b	0.013028662
57	0x3c2f7032	0.010707902
58	0xbb4fa596	-0.003168439
59	0x3d24fdfe	0.04028129
60	0xbcf764f2	-0.030199502
61	0x3dac269e	0.08405803
62	0x3dc632f9	0.09677691
63	0x3c97a919	0.01851325
64	0xba39b262	-0.0007083771
65	0xbd1518e3	-0.036400687
66	0x3d8f3b77	0.06993764
67	0x3ceb0cbf	0.028692601
68	0x3d70cbfe	0.058788292
69	0xbdd09401	-0.101844795
70	0xbd70b182	-0.058763035
71	0xbdb2b258	-0.087254226
72	0x3dc7e958	0.09761304
73	0x3d81c78d	0.063368894
74	0x3c369709	0.011144408
75	0xbd92da91	-0.071705945
76	0x3bc3a584	0.0059706587
77	0xbdb62a93	-0.08894839
78	0x3cc1ae80	0.023642778
79	0x3c2bf50b	0.0104954345
80	0xbc8e083f	-0.017337916
81	0xbdb63ee2	-0.08898713
82	0xbdabf658	-0.08396596
83	0xbd95ab26	-0.073080346
84	0xbc491ac7	-0.012274451
85	0x3d7132ae	0.058886223
86	0xbd13778e	-0.036002688
87	0x3c433041	0.01191336
88	0x3d85917a	0.06521888
89	0x3aa8ecaa	0.0012887914
90	0xbde4e5ee	-0.11176668
91	0x3d2e08e8	0.042488962
92	0xbd7bb91c	-0.06145583
93	0x3ddb0f27	0.106962495
94	0xbb611ec3	-0.003435061
95	0xbd7ea581	-0.062169556
96	0x3d67806e	0.056518964
97	0xbd42bfac	-0.047546074
98	0xbcbaea27	-0.02281673
99	0xbdbc342f	-0.09189641
100	0x3b3eea33	0.0029131293
101	0xbd4b39c9	-0.049615655
102	0xbe040220	-0.12891436
103	0xbd52bb4a	-0.051448144
104	0x3d8323d9	0.06403322
105	0xbbc0d59c	-0.005884839
106	0x3d5211fc	0.051286682
107	0x3d174588	0.036931545
108	0xbd8d4cde	-0.06899427
109	0xbd2fe8b9	-0.04294655
110	0xbd654317	-0.055972185
111	0xbd08bfb5	-0.03338595
112	0xbd63a2d9	-0.055575226
113	0xbdbf8f2a	-0.09353478
114	0xbd61d362	-0.05513323
115	0xbdd7ada4	-0.10531166
116	0xbc836f06	-0.016044151
117	0xbd22bbfb	-0.039730053
118	0x3db72bc8	0.089438975
119	0x3d614e9a	0.0550066
120	0x3aef2542	0.0018245357
121	0xbd4193ca	-0.047260083
122	0x3d1e8a62	0.03870619
123	0xbd2947cc	-0.041328236
124	0x3da49cef	0.08037745
125	0xbd2564c7	-0.040379312
126	0x3ccbae8e	0.024863508
127	0xbce881cd	-0.028382206
128	0xbcee4dea	-0.029089887
129	0xbd5b5b3d	-0.05355381
130	0x3d3b69cc	0.045755193
131	0xbd6b6218	-0.057466596
132	0x3d590974	0.05298753
133	0x3d92cbc8	0.071677744
134	0xbbd4ace4	-0.0064903367
135	0xbdb59b3c	-0.08867499
136	0x3d08a94f	0.03336459
137	0xbd3d8e4b	-0.04627828
138	0xbd1084a4	-0.035282746
139	0x3d510c70	0.051037252
140	0xbd026def	-0.031843122
141	0xbd789885	-0.06069233
142	0x3d938bd8	0.072044075
143	0x3d0a0d46	0.033704065
144	0x3c7af3a0	0.015316874
145	0xbd06328e	-0.032763056
146	0xbd830af6	-0.06398575
147	0x3c99e87e	0.018787619
148	0xbcd6b827	-0.026210858
149	0x3d67536b	0.056476038
150	0x3d0b6975	0.03403612
151	0xbb5440bc	-0.0032387218
152	0x3d0c0d81	0.034192566
153	0x3dd0ef1b	0.10201856
154	0xbcdb9f9e	-0.02680951
155	0xbd35cf1f	-0.04438698
156	0x3cba6d93	0.022757327
157	0xbc4ba3a8	-0.012429155
158	0x3d82c833	0.06385841
159	0xba0bb8c9	-0.00053299643
160	0xbd16fe03	-0.03686334
161	0x3cd20f7d	0.025642151
162	0x3c9780b2	0.018493984
163	0x3cf69c8d	0.030103946
164	0x3deb551c	0.11490843
165	0xbd1ffcc7	-0.039059427
166	0xbca665ed	-0.020312274
167	0x3dbce2e2	0.09222962
168	0xbcdcac03	-0.02693749
169	0xbd41e25c	-0.047335014
170	0xbd9d024d	-0.076664545
171	0x3c8f9411	0.017526658
172	0x3d515c90	0.051113665
173	0x3d897660	0.06712031
174	0xbda8dca8	-0.08245212
175	0xbb016a2e	-0.0019747126
176	0xbd12c075	-0.035828073
177	0x3c7f309e	0.015575556
178	0xbd46b64a	-0.04851369
179	0xb9fea20d	-0.00048567393
180	0x3b5f498b	0.0034070935
181	0x3d5ad8a4	0.05342926
182	0xbcd0de68	-0.025496677
183	0xbd517346	-0.051135324
184	0xbd81eb49	-0.06343705
185	0xbc1db199	-0.009624862
186	0xbd66de9c	-0.05636464
187	0xbd115199	-0.03547821
188	0xbd378624	-0.04480566
189	0xbdb7b096	-0.08969228
190	0x3d5c4828	0.05377975
191	0xbd2595b6	-0.04042598
192	0xbd3c7396	-0.04600867
193	0x3c828a9f	0.01593524
194	0xbd13b8e3	-0.036064994
195	0x3da2497f	0.079241745
196	0x3b116b0a	0.0022189044
197	0xbd818140	-0.063234806
198	0x3da1cbec	0.07900223
199	0x3ddbccf1	0.10732449
200	0x3d8b2ec7	0.067960314
201	0xbd24db21	-0.04024804
202	0x3c869d7b	0.016432514
203	0x3d54ea62	0.051981337
204	0x3d2a0fd5	0.041519005
205	0xbbed57df	-0.007243141
206	0x3d8d0396	0.068854496
207	0xbd01b957	-0.031670894
208	0xbd55eeeb	-0.052229803
209	0x3b4422c2	0.0029927944
210	0x3c7955ef	0.015218242
211	0xbdcdd3fc	-0.100501984
212	0xbd22210f	-0.03958231
213	0xbdf70d56	-0.120630905
214	0x3d227386	0.039660953
215	0xbb3e7715	-0.0029062678
216	0x3dce0391	0.10059274
217	0xbcb56aa5	-0.022145579
218	0xbcd9a446	-0.02656759
219	0x3d13870a	0.036017455
220	0x3bcbb263	0.0062163337
221	0x3acfe86b	0.0015862113
222	0x3ca2bf11	0.019866498
223	0xbd9bedb6	-0.07613699
224	0x3bb80c2b	0.005616685
225	0xbd701cad	-0.058621097
226	0x3d31ea17	0.043436136
227	0x3dce5c62	0.100762144
228	0x3dd2bf6c	0.10290417
229	0xbad90575	-0.0016557412
230	0xbc9f6c03	-0.019460684
231	0x3d945b87	0.0724402
232	0xbd32ac93	-0.04362161
233	0xbd7f610d	-0.062348414
234	0xbb4a513f	-0.003087118
235	0x3bb56ebe	0.005536883
236	0x3dbdd510	0.09269154
237	0xbd7d6717	-0.061865892
238	0x3c1519db	0.009100403
239	0x3ccd68e9	0.02507444
240	0xbd4bac3b	-0.0497248
241	0x3d58a273	0.0528893
242	0xbd8d6beb	-0.06905349
243	0x3d47e668	0.048803717
244	0x3d29d59c	0.04146348
245	0x3c6c337d	0.014416573
246	0x3dc4f8ca	0.09617765
247	0x3c8f347e	0.017481085
248	0xbd71b17a	-0.059007145
249	0xbb7f2002	-0.003892899
250	0xbda18e56	-0.078884766
251	0x3c00de45	0.007865493
252	0xbdc86b96	-0.097861454
253	0xbd972946	-0.07380919
254	0xbd3037dc	-0.04302202
255	0xbd408493	-0.047001433

net.convblock6.0.bias f4 [16]
0	0xbd3a5e29	-0.045499954
1	0xbd9828ca	-0.07429655
2	0x3ba56307	0.0050472054
3	0xbd466c56	-0.04844316
4	0xbde3a9be	-0.1111636
5	0xbc52fdb3	-0.012877869
6	0xbd32bebb	-0.043638926
7	0xbd6e5fc0	-0.058196783
8	0x3c4e22d7	0.012581549
9	0xbc92a23e	-0.017899629
10	0xbdb6cd1e	-0.08925842
11	0x3c649833	0.013952303
12	0x3d156c05	0.03647997
13	0xbd19b485	-0.037525672
14	0xbcc67ef2	-0.024230454
15	0x3c8765eb	0.01652809

net.convblock6.2.weight f4 [16]
0	0x3f761d05	0.9613803
1	0x3f7ededf	0.99558824
2	0x3f76ad78	0.9635844
3	0x3f8a2230	1.0791683
4	0x3f866095	1.0498224
5	0x3f8091fe	1.0044553
6	0x3f7b56ad	0.9817913
7	0x3f8986a0	1.0744209
8	0x3f85d79e	1.0456426
9	0x3f7f3cbd	0.99702054
10	0x3f7f2301	0.99662787
11	0x3f7bce32	0.98361504
12	0x3f7e5d46	0.99361074
13	0x3f78fed8	0.9726386
14	0x3f79fc19	0.97650295
15	0x3f79aef4	0.9753258

net.convblock6.2.bias f4 [16]
0	0x3c17db5f	0.009268611
1	0xbd5183c4	-0.051151052
2	0x3b984d2f	0.004647873
3	0xbda73291	-0.08163942
4	0xbcf1d06a	-0.029518325
5	0xbd35bcf5	-0.044369657
6	0xbd8a33b0	-0.0674814
7	0xbd0608dc	-0.032723293
8	0xbcfce54d	-0.030871058
9	0xbba236b2	-0.004950368
10	0xbdb196d2	-0.08671345
11	0xbd806de2	-0.062709585
12	0xbd11476a	-0.035468496
13	0x3ce499cf	0.027905373
14	0xbd740e39	-0.059583876
15	0xbd2b22e5	-0.041781325

net.convblock7.0.weight f4 [8, 16, 1, 1]
0	0x3dafd062	0.08584668
1	0x3dc21f01	0.0947857
2	0x3de5118c	0.111849874
3	0x3d81aad6	0.063314125
4	0x3eaee507	0.3415911
5	0x3e7caf19	0.2467617
6	0xbe51ff9b	-0.20507662
7	0x3e3e5c60	0.18589926
8	0x3d311fe5	0.043243308
9	0xbe65d934	-0.22446138
10	0xbe0ae216	-0.13562807
11	0x3e029dae	0.12755463
12	0xbd4c0022	-0.049804814
13	0x3dff4cb6	0.12465803
14	0xbdd09ca0	-0.10186124
15	0x3c1f4376	0.009720674
16	0x3d90d6aa	0.07072194
17	0x3e60c68c	0.2195074
18	0xbe6d94a7	-0.23201238
19	0xbdf88fdb	-0.12136813
20	0x3e21a3d8	0.15785158
21	0x3d5746a6	0.05255761
22	0xbe07045d	-0.13185258
23	0x3dda69a8	0.106646836
24	0xbe133e69	-0.14379276
25	0x3d349a19	0.04409227
26	0x3e4f7a7d	0.2026157
27	0x3e82032c	0.25393045
28	0x3e0882c8	0.13331139
29	0x3e6b869a	0.23000565
30	0x3e13b591	0.14424731
31	0x3e60d008	0.21954358
32	0x3e4a46f9	0.19753636
33	0xbdcb9eb2	-0.09942378
34	0x3e236df3	0.15959911
35	0xbabef714	-0.0014569485
36	0x3e0487b3	0.1294239
37	0xbe4616bd	-0.19344611
38	0x3e67984c	0.2261669
39	0xbcecc13b	-0.028900733
40	0x3e649a5e	0.22324511
41	0xbc203805	-0.009778981
42	0x3e41ea50	0.1893704
43	0xbd775048	-0.060379297
44	0x3e324853	0.17410402
45	0x3cef73e2	0.029230062
46	0x3e1ac562	0.15114358
47	0x3df1a93c	0.11799857
48	0x3d23fe77	0.0400376
49	0x3cad472c	0.021152101
50	0xbe68c3da	-0.22730961
51	0x3e7f4a6b	0.24930732
52	0x3e7e29cc	0.24820632
53	0xbcc34f04	-0.023841389
54	0xbd842c19	-0.064537235
55	0x3dc6d826	0.09709196
56	0xbdf50d9a	-0.11965485
57	0x3d874be7	0.06606274
58	0xbd845cdb	-0.06463023
59	0xbd0367ca	-0.032081403
60	0xbe396b55	-0.1810735
61	0xbde1a185	-0.110171355
62	0x3e54499a	0.20731202
63	0x3e467cd9	0.19383563
64	0x3e12ff05	0.14355095
65	0x3e87900d	0.2647709
66	0x3d2fde73	0.042936753
67	0xbe7b4f73	-0.24542026
68	0xbdfe694f	-0.1242243
69	0xbe01a1f0	-0.1265943
70	0xbe0c82fd	-0.13721843
71	0xbc6225ef	-0.013802989
72	0x3e7da2de	0.2476916
73	0x3bf01bae	0.0073275184
74	0x3d1a0a37	0.037607398
75	0xbe756e3f	-0.23967837
76	0xbeb0a742	-0.34502608
77	0x3ccf3037	0.025291545
78	0xbe49b15c	-0.19696563
79	0xbb41ced6	-0.0029572747
80	0x3e20b94d	0.15695687
81	0xbe5b2f86	-0.21404848
82	0x3e0e6e72	0.13909319
83	0xbe3e284d	-0.18570061
84	0xbe3758b3	-0.1790493
85	0xba271bc2	-0.00063746807
86	0x3e3c09db	0.18363135
87	0xbde14c55	-0.11000887
88	0x3dddb26e	0.108250484
89	0x3e42f371	0.19038178
90	0xbd2a28d8	-0.041542858
91	0xbe658003	-0.22412114
92	0x3e5c7c8c	0.21531886
93	0x3e34a045	0.17639263
94	0x3e00fa22	0.12595418
95	0x3dce2830	0.10066259
96	0x3e870aff	0.26375577
97	0x3dbbf662	0.09177853
98	0xbcc81695	-0.02442483
99	0xbe76426d	-0.24048777
100	0x3b8f8ece	0.0043810373
101	0xbd7a70b8	-0.061142653
102	0xbde5c15b	-0.1121852
103	0x3e6b79cb	0.22995679
104	0x3e06129d	0.13093038
105	0xbe023304	-0.12714773
106	0x3d803665	0.06260375
107	0xbd6e98c0	-0.058251143
108	0xbe4943d7	-0.19654785
109	0xbe54a524	-0.20766121
110	0x3e44bd78	0.19212902
111	0xbc829d23	-0.01594407
112	0x3d8181e7	0.06323605
113	0x3de934a1	0.11386991
114	0xbe2678a0	-0.16256952
115	0x3d8d3089	0.06894023
116	0x3c0513cd	0.008122397
117	0x3e37f3a0	0.1796403
118	0x3e0a03b4	0.13477975
119	0x3e6cf457	0.23140083
120	0x3bcb791c	0.0062095057
121	0xbd5695e5	-0.052389044
122	0x3e2a5442	0.16633704
123	0xbda2d260	-0.07950282
124	0x3e591e43	0.2120295
125	0xbe0fa063	-0.14026026
126	0x3d991dbd	0.07476375
127	0xbe551cde	-0.20811793

net.convblock7.0.bias f4 [8]
0	0x3e534ad4	0.20634013
1	0x3d20d38f	0.039264258
2	0xbace6cf8	-0.0015749028
3	0xbe31860c	-0.17336291
4	0xbddb6c3d	-0.10714004
5	0xbe2f4f4d	-0.17120095
6	0x3e12c13c	0.14331526
7	0x3e196f8d	0.1498396

net.convblock7.2.weight f4 [8]
0	0x3f831dc7	1.0243462
1	0x3f75108b	0.9572837
2	0x3f8176b7	1.0114354
3	0x3f772db7	0.9655413
4	0x3f805b95	1.0027949
5	0x3f8795e8	1.0592623
6	0x3f753d59	0.95796734
7	0x3f7caead	0.98704034

net.convblock7.2.bias f4 [8]
0	0x3c6a088d	0.014284265
1	0xbd0d94a2	-0.034565575
2	0xbd8ca8af	-0.06868111
3	0x3c3101fe	0.010803698
4	0x3d779000	0.060440063
5	0x3c634461	0.013871283
6	0x3d1eb364	0.0387453
7	0xbd6872c1	-0.056750063

net.convblock8.0.weight f4 [10, 8, 3, 3]
0	0x3bc88c93	0.0061202734
1	0x3cb4d503	0.022074228
2	0x3d76ee52	0.060285874
3	0x3cdaf659	0.026728796
4	0x3d732dd5	0.05936988
5	0x3e28daaf	0.16489671
6	0x3d881de8	0.06646329
7	0x3d920a12	0.07130827
8	0x3e11b198	0.14227903
9	0x3dc39bab	0.09551176
10	0x3e0c9d4a	0.13731876
11	0x3dc5d91e	0.096605524
12	0x3d82b221	0.06381632
13	0xbd3f36f9	-0.046683285
14	0x3c63d996	0.013906857
15	0xbe3c2881	-0.18374826
16	0xbd1678f8	-0.03673646
17	0xbdfd853f	-0.1237893
18	0x3d988f5a	0.07449217
19	0x3d42cbb3	0.047557544
20	0x3e2d1b0f	0.16904853
21	0xbdf8e093	-0.12152209
22	0xbdab3cd2	-0.0836121
23	0xbbd7b71d	-0.006583108
24	0xbe0133c0	-0.12617397
25	0xbde43633	-0.1114315
26	0xbcfea41d	-0.031084115
27	0xbd0157df	-0.03157794
28	0x3b8373e0	0.004011616
29	0x3d79c5bc	0.06097959
30	0xbc779061	-0.015110106
31	0xbcfe310b	-0.031029245
32	0x3caafcfb	0.020872584
33	0xbd12ebb5	-0.03586932
34	0xbcb0eb1c	-0.021596484
35	0x3d275ca6	0.04085984
36	0x3ccc4dd1	0.02493945
37	0x3c600efb	0.013675447
38	0x3c41cf0b	0.011829148
39	0xbc91ce17	-0.017798467
40	0x3a6fc228	0.0009146058
41	0xbe4b2c49	-0.19841112
42	0x3d9a9770	0.07548416
43	0x3d85d5df	0.06534933
44	0x3ddbaf58	0.107268035
45	0xbd560474	-0.05225034
46	0xbb16d4c4	-0.0023015002
47	0x3d882f22	0.06649615
48	0xbde6d07d	-0.11270235
49	0xbcbf1bf0	-0.023328751
50	0x3cb3916c	0.021919928
51	0xbdd90fb0	-0.10598695
52	0x3d7e70a6	0.06211915
53	0xbd28b4ef	-0.041188177
54	0xbd66f1e0	-0.056383014
55	0xbc3b115e	-0.011417715
56	0x3cb59f3e	0.02217066
57	0xbd7b64f7	-0.061375584
58	0x3c9f9988	0.01948239
59	0x3daa9fc9	0.08331258
60	0xbd6ee3cc	-0.058322713
61	0x3cd280ac	0.025696121
62	0x3d3c2ec4	0.045943037
63	0x3d8e66f9	0.06953234
64	0x3d857acd	0.06517563
65	0x3d7c4b8e	0.061595492
66	0xbcfdd492	-0.03098515
67	0xbb8fb9c0	-0.004386157
68	0xbcf2fb4b	-0.029660841
69	0xbd1c33bc	-0.038135275
70	0xbe4e7dc8	-0.20165169
71	0xbd2c9809	-0.04213718
72	0xbda4b1f6	-0.08041756
73	0x3c93f4df	0.0180611
74	0x3e1ce986	0.15323457
75	0x3d05c740	0.032660723
76	0x3d811013	0.06301894
77	0x3e35d9eb	0.1775891
78	0x3d1f1978	0.03884265
79	0x3db7c616	0.08973329
80	0x3b8c329a	0.004278493
81	0xbdae9888	-0.08525187
82	0xbd7666db	-0.060156684
83	0x3dd73ccb	0.10509642
84	0x3cee17a9	0.029064016
85	0xbd6fa7b3	-0.05850954
86	0x3cb24c4c	0.021764897
87	0x3dd7fc11	0.10546125
88	0xbd302792	-0.043006487
89	0xbd9a2464	-0.07526472
90	0x3cb32856	0.02186982
91	0x3dc08b9e	0.0940163
92	0xbd94c230	-0.07263601
93	0xbd2de4a1	-0.042454366
94	0x3cf9ad75	0.030478219
95	0xbdd05ee6	-0.101743504
96	0x3dc17044	0.09445241
97	0x3a22a002	0.00062036526
98	0xbe22ad33	-0.15886383
99	0x3d63fef2	0.055663057
100	0xbdcc8195	-0.09985653
101	0xbc1ae173	-0.009453165
102	0x3bc4f680	0.0060108304
103	0xbd658992	-0.0560394
104	0x3c27ba56	0.010237297
105	0x3dc20317	0.094732456
106	0x3dd105cc	0.10206184
107	0x3d2d5a01	0.042322163
108	0x3d900285	0.070317306
109	0x3d8e950d	0.06962023
110	0xbe09bc91	-0.13450839
111	0x3d9a913e	0.07547234
112	0xbdb1bead	-0.08678947
113	0xbd8630b3	-0.065522574
114	0xbdb9a8df	-0.09065413
115	0xbd8521b2	-0.065005675
116	0x3e25863d	0.16164489
117	0x3dce8d5c	0.10085556
118	0xbe2e2bbd	-0.17008872
119	0xb91c1942	-0.00014886729
120	0x3b7e4609	0.0038799068
121	0x3cde46bb	0.027133336
122	0xbdbd150f	-0.09232532
123	0xbd868e6a	-0.06570132
124	0xbddfbb8c	-0.109244436
125	0xbe246b0f	-0.16056465
126	0x3d4e6c8c	0.050396487
127	0xbc4a0a5a	-0.01233157
128	0x3c7bb093	0.015361923
129	0x3d99f740	0.07517862
130	0xbe09510e	-0.13409826
131	0xbdd7dc2b	-0.105400406
132	0xbb0fc7b0	-0.0021939091
133	0xbd6e18d4	-0.058129147
134	0x3c4b5ac0	0.012411773
135	0x3d8a945b	0.06766578
136	0x3dca8ea4	0.09890488
137	0x3d09544e	0.033527665
138	0x3d480888	0.04883626
139	0xbce823ab	-0.02833732
140	0x3db13f75	0.086546816
141	0x3d84ff74	0.06494036
142	0x3d725e1c	0.05917178
143	0x3da234e9	0.07920248
144	0x3d28bf1a	0.041197874
145	0x3bc29b63	0.0059389337
146	0xbb7d339a	-0.0038635493
147	0xbdcf1c42	-0.101128116
148	0xbc9e3035	-0.019310096
149	0xbde7b90e	-0.11314593
150	0x3d24b9cd	0.040216256
151	0x3d0406fd	0.032233227
152	0xbc86521b	-0.016396573
153	0xbe25abfd	-0.1617889
154	0xbda61298	-0.08109015
155	0xbd6de071	-0.058075372
156	0xbdba8bd4	-0.09108701
157	0x3c918a94	0.017766275
158	0xbcbed051	-0.023292692
159	0x3dc8356d	0.09775815
160	0x3d244811	0.04010779
161	0x3d301875	0.042992074
162	0xbaadd355	-0.0013261834
163	0xbd0b84ca	-0.034062184
164	0x3d84e0dc	0.06488201
165	0x3dc18df1	0.09450901
166	0xbd5a8ff7	-0.05335995
167	0xbcd956e9	-0.0265307
168	0x3ced58ef	0.02897307
169	0x3d4ee3c9	0.0505102
170	0xbc982203	-0.018570906
171	0x3afb06e2	0.0019151832
172	0x3c7ffba3	0.01562396
173	0x3e3a43c8	0.18189919
174	0xbd1bcbce	-0.03803616
175	0x3d92b84b	0.07164057
176	0x3e517279	0.20453824
177	0x3c2fd108	0.010730989
178	0x3c18b310	0.009320036
179	0x3d87f0d1	0.06637729
180	0xbc61d10d	-0.013782752
181	0xbd43bd3e	-0.047787897
182	0x3dfe2efa	0.12411304
183	0x3e239aa3	0.15976958
184	0x3d600ed2	0.054701634
185	0x3df2e67a	0.11860366
186	0xbcf56fd8	-0.029960558
187	0x3dde8131	0.10864485
188	0x3d936fff	0.07199096
189	0x3e137000	0.14398193
190	0x3ca2d758	0.019878075
191	0xbe013f5e	-0.12621829
192	0xbd8fee4a	-0.07027872
193	0xbd6305bb	-0.055425387
194	0x3c3113cb	0.010807942
195	0x3d34d34f	0.044146832
196	0xbd9c2692	-0.07624544
197	0x3d580e1a	0.052747823
198	0xbd517073	-0.05113263
199	0x3dd00edd	0.10159085
200	0x3c908548	0.017641678
201	0xbc163f8d	-0.009170425
202	0xbd673e71	-0.056456033
203	0xbdefd43e	-0.11710404
204	0xbca37622	-0.019953791
205	0xbde538a6	-0.111924455
206	0xbd57ec4b	-0.05271558
207	0xbc504ee2	-0.01271412
208	0x3baacca1	0.005212382
209	0x3d37f91e	0.04491531
210	0x3dacce4a	0.08437784
211	0x3debc092	0.11511339
212	0xbbd04b76	-0.006356652
213	0x3d9b0779	0.07569785
214	0xbd0eba31	-0.034845535
215	0xbd75ee2f	-0.060041603
216	0xbcf2e4ce	-0.029650118
217	0x3c13c426	0.009018933
218	0xbd8d7dfa	-0.06908794
219	0x3d9f1925	0.07768468
220	0xbd884192	-0.066531315
221	0xbd07b91c	-0.03313552
222	0xbd8477e9	-0.064681835
223	0xbd9bb90d	-0.07603655
224	0x3cb50754	0.02209822
225	0xbd2bacd4	-0.04191287
226	0xbda10622	-0.07862498
227	0xbd048bac	-0.032359764
228	0xbe25b69c	-0.16182941
229	0xbd95c00c	-0.07312021
230	0xbd142995	-0.03617247
231	0x3d527970	0.051385343
232	0xbcf59818	-0.02997975
233	0x3e04e773	0.12978916
234	0xbda1fd8e	-0.0790969
235	0xbe1d791c	-0.15378231
236	0xbcc1aa2a	-0.02364071
237	0xbd7fda51	-0.062464062
238	0x3c7a259b	0.015267755
239	0xbde13305	-0.10996059
240	0x3dae8f94	0.08523479
241	0x3c4e140c	0.012578022
242	0x3d224d51	0.039624516
243	0xbd12c9bd	-0.035836924
244	0x3d974d55	0.07387797
245	0x3c98fb29	0.01867445
246	0xbd2df716	-0.042471968
247	0x3dfeeae0	0.124471426
248	0x3cead874	0.028667666
249	0xbcf1af1a	-0.02950244
250	0x3d892452	0.06696381
251	0x3d403a6c	0.046930715
252	0x3d01a77f	0.031653877
253	0x3d48a191	0.048982207
254	0x3ddeb99b	0.10875245
255	0x3e095afc	0.13413614

net.convblock8.0.bias f4 [10]
0	0xbd0e0829	-0.03467575
1	0x3db056fb	0.0861034
2	0xbc21f895	-0.009885927
3	0xbd3f6b16	-0.046732984
4	0x3d74f72a	0.059806027
5	0xbbfeb6b7	-0.007773246
6	0x3d8c9e16	0.0686609
7	0x3c9f3794	0.019435681
8	0xbc920b68	-0.017827705
9	0x3d560175	0.052247483
