output/csv/version_1/checkpoints/epoch=4-step=275-v1.ckpt (torch, 179611 bytes, 152 tensors)

net.convblock1.0.weight f4 [10, 1, 3, 3]
00000000: d5a3 4e3b 9cdd 123c 67f4 973e 54b6 b03c
00000010: 78b1 f63d 8291 4abe 3fba 223e 3aec 823e
00000020: 2906 b6be 2ccf 913e 36b0 2abd 96c8 883e
00000030: 5fe2 723e 6360 28be f95d 93bb d8ce 99be
00000040: 5bdf 35bd 389a 08be 9b53 46be bc58 30be
00000050: 37d5 a2be ba2d 5fbe 2f1e d33d ac47 903e
00000060: 70bb 9c3d 6d59 4a3e 81bc 21be 4865 973c
00000070: f416 f93d 371f 833d 7fe4 5b3e 0542 4bbe
00000080: ab23 d53d ea89 843d 81f9 41be 60e7 2abc
00000090: d50c 943e 8961 02bd 3d37 d13d 5a3b f9bc
000000a0: 24b3 713e 3c78 3cbe eb4d 7e3e 9e54 193e
000000b0: 623f 9c3e b727 3b3e 1c40 613e 5097 9b3e
000000c0: 8b47 1f3e 5062 49be 6bb5 443e 881b a6bd
000000d0: a204 4e3e 1820 c3bd 6b78 883d 3532 82bd
000000e0: 3fad 17be 3b7c 3cbc 15d3 2b3e cbbd 9abe
000000f0: c2a3 213d 2d85 47be 9473 62be 722f 1bbe
00000100: 8dc1 96be d17e 3abd ae7f 973c 74da 5abe
00000110: 8b02 af3d ca01 52bd 96d7 723e 7f1b 92be
00000120: 8ff0 6ebe 881d a7be a219 b33b dd88 15be
00000130: a0c0 493e 2dd8 34be 6b76 543e 9ee6 e93d
00000140: 9716 99be 4027 933e cb8d c2bd ce8e a63d
00000150: 259c 6a3e 7a57 4ebd f78e 79be 3051 233e
00000160: cd67 7abe e9dc 1d3e
0.0031530757 0.008963969 0.29678652 0.021571316 0.12045568 -0.1978207 0.1589136 0.25570852
-0.35551575 0.28478372 -0.041671954 0.26715535 0.23719166 -0.16443019 -0.0044972864 -0.30040622
-0.04440246 -0.1334008 -0.1936783 -0.1722135 -0.31803295 -0.21794787 0.103084914 0.2817968
0.07652938 0.19760676 -0.15794565 0.018480912 0.12162581 0.06402438 0.21473883 -0.19849403
0.10407194 0.064716175 -0.18942834 -0.010431141 0.2891604 -0.031831298 0.10215614 -0.030423809
0.23603493 -0.18405241 0.24834411 0.14973685 0.30517107 0.18276869 0.21997112 0.3038888
0.15554635 -0.1966641 0.1920983 -0.0811072 0.20118955 -0.09527606 0.06663593 -0.063572325
-0.14812182 -0.011504228 0.1677974 -0.30222926 0.039462812 -0.19484396 -0.22114402 -0.15154818
-0.29444543 -0.045531098 0.0184935 -0.21372396 0.08545407 -0.051271237 0.23715052 -0.28536603
-0.23333953 -0.32639718 0.005465702 -0.1460299 0.19702387 -0.1766059 0.20748298 0.1142094
-0.29900047 0.28740883 -0.09499701 0.081327066 0.22911127 -0.050376393 -0.24370943 0.1594894
-0.2445366 0.15416302

net.convblock1.0.bias f4 [10]
00000000: 31b7 923e 2006 b43d 63f3 243e 0fc4 a43e
00000010: 64a7 37be 2658 1abe 98be 623e 7783 e6bd
00000020: 87c3 1ebe cc35 313d
0.2865539 0.08790231 0.1610847 0.3218083 -0.17934948 -0.15072688 0.22143018 -0.11255544
-0.15504275 0.043264195

net.convblock1.2.weight f4 [10]
00000000: 9c7f 793f c174 833f a588 843f 7c43 813f
00000010: bb5c 793f 6947 803f fb04 873f 85e9 7f3f
00000020: 8e66 813f 94c0 793f
0.9746034 1.0270005 1.0354201 1.009872 0.9740712 1.0021793 1.0548395 0.999657
1.0109422 0.97559476

net.convblock1.2.bias f4 [10]
00000000: 290a 813d 0edd 333d cf08 40bd 4968 e53c
00000010: 5213 51bc de5d 433d 1bed 26bc f306 b1bc
00000020: cc5f b93c a03d fa3c
0.06300766 0.043911986 -0.0468834 0.028003829 -0.012760954 0.04769694 -0.010188366 -0.021609759
0.022628687 0.030546963

net.convblock2.0.weight f4 [16, 10, 3, 3]
00000000: d952 1a3d 64ef 093d a646 98bc ef02 b4bc
00000010: 1f2e a7bd 2d27 483d 7acb 253d a2d4 49bd
00000020: 255e 21bd 97ec acbc 3292 c73b 8671 9cbd
00000030: 5cb0 193d 6c9e 323d 05e6 acbd d1fa 89bd
00000040: 9112 4a3d 733d 77bc c8a8 bbbb e734 e7bc
00000050: 1e89 013d fa27 e23c 9fb6 babd 48a1 7c3d
00000060: e97a 9abd 0624 5f3d 8ec8 d73c 6d82 dcbc
00000070: e46f 143d 1b58 9b3c c821 c43c 4a24 c9bd
00000080: dd33 89bd 817f 113d 90a1 c0bd 3df0 4d3d
00000090: 8b4c c0bd 4785 f7ba ec10 ce3c b6ea 26bd
000000a0: 99b7 bcbd 410d ab3d f014 30be f61e 1dbd
000000b0: 9c4c 023e 9242 cebc 43e9 14bb 469c 0e3c
000000c0: 335b f7bd f7f6 7d3d b58a 913d beef 163d
000000d0: 26d4 b1bd 5aff 883d 7aa9 c23d 4886 5b3c
000000e0: c5c1 c9bd 56d3 12bb fd72 41bd 22d3 dfbc
000000f0: a670 ae3c 8815 3c3d 4e94 be3c 6458 a4bc
00000100: 4167 07be f6c6 353c 0294 603b 5b45 f83c
00000110: a04c d73d 617c 95ba 39d5 3ebd ad5e 3c3d
00000120: 716b 263d 5c01 e53c e2af de3c b340 6f3d
00000130: 9ff8 83bb bc6d c73b 2239 4dbd a982 03bd
00000140: b1f0 893d 6e44 5f3b 0267 d2bd 85f3 a7bd
00000150: 79bc 79bd f0b8 96bd 85c2 323d 3734 65bd
00000160: eba2 753d d217 fbbc e300 013d b331 e8bb
00000170: 9699 04be bc41 d7bd aeab 6cbc 7968 de3c
00000180: d440 773d 3d29 c7bd 66ed c0bd b6d2 b53b
00000190: f727 243d d949 edbd f891 b63c 0f9b 333c
000001a0: 31a3 f5bd 724e ba3c 640f 83bd ce48 47bc
000001b0: 4b64 16bc cab4 06bb 91db 243d e113 d8ba
000001c0: f530 9f3c 9e1c 823d 0e39 f9bc 8448 b8bb
000001d0: 4653 5bbc cd90 053d cc58 07be 50fb 39be
000001e0: 28e7 24bd c94a 22bd f6de d1bd 9308 563b
000001f0: ca10 bbbd 4a31 e5bc 1198 11bc 1407 aebd
00000200: 5bae a6bd 7c40 38bd 3b30 74bd 31f6 cfbc
00000210: 5589 e3bd a502 97bd 6aff ef3d d768 853d
00000220: 3e09 6abd 1d92 f8bc bbb6 acbd 280e 2d3c
00000230: f21a 9abd afd9 cabc 8814 3d3c 37ca fc3d
00000240: 3c3b 933d 9d96 cabd b980 e13c cf70 6abd
00000250: be66 ac3b 4767 c8bb 7422 923d b2fb 69bd
00000260: 424a d6bc 2596 1c3d 6b55 b5bd 5483 df3d
00000270: 5bfc 733d 7e67 a0bd 8e24 c1bd 6b8c 82bb
00000280: 10e2 7b3d 0b59 62bd 9836 273b 9d2e aa3d
00000290: d738 a63d ee3d 5e3d 2b5a 91bd 06fe 4cbd
000002a0: 526b 91bd fc1c cebc f4f9 ccbd b2cb 403d
000002b0: 7ccf a23c 01f5 08bd f98c 943d 73ee 8c3c
000002c0: ef54 e43c a518 b5bc 98dd dabd 67f3 823d
000002d0: 2d66 d7bc 9b32 fe3c 24b2 e9bc e4d1 fbbd
000002e0: 1a88 b3bd 3b51 ad3c ae4e 1dbd 2930 7b3c
000002f0: b3f1 8b3c ca0b 193d 888a 91bc 632d d8bd
00000300: dd2d 1c3b 8025 cf3d 4bac 80bb 2126 84bd
00000310: 5b72 a1bd 59e1 0dbd b0de 403d 86f6 95bd
00000320: d5c1 e8bd fe8a 1ebd 4acb 0dbe 985c 78bd
00000330: f377 eabd 7f96 883d 7acc a4bd 1ec0 703c
00000340: 57bc ef3b 85d6 a83d 7662 f83c ebc2 6c3d
00000350: 4210 e33d d401 803d 1067 c7bc 23a0 3abd
00000360: 491e 9b3d c40b 34bd 2b17 3cbb 680d 10bb
00000370: 2f18 aa3d 9a9c 8a3c ea74 f7bd 85d0 7f3c
00000380: bb2f a13c 92dc a8bd a7dd b3bc b594 753d
00000390: 86ab 013c 8e7c 86bd 2a85 a03d ef74 c1bd
000003a0: db55 633c c1fd 003d 6b11 a93d b639 81bd
000003b0: 47b2 0bbe 1a8f 103d 1849 87bd 0ba3 11be
000003c0: 5e98 903c e178 c13d d159 adbc f71a c03d
000003d0: 79ff aebc fcf8 4fbd 601a fc3d 6d70 6bbc
000003e0: 003d 80bd 3ef7 bf3d 9f80 e839 9f2c abbd
000003f0: 5d91 e73d 9dc2 08bd e09f 1ebd dbd6 aebb
0.037676666 0.033675566 -0.018588375 -0.021974055 -0.08163094 0.048865486 0.040477253 -0.049275048
-0.039396424 -0.021108909 0.006090426 -0.076388404 0.037521705 0.043608114 -0.0844231 -0.067372926
0.049334113 -0.015090334 -0.0057269074 -0.028223468 0.031624906 0.027606953 -0.091168635 0.061677247
-0.075429745 0.054477714 0.02634075 -0.02691766 0.03623952 0.01896291 0.02394189 -0.09821375
-0.06699345 0.035521988 -0.094058156 0.050277937 -0.093895994 -0.0018884324 0.025154553 -0.04075118
-0.09214706 0.08352137 -0.17195487 -0.038359605 0.12724537 -0.025178228 -0.0022722043 0.008704251
-0.12077942 0.062003102 0.071065344 0.03684973 -0.08683042 0.066893294 0.09504981 0.013398714
-0.09851412 -0.0022403798 -0.047228802 -0.027322356 0.02129395 0.04591897 0.023264077 -0.02006168
-0.13222982 0.011094799 0.0034267907 0.030306509 0.10512662 -0.0011404866 -0.046590064 0.045988727
0.040629808 0.02795475 0.027183477 0.05841131 -0.0040274407 0.0060860794 -0.050103314 -0.03210703
0.06735361 0.0034067887 -0.102735534 -0.082007445 -0.060970757 -0.07359493 0.04364254 -0.055958
0.059969824 -0.030651007 0.031494986 -0.0070860027 -0.12949213 -0.10510585 -0.0144452285 0.027149426
0.06036456 -0.097246625 -0.0942028 0.0055488003 0.040077176 -0.11586351 0.0222864 0.010962262
-0.11994017 0.022742484 -0.0639942 -0.012163354 -0.009179185 -0.0020554536 0.040248457 -0.0016485417
0.019432524 0.063531145 -0.030422714 -0.005623879 -0.013386553 0.032608796 -0.13217467 -0.18162274
-0.04025951 -0.039622102 -0.102476045 0.003265892 -0.09134062 -0.027977604 -0.008886353 -0.08497444
-0.081387244 -0.044983372 -0.05961631 -0.025385948 -0.111101784 -0.07373551 0.11718638 0.06514137
-0.05713772 -0.03034311 -0.084332906 0.010562457 -0.07524671 -0.024762003 0.01154054 0.12343257
0.071890324 -0.098920085 0.0275272 -0.05723649 0.0052612713 -0.0061158272 0.07135478 -0.0571248
-0.026158456 0.038229126 -0.08854183 0.10913721 0.059566837 -0.078322396 -0.094308004 -0.0039840243
0.061494887 -0.0552607 0.0025514718 0.08309672 0.0811631 0.05425828 -0.07097276 -0.050046943
-0.07100548 -0.025160305 -0.10008612 0.04706926 0.019874327 -0.03343678 0.07253451 0.017203545
0.02787253 -0.022106478 -0.10686797 0.063940816 -0.026293838 0.03102999 -0.028527327 -0.12295893
-0.08766194 0.021156898 -0.038405113 0.0153313065 0.017083025 0.03736476 -0.017766252 -0.10555532
0.0023831048 0.101145744 -0.003926789 -0.06452585 -0.0788314 -0.034638736 0.04708737 -0.07322411
-0.113650955 -0.038706772 -0.1384708 -0.06063518 -0.1144866 0.0666933 -0.08046813 0.014694242
0.007316153 0.08244041 0.030320387 0.057803076 0.11087085 0.06250349 -0.024341136 -0.045562875
0.07574136 -0.043956533 -0.0028700333 -0.0021980647 0.08305394 0.016920377 -0.120828465 0.01561368
0.01967608 -0.082451954 -0.021956278 0.05995627 0.0079144295 -0.06566726 0.07837899 -0.094461314
0.01387545 0.031492 0.08255275 -0.063098356 -0.13642226 0.035292722 -0.066057384 -0.14222352
0.01765078 0.09446884 -0.021160992 0.09380143 -0.021362053 -0.05077456 0.12309718 -0.014370066
-0.06261635 0.093733296 0.00044346318 -0.0835812 0.11307023 -0.033388723 -0.038726687 -0.0053356714

net.convblock2.0.bias f4 [16]
00000000: 43db 68bd b780 79bd 0712 7dbd 5bf5 613d
00000010: c71a 97bd 478c aa3d c8fc ebbd e726 24bc
00000020: c8b3 2bbd d3f7 c0bc 194e 8c3d 810e e63c
00000030: 7ea2 32bc 7f3e b33c 0700 213c 7e3d dbbc
-0.05684973 -0.060913768 -0.06178477 0.05516563 -0.07378154 0.08327537 -0.115228236 -0.010019041
-0.0419195 -0.023555672 0.068508334 0.028083088 -0.010902999 0.021880386 0.009826667 -0.02676272

net.convblock2.2.weight f4 [16]
00000000: 2703 853f ed55 893f 4967 7b3f 3767 823f
00000010: 9d95 873f e430 743f 4a1f 823f c445 803f
00000020: b8f2 813f 9e71 733f c4f6 783f 52b0 813f
00000030: d619 803f 870b 7a3f 187f 883f 0f3c 893f
1.0391587 1.0729347 0.98204476 1.0187749 1.0592533 0.953871 1.0165799 1.0021291
1.0152197 0.9509524 0.97251534 1.0131934 1.0007885 0.9767384 1.0663786 1.0721453

net.convblock2.2.bias f4 [16]
00000000: 48a0 2dbd 5711 9ebd 147c bf3c d773 08bd
00000010: cc71 75bd d794 563b ba17 11bd 7936 57bd
00000020: 7592 c3bc 66c2 babb 4149 43bd 1aa7 9fbd
00000030: b493 02bd f88a 223d b090 37bd 8565 47bd
-0.042389184 -0.07718151 0.023374595 -0.0333136 -0.05992298 0.0032742524 -0.035423018 -0.052542184
-0.023873547 -0.0056994436 -0.047677282 -0.07795544 -0.031879142 0.039683312 -0.04481572 -0.0486808

net.convblock3.0.weight f4 [8, 16, 1, 1]
00000000: 09ff 8dbe 8210 f3bc a094 ccbd 8634 6f3d
00000010: 09f0 bb3d 2b61 98bd c738 533e b658 7d3d
00000020: 7d3a 943e 7326 55be 4b68 e03d ace1 653d
00000030: 1a4b 74be d7f3 ecbb 7ce7 10be af00 8d3e
00000040: be95 8abe ce7a 9dbd eb16 43be c017 1fbe
00000050: a8dd aebd 0f59 333e ba6d 5b3e e81e 863e
00000060: bcf1 16be f580 35be 04c2 4e3e 540b e7bd
00000070: b857 913e a703 573e 2e8e 58be b7b5 79be
00000080: 4143 63bc c3e6 52bd 2a0f 34be d183 a4bc
00000090: 5d88 71be a920 a2bc 6add adbd 2ed3 853e
000000a0: f14e 22be 393f 1c3e 57b2 90bd 08cc 38be
000000b0: 0753 c23c 55bd 6fbd 7d74 2dbe 8954 39be
000000c0: 1226 b13d 955d 6c3d 20e0 2e3e dde0 1abd
000000d0: 187f 69be f40a e5bd 3258 1bbe 3e2a 59be
000000e0: 356e 6cbe eab6 86be 3111 363e bb92 e43b
000000f0: 7e6e f83d 85af 283d 2144 65bb 06d1 1bbc
00000100: 3fe8 853d 360f 7cbe 0cc9 2a3e 7482 103e
00000110: 9335 6cbe 5478 0bbe 2f68 78be a6bc d1bd
00000120: 380e b73d f2b4 503e 8433 3abe 1865 cbbd
00000130: 39da 1f3e 5690 0ebe cc6a 5abe 41e1 823e
00000140: 47f8 343d 89ad 54be 70a7 733e b31d 57bd
00000150: cf81 23bd 490a 693e 0257 acbd c303 fdbd
00000160: fd93 a53c 556b fabd 44a4 45bd 59f5 10be
00000170: e562 48be f4c7 653e c8ab 1a3e 6ef5 3ebe
00000180: 19c4 0b3c 4cd5 373e a27a 71be 82e5 8ebe
00000190: 1f57 9a3d dbb7 06be 21f9 a13c 778a 81bd
000001a0: 4468 4ebe 9ab6 90bc 561c e8bb 02d4 fd3d
000001b0: 1cc1 4abc 43b8 953d 23ad 72be 2155 85bc
000001c0: 9cdf 193d 76e4 06be 9907 633e d513 04bd
000001d0: 5837 52be 5b8c 6d3e 1a9c 5ebe ade4 17bd
000001e0: b212 f5bd fdf4 1c3e 277b 5ebe 0fab 52be
000001f0: d59d e2bd 3a6d 833d f688 1c3d ba36 7ebe
-0.2773364 -0.029670957 -0.099892855 0.0583997 0.091766424 -0.07440408 0.20627128 0.06185218
0.28950873 -0.20815448 0.10957392 0.05612342 -0.23856774 -0.0072312164 -0.14150804 0.27539584
-0.2706737 -0.07689439 -0.19051711 -0.15536404 -0.08538371 0.17514442 0.21428576 0.26195455
-0.14740652 -0.17724974 0.20191199 -0.112814575 0.28387237 0.20997487 -0.21147987 -0.24385725
-0.013871015 -0.051489603 -0.1758391 -0.020082386 -0.23587175 -0.019790964 -0.08489497 0.2613768
-0.15850426 0.15258493 -0.070652656 -0.18046582 0.023721231 -0.05853017 -0.16938968 -0.18098654
0.086498395 0.057706434 0.17077684 -0.037812103 -0.22802389 -0.1118373 -0.15170363 -0.2120752
-0.23088916 -0.26311427 0.17779996 0.0069754994 0.1213045 0.041183013 -0.0034983235 -0.009510284
0.06538438 -0.24615178 0.16678256 0.14112264 -0.23067312 -0.1362012 -0.24258493 -0.1024106
0.08938259 0.20381525 -0.18183714 -0.099313915 0.15610589 -0.13922247 -0.21329802 0.2556248
0.04418209 -0.20769323 0.23794341 -0.052518558 -0.039918717 0.2275783 -0.08415033 -0.12354233
0.020212168 -0.12227503 -0.04825236 -0.14156093 -0.19568975 0.22439557 0.15104592 -0.18648311
0.00853064 0.1795246 -0.23581937 -0.27909476 0.07536148 -0.13156073 0.019772114 -0.06325238
-0.20156962 -0.017665196 -0.007083456 0.12393953 -0.012375142 0.07310536 -0.23698859 -0.016275944
0.037566766 -0.13173088 0.22170867 -0.032245476 -0.20528924 0.23198073 -0.21739236 -0.037083317
-0.119664565 0.1532783 -0.21726666 -0.20573066 -0.1106526 0.06417318 0.038216554 -0.24825564

net.convblock3.0.bias f4 [8]
00000000: bfa4 133e ae1b 24bd 96cd 59be e297 723e
00000010: 3aef 823d f100 643d 208f b8bb fc37 793e
0.14418314 -0.04006546 -0.21269831 0.23690751 0.06393285 0.05566496 -0.005632296 0.24337763

net.convblock3.2.weight f4 [8]
00000000: 8573 833f 39a8 713f f646 783f 4c18 803f
00000010: 5f63 823f 579a 873f 69a3 7a3f b8a5 7d3f
1.0269629 0.9439731 0.9698328 1.0007415 1.0186576 1.0593976 0.97905594 0.9908099

net.convblock3.2.bias f4 [8]
00000000: 5cef de3a 7a4c 5a3c 1b23 8fbb f65d 80bc
00000010: 14d2 173d 3b30 32bd fe6d da3c 8163 d43b
0.001700859 0.0133238975 -0.0043681986 -0.015669804 0.03706558 -0.043503027 0.026663776 0.0064815884

net.convblock4.0.weight f4 [16, 8, 3, 3]
00000000: 5498 90bd 0fb9 5cbd c722 973d 9704 77bd
00000010: 42a3 9bbd 149e b43d 3684 043c c608 dc3a
00000020: 76de bd3d 5bf3 833c c2d3 7d3d 2304 aabd
00000030: 79f4 b5bc ff8b 153d 2b1a e7bc be85 043e
00000040: 8008 7abd 7711 edbd e183 ac3d d0ad 4dbc
00000050: 4aab 1abd fd69 4bbc d08d e43d 41ce 1dbc
00000060: 58b0 e13d c043 6a3d 4c32 d33d fdfa f83c
00000070: be18 f1bc 4a76 adbd 2ab3 dd3d a17f 74bd
00000080: 7c79 e53b 9ca1 83bc 99d7 8a3c 4250 92bc
00000090: e078 ff3b acbf fcbd ff47 7b3c fa63 25be
000000a0: deb7 cebd bd6a f6bd b76a 02bd fddc acbc
000000b0: e159 e1bc bc50 73bc c910 903d 762b 91bd
000000c0: 4232 8a3d fc1d 32bc a75c 08bd b43c ee3d
000000d0: 5e08 cabd 3c07 79bd a77b 02be 7dd8 c7bc
000000e0: 3974 c53c a1ec 6a3d 37ba d3bd 64f2 0a3e
000000f0: 6d54 c53d 046d 83bd b320 9c3d 537c a43c
00000100: 7498 32bd 8263 883b 64c7 a33d b140 03bd
00000110: 3752 183d 3fad 233d 6a92 123d 1f9b c4bd
00000120: bb9d 1f3c 3f8a 903d dc47 b13d bbe1 a53d
00000130: 33b4 ffbc 395e e0bd 9e67 023d 2de1 f13c
00000140: 8db5 f5bc dfa4 3b3d 2d65 ecbd c1c3 793d
00000150: 287b 0fbc c383 cd3d 5d83 9f3d 6436 393c
00000160: a16f cebd 91d6 c7bd 81c9 bbbd 0489 11be
00000170: 0610 843d 45ca 6abd f5b4 373d 820d 07bc
00000180: 1af5 8e3d 247b 243d df58 93bd 92d9 813d
00000190: 4fb6 ad3c 9f08 09bd 3a27 a13d d38e a3bc
000001a0: e6d6 17bd de28 633d 0e3a a239 e9c4 d5bc
000001b0: 7532 7f3d bc22 3d3d 028b 0fbd 9d18 0a3d
000001c0: 44f6 5ebd 3145 acbd d357 c13d a1e6 adbb
000001d0: e112 853d dbd5 12bd 8ee4 05bd ad23 a73d
000001e0: b8a1 96bc 85c2 ed3b 12a9 9d3d 0a80 1fbb
000001f0: aaf4 fabd 6c7b 08be b190 ee3d 0d69 a93b
00000200: 114d 86bd c251 ed3d fc0c acbd 8e3c 85bd
00000210: f98a 1c3c 5d94 b4bd 73c3 93bc 6d6e a3bc
00000220: 5754 3bbb 9763 9fbd d034 8a3d 6211 b9bc
00000230: fe75 f63d 041b 5d3d c2b0 57bd 727c b43b
00000240: 8f02 9bbd 35bd ec3d 4117 ffbb 3403 103d
00000250: ca28 003e baf6 72bd 9456 5fbd 0e43 373d
00000260: d6d6 e0bd a80b 0cbb 8511 0ebd 2eae bebc
00000270: f2e4 823d 33e4 f03c 0d6e df3c 615e 9e3d
00000280: 8919 02bc 3c03 d1bd 87ce 553c 658a e8bb
00000290: 72f7 c0bd 7876 153d dd51 423a 86ba 50bd
000002a0: a4b4 80bd 2692 ebbc 25e3 9b3d 829a db3d
000002b0: d4a1 cebc 3803 fb3d 0878 cabd 36d3 90bc
000002c0: 058f fe3d 617f 5f3d a22e 2a3d 9462 3ebd
000002d0: d562 8ebd fea8 993d 925d 38bd 2ff0 42bd
000002e0: 53ad f73c 656b 8b3c 59d6 6d3d 69cb c23d
000002f0: 210d f33d e66c 7c3d 522c e7bd 1a55 9ebd
00000300: c1a3 573c bb76 86bd 766c 9e3d 9339 ecbc
00000310: 917b 43bd e578 9ebb 10f9 48bd 7814 283d
00000320: 36a6 af3c 66fb 8cbd a473 b03d 3e14 d0bc
00000330: fad5 ba3d 6519 e93d 2a8c 0a3d 872b e63d
00000340: 4c8e c53c 9b9e 983d 59b5 013e 250a adbd
00000350: 9286 89bd bdcf 83bd 10f9 5b3d 86ea d73d
00000360: e679 b03c 2ecf f0bd b9c9 df3d cdab e43b
00000370: c60c 90ba 95c9 2abd ffb2 0a3d 3463 783b
00000380: 5954 1d3e e23f 16be 354b 933b 7bd4 813d
00000390: 4a05 c3bd 270c 42bd 44e6 5c3d 446d a1bc
000003a0: 7292 8ebd 85a3 f33c f021 8cbd 50f2 25bc
000003b0: 7c36 c9bd c054 9d3d b2ed 96bc 45e2 b6bd
000003c0: bc77 df3d 4765 d1bc 00e9 993d aa30 303b
000003d0: 791f 983d c9e9 e53d 1110 c1bc 199b 93bc
000003e0: 91a9 b9bd 67a4 7c3d 7c15 dbbd 489d 553d
000003f0: 9a9b 9cbd 7d6e 19bd 02b1 a7bc dd25 90bd
-0.07060304 -0.053887423 0.0737968 -0.06030711 -0.07599498 0.088192135 0.008088162 0.0016787283
0.09270947 0.016107252 0.061969526 -0.0830157 -0.0222113 0.036510464 -0.02821072 0.12941644
-0.061043262 -0.11575597 0.084235914 -0.012553647 -0.03776101 -0.012415406 0.11159861 -0.009631694
0.11019963 0.057193518 0.10312328 0.030393118 -0.029430743 -0.084698275 0.108251885 -0.05969203
0.0070030075 -0.016068272 0.016948508 -0.017860536 0.007796392 -0.12341246 0.015336989 -0.1615142
-0.10093664 -0.120320775 -0.031840052 -0.02110147 -0.027508678 -0.014850792 0.070344515 -0.07088368
0.06747867 -0.010871407 -0.033291485 0.11632672 -0.09864877 -0.060797915 -0.12742482 -0.024395222
0.02410327 0.057354573 -0.10338252 0.13569027 0.096352436 -0.064172775 0.076234244 0.020078814
-0.043602422 0.004162253 0.07997015 -0.032044116 0.03718778 0.039960142 0.035784163 -0.095998995
0.009742196 0.07057618 0.08656284 0.08099695 -0.031213855 -0.109554715 0.0318371 0.029526317
-0.029993797 0.04581153 -0.11542735 0.0609777 -0.00875739 0.10034897 0.077887274 0.011304472
-0.10079885 -0.09757722 -0.09169293 -0.14212424 0.06448369 -0.057321806 0.04485031 -0.008242967
0.06980343 0.0401565 -0.07194685 0.06340326 0.021205096 -0.033455487 0.0786881 -0.019965565
-0.037070177 0.055458896 0.00030942302 -0.02609487 0.06230398 0.046175703 -0.035044678 0.03371488
-0.054434076 -0.08411635 0.09440579 -0.005307034 0.064977415 -0.03584848 -0.03268867 0.081611015
-0.01838766 0.0072558546 0.07698263 -0.0024337792 -0.12253697 -0.13328332 0.116486914 0.0051699937
-0.06557668 0.1158786 -0.08400914 -0.065056905 0.009554618 -0.088173606 -0.018037533 -0.019950116
-0.0028584206 -0.07782667 0.067483544 -0.022591297 0.12034224 0.053980842 -0.052658804 0.005507999
-0.075688474 0.11559526 -0.0077847545 0.035159305 0.1251556 -0.059317328 -0.054525927 0.044741683
-0.10978477 -0.0021369252 -0.034684677 -0.023276415 0.06391324 0.029405689 0.027274156 0.07732845
-0.007940658 -0.10205695 0.013049728 -0.007096576 -0.094221964 0.036489934 0.0007412711 -0.050959133
-0.062844545 -0.028756212 0.07611684 0.107228294 -0.02522365 0.12256473 -0.098861754 -0.017678838
0.124296226 0.054564837 0.04154838 -0.04648073 -0.069524445 0.07502936 -0.04501111 -0.04759234
0.030234015 0.017018983 0.058065746 0.09511454 0.118677385 0.06162729 -0.1128775 -0.077310756
0.013161601 -0.06565615 0.07735531 -0.028836047 -0.047725264 -0.004836189 -0.04906565 0.041035146
0.02144156 -0.06883888 0.08615807 -0.025400277 0.09122844 0.11381797 0.033825077 0.11238771
0.024115704 0.074521266 0.12666835 -0.084492005 -0.067151204 -0.06436107 0.05370432 0.10542779
0.0215425 -0.117582664 0.109271474 0.006978488 -0.0010990135 -0.04169615 0.03386211 0.0037900927
0.15364207 -0.14672807 0.0044950494 0.063393556 -0.09522493 -0.04737487 0.053930536 -0.019705422
-0.06961526 0.029741058 -0.068424106 -0.010128573 -0.09824845 0.076821804 -0.018423889 -0.08929876
0.109115094 -0.025560988 0.07515144 0.0026884475 0.07427878 0.112262316 -0.023567231 -0.018018292
-0.09065545 0.061680224 -0.10697457 0.05215195 -0.07646866 -0.037458885 -0.020470146 -0.07038472

net.convblock4.0.bias f4 [16]
00000000: ebda 9abb 1434 20bb cadf 34bc aa48 543d
00000010: 695e d9bd 0963 9f3c 8836 d5bc 6e0b 443d
00000020: 2eb7 953d dd69 b73d 405d 733d f06a 993c
00000030: a9a6 c63b fe73 d93d a02a 46bd 26d6 003d
-0.004725804 -0.0024445103 -0.011039684 0.05182711 -0.106137104 0.019456403 -0.02602698 0.047862463
0.073103294 0.08955739 0.059415102 0.01872775 0.006062348 0.10617827 -0.048380494 0.031454228

net.convblock4.2.weight f4 [16]
00000000: 430f 713f 3503 763f d2e6 7c3f b896 7c3f
00000010: 4fd0 7b3f bc57 803f 3df6 883f eab2 813f
00000020: 9d03 853f 11f9 893f ce7f 813f 463c 803f
00000030: 5989 7c3f 7c98 7d3f ccb1 833f baa8 803f
0.9416391 0.96098644 0.98789704 0.9866748 0.9836473 1.0026774 1.0700146 1.0132725
1.0391728 1.0779134 1.0117128 1.0018394 0.98647076 0.990608 1.0288634 1.0051491

net.convblock4.2.bias f4 [16]
00000000: 9d17 c53b faaa b33c 317f c13c 1bc5 983c
00000010: 701b 49bc e19e 3dbb debe e7bc 37dd 9c3a
00000020: 1ff1 de3c cfad 9ebc ee6c 2d3a 6691 debc
00000030: a1e9 8e3c 6cb8 8dbb 1102 edba 6cf1 4abd
0.006014778 0.021932114 0.02362022 0.018648675 -0.012274608 -0.002893381 -0.028289255 0.0011967783
0.027214585 -0.019369988 0.0006615658 -0.02716894 0.017445387 -0.0043249633 -0.0018082281 -0.049546644

net.convblock5.0.weight f4 [16, 16, 3, 3]
00000000: ecd2 60bb b3f8 0abc 9fec 8cbd e0d8 b83d
00000010: ec4c c63b 0f87 0ebd 1d1b 313d ba00 f0bc
00000020: 1fe2 c2bd d98d a23c e79e eebb 807a a4bd
00000030: 0c8e 523d 6daa 34bd 2db9 303d 0348 6c3b
00000040: 373c e0bd 914a b23c 8f64 933d c2c3 7f3c
00000050: fef3 b33c bd0a 0bbc 0c8f d93c 6a8e 06bd
00000060: 1ec9 0b3d aa29 afba 3daa 1cbe 4b8f c8bd
00000070: 3ce2 b4bc 5832 083c 9a97 d5bd 981f 8b3d
00000080: 73f7 8c3d fe32 b1bc c5db 6cbc 7d04 9f3d
00000090: 625b c73c c37e 1fbd 040a 1abd cada b2b9
000000a0: 179c 25bd ff2a 5b3d 06d9 aabc 7b51 4e3d
000000b0: a289 153c cde0 823c 7c54 90bd bc20 ad3c
000000c0: 5f47 a33c b5b7 71bd bacc 7cbd 560e 8abd
000000d0: 138d 0dbd b413 6cbc ced1 3c3d d26e 683c
000000e0: 0cbe e3bc d0cd 633d 67c9 a73d 89f6 8e3d
000000f0: 7eff 2dbd e50f 89bc a2a2 0b3c d5b2 593b
00000100: 6583 9cbc be7b e1bc d719 833d 5c2d 7fbc
00000110: c954 dcbb 3516 e03c 3ebe 853d 996c 443d
00000120: 9281 bdbd 3e09 7dbd ba16 82ba 5e1a cabd
00000130: 6f76 c1bc 9714 42bd 04b0 723d 9737 63bd
00000140: edba 8f3d 87f7 ff3c 889f ec3c f55a 2cbd
00000150: be37 b03b 7d4e d0bb 81ab 55bd 5039 983d
00000160: f176 893c 8ad2 bebd f846 4ebd a543 1cbd
00000170: 4f41 d23c 738d 693d e3af 38bc b7c7 74bc
00000180: aad4 e23c 34db a3bc 7cfc 173d edce d13c
00000190: 0c10 b7bc b3f1 01bd a491 d93c 2ddc e03c
000001a0: d848 58bb ac1a e83d a9dc 63bd a6ff 9bbb
000001b0: e4e2 c83d ebc1 e2bc 9485 69bd 109f e6bb
000001c0: 5263 05be 9496 04bd ce00 92bd 5672 04bd
000001d0: 06d9 15bd bfe7 113c 82dc 59bd 2802 073d
000001e0: 0d97 9c3c 0031 22bc cbb4 d83c 26f9 35bd
000001f0: 71bd 9bbd c5b2 92bd 78a7 fabc 8473 3ebd
00000200: eb63 59bd d18f 883d ce64 ef3c 5aee d8bc
00000210: 34d1 0abd d7dd 993d 87c4 b33d 9d0d 873d
00000220: 3f3f e23c dd96 ffbd facd bf3b 38d5 5cbd
00000230: 22ce 24bd aa66 9fbb 8ce1 e43c 679d 173d
00000240: d5cf b5bd d724 2f3d ecfc 4bbb 959e f83c
00000250: 6dd0 4d3d d7ca 753d 18db e7bc 9c3c a7bb
00000260: c8fb 813d bd81 be3b e3b2 983b cbbb 453d
00000270: 813e 5bbd b3d9 803c 5118 5abd 9ddf 0e3c
00000280: fbe5 8abd 4628 963d 8204 823d 5971 05bd
00000290: 0c46 a13d 2d17 f8bc ff39 e2bc c93e dc3b
000002a0: c976 7fbc edb7 593d f320 813d bfed c5bd
000002b0: 93a0 06bd 6f05 f1bc fb78 0bbc 9aa6 303d
000002c0: 636c 21bc dd2e febc 81b4 b83c 244e 78bc
000002d0: 3435 823d 5abb d2bc 9d59 653d 553c 0d3d
000002e0: cf22 863c 79ea a33b 23f1 0abc e890 fbbc
000002f0: b77f cd3c 41e5 7f3c 956c ee3c f6ed b6bb
00000300: 139a 2b3c 7b96 193d 89cb 473c e0f7 a9bd
00000310: c805 b739 a04c 433d 0a18 23bc ea44 bbbd
00000320: 15ab 33bd 25ad 20bd 2bd1 143d 1de2 31bd
00000330: d173 093c c3e6 12bd e5c5 ccbc d96c 8f3c
00000340: 9dc3 ffbc 7fa2 5abb 03b2 113d d8d4 3fbc
00000350: ba0a 02be 1041 98bc 2384 69bd 0378 44bd
00000360: 0348 11bd 7611 1b39 e86a 92bd aeea 483d
00000370: 6eb0 19bd 85ac 76bd 11f1 97bc 68f6 9e3c
00000380: 4b28 c5bb a14a 05bd fab5 97ba d0f3 973d
00000390: 8e28 e7bd 2956 e5bc 93bf c3bc 3c6d 62bc
000003a0: a395 fdbc b71b 583d 62a6 23bd 5558 003d
000003b0: c25a fa3d 3a16 ddbc 3f0e 7bbc c794 e13c
000003c0: 1081 a53d 8447 9abc bcfb e93b 307f 803d
000003d0: 477e 0a3b d28a 1e3d b10a 693d 22c3 873c
000003e0: e023 15bd 1552 0d3d 9ea1 213c f91c 443d
000003f0: 844d 873d c6b7 053d 72db bb3d 1e1d 15bd
-0.0034305407 -0.008482146 -0.068810694 0.090257406 0.0060516503 -0.03479677 0.043238748 -0.029297221
-0.095157854 0.019843029 -0.007282126 -0.080311775 0.051404998 -0.044107843 0.043145347 0.0036053665
-0.10948985 0.021764072 0.071969144 0.015610637 0.02196693 -0.008486447 0.026557468 -0.03285066
0.034127347 -0.0013363857 -0.15299316 -0.09792956 -0.022080533 0.008312784 -0.10429306 0.067931354
0.06883135 -0.02163076 -0.014456694 0.07764528 0.024335567 -0.03893925 -0.037607208 -0.00034113816
-0.040432062 0.0535078 -0.020855438 0.050370675 0.0091270525 0.015976334 -0.07047364 0.021133773
0.019931493 -0.059013087 -0.06171868 -0.067410156 -0.034558367 -0.0144089945 0.046098523 0.014186578
-0.027800582 0.0556162 0.08192711 0.069806166 -0.042479984 -0.016731212 0.008522661 0.0033218164
-0.019105623 -0.027524825 0.06401413 -0.015574779 -0.0067239744 0.02735434 0.065304264 0.04795513
-0.09253229 -0.061776392 -0.0009924986 -0.098683104 -0.023616044 -0.047382917 0.059249893 -0.055472936
0.07018075 0.03124596 0.028884664 -0.04207893 0.0053777387 -0.006357013 -0.052165512 0.074328065
0.016780348 -0.09317501 -0.05036065 -0.03815045 0.025665907 0.057019662 -0.011272403 -0.014940194
0.027689297 -0.020001985 0.037106022 0.025611365 -0.022346519 -0.031724643 0.026558705 0.027448738
-0.0033002403 0.11333212 -0.05563036 -0.0047607003 0.09808901 -0.027680358 -0.057012156 -0.0070380047
-0.13026169 -0.032370165 -0.0712906 -0.0323356 -0.036583923 0.00890535 -0.05318881 0.03296104
0.019114995 -0.009899378 0.026453396 -0.04442706 -0.076044925 -0.07163004 -0.030597433 -0.046496883
-0.053073805 0.06668056 0.029222872 -0.026480842 -0.033890918 0.07513016 0.08777719 0.065943934
0.027618049 -0.12479947 0.0058534117 -0.05391428 -0.040235646 -0.0048645334 0.02793958 0.037015345
-0.088775314 0.042759743 -0.0031126095 0.030349055 0.0502476 0.060007896 -0.028302714 -0.0051036607
0.063468516 0.005813806 0.004659997 0.048274796 -0.053526405 0.015728807 -0.053245846 0.008720306
-0.067821465 0.073319 0.06348516 -0.0325788 0.078746885 -0.030284489 -0.027615545 0.0067213518
-0.015592285 0.05315392 0.06305113 -0.09664487 -0.03286798 -0.029421536 -0.008512731 0.043127634
-0.009852502 -0.031028206 0.022547008 -0.015155349 0.06357804 -0.025724102 0.055993665 0.034481365
0.01637402 0.0050023166 -0.008480343 -0.030708745 0.025085313 0.015618623 0.02910451 -0.0055825664
0.010473746 0.037497025 0.012194523 -0.082992315 0.00034908787 0.047680497 -0.009954462 -0.09144004
-0.04386433 -0.039227623 0.03633229 -0.04342853 0.008389429 -0.035864603 -0.024996707 0.017507957
-0.031221205 -0.0033361015 0.035570156 -0.011708461 -0.12699404 -0.018585712 -0.05701078 -0.047966015
-0.035469066 0.00014788457 -0.07149297 0.049051933 -0.037521772 -0.06022312 -0.018547567 0.019404605
-0.006016766 -0.032541875 -0.0011574619 0.074195504 -0.11287032 -0.027995186 -0.02389506 -0.013819989
-0.030955141 0.052760806 -0.039953597 0.03133424 0.12224342 -0.026988138 -0.015323221 0.027536763
0.08081257 -0.01883293 0.007140605 0.06274259 0.0021132396 0.038706608 0.05689496 0.016572539
-0.036411166 0.034502108 0.009865193 0.047879193 0.06606582 0.032645963 0.09172715 -0.03640472

net.convblock5.0.bias f4 [16]
00000000: 1dd4 99bd cc0d 453c 70fa b4bb 9cd9 403c
00000010: 2bd5 63bc ca7c 2ebd 9b46 793d 6aa7 90bd
00000020: 92bb 19bd d26f 4d3d 14f9 693d ad58 85bd
00000030: de59 0bbd 7dc5 913d 013e afbc d81e 143a
-0.075111605 0.012027215 -0.0055230185 0.011770632 -0.013905804 -0.042599477 0.06085835 -0.07063182
-0.037532397 0.05015547 0.057122305 -0.06511054 -0.03402125 0.07117746 -0.02139187 0.0005650348

net.convblock5.2.weight f4 [16]
00000000: d421 773f 42ae 723f 79a1 833f cb7c 793f
00000010: d3aa 843f f0fe 833f 8c9c 813f 8ee2 803f
00000020: e1a1 7d3f f3b1 813f 9993 843f 2846 823f
00000030: dbde 823f 43b3 803f 9e56 7f3f 8ca7 783f
0.9653599 0.94797146 1.0283653 0.97456044 1.0364631 1.0312176 1.0125899 1.0069139
0.9907513 1.0132431 1.0357543 1.017766 1.022426 1.0054706 0.9974154 0.97130656

net.convblock5.2.bias f4 [16]
00000000: 5b60 3a3d 2ead 9b3b accb 3fbd 4f6a 5a3c
00000010: e143 a4bb 07eb 05bd 6c8c 653b 877f 85bc
00000020: ec94 4ebc f1e8 f5bb 7315 a0bc 3820 ddba
00000030: 6632 a9bd 723e 3a3b 312f 36bc bdbd 6abc
0.045502048 0.0047508692 -0.046825096 0.01333101 -0.0050129746 -0.032694843 0.0035026325 -0.016296161
-0.012608748 -0.0075045754 -0.019541478 -0.0016870564 -0.08261566 0.0028418568 -0.01111965 -0.014327464

net.convblock6.0.weight f4 [16, 16, 3, 3]
00000000: 85e7 6a3d e8f0 c93c 23dc d53d 242c 3cbd
00000010: d08d d5bb 5611 cb3c 86ab a5bc 680f 103a
00000020: 684d d5bd 3381 ac3c 93b6 72bd e3de b5bd
00000030: a652 643d 8fa7 51bd d237 24bd f125 d23c
00000040: 71cb 1c3d c61e a4bb b3ef 073d b2fa 473b
00000050: b8ca 43bc dfde fbba cbe6 92bd 181e f53d
00000060: a3a9 7d3d 62d7 d93c b2e2 eb3d 30d3 c13c
00000070: a015 3dbd bfa5 5e3d 7ba0 46bc d208 81bd
00000080: 7fd1 c73a ea04 513d 08b3 8b3c 6a39 61bc
00000090: bae4 da3c 5422 2f3d ae9f 56bd a78b 0b3c
000000a0: 19f7 1dbd 4b04 dabd f53a 5cbd 9414 4d3d
000000b0: c39a e3bd 4b3a 7bbd af5c 48bd 213f 05bd
000000c0: 64ab 90bd 3e31 9c3c bd5c 623c 0844 893d
000000d0: 76ef 8c3c 38fb cebc 5726 613d 4dca f53c
000000e0: d208 a73c 3a0e 60bb 0a87 60bd b801 c23c
000000f0: 887b 28bc cd52 da3c cd0d ca3c 7bde 22bd
00000100: 685a 81bc 075e 55bc ded5 8dbd d1e2 bf3c
00000110: 57a3 31bd 7995 a6bd dea1 ff3c 8073 713c
00000120: 6de1 bcbd 0312 bdbd 78d9 1abd 8c0e 25bd
00000130: c3ba 353d 613e 92bc 2170 30bd bcfa 883d
00000140: 0fd7 893b f4cc a13c d7db 973b 791e 843c
00000150: 59e9 96bb 8b70 00bd eefe b53d dc94 ccbc
00000160: 281f 43bc a5bc 533d fa84 a43c 6967 91bb
00000170: 3b20 c63b 724c 31bd bd68 8abd 8a37 883c
00000180: bba5 38bd 3de7 923b 8fc2 9f3c 6d42 de3c
00000190: 16d0 413d 9d43 8ebb e124 793d e26c 2dbc
000001a0: 604b 6abd 0dca 063d 0493 47bd 137e 3bbd
000001b0: add7 95bd da70 e8bc 6ecd ce3d 4d85 96bc
000001c0: 9036 b6bd 7830 4e3d 784c c63c c947 2abd
000001d0: ebeb ad3d 2e60 06bd 5f9e 00bc 68b7 5fbd
000001e0: b37b a43b 4d20 c83c be7b 1a3c 94a2 563c
000001f0: c5ba a0bd c743 7bbd 6d5b 5dbd 9cc9 83bd
00000200: c57f 693c 19fe 73bd b351 94bd a0e9 833d
00000210: bf95 e8bd 5b6f 30bd 9607 5e3c c295 8abd
00000220: 18bd a7bd 8e2c ba3c 9ebd 88bc b4e3 c63c
00000230: 590e 313d 4d26 bf3c 33a8 05bd 96ec 3a3c
00000240: 018c fd3c 7146 3f3d 227c c7bb e6fb acbd
00000250: f35f 2dbd a1c8 cf3c e9b1 51bd c311 02bd
00000260: d177 a1bd 5db5 3a3d c985 443c c856 ad3d
00000270: 8372 3ebc 7f7a f9bc a05a 6cbd 92bc b9bd
00000280: 5965 22bd bd81 aa3b bdab c8bd 1667 a0bc
00000290: fc61 a33d eb99 1fbd a015 e43b 08ff b03c
000002a0: 6845 01bd 3c29 10bd 1730 0abe b2c8 52bb
000002b0: 5a30 a73c 8159 fd3c c5c1 acbd b17c bcbd
000002c0: 3ac8 a9ba f1aa 6cbd 508c 01bd 62ca 8d3b
000002d0: 818d 873d 038f bcba 7824 7f3d 5294 8fbd
000002e0: 4a53 be3d 43c6 3bbd 92ba 8bbc f89c 9dbd
000002f0: 963f 323d a93d 873d ee0d 47bc 7b6c ad3c
00000300: 2e3a 2c3d 5d65 68bd 65c1 caba 967e 18bd
00000310: 1a6d 8d3c 39f6 b5bb 4d5a 3dbd 0b99 e1bd
00000320: b7f3 0fbe bb95 e53c af83 8e3d f962 c83c
00000330: 0e0e bd3c d785 953c ae93 64bb 1900 0a3d
00000340: 2824 5abd 9d3a 7fbc 6781 32bd e938 fbbb
00000350: 61fc 083d f6fd bd3c 8574 8e3c ebbc 61bd
00000360: 9eb1 9d3d a51a 873d 0952 b4bd 6ca6 58bd
00000370: 2e4c 9bbd 0914 133d a638 d43c b748 1abc
00000380: f524 98bc 5806 16bd ea7e 1f3c 59dc 65bb
00000390: 0955 11bd 1707 ab3c bcb2 97bc 84c1 3a3d
000003a0: 7d90 4ebd c55b 323d bcd0 413c 9138 b23d
000003b0: 5311 a63b 568c b1bb 70f9 67bd 551e 6bbc
000003c0: 0808 cabd 6798 cebd 869a d0bc 6b1a 833d
000003d0: e86c 643c c2d7 b5bd 49ad c13d aef9 bdbc
000003e0: c375 4a3d 8a03 e93b 58c3 023d cc42 483d
000003f0: f07c b83c 47a3 283d 4543 6bb7 8369 b03c
0.0573497 0.024651006 0.10442378 -0.045940533 -0.0065171495 0.02478854 -0.02022339 0.000549546
-0.10415155 0.0210577 -0.059256148 -0.08880403 0.055742882 -0.051185187 -0.040092297 0.025652857
0.038279954 -0.0050085513 0.03318758 0.0030514416 -0.011950187 -0.0019216201 -0.071729265 0.119686306
0.061929356 0.02659196 0.11517848 0.023660272 -0.0461632 0.054357287 -0.012123222 -0.063005105
0.001524493 0.051030077 0.017053142 -0.013746599 0.026720393 0.042757347 -0.052398376 0.008517182
-0.03856573 -0.1064535 -0.053767163 0.050068453 -0.11113503 -0.06133489 -0.048916515 -0.032530908
-0.0706394 0.01906645 0.013816056 0.06702429 0.017204028 -0.025266275 0.054968204 0.030003691
0.020389948 -0.0034188167 -0.054816283 0.02368246 -0.010283358 0.02665081 0.024664784 -0.039762955
-0.01579018 -0.013022906 -0.069255576 0.023423584 -0.043368664 -0.081339784 0.031205114 0.01473701
-0.09222684 -0.09231951 -0.03780505 -0.040297076 0.044367563 -0.01785201 -0.043075684 0.06688449
0.004206545 0.01975105 0.0046343612 0.016127812 -0.004605454 -0.03135733 0.088865146 -0.024973325
-0.011909284 0.051693577 0.02008294 -0.0044373763 0.0060463226 -0.043285795 -0.067582585 0.016628046
-0.045079928 0.004483132 0.019501952 0.027131284 0.047317587 -0.004341556 0.060826186 -0.010585042
-0.05720079 0.032907534 -0.04872419 -0.04577453 -0.073165275 -0.028374124 0.10097776 -0.01837411
-0.08897126 0.050339192 0.024206385 -0.041572366 0.084922634 -0.032806568 -0.007850259 -0.05461827
0.005019629 0.024429465 0.0094289165 0.013100285 -0.078481235 -0.061343934 -0.05404227 -0.06434938
0.014251654 -0.0595685 -0.072421454 0.06441045 -0.11356687 -0.043074947 0.013551613 -0.06766845
-0.08190364 0.022726323 -0.016691979 0.0242785 0.043226574 0.023333693 -0.03263111 0.011408946
0.030950548 0.046698038 -0.006087796 -0.08446483 -0.042327832 0.025364222 -0.05119506 -0.03175522
-0.07884181 0.045583118 0.0119947875 0.08463818 -0.011623981 -0.030453919 -0.057703614 -0.0906917
-0.039647434 0.0052034543 -0.097983815 -0.019580405 0.079776734 -0.038965147 0.0069605857 0.021605983
-0.03156033 -0.035195574 -0.13494907 -0.003216308 0.020408798 0.030926468 -0.08435396 -0.092034705
-0.0012953349 -0.05778021 -0.031627953 0.0043271044 0.066187866 -0.0014385883 0.06229064 -0.07010712
0.0929323 -0.045843374 -0.017056737 -0.07695955 0.04351767 0.066035576 -0.012149317 0.021169892
0.042047672 -0.056737293 -0.0015469013 -0.037230097 0.017263938 -0.0055530337 -0.046228696 -0.11015519
-0.14057814 0.028025499 0.069587104 0.024461256 0.02307799 0.018252296 -0.0034878063 0.0336915
-0.053257138 -0.015577939 -0.04358044 -0.0076666963 0.033443812 0.023192387 0.017389545 -0.055111807
0.076998934 0.06596879 -0.088047095 -0.052893087 -0.075828895 0.03590778 0.025905918 -0.009416751
-0.01857231 -0.036627144 0.0097348485 -0.0035073964 -0.035481486 0.020877404 -0.018517844 0.045594707
-0.050430764 0.04354455 0.011829551 0.087021954 0.005067983 -0.0054183407 -0.056634367 -0.014350493
-0.09864813 -0.10087662 -0.025464308 0.06401523 0.013941981 -0.08879043 0.0945688 -0.023190346
0.049428713 0.0071110176 0.031924576 0.048891827 0.022520512 0.04117134 -1.4022754e-05 0.021534687

net.convblock6.0.bias f4 [16]
00000000: 67f5 83bd a529 22bd 8218 3ebd ec60 62bc
00000010: e7b9 cc3c 8aad 24bd 8ee7 013d 211d 0c3a
00000020: cb81 afbd e18b d8bd c406 f1bb 6a74 153c
00000030: 6191 753c 9784 bd3c 9263 663d ae77 87bd
-0.06443291 -0.039590497 -0.04641009 -0.013817053 0.024990989 -0.040204562 0.03171497 0.0005344917
-0.08569678 -0.10573555 -0.007355543 0.009121994 0.014988274 0.023134513 0.0562473 -0.06614624

net.convblock6.2.weight f4 [16]
00000000: 954e 803f fa8d 7f3f b5cf 813f 35d2 853f
00000010: 318c 7c3f 37cf 813f e797 803f 63d4 7d3f
00000020: 6953 803f 93bb 7e3f aa36 7b3f bf8c 813f
00000030: c104 6f3f 2b1a 813f 802d 813f 253f 7f3f
1.0023981 0.99826014 1.0141512 1.0454775 0.98651415 1.0141362 1.0046357 0.991522
1.0025455 0.99504966 0.98130286 1.0121077 0.9336663 1.0086111 1.009201 0.99705726

net.convblock6.2.bias f4 [16]
00000000: 9d62 cdbd 6efd e1bd 03cc a4bd 30df 63bd
00000010: 76fb 6abd 6c9a 85bd c4cd 07bd 6694 1dbc
00000020: 5d9a 30bd 1ef3 9cbd 8b2e 2dbd 9f87 b8bc
00000030: 3f3c 87bc 6a40 b3bd 9ed1 19bd 3f05 e9bc
-0.100285746 -0.11034666 -0.08046725 -0.05563277 -0.057368718 -0.06523594 -0.033155218 -0.0096179005
-0.043115962 -0.076635584 -0.042280715 -0.022525607 -0.01650822 -0.087525204 -0.037553422 -0.028444884

net.convblock7.0.weight f4 [8, 16, 1, 1]
00000000: 28a6 9b3d 22dd 453e 0fc1 7b3d e5ae aa3d
00000010: f09f 97bb b2fc 98bd 13ce 4a3e 6a61 96bd
00000020: bb9c f8bd a0db d03d 0d49 46be 54c2 65be
00000030: b0eb 9dbe 7629 74be 0626 20bd 80fe 663e
00000040: 536a fa3d 31fb 263d cc10 08bd 86fc 033e
00000050: 4326 dcbd 4c4f f5bd 902d 91bc 020e b33d
00000060: 72aa 6d3e eaf9 39be 0ec3 033e f808 4d3e
00000070: 66cb 0dbe 1d9d 2f3e ca6a 1d3e e4a8 123e
00000080: 878d 8fbd bdb1 54be f678 06be 1d04 6f3d
00000090: 0fc8 a3bd 9c6c 5f3b 2c40 193e 1039 653e
000000a0: d979 6cbe f67b 28be 1655 b0bd d9e7 5c3e
000000b0: 416d d33d d847 8e3c a372 843e 69ae 8ebe
000000c0: 5425 abbd 5338 523e b620 41be d853 9b3d
000000d0: c658 d13c 5606 d13c e0f2 c3bd 3ae7 44bd
000000e0: dc3a 53bc 4201 783d 5fc1 323e 72be cf3d
000000f0: bcf0 633c 1dd5 803e 393d 90bd d4de 273e
00000100: 2a85 30be 984a 073e 90c6 0139 4b10 97bd
00000110: def2 d93b c09b b6bd 7cb6 c2bd 003d a73e
00000120: 5fb1 b4bd 789e 3bbe cd27 a4bd b878 45be
00000130: 6e13 70be d0df dd3d eecf 61be 1471 32bd
00000140: 831d b0bd 138f b83d b14b 1ebe 83d4 42be
00000150: 85d4 8cbe 57d9 243e 1f1b 79be 1c5e e03d
00000160: 2cad 503e e5da 143e 88ba bc3c 5100 0cbe
00000170: 0a43 7c3d d72e 48be 2fca 9c3d df05 ed3d
00000180: e2f1 87be 732e 8fbc f8b2 583d 2f77 893e
00000190: c78c 343e 5681 71bc fab0 423e 4bb2 e23d
000001a0: cfc3 213e ffd4 4abe f4c9 0bbd 7057 423d
000001b0: b7d9 f43d 28d7 f23d 1c26 ac3b 2084 093e
000001c0: 6ffa 81bc b692 e4bc bb56 8a3d e8d4 e4bd
000001d0: 99aa 313d 578d 2ebe d531 513e 49b9 43be
000001e0: ecc1 15be 48df 1fbe f449 4d3e 67cc e13d
000001f0: fca6 0f3e 53a5 0bbe f86e 6d3e 1192 a6bc
0.07600051 0.19322637 0.061463412 0.0833414 -0.0046272203 -0.07470073 0.19805174 -0.07342799
-0.12139269 0.1019814 -0.19363804 -0.22437412 -0.30843878 -0.23843941 -0.039098762 0.22558022
0.12227311 0.0407669 -0.033219144 0.12889299 -0.10749485 -0.11978015 -0.017721921 0.08742906
0.23209551 -0.18161741 0.12867376 0.20022953 -0.13847122 0.17149778 0.15372768 0.14322239
-0.07009416 -0.20770927 -0.1313208 0.058353532 -0.079971425 0.0034091836 0.14965886 0.22385049
-0.23093356 -0.16453537 -0.08609979 0.21572818 0.10323573 0.017368242 0.2586871 -0.2786744
-0.08356729 0.20529298 -0.18860134 0.07584351 0.025555026 0.025515717 -0.09567809 -0.048072077
-0.012892451 0.060548075 0.17456578 0.101437464 0.013912376 0.25162593 -0.07042927 0.16393596
-0.17238298 0.13212049 0.00012376369 -0.073761545 0.0066512665 -0.08916426 -0.095074624 0.32663727
-0.08822893 -0.1832217 -0.08015404 -0.19284332 -0.23444912 0.108337045 -0.22051975 -0.04356487
-0.08599379 0.09011664 -0.15458561 -0.1902638 -0.2750589 0.16098534 -0.24326752 0.1095545
0.2037856 0.14536627 0.023038164 -0.13671996 0.06158737 -0.19549118 0.07655751 0.115733854
-0.2655173 -0.017478203 0.052905053 0.26848742 0.17631827 -0.014740309 0.19012824 0.11069163
0.15797351 -0.19807814 -0.034128144 0.04744667 0.11955588 0.11857444 0.0052535664 0.13429308
-0.015866486 -0.027901988 0.06754824 -0.11173421 0.043375585 -0.17046104 0.20429166 -0.1911365
-0.14624757 -0.15612519 0.20047742 0.11025315 0.14028543 -0.13637285 0.23186862 -0.020333322

net.convblock7.0.bias f4 [8]
00000000: 0514 adbd 183c 363e 5fc5 f23d c9a1 373e
00000010: 2c47 0e3e a564 d4bd 58a6 233e 0adf 883e
-0.08451084 0.17796361 0.11854052 0.1793281 0.13894337 -0.10370759 0.15981424 0.26732665

net.convblock7.2.weight f4 [8]
00000000: 389f 773f bddf 7c3f 161f 813f 1588 823f
00000010: c11d 693f ca28 7a3f 8ff2 873f 1b2d 773f
0.96727324 0.987789 1.0087612 1.0197779 0.91061026 0.9771849 1.0620898 0.965532

net.convblock7.2.bias f4 [8]
00000000: a03a 563d 7f2a bc3c eb8c f13c 2e37 1ebc
00000010: ed1c f83c 2c6a 213d 52a2 6bbd ba08 353c
0.052302003 0.022969482 0.02948614 -0.009656711 0.03028723 0.039407894 -0.057527848 0.011049444

net.convblock8.0.weight f4 [10, 8, 3, 3]
00000000: 5203 273d 2848 8dbc 25b1 bfbd a78c 4a3d
00000010: 8014 de3b 440f 073c d4d6 933d ec1b 9abd
00000020: a2d0 a3bc ff8e 803c 5008 8ebd 69fe 33bd
00000030: 25b9 a13d 8209 fe3c c10c bd3d 2735 9a3c
00000040: 4d75 35bc 627e cd3d 8f8e febc 3099 203d
00000050: 76c5 b9bc 95de 15bc f96e 57bd c850 de3b
00000060: 0bcf 50bb 842d bd3c d33e 91bc 85d5 973d
00000070: 2541 81bb 9db9 e03d 1860 94bb a6b2 4ebd
00000080: f4d2 f0bc 616e ca3c 6af0 15ba ba7f 5f3d
00000090: 99a9 de3d c4e6 48bd 791a 2abd b3c6 343d
000000a0: 1198 3c3d d218 1b3d e02c 6abd c354 32bd
000000b0: 95f5 e7bd 72ad b5bc 74b9 b23d a0ff 65bd
000000c0: 989a a6bd a116 41bc 674e 813c 8fb6 b4bd
000000d0: ca86 3b3d b10e bd3d 7aeb 8b3d c104 5a3c
000000e0: f95b 033d 69f0 46bc 78b4 8fbd fcb6 123d
000000f0: 865b 993d e9cb a53c e140 f8bc ec5d 2c3d
00000100: 3db5 9ebc b459 7f3d a008 96bc 481f 613c
00000110: 70b3 d8bd 534b 173d e8f0 e53d 2bf5 c03c
00000120: 1484 bf3c 8c30 f2bd 6d86 2abd 82c6 363d
00000130: b5ba 9ebb 398d 283d 715a 2bbd 53d4 b33c
00000140: 8b39 073d b5a6 e5bc 18a6 543d e811 a1bd
00000150: 06cf 9abd a7d1 8e3d cb9c 5ebe c1c6 04bd
00000160: 5301 643c 0074 aabd 872e c13d f21b dbbc
00000170: fc26 85bb 55f2 e03c 7582 c83d af82 cc3c
00000180: c3c8 11be 22fa d9bd 2f73 2dbd c1ae 03be
00000190: 4cfd 08bd 1618 3f3d e390 2fbd 777b a73c
000001a0: ff44 f9bd ec55 c13d fe46 2f3d 7bca 333c
000001b0: 1e42 bbbd 2bc2 163d 29b7 fa3d a47d 6abd
000001c0: 9eba 263d e999 2fbc 3fc0 563d 37c9 253d
000001d0: 81c4 ce3c ff01 afbd 21fa e53c 8561 14bd
000001e0: a9c0 0abe 6922 9bbd aafc 5bbe d284 043c
000001f0: cba9 103e 93a3 a8bd 51a7 e1bd 2214 c7bd
00000200: 29e1 01be fa0b 5fbd d219 5d3c 42b1 48bd
00000210: 71c8 5abd a806 f8bc 9879 a73d 3822 cc3d
00000220: dab2 78bd dd58 1e3d 292e c8bb 75e7 00bd
00000230: ef4d ec3d 7ba5 96bc 0fef a5bd 20a9 b3bd
00000240: 1316 093c 8bcd cd3b cdd5 c3bd 7ac5 e93d
00000250: 05b4 fd3c 295d 123e 2195 f03d 7a18 bbbc
00000260: 82cb 513d 9881 83bc e94d 0e3e caac 67bc
00000270: 077a 0bbe 9c89 8a3d 12b5 43bd 14b5 96bd
00000280: f333 8cbd fc3d 21be 6eed 803d e36d 333c
00000290: 8457 283d b6c6 7e3c 42b8 66bc 6d01 5ebd
000002a0: dd68 1dba 6c6a 84bd 451f c9bd 0dd1 e2bd
000002b0: 6c01 bebd 4d9f aabd df55 fd3c 1678 253c
000002c0: 8154 de3d e93b 913d fb51 cfbc 92b6 bb3d
000002d0: 4c22 66bd 9a08 50bb 02f3 4fbd 698d c5bb
000002e0: 0af3 033e b512 e83d ab44 79bc 123f babc
000002f0: deea 473d c232 4d3d b657 12bd fbf3 4d3d
00000300: 7a36 593d cdd6 d13c 927b e3bd 61ea 893d
00000310: 7f93 883d aa9b 94bb 5b14 eebd 4239 02be
00000320: f7f7 23be 15ec 433d f03a 173b 542a 6cbd
00000330: f215 703d 2453 563d 1049 c63b cea6 2f3d
00000340: d1db 6e3d 7454 763d 744f 55bd 8470 f7bc
00000350: 842f c23d b0a1 bcbd 269d 50bd a16c b33d
00000360: c94c a4bd f0d6 943c 0499 4cbd 8572 113b
00000370: 1393 e43c 89d9 38bd 8fac 183d 9a9f b63d
00000380: 8e45 683d 2215 51bc 9d60 96bd 5de7 16bd
00000390: e415 3e3d 5392 0e3e e5cb 03be ebac 9d3c
000003a0: dd15 bebd d334 49bd 05f3 3f3d 5b62 263d
000003b0: 4e9c babc 174c 173d 39ce 3a3c 752a e8bc
000003c0: bfc9 f3bc 1c66 423c cda3 62bb 32d6 2cbe
000003d0: eb22 8ebd 969d 9fbb 72fd 0ebd 47c6 03bc
000003e0: fdaf a9bd f131 0d3d e040 933d 4202 6cbc
000003f0: 1e8f c4bd cdb6 81bc a82b 8dbd c6c1 0c3d
0.04077465 -0.01724632 -0.093599595 0.049450543 0.006777346 0.008243386 0.072187096 -0.07524857
-0.019996945 0.015693186 -0.06935179 -0.043943796 0.07896642 0.031010393 0.09230948 0.018824173
-0.01107533 0.10033871 -0.031073837 0.03920859 -0.022677165 -0.009147306 -0.052596066 0.006784532
-0.0031861688 0.023092993 -0.017730152 0.074137725 -0.0039445334 0.10972903 -0.004528057 -0.05046334
-0.029397465 0.024710836 -0.00057197234 0.05456517 0.10872192 -0.0490482 -0.041529153 0.044134807
0.04604346 0.037865467 -0.057171702 -0.043537866 -0.11326138 -0.022177432 0.087267786 -0.056151986
-0.08134955 -0.01178518 0.015784455 -0.08823883 0.04578284 0.09231318 0.06832023 0.0133067975
0.032070134 -0.012142279 -0.070168436 0.03581904 0.0748816 0.020238834 -0.030304374 0.04208176
-0.01937353 0.062341407 -0.01831466 0.013740368 -0.105811 0.03693707 0.1122759 0.023554405
0.02337841 -0.11825666 -0.041632105 0.044622906 -0.0048440346 0.041150305 -0.0418343 0.02195183
0.03301386 -0.028033594 0.05191621 -0.078647435 -0.07559018 0.06973582 -0.217395 -0.03241611
0.013916331 -0.083229065 0.094327025 -0.026746724 -0.004063485 0.027459303 0.09790508 0.024964659
-0.14236741 -0.10643412 -0.042346176 -0.12859632 -0.033444688 0.04665383 -0.042862784 0.020444615
-0.12171363 0.094402164 0.042792313 0.010973568 -0.0914347 0.036806267 0.12241966 -0.057248726
0.040705316 -0.010717847 0.052429434 0.040475097 0.025240185 -0.085453026 0.028073372 -0.036225814
-0.13550057 -0.075749226 -0.21483102 0.008088307 0.14127271 -0.08234324 -0.11018241 -0.09720637
-0.12683548 -0.05445478 0.013494926 -0.04899717 -0.053413812 -0.030276611 0.08177489 0.09967464
-0.06071744 0.038658965 -0.0061090183 -0.031470735 0.11538302 -0.018389454 -0.081022374 -0.087724924
0.008367079 0.006280606 -0.09562264 0.11414619 0.030969629 0.1429335 0.11747194 -0.02283882
0.05121947 -0.016053006 0.13896908 -0.014140317 -0.13620768 0.06764528 -0.047780104 -0.07358757
-0.06845846 -0.15746301 0.06295286 0.010951492 0.041099086 0.015550306 -0.014082016 -0.05420058
-0.00060047006 -0.06465611 -0.09820417 -0.110750295 -0.09277615 -0.083311655 0.030924736 0.0100994315
0.108559616 0.07091505 -0.025307646 0.09165682 -0.05618505 -0.0031743408 -0.05076886 -0.0060288203
0.12885681 0.11331693 -0.015214126 -0.022735152 0.04880797 0.050097235 -0.03572818 0.050281506
0.05303047 0.02561512 -0.111075535 0.06734157 0.06668758 -0.004535158 -0.11624976 -0.12717155
-0.1601256 0.047832567 0.00230759 -0.057657555 0.05861468 0.052325383 0.00605119 0.042883687
0.058315102 0.060139135 -0.052077726 -0.030205019 0.09481719 -0.09210527 -0.05093112 0.08760954
-0.08022458 0.018168896 -0.049950615 0.0022193503 0.027902162 -0.045129333 0.03727394 0.0891716
0.056706958 -0.012761386 -0.07342646 -0.03684174 0.046407595 0.13923006 -0.12870748 0.019247493
-0.09281514 -0.049122643 0.04686262 0.040621143 -0.02277961 0.0369378 0.011401706 -0.028340558
-0.029759286 0.011865165 -0.0034582496 -0.16878584 -0.06940254 -0.0048710806 -0.034909673 -0.0080428785
-0.0828552 0.034471456 0.07190108 -0.014404835 -0.0959761 -0.015834237 -0.068930924 0.034364484

net.convblock8.0.bias f4 [10]
00000000: bd4e dcbc 976d 90bc 09e3 a63d 039c 8e3d
00000010: 181f 56bd c03a 95bc 88b7 e9bd dfe8 1abe
00000020: 118d 26ba 68f9 0e3e
-0.026893014 -0.017630382 0.08148772 0.069633506 -0.052275747 -0.01821649 -0.11411959 -0.15127896
-0.0006353418 0.13962328

net.convblock8.2.weight f4 [10]
00000000: 9d7d 773f 867d 6d3f 7b8e 6f3f 4529 663f
00000010: 2617 833f 6397 883f 7c54 803f e174 803f
00000020: 0db0 8b3f 8b40 763f
0.96676046 0.9276966 0.9357678 0.8990672 1.0241439 1.06712 1.0025783 1.0035669
1.0913101 0.96192235

net.convblock8.2.bias f4 [10]
00000000: b91f 1ebd f544 0abd d963 923d c7cf 54bd
00000010: 99aa 00bd 5526 0abe 574a a0bc 3c1e 8fbc
00000020: 0c88 17bd 0ef6 7abd
-0.03860447 -0.03375717 0.07147951 -0.051955964 -0.031412695 -0.13491185 -0.019566698 -0.017470472
-0.03699498 -0.061269812
