output/csv/version_1/checkpoints/epoch=4-step=275.ckpt (torch, 191717 bytes, 188 tensors)

net.model.convblock1.0.weight f4 [10, 1, 3, 3]
0.33856076 0.059593022 -0.013516227 0.10761639 -0.1960548 0.0989814 -0.03934839 -0.0028134778
-0.015975153 0.18726346 -0.12436767 0.17883205 0.116567254 0.16590796 -0.022259243 0.16234231
-0.039051224 -0.29408953 0.23777467 -0.07484143 -0.3308608 0.21477422 -0.1604983 0.06272773
0.28707176 -0.08220047 0.10964558 -0.28470367 -0.2336304 0.05265906 -0.13014479 -0.032729365
0.079887494 0.043226145 -0.11190207 -0.29104215 0.0645743 -0.16983044 0.091607556 0.05116133
0.0036499547 -0.1995807 0.07502606 0.040203903 0.114292555 0.28979018 -0.024448728 -0.26542193
-0.11314995 -0.0029194837 0.117188856 0.106385544 -0.15302822 -0.34885922 -0.14085947 0.21964103
-0.14191204 -0.035089687 0.069549575 -0.30023047 0.21471934 -0.056824755 -0.24691226 0.18496765
0.2838876 -0.11018299 -0.06348821 -0.137913 0.13937353 -0.26219803 -0.27590656 -0.03952756
-0.2354194 0.29216442 0.08819937 -0.1223926 -0.24886744 -0.25928065 0.13126431 0.07752251
-0.10639885 -0.10953086 -0.33622274 0.19116195 -0.22540243 -0.157601 0.20586911 -0.12993555
-0.13316052 0.02381103
00000000: d657 ad3e d017 743d 2a73 5dbc fb65 dc3d
00000010: 97c2 48be c3b6 ca3d c72b 21bd 5362 38bb
00000020: 53de 82bc fec1 3f3e 7ab4 febd c01f 373e
00000030: d0ba ee3d c7e3 293e 0459 b6bc 103d 263e
00000040: 2df4 1fbd e792 96be 347b 733e 7746 99bd
00000050: 9666 a9be c6ed 5b3e ab59 24be 6577 803d
00000060: 12fb 923e b858 a8bd dd8d e03d aec4 91be
00000070: cf3c 6fbe 07b1 573d ad44 05be 3a0f 06bd
00000080: 0e9c a33d e60d 313d ea2c e5bd 7a03 95be
00000090: 883f 843d 08e8 2dbe be9c bb3d 8b8e 513d
000000a0: 1434 6f3b e25e 4cbe 43a7 993d d9ac 243d
000000b0: 3712 ea3d 615f 943e b348 c8bc 62e5 87be
000000c0: 29bb e7bd cf54 3fbb b600 f03d aae0 d93d
000000d0: 6eb3 1cbe ad9d b2be 773d 10be 94e9 603e
000000e0: 6451 11be 34ba 0fbd 0270 8e3d cfb7 99be
000000f0: 63df 5b3e 13c1 68bd 91d6 7cbe 2968 3d3e
00000100: b759 913e 9fa7 e1bd 1b06 82bd 1139 0dbe
00000110: efb7 0e3e d23e 86be a043 8dbe a7e7 21bd
00000120: c811 71be 9396 953e dfa1 b43d f9a8 fabd
00000130: 1bd7 7ebe 6fc0 84be 276a 063e 1fc4 9e3d
00000140: a4e7 d9bd b751 e0bd 6325 acbe f5bf 433e
00000150: e5cf 66be 2862 21be 5acf 523e d30d 05be
00000160: 3b5b 08be 590f c33c

net.model.convblock1.0.bias f4 [10]
0.12150799 -0.06667675 -0.21912627 -0.21083267 -0.18010895 0.14363354 0.18788192 -0.24079326
0.14945887 -0.13345754
00000000: 2ed9 f83d d28d 88bd a362 60be 85e4 57be
00000010: 7b6e 38be ac14 133e 1e64 403e 8292 76be
00000020: bf0b 193e 18a9 08be

net.model.convblock1.2.weight f4 [10]
1.0636243 1.0345609 1.046938 1.0099119 0.9657823 1.0083244 0.9518806 0.9898673
0.9648277 0.9707765
00000000: d724 883f 7e6c 843f 1002 863f cb44 813f
00000010: 823d 773f c610 813f 72ae 733f f267 7d3f
00000020: f3fe 763f cf84 783f

net.model.convblock1.2.bias f4 [10]
-0.00018134585 0.017659828 0.0073303417 -0.00063233677 -0.09215 0.040852495 0.07837176 -0.07654809
-0.1341593 0.029271899
00000000: a827 3eb9 58ab 903c 5d33 f03b 67c3 25ba
00000010: 24b9 bcbd f254 273d 6081 a03d 3fc5 9cbd
00000020: 0e61 09be 9fcb ef3c

net.model.convblock1.2.running_mean f4 [10]
0.15692842 0.12962276 0.09757913 0.10642251 0.015956618 0.27322552 0.3021169 0.040982235
0.2529326 0.13113421
00000000: d8b1 203e d4bb 043e 91d7 c73d 0cf4 d93d
00000010: 74b7 823c 37e4 8b3e 11af 9a3e fddc 273d
00000020: 6280 813e 0c48 063e

net.model.convblock1.2.running_var f4 [10]
0.1184219 0.114077345 0.08867993 0.0069156378 0.004923992 0.03829072 0.035922393 0.027449682
0.023137916 0.022633689
00000000: 2e87 f23d 62a1 e93d d39d b53d 939c e23b
00000010: 7059 a13b bbd6 1c3d 5c23 133d 28de e03c
00000020: ba8b bd3c 496a b93c

net.model.convblock2.0.weight f4 [16, 10, 3, 3]
-0.023253847 0.048120018 0.09714109 0.038800776 -0.0011466803 0.010238469 -0.12759733 -0.11483157
-0.004015711 -0.07170462 0.1065583 0.030485714 0.017705962 -0.054264795 -0.022541285 -0.06879197
-0.082895584 -0.049128044 -0.14350143 0.033504862 -0.025819903 -0.06720378 -0.10537013 -0.047144633
0.009836079 0.044894524 -0.049623195 0.07270242 -0.010807848 -0.016586915 0.07499574 0.07503854
0.014832808 0.0023196817 -0.04822736 0.040386748 0.05055093 0.0038152873 -0.023733197 0.013966327
-0.057617217 0.028064495 0.08292564 -0.046503663 0.05906198 0.029379258 0.07290505 0.08476155
-0.10458409 -0.029404363 -0.0003187499 -0.022952018 -0.02995508 0.008149009 -0.020765183 -0.13028838
0.020164978 -0.024320403 -0.022674447 0.045637727 0.06440705 0.058774307 0.06762212 0.020763895
-0.007877429 0.0018081132 -0.051173322 0.027464425 -0.025808662 0.060229514 0.1137283 0.086646035
0.075257346 0.01778838 -0.09913737 0.18944386 0.12177331 0.0067439913 0.082316704 0.039403286
0.08240311 -0.019627666 0.0067294063 0.10236631 -0.086013064 -0.08175148 -0.043008298 0.012447962
-0.036408007 -0.034645516 -0.02535571 -0.014358505 0.1240553 0.05156443 0.11944648 -0.061325874
0.12939279 -0.05377781 -0.08548998 -0.027261559 0.057994448 0.017515678 0.1575759 0.11391337
-0.076126635 0.016507696 -0.08484864 -0.011109865 -0.015488222 -0.05085492 -0.06733541 -0.03330683
-0.027729098 0.0053792377 -0.033101145 -0.11470582 -0.094873235 -0.046738453 -0.057639845 0.08596939
-0.05071 0.14716008 -0.04983372 0.077852786 -0.06618444 0.057328302 -0.0110907275 -0.10889868
-0.016794894 0.0124641545 -0.055155557 -0.025323989 -0.014326937 -0.036651388 -0.037674177 -0.10513804
-0.042841677 -0.10275428 -0.038336232 -0.10302867 0.002517949 0.040437862 -0.011956446 0.00878618
0.02520782 -0.10762967 -0.12654527 0.07554184 0.0071423436 -0.0029938014 -0.039879035 -0.056590397
-0.036394164 0.050082024 0.013510614 -0.03255973 0.03485875 -0.0289817 0.04226839 -0.007604339
0.094900034 0.042220388 -0.028333513 -0.090422675 0.05989609 0.08860736 0.05932769 -0.04292251
0.10282402 -0.038718507 0.023133319 0.06370972 0.042451013 -0.06322374 -0.031992774 -0.025087824
-0.06941127 -0.07191804 -0.04663856 0.025860468 -0.13943224 -0.030160742 -0.02750031 -0.08764154
-0.018777912 0.058258075 -0.02369594 0.11048055 -0.012468513 -0.088344395 0.055949938 -0.05190555
0.04693325 0.057351243 0.10538404 -0.10156644 -0.018541493 0.080862775 -0.07132309 -0.058176737
-0.08090244 -0.06586397 -0.053794373 -0.04531168 -0.14969742 0.04500264 0.078328855 -0.060334913
0.08257599 -0.005979024 0.016163962 0.08086099 -0.03889563 0.006660467 0.073885225 -0.05820427
-0.07591275 -0.061416276 -0.044997733 -0.019375566 0.024785552 -0.021334263 -0.02064453 -0.028106239
0.002149921 0.03407212 -0.017299075 -0.02518517 0.014870054 -0.08050767 -0.11466633 -0.07274856
0.016936919 -0.037488095 -0.082344204 0.032212127 -0.030229745 -0.03367157 -0.036406994 0.028013607
0.0022755163 0.11988735 0.029261563 -0.08522953 -0.157522 -0.07634893 0.06905652 -0.096575536
-0.010563735 -0.034569226 -0.029635305 -0.024415247 -0.035817277 -0.05266736 -0.032845445 -0.030998016
00000000: da7e bebc 7f19 453d e8f1 c63d 90ed 1e3d
00000010: 354c 96ba 40bf 273c e0a8 02be d02c ebbd
00000020: 3a96 83bb dfd9 92bd 3d3b da3d 2dbd f93c
00000030: 180c 913c c344 5ebd 80a8 b8bc cee2 8cbd
00000040: 29c5 a9bd 7d3a 49bd 0af2 12be 653c 093d
00000050: 4384 d3bc 23a2 89bd 4bcc d7bd bb1a 41bd
00000060: 8127 213c 52e3 373d b141 4bbd 02e5 943d
00000070: 6613 31bc 48e1 87bc 5e97 993d cead 993d
00000080: 4e05 733c cd05 183b 0d8a 45bd 936c 253d
00000090: 7e0e 4f3d e609 7a3b 1f6c c2bc 05d3 643c
000000a0: 0800 6cbd 83e7 e53c ebd4 a93d a07a 3ebd
000000b0: faea 713d c5ac f03c 3e4f 953d 7797 ad3d
000000c0: 2f30 d6bd 6be1 f0bc e31d a7b9 df05 bcbc
000000d0: 5b64 f5bc 6c83 053c bf1b aabc 516a 05be
000000e0: 0631 a53c 953b c7bc c3bf b9bc a0ee 3a3d
000000f0: d8e7 833d 54bd 703d 777d 8a3d 0b19 aa3c
00000100: 5510 01bc 36fe ec3a 1e9b 51bd 13fd e03c
00000110: b06c d3bc 39b3 763d 62ea e83d 7a73 b13d
00000120: 8620 9a3d f0b8 913c 8908 cbbd 92fd 413e
00000130: 4964 f93d b3fc dc3b a995 a83d 5765 213d
00000140: f6c2 a83d 33ca a0bc 5a82 dc3b 6ea5 d13d
00000150: 9e27 b0bd 526d a7bd 7829 30bd 89f2 4b3c
00000160: 9020 15bd 75e8 0dbd c7b6 cfbc ef3f 6bbc
00000170: b510 fe3d 3935 533d 5ba0 f43d d730 7bbd
00000180: 8b7f 043e 1f46 5cbd 5f15 afbd a253 dfbc
00000190: 968b 6d3d 0a7d 8f3c 945b 213e 6a4b e93d
000001a0: 48e8 9bbd 263b 873c 20c5 adbd 2706 36bc
000001b0: 50c2 7dbc 404d 50bd 26e7 89bd be6c 08bd
000001c0: 2228 e3bc 5144 b03b 1195 07bd e3ea eabd
000001d0: e64c c2bd d270 3fbd c217 6cbd b810 b03d
000001e0: 4ab5 4fbd 22b1 163e 711e 4cbd 4871 9f3d
000001f0: b58b 87bd 15d1 6a3d e2b5 35bc 4506 dfbd
00000200: 7295 89bc 7436 4c3c cbea 61bd 4174 cfbc
00000210: 87bb 6abc c41f 16bd 3d50 1abd 9d52 d7bd
00000220: c17a 2fbd d670 d2bd 7406 1dbd b200 d3bd
00000230: 2d04 253b 2ca2 253d f8e4 43bc e9f3 0f3c
00000240: a180 ce3c f26c dcbd 1595 01be aeb5 9a3d
00000250: 520a ea3b a733 44bb 3358 23bd 55cb 67bd
00000260: 0c12 15bd cf22 4d3d 9f5b 5d3c 5a5d 05bd
00000270: 0cc8 0e3d 086b edbc 9f21 2d3d d22d f9bb
00000280: f35a c23d 49ef 2c3d af1b e8bc 862f b9bd
00000290: 9a55 753d c777 b53d 9801 733d 84cf 2fbd
000002a0: 6695 d23d 4c97 1ebd 1682 bd3c 3e7a 823d
000002b0: 1de1 2d3d 737b 81bd db0a 03bd fb84 cdbc
000002c0: 7f27 8ebd c449 93bd 1308 3fbd 55d9 d33c
000002d0: 53c7 0ebe a913 f7bc 5548 e1bc 687d b3bd
000002e0: 23d4 99bc 05a0 6e3d fd1d c2bc a043 e23d
000002f0: bc48 4cbc e8ed b4bd c32b 653d ea9a 54bd
00000300: 143d 403d 23e9 6a3d 96d3 d73d 1102 d0bd
00000310: 54e4 97bc 629b a53d d711 92bd bb4a 6ebd
00000320: 2eb0 a5bd b0e3 86bd 7d57 5cbd bd98 39bd
00000330: 484a 19be b054 383d e16a a03d be21 77bd
00000340: 9a1d a93d b0eb c3bb 496a 843c 729a a53d
00000350: 0651 1fbd 0c40 da3b 2351 973d 9a67 6ebd
00000360: 2578 9bbd a28f 7bbd 8b4f 38bd 82b9 9ebc
00000370: 120b cb3c 31c5 aebc b81e a9bc 0e3f e6bc
00000380: b0e5 0c3b 358f 0b3d cab6 8dbc 2151 cebc
00000390: 87a1 733c 35e1 a4bd 2ed6 eabd 32fd 94bd
000003a0: 4bbf 8a3c 1e8d 19bd 14a4 a8bd ddf0 033d
000003b0: 5fa4 f7bc 33eb 09bd 801f 15bd cb7c e53c
000003c0: d420 153b 8087 f53d f2b5 ef3c d28c aebd
000003d0: 724d 21be d45c 9cbd 816d 8d3d 65c9 c5bd
000003e0: 8413 2dbc 7698 0dbd bdc5 f2bc 7c02 c8bc
000003f0: 23b5 12bd bbb9 57bd f288 06bd 8def fdbc

net.model.convblock2.0.bias f4 [16]
-0.019190729 -0.15286997 -0.013715219 0.0010633683 -0.05393073 0.076165885 0.023051307 0.070697606
0.10405213 0.113416374 -0.006029684 -0.048874855 0.07137253 -0.012936119 0.14597139 -0.037585925
00000000: e035 9dbc f289 1cbe ccb5 60bc b860 8b3a
00000010: 78e6 5cbd dcfc 9b3d 18d6 bc3c e8c9 903d
00000020: 4819 d53d d846 e83d a894 c5bb 0031 48bd
00000030: c32b 923d 04f2 53bc 8679 153e b3f3 19bd

net.model.convblock2.2.weight f4 [16]
1.119867 1.0281811 1.0035324 0.9961733 0.97424346 1.0246481 0.95600384 0.95591027
1.0871633 0.9626863 1.0406082 0.93156004 1.0018979 1.0368075 0.9443233 0.9778631
00000000: cd57 8f3f 709b 833f c073 803f 3705 7f3f
00000010: 0568 793f ab27 833f abbc 743f 89b6 743f
00000020: 2b28 8b3f 9c72 763f a632 853f b87a 6e3f
00000030: 313e 803f 1cb6 843f 2cbf 713f 3c55 7a3f

net.model.convblock2.2.bias f4 [16]
-0.034114875 0.019859651 -0.09805229 -0.124530405 -0.103341326 -0.055718437 -0.10462376 -0.083656415
0.008502582 -0.065968566 0.0678029 -0.0712358 -0.023813922 -0.15176684 -0.09094713 0.027778657
00000000: 0abc 0bbd b5b0 a23c a4cf c8bd cc09 ffbd
00000010: 9ea4 d3bd 0439 64bd fb44 d6bd 0e54 abbd
00000020: 6a4e 0b3c 871a 87bd 3fdc 8a3d 13e4 91bd
00000030: 6a15 c3bc c468 1bbe 7d42 babd 1190 e33c

net.model.convblock2.2.running_mean f4 [16]
0.27723935 0.13379051 0.34620374 0.3404849 0.20748349 0.38600567 0.17334138 0.29324883
0.38305748 0.34865075 0.13629004 0.20632717 0.303827 0.19789113 0.26904035 0.11114725
00000000: 51f2 8d3e 6100 093e 9e41 b13e 0954 ae3e
00000010: 8d76 543e 89a2 c53e 6780 313e b624 963e
00000020: 1c20 c43e 5a82 b23e 9e8f 0b3e 6e47 533e
00000030: 368f 9b3e f9a3 4a3e a8bf 893e 2ba1 e33d

net.model.convblock2.2.running_var f4 [16]
0.11018485 0.19750777 0.15414244 0.48941943 0.16539657 0.14368545 0.1390783 0.1695471
0.08755913 0.17221372 0.13583732 0.19351822 0.11448882 0.2085322 0.13124853 0.10103612
00000000: 98a8 e13d 7a3f 4a3e 84d7 1d3e 2f95 fa3e
00000010: b85d 293e 4722 133e 8b6a 0e3e c19d 2d3e
00000020: 3352 b33d cb58 303e f018 0b3e a429 463e
00000030: 1d79 ea3d 7789 553e 0466 063e 06ec ce3d

net.model.convblock3.0.weight f4 [8, 16, 1, 1]
-0.06279597 -0.15319476 0.089466825 0.08695055 0.19640297 0.24983832 -0.14121114 0.17387542
0.13853686 -0.17985524 -0.113984704 0.17892697 -0.045447428 -0.03897227 0.017931657 0.010108114
-0.30876362 0.09460433 0.19074541 0.22171764 0.19987525 -0.041306328 0.20759687 -0.09793995
-0.31777558 0.13862209 -0.03790888 -0.16760755 0.074914634 0.116782226 -0.09203636 -0.20913242
-0.08352926 -0.21215898 -0.0900598 -0.12094416 -0.0745213 -0.2604813 0.100889586 0.061519094
0.040816274 -0.18588844 -0.21702413 0.087390244 0.1538692 -0.11398101 -0.054305237 -0.18133527
-0.18283734 0.055491313 -0.14422087 -0.046410933 0.093873665 -0.14874735 -0.07355063 0.213096
-0.19180216 -0.16853379 0.054144576 0.18329956 -0.14803635 0.15126872 0.22570492 0.18437435
-0.09459616 -0.12746276 -0.18984044 -0.19323687 0.04107742 -0.20444864 0.24778506 -0.16392021
-0.049805496 -0.25195485 0.04037858 0.17332102 -0.11783159 0.17010124 0.06099696 -0.015940992
-0.11301046 0.25904173 -0.0039897985 -0.1394567 0.13550901 0.16620074 0.10719144 0.17474303
-0.06056162 -0.18846248 0.0423648 0.009702225 0.22871655 -0.10660657 -0.07120913 0.22944255
0.21622612 0.0950783 0.12530361 -0.027737346 0.05214991 -0.096516706 0.2502956 0.0041937856
0.22027025 0.031657875 0.15275681 0.12937629 -0.031621817 0.12374413 0.25212008 0.10579394
0.18944663 0.13196465 -0.098752074 0.09778211 0.13680546 0.13151196 -0.016931627 0.15183474
-0.036277574 0.16258818 0.08362408 -0.073940985 0.21635255 -0.19444354 -0.15355119 0.13245027
00000000: 2c9b 80bd 16df 1cbe 623a b73d 2113 b23d
00000010: dc1d 493e 9ed5 7f3e a799 10be 660c 323e
00000020: 9bdc 0d3e f92b 38be d070 e9bd a238 373e
00000030: 1527 3abd 63a1 1fbd 69e5 923c 819c 253c
00000040: 4416 9ebe eabf c13d c452 433e f309 633e
00000050: 19ac 4c3e d330 29bd 4694 543e be94 c8bd
00000060: 7bb3 a2be f3f2 0d3e 5746 1bbd 50a1 2bbe
00000070: d86c 993d 852b ef3d 8f7d bcbd cf26 56be
00000080: 6311 abbd 3440 59be 4671 b8bd 92b1 f7bd
00000090: a09e 98bd ce5d 85be 339f ce3d 72fb 7b3d
000000a0: f72e 273d 8a59 3ebe 933b 5ebe a8f9 b23d
000000b0: e38f 1d3e e06e e9bd 2b6f 5ebd f4af 39be
000000c0: b639 3bbe dc4a 633d a3ae 13be 6419 3ebd
000000d0: d640 c03d 3a51 18be b6a1 96bd d635 5a3e
000000e0: c967 44be 1f94 2cbe b4c6 5d3d e1b2 3b3e
000000f0: d796 17be 30e6 1a3e 311f 673e a1cc 3c3e
00000100: a2bb c1bd 9985 02be 8865 42be e3df 45be
00000110: cc40 283d fc5a 51be 5ebb 7d3e b3da 27be
00000120: d900 4cbd 3a00 81be 0364 253d 117b 313e
00000130: b051 f1bd 052f 2e3e f3d7 793d af96 82bc
00000140: 0772 e7bd 1ea1 843e dbbc 82bb bdcd 0ebe
00000150: e0c2 0a3e 8730 2a3e 3087 db3d d6ef 323e
00000160: 760f 78bd 4ffc 40be b686 2d3d 15f6 1e3c
00000170: ac34 6a3e 8c54 dabd 18d6 91bd fdf2 6a3e
00000180: 616a 5d3e 69b8 c23d 974f 003e 6e39 e3bc
00000190: 259b 553d 8daa c5bd bf26 803e 066c 893b
000001a0: 868e 613e b0ab 013d 486c 1c3e 387b 043e
000001b0: e185 01bd 906d fd3d e215 813e 7eaa d83d
000001c0: 4cfe 413e be21 073e 873e cabd fd41 c83d
000001d0: bb16 0c3e 12ab 063e 32b4 8abc 917a 1b3e
000001e0: cb97 14bd 847d 263e 1a43 ab3d 5f6e 97bd
000001f0: 868b 5d3e 351c 47be 863c 1dbe 0ba1 073e

net.model.convblock3.0.bias f4 [8]
-0.042825695 0.18239665 -0.24549493 0.12709048 0.12773727 0.0056873076 0.070108 -0.03787586
00000000: ff69 2fbd 30c6 3a3e 0663 7bbe 0224 023e
00000010: 8fcd 023e 985c ba3b c894 8f3d b823 1bbd

net.model.convblock3.2.weight f4 [8]
1.0190382 1.0646412 0.99240196 0.9734798 0.97866404 0.97944343 0.9371477 0.9906287
00000000: d86f 823f 2a46 883f 0e0e 7e3f f935 793f
00000010: ba89 7a3f cebc 7a3f e9e8 6f3f d899 7d3f

net.model.convblock3.2.bias f4 [8]
0.056734476 -0.0008419171 0.006792082 -0.08053636 0.011331587 0.043047927 0.036719967 0.029444361
00000000: 6962 683d 1ab4 5cba 1d90 de3b 3ff0 a4bd
00000010: 1fa8 393c 0653 303d ad67 163d 4d35 f13c

net.model.convblock3.2.running_mean f4 [8]
0.3297141 0.42010826 0.08218649 0.40865946 0.30394956 0.5477061 0.7200896 0.4562805
00000000: 49d0 a83e 6e18 d73e 6451 a83d d03b d13e
00000010: 479f 9b3e 7836 0c3f cb57 383f 999d e93e

net.model.convblock3.2.running_var f4 [8]
0.51254416 0.6798635 0.043802444 0.68437064 0.43102473 1.0112317 1.357446 0.9172451
00000000: 1836 033f 890b 2e3f 316a 333d ea32 2f3f
00000010: 46af dc3e 0a70 813f cac0 ad3f 93d0 6a3f

net.model.convblock4.0.weight f4 [16, 8, 3, 3]
0.15027316 0.15777707 0.12143934 -0.11893378 -0.037465546 -0.056472518 -0.10928093 0.043459296
0.08595344 0.077978894 -0.116866484 0.023522463 0.048614923 -0.09836399 -0.06934036 0.059175532
-0.08764899 0.004578421 0.07368435 0.055483267 -0.07159414 -0.07914998 0.08970258 -0.042822596
0.05248545 0.04387978 -0.02097278 0.044624545 0.0392159 0.07877795 0.031218108 -0.057911266
-0.024357095 -0.008392169 0.079964966 -0.03733598 0.09401451 -0.021983331 0.042905975 -0.024970405
-0.061765946 0.039748657 0.062328663 0.055695057 -0.029002963 0.0029605054 -0.011954598 0.012403782
0.046129864 0.104278006 0.07941778 0.037099212 -0.09794748 0.12400039 -0.044999354 0.09301394
-0.01091981 0.08737434 -0.04335949 0.063269705 0.060677458 -0.10986781 0.03390873 0.06261803
-0.056455284 -0.07956982 -0.00832927 0.057830885 -0.0009978903 0.081878096 -0.030385878 0.05393977
0.08268002 -0.0046766107 0.05079412 0.007830803 -0.024744278 -0.005027572 -0.13803239 -0.10811201
-0.01741239 0.15787916 -0.008449791 -0.058992784 0.005418197 0.07001151 -0.007925864 -0.050027687
-0.0091989525 0.122241825 0.10700549 0.08486039 0.0085924845 0.12784322 -0.026072862 -0.048324768
-0.011738529 -0.07950678 -0.00914074 -0.03777106 -0.013904037 0.06532618 -0.017141532 0.111331016
-0.00024603092 -0.039785743 0.068515375 0.09710075 -0.12467999 -0.07837609 0.0955296 -0.01855286
-0.08922233 0.05399621 0.03894367 0.031797282 -0.012142438 0.033320744 -0.0029758262 -0.022450585
-0.030509325 -0.041226786 0.1320721 0.040575344 0.031712633 -0.0038644373 -0.067176595 0.05759587
0.06715123 -0.048686475 -0.021573454 -0.009970766 0.058132865 -0.04076557 -0.047702055 0.01804988
-0.006671692 0.01475958 -0.011106795 0.053267904 -0.056737375 -0.054039177 0.02697806 0.11426543
-0.093710534 -0.04112046 0.051672757 0.054877985 -0.092262045 -0.17070891 0.046782576 0.093167976
-0.0010637164 -0.21482192 -0.019846682 0.055536218 -0.120893836 -0.0077616284 -0.10880888 -0.0015737333
-0.053580493 -0.056809176 -0.152825 0.015436202 -0.053155676 0.017879002 0.107766174 0.10364391
0.016541246 -0.050154362 -0.030712267 -0.15122217 -0.10375663 -0.102371216 -0.017133303 -0.050390907
-0.045408443 0.010817434 -0.001567855 0.049499523 0.022482032 0.00042768958 -0.14353645 -0.068348154
-0.0009014314 -0.03260916 0.0721428 0.034813732 0.028633995 -0.034465715 0.10950625 -0.063622415
-0.0022765703 -0.1362652 -0.00035348657 0.031935904 -0.00597622 0.07427724 -0.027828157 0.06527685
-0.057328478 -0.021478582 -0.05192237 -0.022579014 0.11941427 0.0928071 0.033513915 0.055860113
0.01905649 0.03382535 -0.05590393 0.04183888 0.010400927 0.027101643 0.03537691 -0.100010484
-0.10237821 -0.05780657 0.036932644 0.047204163 0.09201259 -0.025846912 -0.086232945 0.06119706
-0.13656344 -0.028170725 -0.102281444 -0.043941934 -0.046389688 -0.0047407346 0.14764285 -0.14153658
-0.080391265 -0.06011266 -0.050689213 -0.073551826 0.101696946 0.035916626 0.04574275 -0.13136959
-0.03907729 0.08056367 0.018264098 0.0059931986 0.09571132 0.09693696 0.051513124 -0.013547476
0.05094397 -0.15103337 -0.10439171 -0.14927867 0.06260397 0.03034558 0.08968035 0.07208194
00000000: 35e1 193e 5090 213e 30b5 f83d 8e93 f3bd
00000010: 7975 19bd ba4f 67bd aece dfbd 6002 323d
00000020: 5b08 b03d 66b3 9f3d b257 efbd 2eb2 c03c
00000030: 7120 473d 0f73 c9bd 5202 8ebd 0b62 723d
00000040: 5081 b3bd 9406 963b d2e7 963d 6c42 633d
00000050: f39f 92bd 6219 a2bd fcb5 b73d bf66 2fbd
00000060: fcfa 563d 49bb 333d 1ccf abbc 3ac8 363d
00000070: daa0 203d 5556 a13d 1ebd ff3c 5d34 6dbd
00000080: 8888 c7bc 4f7f 09bc acc4 a33d 9ded 18bd
00000090: ae8a c03d 6316 b4bc 2dbe 2f3d bc8e ccbc
000000a0: 4afe 7cbd 7dcf 223d 574c 7f3d 8020 643d
000000b0: 9f97 edbc 0a05 423b 38dd 43bc 3c39 4b3c
000000c0: abf2 3c3d b58f d53d caa5 a23d 58f5 173d
000000d0: b098 c8bd ebf3 fd3d 3e51 38bd 187e be3d
000000e0: 01e9 32bc 51f1 b23d b899 31bd 8c93 813d
000000f0: ed88 783d 6002 e1bd e1e3 0a3d e23d 803d
00000100: a83d 67bd 80f5 a2bd 7e77 08bc 14e0 6c3d
00000110: a4cb 82ba b4af a73d ceeb f8bc f3ef 5c3d
00000120: 2454 a93d 413e 99bb 7f0d 503d c54c 003c
00000130: 83b4 cabc 55be a4bb 5d58 0dbe d469 ddbd
00000140: 6ea4 8ebc 13ab 213e fe70 0abc 6ba2 71bd
00000150: 218b b13b 3262 8f3d 7cdb 01bc d5e9 4cbd
00000160: 34b7 16bc ec59 fa3d b225 db3d 49cb ad3d
00000170: 7ec7 0c3c 55e9 023e c196 d5bc 31f0 45bd
00000180: f652 40bc 73d4 a2bd 0bc3 15bc d4b5 1abd
00000190: c2cd 63bc bbc9 853d 666c 8cbc 8401 e43d
000001a0: b6fd 80b9 60f6 22bd ca51 8c3d c2dc c63d
000001b0: 3958 ffbd a583 a0bd 06a5 c33d 2bfc 97bc
000001c0: 32ba b6bd 212b 5d3d 6683 1f3d de3d 023d
000001d0: 14f1 46bc 557b 083d 1406 43bb 4aea b7bc
000001e0: b1ee f9bc 6bdd 28bd e93d 073e 5532 263d
000001f0: 1be5 013d 8042 7dbb e293 89bd a6e9 6b3d
00000200: 9686 893d 786b 47bd d0ba b0bc 6c5c 23bc
00000210: ba1c 6e3d ccf9 26bd 3b63 43bd 58dd 933c
00000220: 359e dabb 2ad2 713c 46f9 35bc 722f 5a3d
00000230: 7365 68bd 2f58 5dbd 1801 dd3c fe03 ea3d
00000240: 4feb bfbd ed6d 28bd d0a6 533d bdc7 603d
00000250: e2f3 bcbd 51ce 2ebe 169f 3f3d dace be3d
00000260: 666c 8bba 47fa 5bbe 8295 a2bc f279 633d
00000270: 3097 f7bd 4255 febb 31d7 debd ba45 ceba
00000280: 3877 5bbd bdb0 68bd 287e 1cbe 20e8 7c3c
00000290: c4b9 59bd fc76 923c 83b4 dc3d 4243 d43d
000002a0: 8281 873c a96e 4dbd 4b98 fbbc fcd9 1abe
000002b0: 5b7e d4bd 00a8 d1bd 245b 8cbc b266 4ebd
000002c0: 34fe 39bd 9b3b 313c 7c80 cdba 03c0 4a3d
000002d0: 3d2c b83c 863b e039 38fb 12be 1efa 8bbd
000002e0: 0a4e 6cba 2f91 05bd 9bbf 933d d898 0e3d
000002f0: d791 ea3c ec2b 0dbd d044 e03d 784c 82bd
00000300: 8332 15bb 1b89 0bbe 2a54 b9b9 39cf 023d
00000310: 2bd4 c3bb aa1e 983d e0f7 e3bc deaf 853d
00000320: 44d1 6abd daf3 afbc 8dac 54bd a0f7 b8bc
00000330: 788f f43d a611 be3d e345 093d 93cd 643d
00000340: 5b1c 9c3c 738c 0a3d 85fb 64bd 3f5f 2b3d
00000350: a668 2a3c 4404 de3c 61e7 103d 4cd2 ccbd
00000360: abab d1bd 95c6 6cbd af46 173d 2759 413d
00000370: 1971 bc3d e7bc d3bc e69a b0bd c5a9 7a3d
00000380: 49d7 0bbe 4bc6 e6bc ef78 d1bd 75fc 33bd
00000390: 1d03 3ebd 2a58 9bbb b02f 173e f7ee 10be
000003a0: 2da4 a4bd b138 76bd 7e9f 4fbd 57a2 96bd
000003b0: 7d46 d03d 501d 133d c05c 3b3d c085 06be
000003c0: 820f 20bd 91fe a43d 979e 953c 9862 c43b
000003d0: 4c04 c43d e386 c63d 6dff 523d 3cf6 5dbc
000003e0: a0aa 503d 7ea8 1abe 52cb d5bd 82dc 18be
000003f0: 8336 803d 4b97 f83c 55aa b73d b29f 933d

net.model.convblock4.0.bias f4 [16]
0.1009367 -0.012101455 0.07869503 -0.13818862 -0.111207396 -0.03014108 0.09583488 0.16732772
0.116021045 -0.1082346 0.10258578 0.0625522 -0.0027989962 -0.10854423 -0.052888945 0.08575396
00000000: e7b7 ce3d 2e45 46bc dc2a a13d 5181 0dbe
00000010: b4c0 e3bd 6dea f6bc 1445 c43d f557 2b3e
00000020: 719c ed3d 1aaa ddbd 7e18 d23d 5e1b 803d
00000030: 5d6f 37bb 704c debd 14a2 58bd c69f af3d

net.model.convblock4.2.weight f4 [16]
0.97626424 1.019876 1.0158421 0.99966335 1.0035135 0.9667981 1.0162143 1.0116242
1.0016595 0.93481684 1.0126641 0.9713554 1.0168906 1.0360115 1.0098872 0.9628766
00000000: 74ec 793f 4c8b 823f 1d07 823f f0e9 7f3f
00000010: 2173 803f 1580 773f 4f13 823f e77c 813f
00000020: 6136 803f 2850 6f3f fa9e 813f bfaa 783f
00000030: 7929 823f 069c 843f fc43 813f 157f 763f

net.model.convblock4.2.bias f4 [16]
0.072650686 -0.0793568 -0.14153475 0.07476341 0.07959971 0.015027416 0.107294604 0.12167758
0.1021062 0.037456635 0.06617663 0.053618595 0.016667735 0.08408101 0.020608667 0.038397364
00000000: e2c9 943d d185 a2bd 7cee 10be 8f1d 993d
00000010: 2c05 a33d 8d35 763c 46bd db3d 1832 f93d
00000020: 0e1d d13d 216c 193d 9d87 873d 2c9f 5b3d
00000030: c68a 883c aa32 ac3d 82d3 a83c 8e46 1d3d

net.model.convblock4.2.running_mean f4 [16]
0.2902496 0.18843189 0.37269786 0.14016812 0.18565913 0.2560667 0.4052171 0.45193237
0.34038067 0.15436164 0.30074632 0.24546991 0.24449342 0.26485023 0.14439382 0.40031257
00000000: 989b 943e 4af4 403e 41d2 be3e 3b88 0f3e
00000010: 6d1d 3e3e 2d1b 833e 9e78 cf3e ae63 e73e
00000020: 6046 ae3e fa10 1e3e 6cfb 993e 775c 7b3e
00000030: 7c5c 7a3e 739a 873e f9db 133e c5f5 cc3e

net.model.convblock4.2.running_var f4 [16]
0.2842596 0.106672555 0.18183175 0.13084348 0.15767759 0.14955945 0.50201523 0.27999476
0.36504692 0.12233758 0.19307564 0.14799336 0.11681789 0.23593135 0.10887724 0.2067441
00000000: 798a 913e 2477 da3d 1a32 3a3e d5fb 053e
00000010: 3c76 213e 1d26 193e 1284 003f 795b 8f3e
00000020: 6ee7 ba3e 208c fa3d 9fb5 453e 928b 173e
00000030: 383e ef3d fd97 713e 08fb de3d bab4 533e

net.model.convblock5.0.weight f4 [16, 16, 3, 3]
-0.11132203 -0.0152410725 -0.06413265 0.026597064 0.020871159 -0.052239798 0.023904432 -0.015142129
0.026009668 -0.05378188 0.0017218275 -0.010187679 0.042615414 0.034481607 -0.0314889 -0.016431998
-0.031379793 -0.116999105 0.061811216 0.032546893 -0.056673247 0.0057083303 -0.025007052 -0.033276748
0.0854633 -0.01035245 -0.07621242 -0.06055664 0.03620444 -0.106414706 0.02533337 -0.051985428
-0.07148295 -0.05195696 -0.04587866 -0.039815374 -0.055889472 0.04232412 -0.024815924 -0.041692108
0.08535369 -0.035824936 -0.045656476 0.035126276 0.044122472 -0.059007727 -0.052660234 0.004851535
-0.13796124 -0.047123592 0.0048704366 -0.01837219 -0.09219125 -0.04692471 -0.05163525 0.06031451
-0.012002044 -0.0035894155 -0.018078757 -0.08113249 -0.14836839 0.01035861 -0.08961805 0.049465425
0.030799692 -0.026396696 -0.027044928 0.036222376 0.03946452 0.03765134 0.008860802 -0.047047466
0.06405249 0.08063994 0.03595231 -0.100333445 -0.033684764 -0.047050815 -0.003201389 0.07567679
-0.036683954 0.031446144 -0.024828207 -0.020206466 -0.045939915 0.026746586 -0.05454827 0.01934338
-0.047858182 -0.05536774 0.038302675 0.00290702 0.033068113 0.018628905 -0.04914919 0.0705662
0.06864352 -0.026970569 -0.0256021 -0.029034453 0.062031556 -0.0032218443 -0.09896713 0.04089914
-0.02190593 -0.023102248 0.05278229 -0.02362581 0.036977686 0.0656855 -0.0044140974 -0.07104483
0.084303424 -0.05985472 -0.013120008 -0.017344788 0.053820163 -0.024038035 0.014167893 0.023341767
0.025906293 0.07300987 -0.017945973 0.06833082 -0.016075779 -0.056964267 -0.026905203 0.017372135
-0.118997686 -0.033324193 -0.031781208 -0.10392353 -0.03502709 -0.006389761 -0.100980714 0.0478336
0.07674136 -0.052254543 0.101043 0.058352906 0.03897258 -0.03866575 -0.0114785535 -0.08621832
-0.032015327 -0.017520461 0.050724708 0.071677476 0.06009146 0.0096970545 -0.04232618 0.027009474
0.013418383 -0.108135566 -0.008894196 -0.038104028 0.005805585 -0.035136357 0.052284982 -0.044717524
-0.045712665 0.063047394 -0.03415923 0.032300513 0.009934263 -0.04501667 -0.05451676 0.0062779365
-0.045868263 -0.05066388 0.042954676 -0.0021060403 0.02071168 0.017029032 -0.046280436 -0.0055412315
0.03989284 -0.0144466 0.014343996 0.09188022 -0.013749442 0.008313893 0.076057225 -0.026136614
-0.019408392 0.031663697 -0.027569143 0.006534872 0.035891626 -0.067703955 0.0050745085 0.038364172
0.0072676647 0.03238787 0.072902136 0.023309737 0.0728278 0.013589189 0.08827105 -0.05611058
0.03251515 -0.011590488 -0.043059144 -0.01599168 0.01960142 0.037990805 0.06938308 -0.035590198
-0.0954618 0.00096391485 -0.066843204 0.048503608 -0.017074313 0.096432656 0.032140065 0.05656425
-0.07025926 0.064641885 -0.052741773 -0.011171447 0.007063977 -0.012187087 -0.028180333 0.07271406
0.023044946 0.124956585 0.017459024 0.024600439 0.039245132 -0.08852775 0.029759368 0.0154019715
-0.079324804 -0.07235122 0.040546432 -0.044082753 0.03967401 -0.016982146 0.07450118 0.046657078
-0.028950628 -0.01418167 -0.12509423 0.0062815356 0.002274134 -0.048333697 0.08422943 0.006469205
-0.14670347 0.099105865 0.0357781 -0.07380057 -0.10192063 -0.08098023 0.032330167 0.024612721
00000000: cefc e3bd b1b5 79bc fb57 83bd 16e2 d93c
00000010: fef9 aa3c 66f9 55bd 3ad3 c33c b116 78bc
00000020: 3a12 d53c 634a 5cbd f2ae e13a 39ea 26bc
00000030: 808d 2e3d 963c 0d3d 81fa 00bd 669c 86bc
00000040: 1988 00bd 3a9d efbd c22d 7d3d e44f 053d
00000050: 3522 68bd f20c bb3b 97db ccbc 334d 08bd
00000060: 6207 af3d 539d 29bc 4215 9cbd 3d0a 78bd
00000070: 1b4b 143d f4ef d9bd ed87 cf3c acee 54bd
00000080: a765 92bd d2d0 54bd 43eb 3bbd 7215 23bd
00000090: 5cec 64bd 0e5c 2d3d c44a cbbc 58c5 2abd
000000a0: eacd ae3d 2bbd 12bd 4902 3bbd 92e0 0f3d
000000b0: c4b9 343d 16b2 71bd 42b2 57bd a0f9 9e3b
000000c0: b645 0dbe ab04 41bd 2f98 9f3b 4681 96bc
000000d0: c4ce bcbd 2034 40bd 7c7f 53bd 590c 773d
000000e0: 39a4 44bc 663c 6bbb e719 94bc ca28 a6bd
000000f0: e2ed 17be 29b7 293c ab89 b7bd 429c 4a3d
00000100: a34f fc3c e23d d8bc 538d ddbc ea5d 143d
00000110: 8ca5 213d 4b38 1a3d e62c 113c d8b4 40bd
00000120: f42d 833d 8e26 a53d bb42 133d 9f7b cdbd
00000130: 09f9 09bd 5bb8 40bd 65ce 51bb 6ffc 9a3d
00000140: ea41 16bd accd 003d 8664 cbbc 0888 a5bc
00000150: 7e2b 3cbd a81b db3c 026e 5fbd 0276 9e3c
00000160: f106 44bd 49c9 62bd 44e3 1c3d b483 3e3b
00000170: 6e72 073d a59b 983c a950 49bd 0385 903d
00000180: f994 8c3d 62f1 dcbc 7fbb d1bc a9d9 edbc
00000190: cd14 7e3d 9425 53bb 47af cabd db85 273d
000001a0: 1174 b3bc ed40 bdbc 3e32 583d ea8a c1bc
000001b0: ea75 173d 1f86 863d 22a4 90bb f47f 91bd
000001c0: 46a7 ac3d 392a 75bd 4df5 56bc a816 8ebc
000001d0: 8872 5c3d 6aeb c4bc 7320 683c 3c37 bf3c
000001e0: 6f39 d43c 3386 953d 6f03 93bc 07f1 8b3d
000001f0: 5ab1 83bc 5d53 69bd 4d68 dcbc 0250 8e3c
00000200: 0fb5 f3bd f37e 08bd 032d 02bd dcd5 d4bd
00000210: 9178 0fbd 3361 d1bb face cebd 2aed 433d
00000220: 932a 9d3d dc08 56bd a2ef ce3d 7503 6f3d
00000230: b6a1 1f3d fa5f 1ebd 8b10 3cbc 3b93 b0bd
00000240: 8122 03bd 1287 8fbc b6c4 4f3d a4cb 923d
00000250: 7622 763d 65e0 1e3c 375e 2dbd f942 dd3c
00000260: c7d8 5b3c 2e76 ddbd f6b8 11bc f812 1cbd
00000270: c73c be3b 24eb 0fbd c728 563d b929 37bd
00000280: 343d 3bbd fe1e 813d 8cea 0bbd 8b4d 043d
00000290: 52c3 223c 6663 38bd f74c 5fbd 26b7 cd3b
000002a0: 5ce0 3bbd ee84 4fbd 3ef1 2f3d 7e05 0abb
000002b0: 8bab a93c 7880 8b3c 8e90 3dbd 3893 b5bb
000002c0: ad66 233d 6fb1 6cbc 1403 6b3c b22b bc3d
000002d0: 5745 61bc ff36 083c e4c3 9b3d 741c d6bc
000002e0: 59fe 9ebc cbb1 013d afd8 e1bc 7b22 d63b
000002f0: 1903 133d 5fa8 8abd 1048 a63b c023 1d3d
00000300: 9725 ee3b 25a9 043d b74d 953d 10f4 be3c
00000310: be26 953d 31a5 5e3c 74c7 b43d 35d4 65bd
00000320: 9b2e 053d 08e6 3dbc c95e 30bd fc00 83bc
00000330: 2893 a03c 3f9c 1b3d b718 8e3d 07c7 11bd
00000340: 7a81 c3bd 3baf 7c3a 17e5 88bd b8ab 463d
00000350: 6edf 8bbc 7c7e c53d 4da5 033d eaaf 673d
00000360: 16e4 8fbd f762 843d c207 58bd 7208 37bc
00000370: ef78 e73b 59ac 47bc 71da e6bc 1ceb 943d
00000380: c1c8 bc3c 3de9 ff3d 3a06 8f3c dc86 c93c
00000390: 81bf 203d 094e b5bd ebc9 f33c 8d58 7c3c
000003a0: 0b75 a2bd e02c 94bd 0414 263d 1e90 34bd
000003b0: 3781 223d 241e 8bbc 1394 983d 7e1b 3f3d
000003c0: de29 edbc 3c5a 68bc b418 00be 57d5 cd3b
000003d0: a309 153b 8ef9 45bd 7b80 ac3d a0fb d33b
000003e0: 6f39 16be 04f8 ca3d 0f8c 123d c124 97bd
000003f0: c3bb d0bd f6d8 a5bd a36c 043d 9ea0 c93c

net.model.convblock5.0.bias f4 [16]
0.072996624 -0.059128717 -0.034489866 -0.019130234 0.015028265 -0.13354462 -0.08126577 -0.009183648
-0.007151075 -0.017302789 -0.068696156 -0.07608928 -0.002703897 -0.08781962 0.06790256 -0.065818645
00000000: 417f 953d f430 72bd 3f45 0dbd 02b7 9cbc
00000010: 1d39 763c ecbf 08be ab6e a6bd 0377 16bc
00000020: 9153 eabb 94be 8dbc 92b0 8cbd b2d4 9bbd
00000030: dd33 31bb c6da b3bd 7f10 8b3d edcb 86bd

net.model.convblock5.2.weight f4 [16]
0.97783685 0.99630827 0.9641513 1.0693797 0.9931195 0.9760692 0.9730622 1.0107234
1.0151615 0.9779558 1.0455353 1.011538 0.99131536 0.9694898 0.9934298 1.0057433
00000000: 8453 7a3f 0f0e 7f3f 9fd2 763f 6fe1 883f
00000010: 143d 7e3f acdf 793f 9b1a 793f 625f 813f
00000020: d0f0 813f 505b 7a3f 1ad4 853f 147a 813f
00000030: d8c6 7d3f 7c30 783f 6a51 7e3f 32bc 803f

net.model.convblock5.2.bias f4 [16]
-0.02006378 0.018433208 0.024130434 0.010399353 0.11443005 -0.01753617 0.053090096 -0.018722989
0.07697987 -0.0016074557 0.12666129 -0.046158697 0.05631034 0.12487719 0.07061631 -0.12440661
00000000: cc5c a4bc 3d01 973c 30ad c53c 0c62 2a3c
00000010: 4d5a ea3d 04a8 8fbc 0075 593d f460 99bc
00000020: 9fa7 9d3d 43b1 d2ba 7fb3 013e e710 3dbd
00000030: aca5 663d 9dbf ff3d 499f 903d e5c8 febd

net.model.convblock5.2.running_mean f4 [16]
0.29162773 0.30616224 0.2860901 0.27016643 0.27151152 0.13454655 0.18554352 0.25813514
0.33419487 0.37644303 0.31535992 0.25797877 0.2902199 0.2663483 0.43345 0.3432976
00000000: 3b50 953e 4cc1 9c3e 677a 923e 4153 8a3e
00000010: 8f03 8b3e 92c6 093e 1fff 3d3e 4a2a 843e
00000020: 971b ab3e 24bd c03e db76 a13e cb15 843e
00000030: b497 943e ce5e 883e 29ed dd3e b4c4 af3e

net.model.convblock5.2.running_var f4 [16]
0.13870911 0.31882203 0.26221836 0.16267294 0.20361616 0.06703936 0.11548822 0.14079401
0.18068463 0.5244422 0.5060021 0.15590644 0.32673123 0.17923945 0.40148208 0.28571692
00000000: c309 0e3e a43c a33e 7c41 863e bc93 263e
00000010: c180 503e ef4b 893d 1685 ec3d 4e2c 103e
00000020: 6405 393e d841 063f 5b89 013f f0a5 1f3e
00000030: 5149 a73e 8c8a 373e 0f8f cd3e 7d49 923e

net.model.convblock6.0.weight f4 [16, 16, 3, 3]
-0.075678095 0.045512695 0.04184158 0.025767522 -0.06785672 0.018274587 -0.06829107 -0.07978495
0.020903328 0.036632627 -0.007287281 0.026950294 -0.06450289 -0.037418827 -0.08059566 0.007066052
-0.014816803 -0.030610101 0.04108732 -0.055979062 -0.046324786 0.0706585 0.011732632 -0.08403466
0.011377016 0.032877762 0.032785602 -0.062432658 0.05469822 -0.03600879 0.014995693 0.004689811
-0.021065481 -0.017651558 -0.029774627 -0.042615805 0.00014284835 0.028845366 -0.1055145 -0.008008345
-0.04649557 -0.0002187846 -0.104973756 0.022582237 0.008010338 -0.013314233 0.05919178 -0.053462308
-0.044767536 -0.0020241302 0.005868121 -0.042520806 0.041819844 -0.008883878 -0.058831353 0.016564185
0.056062814 0.020120723 0.06469643 0.078568585 -0.026449433 0.06134069 0.10371201 -0.065069415
0.044556532 0.013327829 0.08299506 -0.0015238139 0.024607383 0.08510693 0.074470416 0.085419916
-0.0059234933 -0.016873835 0.060389444 -0.004043734 0.00624116 0.08766104 -0.09427823 0.052400894
0.030148655 0.007198879 0.024210293 0.03861332 -0.0059815836 -0.063412026 -0.00078318274 -0.022815337
-0.10149404 0.020928157 0.019037195 0.018877782 0.0044489913 -0.008326046 0.0060507795 -0.10363327
0.05113658 0.099409 -0.059876733 0.03249367 -0.028714547 0.008677682 -0.027409827 -0.052339207
-0.060852826 -0.046011936 -0.10623013 0.030152889 -0.10395795 -0.06849525 -0.07088268 -0.081484355
0.019914476 0.0001382059 -0.070253335 0.025707733 -0.023382405 -0.019403799 -0.114577435 -0.07797999
-0.010962803 0.042015593 -0.0012370734 -0.106642075 0.00263625 -0.046289112 -0.08064205 -0.11362436
0.012841975 -0.011227667 -0.096013024 -0.036199544 -0.011688773 0.030009001 0.017162284 -0.10635038
0.016296035 -0.0022506893 0.045273434 0.020877674 0.03239233 0.0030298082 0.014215493 0.053691123
0.006454419 0.0341444 0.019372448 -0.028943518 1.862833e-05 -0.036941875 -0.054377533 -0.06045772
-0.05833439 -0.025987698 -0.024348732 -0.0063190795 -0.07258923 -0.061661504 0.009064219 -0.08802059
-0.031823386 0.09355464 -0.013483671 -0.0019514387 0.02768126 0.017492993 -0.064765416 -0.06688998
-0.035076916 -0.03606339 0.09569206 -0.08422153 -0.008433391 -0.07586546 -0.09156021 0.043726645
0.011683739 0.009364042 0.016048994 -0.04182268 0.040596478 -0.026787557 -0.06774601 0.090592176
0.06993529 0.013413701 0.043866053 0.02709742 0.033886038 0.058722105 -0.059057515 0.02869373
0.012789958 -0.08299181 -0.07663566 0.04962166 -0.013615102 0.049929302 -0.0029795005 0.007783203
0.010905548 -0.034630764 0.1074717 0.0018647594 0.027419316 -0.037726007 0.0075724507 -0.0991418
-0.043083332 0.03722009 0.06320783 0.028688705 -0.054289836 0.028601829 -0.05568337 -0.015015699
0.08447282 -0.010176136 -0.05196007 -0.0029875452 0.048673876 -0.022649279 -1.6597593e-05 0.0749615
0.045404304 0.027571483 0.021564018 -0.047281668 -0.016708655 -0.07221897 -0.10049955 -0.011145909
0.0048946775 0.034359217 0.081202425 -0.091250055 0.013465442 0.045166086 0.06646871 0.007978146
0.00043422345 -0.0707628 -0.065731965 0.021900771 -0.027806198 -0.082695805 -0.006725732 0.028171638
-0.030840073 -0.04851039 -0.04299837 0.025317062 0.087404504 7.375794e-05 -0.06957139 -0.023556579
00000000: 1efd 9abd 856b 3a3d 1462 2b3d 6916 d33c
00000010: 77f8 8abd 96b4 953c 30dc 8bbd 4b66 a3bd
00000020: 753d ab3c 180c 163d 25ca eebb ddc6 dc3c
00000030: 171a 84bd 7c44 19bd 560f a5bd 578a e73b
00000040: 2dc2 72bc 09c2 fabc 2d4b 283d 4d4a 65bd
00000050: 0fbf 3dbd 67b5 903d 3a3a 403c 5d1a acbd
00000060: aa66 3a3c d5aa 063d 324a 063d 63b9 7fbd
00000070: 3e0b 603d f47d 13bd 7fb0 753c fcac 993b
00000080: 8491 acbc 009a 90bc ebe9 f3bc e98d 2ebd
00000090: 90c9 1539 1e4d ec3c fc17 d8bd 6f35 03bc
000000a0: 2472 3ebd 8b69 65b9 7bfc d6bd 62fe b83c
000000b0: cb3d 033c f123 5abc 1473 723d 4bfb 5abd
000000c0: 2a5e 37bd 45a7 04bb 5e49 c03b 4c2a 2ebd
000000d0: 494b 2b3d af8d 11bc 25f9 70bd 9db1 873c
000000e0: 1fa2 653d 37d4 a43c 907f 843d 91e8 a03d
000000f0: 7bac d8bc 6040 7b3d f666 d43d 1d43 85bd
00000100: e980 363d f75c 5a3c 50f9 a93d b6ba c7ba
00000110: 6c95 c93c 8b4c ae3d f283 983d a3f0 ae3d
00000120: dd19 c2bb ff3a 8abc ec5a 773d 4d81 84bb
00000130: a582 cc3b a287 b33d f214 c1bd 52a2 563d
00000140: 50fa f63c 93e4 eb3b aa54 c63c 0029 1e3d
00000150: 2901 c4bb 2ade 81bd 814e 4dba 3be7 babc
00000160: 1bdc cfbd 8771 ab3c e4f3 9b3c 94a5 9a3c
00000170: d8c8 913b f869 08bc 9e45 c63b ae3d d4bd
00000180: 9774 513d f296 cb3d 4e41 75bd 1518 053d
00000190: c53a ebbc d62c 0e3c 938a e0bc a361 56bd
000001a0: d040 79bd 0377 3cbd 2f8f d9bd 3103 f73c
000001b0: e8e7 d4bd 3d47 8cbd f02a 91bd 45e1 a6bd
000001c0: af23 a33c 5deb 1039 fbe0 8fbd 0699 d23c
000001d0: 758c bfbc b7f4 9ebc 93a7 eabd f9b3 9fbd
000001e0: 549d 33bc 8b18 2c3d 4c25 a2ba 2967 dabd
000001f0: f0c4 2c3b a799 3dbd a927 a5bd e3b3 e8bd
00000200: 2667 523c 40f4 37bc 7aa2 c4bd f945 14bd
00000210: 4482 3fbc 70d5 f53c eb97 8c3c 3ace d9bd
00000220: 437f 853c 4d80 13bb a370 393d a807 ab3c
00000230: d2ad 043d bf8f 463b 19e8 683c 39eb 5b3d
00000240: 977f d33b 00db 0b3d f8b2 9e3c f51a edbc
00000250: 0944 9c37 5d50 17bd faba 5ebd 84a2 77bd
00000260: 0bf0 6ebd 27e4 d4bc fe76 c7bc 4810 cfbb
00000270: aaa9 94bd c690 7cbd 1782 143c 2444 b4bd
00000280: 3d59 02bd 9399 bf3d 9dea 5cbc 6bc7 ffba
00000290: cfc3 e23c 774d 8f3c bba3 84bd 9dfd 88bd
000002a0: d0ac 0fbd 35b7 13bd 33fa c33d 567c acbd
000002b0: 352c 0abc 5a5f 9bbd eb83 bbbd b61a 333d
000002c0: 276d 3f3c a46b 193c 2e79 833c 424e 2bbd
000002d0: 7e48 263d 9471 dbbc 6cbe 8abd 6488 b93d
000002e0: 3c3a 8f3d 24c5 5b3c e4ac 333d 69fb dd3c
000002f0: 16cc 0a3d 9786 703d 4be6 71bd 1d0f eb3c
00000300: f98c 513c 9cf7 a9bd 28f3 9cbd 1540 4b3d
00000310: e011 5fbc ab82 4c3d b943 43bb 3d0a ff3b
00000320: 2fad 323c fdd8 0dbd 1f1a dc3d f16a f43a
00000330: 799e e03c 9686 1abd 5222 f83b db0a cbbd
00000340: 2678 30bd 1874 183d 1b73 813d 9304 eb3c
00000350: 055f 5ebd 624e ea3c 3f14 64bd 6804 76bc
00000360: 1600 ad3d cfb9 26bc 15d4 54bd b1ca 43bb
00000370: 425e 473d fb8a b9bc 0f3b 8bb7 6a85 993d
00000380: ddf9 393d 97dd e13c 06a7 b03c 6caa 41bd
00000390: 97e0 88bc 8ae7 93bd b5d2 cdbd 559d 36bc
000003a0: 8863 a03b 40bc 0c3d 754d a63d 4fe1 babd
000003b0: 289e 5c3c 1300 393d bf20 883d c5b6 023c
000003c0: 7ca8 e339 16ec 90bd 7b9e 86bd 3f69 b33c
000003d0: d3c9 e3bc 6b5c a9bd 8763 dcbb 35c8 e63c
000003e0: 52a4 fcbc d5b2 46bd 0f1f 30bd ba65 cf3c
000003f0: 2201 b33d 7eae 9a38 727b 8ebd baf9 c0bc

net.model.convblock6.0.bias f4 [16]
0.092322126 0.042379476 0.03620492 -0.034830835 -0.098746784 -0.040368438 -0.15602139 -0.0068504154
0.022587832 -0.006021724 -0.03074278 -0.01869183 -0.07810769 0.01943826 0.053521715 0.033456884
00000000: 6213 bd3d 1a96 2d3d 9c4b 143d c7aa 0ebd
00000010: c13b cabd 6059 25bd 12c4 1fbe 7379 e0bb
00000020: 1e0a b93c e251 c5bb 48d8 fbbc 9c1f 99bc
00000030: edf6 9fbd fc3c 9f3c 9639 5b3d 160a 093d

net.model.convblock6.2.weight f4 [16]
0.9287489 1.0193398 0.9672061 1.0346847 0.98057556 1.014039 1.0086834 1.0239209
1.0041006 0.9996191 0.8958397 0.98430294 1.0402949 0.9678406 1.0212914 1.0241735
00000000: 7dc2 6d3f ba79 823f d29a 773f 8c70 843f
00000010: 0007 7b3f 08cc 813f 8a1c 813f d70f 833f
00000020: 5e86 803f 0ae7 7f3f c055 653f 47fb 7b3f
00000030: 6228 853f 67c4 773f adb9 823f 1e18 833f

net.model.convblock6.2.bias f4 [16]
-0.09913771 -0.09077027 -0.1779113 -0.084466204 -0.21457602 -0.11532225 -0.14645666 -0.18229035
-0.16114506 -0.1527024 -0.14409392 -0.14248659 -0.14278519 -0.08386244 -0.0775722 -0.03847154
00000000: b608 cbbd c3e5 b9bd 612e 36be 9efc acbd
00000010: d1b9 5bbe 122e ecbd bcf8 15be 52aa 3abe
00000020: 3603 25be 055e 1cbe 5b8d 13be 01e8 11be
00000030: 4836 12be 12c0 abbd 2cde 9ebd 5594 1dbd

net.model.convblock6.2.running_mean f4 [16]
0.2723694 0.32242242 0.2863378 0.23699349 0.23759644 0.19853881 0.21023 0.27534926
0.37030625 0.30238962 0.26452753 0.31979153 0.21205007 0.37402928 0.3366775 0.30083048
00000000: 0174 8b3e 8d14 a53e de9a 923e 6cae 723e
00000010: 7b4c 733e c24d 4b3e 8846 573e 94fa 8c3e
00000020: c898 bd3e d0d2 9a3e 2770 873e b7bb a33e
00000030: a723 593e c480 bf3e fe60 ac3e 7406 9a3e

net.model.convblock6.2.running_var f4 [16]
0.14629856 0.15122138 0.225178 0.18577215 0.22155198 0.196571 0.09541475 0.122235954
0.34019274 0.20533817 0.19538455 0.3913195 0.1650286 0.22479068 0.20263362 0.26518735
00000000: 4acf 153e c7d9 1a3e 1095 663e 0e3b 3e3e
00000010: 86de 623e e949 493e cf68 c33d d856 fa3d
00000020: be2d ae3e 2b44 523e e312 483e 085b c83e
00000030: 42fd 283e 872f 663e 307f 4f3e a3c6 873e

net.model.convblock7.0.weight f4 [8, 16, 1, 1]
0.02503866 0.093366385 -0.15772402 -0.07987185 0.15658824 -0.30144668 -0.19850685 -0.0054213074
-0.11275731 -0.18736288 0.087688394 0.13772452 -0.09651509 0.003567434 -0.073615976 -0.11917476
0.21742362 -0.012578566 -0.23049565 0.22037864 -0.13345419 0.1503732 -0.31512564 -0.10007125
0.17947625 -0.008174693 -0.06519853 0.23070349 0.010982957 0.057424027 -0.09855483 0.055129573
-0.045394488 -0.1612922 0.1187345 0.13638714 0.021792421 -0.16109869 -0.250364 0.0034716
0.1542983 -0.26140025 0.103161976 0.10830633 -0.13325845 -0.20684527 0.21761681 0.13607064
-0.06306835 -0.24940261 0.1822882 0.084866576 0.023869202 0.1930039 0.039716117 -0.09194388
0.17424084 -0.1093103 -0.09912665 0.110500455 0.052712984 -0.073190846 -0.24437892 -0.006698429
0.08781161 0.13317941 -0.038784735 -0.028502025 -0.059840262 -0.057492997 -0.16374214 -0.018102597
-0.112173915 -0.11172905 0.034731112 -0.0854647 0.18135847 -0.18481266 -0.0474733 0.26548418
0.11393731 0.12125663 0.26514933 0.19683021 0.13037264 0.04785904 -0.07414993 -0.23703063
0.03634909 0.013966093 0.24417056 0.012290634 0.03491656 -0.08733701 -0.05961113 -0.12753978
0.17963402 0.079005964 0.05531421 -0.26838824 -0.23078062 0.13689184 0.06100973 0.20156582
-0.25043336 0.017434752 -0.05712623 0.19931908 0.10787812 -0.084462486 -0.023084862 -0.17183404
0.11408852 0.13317765 -0.102271646 0.12657414 -0.22075059 -0.15466288 0.10060971 0.039967153
-0.035204127 -0.15936531 0.047869094 -0.1839044 -0.19118471 0.21303947 0.072521314 0.032484412
00000000: e01d cd3c e036 bf3d 6882 21be da93 a3bd
00000010: ab58 203e 3857 9abe 6145 4bbe 39a5 b1bb
00000020: 4eed e6bd 0edc 3fbe f995 b33d a807 0d3e
00000030: b4a9 c5bd 9ccb 693b f9c3 96bd e611 f4bd
00000040: 4ca4 5e3e 5416 4ebc 0d07 6cbe f0aa 613e
00000050: 37a8 08be 6ffb 193e 2658 a1be 28f2 ccbd
00000060: 9fc8 373e 26ef 05bc cf86 85bd 893d 6c3e
00000070: dcf1 333c 7535 6b3d 1dd7 c9bd 8ccf 613d
00000080: 92ef 39bd c829 25be 132b f33d 12a9 0b3e
00000090: 0586 b23c 0ef7 24be b62f 80be c883 633b
000000a0: 6000 1e3e 41d6 85be 9646 d33d b6cf dd3d
000000b0: e774 08be 3fcf 53be f1d6 5e3e 1a56 0b3e
000000c0: fb29 81bd 6663 7fbe c2a9 3a3e 87ce ad3d
000000d0: 5889 c33c d0a2 453e 5ead 223d 134d bcbd
000000e0: 316c 323e 14de dfbd ea02 cbbd 104e e23d
000000f0: 92e9 573d 15e5 95bd 783e 7abe 7f7e dbbb
00000100: 93d6 b33d 2f60 083e bedc 1ebd 147d e9bc
00000110: 101b 75bd c77d 6bbd 05ac 27be e64b 94bc
00000120: 70bb e5bd 33d2 e4bd 3642 0e3d 1e08 afbd
00000130: 09b6 393e 883f 3dbe 5d73 42bd 8bed 873e
00000140: f757 e93d 6555 f83d a7c1 873e dc8d 493e
00000150: 6880 053e d707 443d ebdb 97bd 28b8 72be
00000160: c9e2 143d 0ad2 643c d907 7a3e a85e 493c
00000170: ab04 0f3d bfdd b2bd cd2a 74bd ca99 02be
00000180: fbf1 373e e1cd a13d 2791 623d 2f6a 89be
00000190: c151 6cbe 602d 0c3e 57e5 793d 4567 4e3e
000001a0: cd38 80be 53d3 8e3c 32fd 69bd 4d1a 4c3e
000001b0: 34ef dc3d abfa acbd 771c bdbc 43f5 2fbe
000001c0: 3ea7 e93d b95f 083e cc73 d1bd a79c 013e
000001d0: 710c 62be f25f 1ebe 770c ce3d 99b4 233d
000001e0: 3432 10bd a930 23be 6212 443d 6f51 3cbe
000001f0: edc5 43be 0527 5a3e 0e86 943d 600e 053d

net.model.convblock7.0.bias f4 [8]
0.11887103 0.09959004 -0.18334036 -0.014863864 0.15394396 -0.07390448 0.034847833 0.27967727
00000000: a872 f33d ddf5 cb3d 93bd 3bbe 9087 73bc
00000010: 7ca3 1d3e 3b5b 97bd 9abc 0e3d dc31 8f3e

net.model.convblock7.2.weight f4 [8]
0.968626 1.018994 0.99664456 0.9932357 0.9154473 1.0229537 1.0180205 0.98328835
00000000: e0f7 773f 656e 823f 1924 7f3f b244 7e3f
00000010: c15a 6a3f 26f0 823f 7f4e 823f c9b8 7b3f

net.model.convblock7.2.bias f4 [8]
0.04581828 0.123673014 0.030161748 -0.031921856 0.08559972 0.007969237 -0.06104623 -0.02986377
00000000: f3ab 3b3d 4748 fd3d c515 f73c 7ec0 02bd
00000010: e84e af3d 6791 023c 9d0b 7abd dda4 f4bc

net.model.convblock7.2.running_mean f4 [8]
0.25696436 0.40095744 0.26368925 0.2895859 0.31181547 0.38989136 0.38851625 0.58321047
00000000: d590 833e 4b4a cd3e 4702 873e 9a44 943e
00000010: 47a6 9f3e d79f c73e 9aeb c63e 484d 153f

net.model.convblock7.2.running_var f4 [8]
0.1804614 0.52013826 0.38563862 0.39183393 0.20266554 0.3913674 0.3989398 0.31550226
00000000: e0ca 383e c827 053f 6d72 c53e 759e c83e
00000010: 8e87 4f3e 4f61 c83e d641 cc3e 8389 a13e
