output/csv/version_2/checkpoints/epoch=4-step=275-v1.ckpt (torch, 179611 bytes, 152 tensors)

net.convblock1.0.weight f4 [10, 1, 3, 3]
0	0xbe7f8fac	-0.2495715
1	0xbe9b0ff2	-0.30285603
2	0xbdce34ce	-0.100686654
3	0x3d31a8e4	0.043373957
4	0x3e3a176e	0.18173
5	0x3d66d93e	0.056359522
6	0x3e6ae09d	0.22937246
7	0x3e6d529f	0.23176049
8	0xbc851e94	-0.016249932
9	0x3de8431f	0.11340927
10	0x3d51c2ec	0.051211283
11	0xbe2e3e1e	-0.17015883
12	0xbd57c18a	-0.052674808
13	0xbea11afc	-0.314659
14	0xbe5a9797	-0.2134689
15	0xbea163bf	-0.31521413
16	0x3ea335c6	0.31876963
17	0xbe27d68c	-0.16390437
18	0xbd167652	-0.036733933
19	0x3d43fb1e	0.047846906
20	0xbdaec187	-0.08533006
21	0x3e59d818	0.2127384
22	0x3ea474d9	0.32120398
23	0xbdf0cea8	-0.117581666
24	0xbe09c47a	-0.13453856
25	0xbc20257d	-0.009774563
26	0xbe02a02a	-0.1275641
27	0xbe943472	-0.28946263
28	0x3e354f75	0.17706092
29	0xbe4d53ba	-0.2005147
30	0x3e81f38e	0.2538113
31	0x3e039127	0.1284834
32	0xbe3ba125	-0.1832319
33	0xbe7cc53b	-0.24684612
34	0x3e14197f	0.14462851
35	0x3cea858c	0.028628133
36	0x3e2323e8	0.15931666
37	0xbe043414	-0.12910491
38	0xbe4f5849	-0.20248522
39	0x3e1abc01	0.1511078
40	0x3e3874f4	0.18013364
41	0xbe059dae	-0.13048431
42	0xbe21ba96	-0.15793833
43	0x3d720fe4	0.059097186
44	0xbcf558cf	-0.029949574
45	0xbc9c9c01	-0.019117357
46	0x3c2a080d	0.010377896
47	0x3dda835a	0.106695846
48	0xbe2a0d3a	-0.16606608
49	0x3e45f95c	0.19333404
50	0xbde9ec88	-0.11422068
51	0x3e50255a	0.20326748
52	0x3e576de2	0.2103801
53	0xbe66b2df	-0.22529171
54	0xbce108c6	-0.027470004
55	0xbe9ec657	-0.31010696
56	0xbe716b1b	-0.23576014
57	0x3e9b0508	0.30277276
58	0x3e95c78e	0.2925381
59	0x3ea6cf5a	0.32580072
60	0xbe924183	-0.28565606
61	0x3df41a2e	0.11919056
62	0xbe16c059	-0.14721812
63	0xbeb26ede	-0.3485021
64	0xbe98b4bf	-0.29825398
65	0x3dad0726	0.08448629
66	0xbe2f5411	-0.17121913
67	0x3e54b9a6	0.20773944
68	0xbe65066f	-0.22365735
69	0xbe66d360	-0.2254157
70	0x3e7a1e45	0.2442561
71	0x3ea33253	0.31874332
72	0xbe1315ec	-0.14363831
73	0xbd423af4	-0.047419503
74	0x3e46ab39	0.19401254
75	0x3ead57f0	0.33856153
76	0x3e6571c4	0.2240668
77	0x3dbefbdd	0.09325383
78	0xbd3f8e95	-0.046766836
79	0x3e4fe994	0.20303947
80	0x3e9ad8bc	0.3024348
81	0xbe169cf0	-0.14708304
82	0x3e68da24	0.22739464
83	0xbe39ef87	-0.18157779
84	0x3d73e3d2	0.05954344
85	0x3c678b76	0.014132371
86	0x3d8662a2	0.065617815
87	0x3e0ba1ac	0.13635892
88	0x3cbfed74	0.023428656
89	0x3e7ff285	0.24994858

net.convblock1.0.bias f4 [10]
0	0x3d892c55	0.06697909
1	0x3e8da78a	0.27666885
2	0xbe4c5dbf	-0.19957636
3	0x3e06f479	0.13179196
4	0x3e8cb4b2	0.2748161
5	0xbe798505	-0.24367149
6	0xbe2e6736	-0.1703156
7	0x3dc16749	0.09443528
8	0x3c02319e	0.0079464
9	0x3e3a0785	0.18166931

net.convblock1.2.weight f4 [10]
0	0x3f7ecb9a	0.9952942
1	0x3f755357	0.9583029
2	0x3f7249ed	0.9464405
3	0x3f84689d	1.0344425
4	0x3f7756f9	0.96617085
5	0x3f7ff5a9	0.9998422
6	0x3f8cf2d8	1.101161
7	0x3f8467bb	1.0344156
8	0x3f7cc422	0.98736775
9	0x3f830f6c	1.0239081

net.convblock1.2.bias f4 [10]
0	0xba04a1c0	-0.0005059503
1	0xbbe23650	-0.006903447
2	0x3cbdcc74	0.02316878
3	0x3c927990	0.017880231
4	0x3b31847d	0.0027087026
5	0x3d109950	0.03530246
6	0x3cd6f3d4	0.026239313
7	0xbd2d9670	-0.042379797
8	0x3ced808b	0.028991958
9	0xbd329428	-0.043598324

net.convblock2.0.weight f4 [16, 10, 3, 3]
0	0xbdbb3ff2	-0.09143056
1	0x3c714e4e	0.014728142
2	0xbc0bad1e	-0.008525161
3	0x3d376f73	0.04478402
4	0x3d483d9d	0.048886884
5	0xbd1cbdf4	-0.03826709
6	0x3cf21bde	0.029554304
7	0x3c9db1c2	0.0192498
8	0x3b85973c	0.0040768664
9	0x3d38292f	0.04496115
10	0x3cfa908b	0.030586502
11	0xbd8e39a8	-0.06944591
12	0xbdd08602	-0.1018181
13	0x3d8330e8	0.064058125
14	0xbc51ca79	-0.012804621
15	0x3d921a5e	0.071339354
16	0xbd5bf50a	-0.053700484
17	0xbd733e5a	-0.059385635
18	0xbd14491d	-0.03620254
19	0xbe0961b9	-0.13416184
20	0xbc58c13f	-0.013229667
21	0xbd69e365	-0.057101626
22	0x3d50d24b	0.0509818
23	0xbe03fb96	-0.12888941
24	0xbc5ebd86	-0.013594991
25	0xbd95b34d	-0.073095895
26	0xbdea9d51	-0.11455787
27	0x3da6846c	0.08130726
28	0x3d795ab3	0.060877513
29	0xbce6729a	-0.028130818
30	0xbd5876cb	-0.052847665
31	0x3b44f9ae	0.0030056047
32	0x3cd91bb9	0.026502477
33	0xbe03d16d	-0.12872858
34	0xbc5e0571	-0.013551102
35	0x3d5c121d	0.05372821
36	0xbd0c5ddc	-0.0342692
37	0x3c8364e4	0.01603932
38	0xbcae5d2e	-0.021284666
39	0xbd882fbc	-0.066497296
40	0x3cd7a742	0.026324872
41	0xbc2d157f	-0.010564207
42	0x3d15d2db	0.03657804
43	0x3d0a02d9	0.033694122
44	0x3cdaf47b	0.026727905
45	0xbd8d445f	-0.068978064
46	0x3bd64505	0.0065389895
47	0x3c59bf63	0.013290259
48	0xbd7a5ce9	-0.061123762
49	0xbd64376a	-0.05571691
50	0x3ddfd0d5	0.109285034
51	0xbcd1c03c	-0.02560436
52	0x3db5e8a9	0.08882267
53	0xbc816555	-0.01579539
54	0x3d4ac51a	0.049504377
55	0xbddba222	-0.10724284
56	0xbd1180d8	-0.035523266
57	0x3dd982da	0.10620661
58	0xbc1cd9fc	-0.009573456
59	0xbd081672	-0.03322453
60	0xbca8e20b	-0.020615598
61	0xbd31b2db	-0.04338346
62	0xbe19cc2e	-0.15019295
63	0x3d620b74	0.055186704
64	0x3d938ecb	0.0720497
65	0x3d8c1038	0.06839031
66	0xbd5182ab	-0.051150005
67	0xbbcdc40b	-0.0062794737
68	0xbd049809	-0.032371555
69	0xbdfa8744	-0.12232831
70	0xbda2f847	-0.079575114
71	0x3d147d86	0.03625252
72	0xbddc8583	-0.10767653
73	0xbd5b59d9	-0.053552482
74	0x3ccdf5ff	0.025141714
75	0xbd9a72f6	-0.07541458
76	0x3dc9c75c	0.09852478
77	0xbbe14747	-0.006874952
78	0x3d38027b	0.04492424
79	0x3d8b6847	0.06806999
80	0x3dda6bed	0.106651165
81	0x3d87918c	0.06619558
82	0x3db04016	0.086059734
83	0x3e008c32	0.1255348
84	0x3dfb323d	0.122654416
85	0x3ca36d68	0.01994963
86	0x3d7414e5	0.05959024
87	0xbdd43ea6	-0.10363512
88	0x3d8bb013	0.06820693
89	0x3c1ef697	0.009702346
90	0xbd334fdf	-0.043777343
91	0xbd47afa9	-0.048751507
92	0x3c6f3816	0.014600774
93	0xbdec6759	-0.115431495
94	0x3d6f2856	0.058388077
95	0xbda8aa0b	-0.08235558
96	0xbd9297f7	-0.07157891
97	0x3c9a163a	0.018809427
98	0xbbea48aa	-0.0071497755
99	0x3cb12d37	0.021628005
100	0x3d28334f	0.041064557
101	0x3d218ccf	0.039440926
102	0x3dafa7a6	0.08576898
103	0xbd91f350	-0.07126486
104	0x3d9f0728	0.07765037
105	0x3d100a8f	0.03516632
106	0x3d52de69	0.051481638
107	0xbcd02933	-0.02541027
108	0x3cac9324	0.021066256
109	0xbd2dfb6d	-0.042476106
110	0xbc6fabed	-0.014628393
111	0x3d2cfd92	0.04223401
112	0x3ca37188	0.019951597
113	0xbcbc52f1	-0.022988768
114	0xbdca779b	-0.09886094
115	0xbd1b16c6	-0.037863515
116	0x3d554fb3	0.05207796
117	0xbdc57ac3	-0.096425556
118	0x3da18eb7	0.07888549
119	0x3d287f0d	0.04113679
120	0x3d938d63	0.07204702
121	0x3d9b25be	0.07575558
122	0x3cec47d5	0.028842846
123	0xbd95aad7	-0.07307976
124	0x3d2b9cc1	0.04189754
125	0xbca52b5a	-0.020162273
126	0xbd504629	-0.05084816
127	0xbd2ba4ce	-0.041905217
128	0x3d87193a	0.065966085
129	0x3da3be15	0.0799524
130	0xbcb2a3f7	-0.0218067
131	0x3dc41a12	0.09575285
132	0xbdb2b10b	-0.087251745
133	0x3da6cfd5	0.081451096
134	0x3dcef038	0.10104412
135	0x3dd54c20	0.1041491
136	0x3dad8a26	0.08473615
137	0xbca8a420	-0.020586073
138	0x3d698bd2	0.05701811
139	0xbd3b8195	-0.045777876
140	0x3dd600cb	0.1044937
141	0x3db57067	0.0885933
142	0xbdb89c84	-0.09014228
143	0xbd82b1b9	-0.06381554
144	0xbd24f3da	-0.040271617
145	0xbd7cc129	-0.06170765
146	0x3b3d928d	0.0028926462
147	0x3dc2b08f	0.09506332
148	0x3db716b2	0.08939876
149	0xbb7440d0	-0.0037270077
150	0xbd9d0fe0	-0.076690435
151	0x3c44f57c	0.012021419
152	0x3bfd78bd	0.0077353404
153	0xbd835a99	-0.064137645
154	0xbda77c46	-0.08178
155	0xbd83fb94	-0.06444469
156	0xbceb91fb	-0.028756132
157	0x3d9c2f22	0.07626177
158	0x3c98ab44	0.018636353
159	0x3d85a873	0.0652627
160	0x3d6fbb2d	0.058528114
161	0xbd224265	-0.0396141
162	0x3c7ac48b	0.015305649
163	0x3d9bcc8d	0.07607374
164	0x3d4fa4aa	0.050694145
165	0x3c9e8136	0.019348722
166	0xbc7f48a9	-0.015581288
167	0xbccf7d66	-0.02532835
168	0xbcfa4ad3	-0.030553257
169	0x3d4e1859	0.05031619
170	0x3c49cc9f	0.012316852
171	0x3dfda65b	0.123852454
172	0xbcac511c	-0.02103477
173	0x3d62be59	0.05535731
174	0x3da9042e	0.0825275
175	0xbd52f55b	-0.05150352
176	0xbd1abfc6	-0.037780546
177	0xbd862bda	-0.06551333
178	0x3d5a28c0	0.05326152
179	0x3c565eab	0.013084094
180	0xbdc65122	-0.096834436
181	0xbd90aa19	-0.070636936
182	0x3dd70e0b	0.10500725
183	0x3e00785a	0.1254591
184	0xbd7b6663	-0.06137694
185	0xbbb163f7	-0.005413528
186	0x3c7b5a43	0.015341344
187	0x3c42f5a0	0.011899382
188	0xbde1ee9d	-0.1103184
189	0x3c113913	0.008863705
190	0xbd9b012a	-0.075685814
191	0xbb981222	-0.0046408335
192	0x3c215d4c	0.009848904
193	0x3c67b947	0.014143295
194	0x3d22d0a1	0.039749745
195	0xbd6e172d	-0.05812757
196	0x3c8ceb7f	0.017202137
197	0xbdb239f0	-0.08702457
198	0xbc2e50fb	-0.010639424
199	0xbd7e4212	-0.06207473
200	0x381dd243	3.762754e-05
201	0xbdc99ba3	-0.098441385
202	0x3d3cdf64	0.04611148
203	0xbd8b78b0	-0.06810129
204	0x3de0cf02	0.109769836
205	0xbca7ee60	-0.020499408
206	0x3d2a3688	0.04155591
207	0x3dcd78ad	0.10032783
208	0x3d993725	0.07481221
209	0xbd722693	-0.05911882
210	0xbd8f7abc	-0.070058316
211	0x3d934981	0.07191754
212	0x3db51921	0.088426836
213	0xbaa2df0b	-0.0012426091
214	0x3d10cf98	0.035354227
215	0x3de496b8	0.1116156
216	0x3c12f5f6	0.0089697745
217	0x3d0f5c1d	0.034999955
218	0xbd2f9cff	-0.042874333
219	0xbc3c4d11	-0.011492983
220	0x3cfad400	0.030618668
221	0xbd1ce2f4	-0.038302377
222	0x3d48d4d5	0.049031097
223	0xbdd0dadf	-0.10197996
224	0x37d469e9	2.5321688e-05
225	0xbc064139	-0.008194261
226	0xbdcb379e	-0.099227175
227	0x3dba73f8	0.091041505
228	0x3ce5b780	0.028041601
229	0xbd0e0f76	-0.034682713
230	0xbd25d4ba	-0.040486075
231	0xbc13c655	-0.009019454
232	0xbd8abe36	-0.06774561
233	0xbda9320d	-0.082614996
234	0xbb63b9d7	-0.003474822
235	0xbd164bf6	-0.036693536
236	0x3c1c2896	0.009531161
237	0xbcdf1295	-0.02723054
238	0xbc9dd5f3	-0.019267058
239	0x3c876f6e	0.016532626
240	0x3db9fe72	0.09081735
241	0x3df00741	0.117201336
242	0x3d91a41b	0.07111379
243	0x3ce42eb1	0.027854295
244	0x3dcdd919	0.10051174
245	0xbd33586e	-0.043785505
246	0xbdd749cd	-0.10512123
247	0xbc5d92de	-0.013523785
248	0xbd906a56	-0.07051532
249	0xbd9f80d9	-0.077882476
250	0xbe367228	-0.17816985
251	0xbd54f14e	-0.05198794
252	0x3d6f3ed0	0.058409512
253	0xbd88935a	-0.0666873
254	0x3cb6a4b0	0.022295326
255	0xbd55a822	-0.052162297

net.convblock2.0.bias f4 [16]
0	0x3d19e068	0.037567526
1	0xbb91ef8e	-0.004453606
2	0x3cd26ae6	0.025685739
3	0xbcaa9f9d	-0.020828063
4	0xbd95284f	-0.07283079
5	0xbd9c1a77	-0.07622235
6	0x3d851eaf	0.06499993
7	0xbcd54a6b	-0.026036462
8	0xbe124851	-0.14285399
9	0xbd91f8a2	-0.07127501
10	0x3d917074	0.07101527
11	0xbdc129cd	-0.09431801
12	0x3da8a07d	0.08233736
13	0xbde3e0b9	-0.11126847
14	0xbce366c7	-0.027758969
15	0xbe15855b	-0.14601652

net.convblock2.2.weight f4 [16]
0	0x3f7e5c4c	0.99359584
1	0x3f75a180	0.95949554
2	0x3f8668a2	1.0500681
3	0x3f85983f	1.0437087
4	0x3f835f43	1.0263447
5	0x3f7dfbf5	0.9921258
6	0x3f7ba337	0.9829592
7	0x3f84b81e	1.0368688
8	0x3f794799	0.97374874
9	0x3f8476d3	1.0348762
10	0x3f77e074	0.96826863
11	0x3f83983a	1.0280831
12	0x3f79e724	0.9761832
13	0x3f80141b	1.0006136
14	0x3f7ef706	0.9959568
15	0x3f82374d	1.0173126

net.convblock2.2.bias f4 [16]
0	0xbb565409	-0.0032703897
1	0x3c7faf6f	0.0156057915
2	0xba7604db	-0.0009384879
3	0xbcc31f99	-0.023818778
4	0x3c790499	0.01519885
5	0x3c29f1f2	0.010372626
6	0x3d2c0d9b	0.042005163
7	0xbc8cc262	-0.017182533
8	0xbd4efa0f	-0.050531443
9	0xbd055f0f	-0.032561358
10	0x3cdb4bbd	0.026769513
11	0xbd18564a	-0.037191667
12	0xbc7d2c44	-0.015452448
13	0xbc880ad6	-0.01660673
14	0xbce14939	-0.027500736
15	0x3cfed273	0.03110621

net.convblock3.0.weight f4 [8, 16, 1, 1]
0	0x3e490058	0.19629037
1	0x3d8e37cd	0.06944237
2	0x3e8b6b04	0.27230084
3	0x3d251550	0.04030353
4	0x3db48b9e	0.08815692
5	0x3e7f5360	0.24934149
6	0x3e68bd2e	0.22728416
7	0x3de227e3	0.11042764
8	0xbc90852c	-0.017641626
9	0xbd5e3562	-0.05425013
10	0x3e04ad7c	0.12956804
11	0x3d66ffb9	0.05639622
12	0xbda34361	-0.07971836
13	0x3e393d17	0.1808971
14	0xbdfa7c8e	-0.12230788
15	0x3e07275b	0.13198607
16	0x3d81b74a	0.06333788
17	0xbe13051e	-0.14357421
18	0xbd4a8d22	-0.049451
19	0xbe2b3730	-0.16720271
20	0xbe4f520b	-0.2024614
21	0xbd610fe5	-0.0549468
22	0x3c8e6ab9	0.017384874
23	0x3c13a08f	0.009010448
24	0x3dc10677	0.09425061
25	0x3e11da38	0.142434
26	0x3def6f98	0.11691207
27	0xbe03a06d	-0.12854166
28	0xbe1edf97	-0.1551498
29	0x3d007fc2	0.03137184
30	0x3c823fc8	0.015899554
31	0x3e092a34	0.13395005
32	0x3df26e50	0.11837447
33	0xbe030d20	-0.12797976
34	0xbe4379f8	-0.19089496
35	0xbe103dd2	-0.14086083
36	0xbe2fa4e8	-0.1715275
37	0x3e24a030	0.16076732
38	0xbe3898e1	-0.18027069
39	0xbb970893	-0.0046091764
40	0x3e516903	0.20450215
41	0x3c3b5bf4	0.011435498
42	0x3d520380	0.05127287
43	0xbdda44e8	-0.10657674
44	0xbd523b4e	-0.05132609
45	0xbd9e06e6	-0.077161595
46	0xbe0cf03d	-0.13763519
47	0xbd0783e2	-0.033084758
48	0xbd206c65	-0.039165873
49	0x3e2a836d	0.16651697
50	0xbd8acf69	-0.067778416
51	0xbe330248	-0.17481339
52	0x3e09a748	0.13442719
53	0x3c980e5b	0.018561533
54	0x3e48bc46	0.1960307
55	0xbe50f384	-0.20405394
56	0xbe22282b	-0.15835635
57	0xbd4726ea	-0.048621096
58	0x3e88e5ba	0.26737767
59	0xbe3b93c8	-0.18318093
60	0x3defbd75	0.11706058
61	0x3de05c0d	0.10955057
62	0xbe203f1e	-0.15649077
63	0xbddf2f37	-0.108976774
64	0x3e3aaede	0.18230769
65	0xbd8a0b79	-0.067404695
66	0x3e709e2d	0.2349784
67	0xbd9c1823	-0.07621791
68	0xbd1d7e2d	-0.03845041
69	0x3e4ecb80	0.20194817
70	0x3e6caff2	0.23113993
71	0x3e36690c	0.1781351
72	0xbe364a26	-0.17801723
73	0x3e6e42c4	0.23267657
74	0xbdce5448	-0.10074669
75	0xbe2fbfe4	-0.17163044
76	0x3e4173d2	0.18891838
77	0x3e734ab3	0.23758964
78	0x3dbc3c6e	0.091912135
79	0x3e3ad9fe	0.1824722
80	0xbe2c8aee	-0.16849872
81	0xbdfc3a30	-0.12315786
82	0xbde75d8a	-0.11297138
83	0x3e8a01d2	0.26954514
84	0x3dea3c48	0.11437279
85	0x3e657b69	0.22410358
86	0x3e1ee289	0.15516104
87	0xbcaecbd4	-0.021337427
88	0xbe62aa1f	-0.22135209
89	0x3dfbb19f	0.12289738
90	0xbe07ca45	-0.13260753
91	0x3e039eb2	0.12853506
92	0xbdd11888	-0.10209757
93	0x3d95185b	0.07280036
94	0xbe2d4dcd	-0.1692421
95	0xbe0c7fe3	-0.1372066
96	0x3e289c53	0.16465883
97	0x3e24f6d8	0.16109788
98	0xbe8c94e3	-0.27457342
99	0x3e191e9d	0.14953084
100	0x3ddf345f	0.10898661
101	0x3dce89b2	0.10084857
102	0x3decda86	0.115651175
103	0x3e711f1d	0.23547025
104	0x3e482ad1	0.19547583
105	0xbda0bfce	-0.07849084
106	0xb99168d7	-0.00027734667
107	0x3e5788b8	0.21048248
108	0xbd3dee57	-0.046369877
109	0xbd2d19cc	-0.04226093
110	0xbe865b42	-0.262415
111	0xbe2540d2	-0.16138008
112	0x3b8bb913	0.004264006
113	0x3e43fe3a	0.19139948
114	0xbc5a28f9	-0.013315433
115	0x3cd1696f	0.02556297
116	0xbe043ba4	-0.12913376
117	0xbdb5196c	-0.088427395
118	0x3cc1e433	0.023668384
119	0xbd1c5c8f	-0.03817421
120	0xbd03531f	-0.032061692
121	0xbe3446d1	-0.1760514
122	0xbc19f5b9	-0.009396964
123	0x3d615eab	0.055021923
124	0xbe1e40e3	-0.1545444
125	0xbe59987f	-0.21249579
126	0xbd9d29c9	-0.076739855
127	0x3e61760a	0.22017685

net.convblock3.0.bias f4 [8]
0	0xbd864f14	-0.06558052
1	0x3dfcc747	0.12342697
2	0x3db676d8	0.089093864
3	0x3e275ecb	0.16344754
4	0xbe005159	-0.12531032
5	0xbdcf3cbc	-0.10119006
6	0xbe65602a	-0.22399965
7	0x3deae75f	0.11469912

net.convblock3.2.weight f4 [8]
0	0x3f836f70	1.0268383
1	0x3f75b49d	0.9597872
2	0x3f84a87b	1.0363916
3	0x3f7b7181	0.9822007
4	0x3f7fdd8d	0.99947435
5	0x3f804aba	1.0022805
6	0x3f7a3b78	0.9774699
7	0x3f8025fd	1.0011593

net.convblock3.2.bias f4 [8]
0	0x3c0b8e5b	0.008517827
1	0xbc5df47f	-0.013547062
2	0x3bf5c50e	0.0075002974
3	0x3cfb2dd6	0.030661505
4	0xbcffb228	-0.031212881
5	0x3c730a53	0.014834004
6	0x3c6451e8	0.013935544
7	0x3c9e5c2a	0.019331057

net.convblock4.0.weight f4 [16, 8, 3, 3]
0	0xbb577922	-0.0032878597
1	0xbe093903	-0.13400654
2	0x3ccf7491	0.025324138
3	0x3daf86c7	0.085706286
4	0xbe135ad1	-0.14390112
5	0x3dd08459	0.10181493
6	0xbd3777a9	-0.04479185
7	0xbd7f1f4e	-0.062285714
8	0x3da55699	0.08073158
9	0xbddfb9f4	-0.109241396
10	0x3cdf212a	0.027237494
11	0x3d96ff98	0.073729694
12	0xbd9ffeee	-0.07812296
13	0xbd905236	-0.070469305
14	0x3dcce384	0.10004333
15	0xbc0ced2f	-0.008601471
16	0xbc8eef6c	-0.01744815
17	0xbc4d732b	-0.012539665
18	0xbd93abf0	-0.07210529
19	0x3e0da6ab	0.1383311
20	0x3dd4669c	0.10371134
21	0x3d04d972	0.032433935
22	0xbc3e0e85	-0.011600141
23	0x3d8c63c0	0.06854963
24	0xbde21d67	-0.11040764
25	0x3e0adb5c	0.13560241
26	0xba46f0fe	-0.0007589011
27	0xbd79cb8b	-0.06098513
28	0x3d48da1e	0.049036138
29	0x3d238204	0.039918914
30	0xbd765205	-0.060136814
31	0x3d0cf118	0.034409612
32	0xbd635e24	-0.0555097
33	0x3d124105	0.03570654
34	0x3dcdd2c3	0.10049965
35	0x3d8172a0	0.06320691
36	0x3d8c2a75	0.068440355
37	0xbd2b7cc9	-0.04186705
38	0xbd9f77b8	-0.077865064
39	0x3d2afa8f	0.041742858
40	0xbda8eab7	-0.08247893
41	0x3c3c9e19	0.011512303
42	0x3c8f8902	0.017521385
43	0x3df8b160	0.121432066
44	0xbd101256	-0.035173737
45	0x3de8fda2	0.113765016
46	0xbc34da02	-0.011038305
47	0xbd8471da	-0.06467028
48	0x3e18f7fb	0.14938347
49	0xbc055582	-0.008138062
50	0xbd506bc3	-0.05088402
51	0xbd0a429c	-0.03375493
52	0xbdae6b37	-0.08516543
53	0xbda0ab9a	-0.078452304
54	0x3d8a0be7	0.067405514
55	0x3b8b4497	0.00425012
56	0x3c46d3ea	0.012135485
57	0x3d77d840	0.060508966
58	0xbdc7fbd9	-0.09764833
59	0xbd989899	-0.07450981
60	0x3d8a0c48	0.06740624
61	0xbc8df1cb	-0.01732721
62	0x3d3e28b9	0.046425555
63	0xbd6a7be1	-0.057247046
64	0xbcf37004	-0.0297165
65	0xba8b46eb	-0.0010625994
66	0xbd505044	-0.050857797
67	0x3cdb5b7d	0.026777023
68	0x3de05bd8	0.10955018
69	0xbcc316b2	-0.023814533
70	0x3ba0c417	0.004906188
71	0xbd5b44f2	-0.05353255
72	0x3d1ac1a8	0.03778234
73	0x3c0514a6	0.008122599
74	0xbd08ea14	-0.03342636
75	0xbd8d2eb1	-0.06893671
76	0x3da0f728	0.07859641
77	0x3d0e455c	0.034734115
78	0xbdba9c60	-0.091118574
79	0x3d397631	0.04527873
80	0x3e150477	0.14552484
81	0xbd667b6f	-0.05627006
82	0xbc89a273	-0.016801095
83	0x3d311353	0.04323132
84	0x3d2190d6	0.039444767
85	0xbd8217e4	-0.06352213
86	0x3d876af2	0.06612195
87	0xbdf3d09d	-0.11905024
88	0xbc2a2c5b	-0.010386552
89	0xbda60c58	-0.08107823
90	0xbddef45a	-0.1088645
91	0x3db470db	0.08810588
92	0xbd9587f1	-0.073013194
93	0x3cfa03ad	0.03051933
94	0xbcae5e1f	-0.021285115
95	0xbc768be7	-0.015048004
96	0xbd751902	-0.059838302
97	0xbd33d47f	-0.043903824
98	0xbd8375cd	-0.06418953
99	0x3cb8f716	0.022578757
100	0xbd5ab6a3	-0.053396832
101	0xbe40676c	-0.18789452
102	0x3d4c147e	0.04982423
103	0xbd303335	-0.043017585
104	0xbcd298db	-0.025707653
105	0x3e120c0c	0.14262408
106	0x3bf5a421	0.0074963723
107	0x3e03efe0	0.12884474
108	0xbd031d43	-0.032010328
109	0x3c7f7eae	0.015594168
110	0x3da265c0	0.079295635
111	0x3d2da824	0.04239668
112	0x3d7d3db9	0.06182644
113	0x3e1da88c	0.15396327
114	0xbdf55ffe	-0.119812
115	0xbcc7afb7	-0.02437578
116	0x3d90757a	0.07053657
117	0xbbff884e	-0.007798231
118	0xbe0fde70	-0.14049697
119	0x3cf9faa6	0.030515026
120	0xbda0b13d	-0.078463055
121	0xbd4e3e44	-0.05035235
122	0x3c01de74	0.007926572
123	0x3ccd5e62	0.02506942
124	0x3d4c0ad6	0.04981502
125	0xbdc0cb6a	-0.09413798
126	0x3d423473	0.0474133
127	0x3d6bcaa8	0.057566315
128	0xbda04f99	-0.07827682
129	0x3c4e808e	0.012603892
130	0xbb3d1d71	-0.002885666
131	0x3c1e3cb3	0.0096580265
132	0x3db33366	0.08750038
133	0xbdd0f35d	-0.10202668
134	0xbdd8ebcc	-0.1059185
135	0x3db756ad	0.08952079
136	0x3ca975cf	0.020686058
137	0xbce77713	-0.028255021
138	0x3d2a9cfa	0.04165361
139	0x3ca69f53	0.020339644
140	0x3e137fd2	0.14404228
141	0xbc04549a	-0.008076811
142	0x3da3ba01	0.07994462
143	0xbca8b800	-0.02059555
144	0xbd913675	-0.07090465
145	0x3d921e8c	0.071347326
146	0xbc67bd22	-0.014144214
147	0x3d5431b0	0.0518052
148	0xbde74898	-0.11293143
149	0xbe11e15c	-0.14246124
150	0x3cc34994	0.023838796
151	0xbd35ce4b	-0.04438619
152	0xbd6cb381	-0.057788376
153	0x3bc05aee	0.0058702147
154	0xbc909d5a	-0.017653156
155	0xbd87f804	-0.06639102
156	0xbe005e2b	-0.12535922
157	0xbd537778	-0.051627606
158	0x3d2060b1	0.039154712
159	0x3d95775c	0.072981566
160	0x3d04d80b	0.032432597
161	0xbd3514eb	-0.044209402
162	0xbe3e2288	-0.1856786
163	0x3d986b11	0.07442296
164	0x3d8470bd	0.064668156
165	0x3d361eb5	0.04446288
166	0xbd5f0bd9	-0.05445466
167	0x3c99a2c6	0.018754374
168	0xbd7df573	-0.062001657
169	0x3cf70e3a	0.030158151
170	0xb9d8e0e2	-0.0004136628
171	0x3daab715	0.083357014
172	0x3d6f7e1f	0.058469888
173	0x3d096a6f	0.03354877
174	0x3d9d560e	0.07682429
175	0xbd8ebde1	-0.0696981
176	0xbe255188	-0.16144383
177	0x3dd9c9e9	0.106342144
178	0xbdbc095a	-0.09181471
179	0xbc57b882	-0.013166549
180	0x3df2f8bf	0.11863851
181	0x3d9b622f	0.075870864
182	0xbdc87cff	-0.09789466
183	0xbc65df73	-0.014030325
184	0x3d643d83	0.055722725
185	0xbbf087da	-0.0073404135
186	0x3da722cc	0.08160934
187	0xbbf0698e	-0.007336802
188	0xbcf53cc1	-0.029936196
189	0x3d8f6c08	0.07003027
190	0xbcfa28a1	-0.030536951
191	0x3db06496	0.08612935
192	0xbc969ce7	-0.018385364
193	0xbd75fc0d	-0.060054827
194	0x3cb7a63a	0.02241813
195	0xbd0f1f25	-0.03494181
196	0x3d69144f	0.056904133
197	0xbd54dd3e	-0.051968805
198	0xbd8fb994	-0.07017818
199	0x3c72e254	0.014824469
200	0xbc919433	-0.017770862
201	0xbd74af96	-0.059737764
202	0x3d251b59	0.040309284
203	0xbde55ec7	-0.11199718
204	0xbde26edb	-0.110563
205	0xbda97ef2	-0.08276166
206	0xbd552c53	-0.052044224
207	0xbdafcbb9	-0.08583779
208	0x3cf2dd4e	0.029646542
209	0xbdf8f735	-0.12156526
210	0x3ba43e22	0.0050122896
211	0x3d8285d4	0.06373182
212	0xbcf8a0f4	-0.030350186
213	0xbd33f47f	-0.04393434
214	0xbce8f3ae	-0.028436508
215	0xbb632536	-0.003465963
216	0xbc872bdd	-0.016500408
217	0x3d554e28	0.05207649
218	0x3dc09465	0.09403304
219	0xbdbd3c39	-0.09240002
220	0xbd1af1c6	-0.03782823
221	0x3d1a36e4	0.037650004
222	0xbd8c670e	-0.068555936
223	0x3de81ea2	0.11333968
224	0xbd8efc4f	-0.06981718
225	0x3cb1f4e1	0.021723213
226	0xbdca15bc	-0.09867427
227	0xbd487962	-0.048943885
228	0xbca9d3ce	-0.02073088
229	0x3d80285c	0.06257698
230	0xbdf4a834	-0.11946145
231	0x3db81fb8	0.08990425
232	0xbc90e376	-0.017686587
233	0xbd7bf8fb	-0.061516743
234	0xbc6eda09	-0.014578351
235	0x3d57f4d3	0.052723717
236	0xbe1b6d19	-0.15178336
237	0x3a798c93	0.00095195434
238	0xbda3f157	-0.08005016
239	0x3ca6ac04	0.020345695
240	0x3b32bee7	0.0027274431
241	0xb97ee6c9	-0.00024309302
242	0x3dee4c19	0.11635608
243	0x3db0d0f2	0.08633603
244	0x3d8de530	0.0692848
245	0xbd13c8cd	-0.03608017
246	0x3dea6765	0.11445502
247	0xbc5f0b34	-0.013613511
248	0xbe0a2117	-0.13489185
249	0xbd8e9b16	-0.06963174
250	0xbd74e2ad	-0.059786487
251	0xbd0d399a	-0.03447876
252	0xbc1ee368	-0.009697773
253	0x3c1e31c7	0.0096554225
254	0x3d0fd5fe	0.03511619
255	0x3c68289f	0.014169841

net.convblock4.0.bias f4 [16]
0	0xbd91217c	-0.07086465
1	0x3d587479	0.052845452
2	0xbb8057d2	-0.003916719
3	0xbd152d43	-0.036420118
4	0x3dac9b2b	0.084280334
5	0xbdd52f4f	-0.10409414
6	0xbcf8971d	-0.030345494
7	0xbdaa97e3	-0.08329751
8	0xba221f97	-0.0006184517
9	0x3d88bd21	0.066766985
10	0xbe020a06	-0.12699136
11	0x3d4cebcc	0.05002956
12	0x3d231f24	0.03982462
13	0xbc287298	-0.0102812275
14	0x3ce41d78	0.027846083
15	0x3dd0d2f9	0.1019649

net.convblock4.2.weight f4 [16]
0	0x3f7e0510	0.99226475
1	0x3f744db1	0.9543105
2	0x3f7cfb4a	0.98820937
3	0x3f73d46c	0.95246005
4	0x3f6d9b4d	0.92815095
5	0x3f858646	1.0431602
6	0x3f80cdce	1.0062807
7	0x3f827f02	1.019501
8	0x3f7dde7a	0.991676
9	0x3f891520	1.0709572
10	0x3f7b7785	0.9822925
11	0x3f8322b4	1.0244966
12	0x3f8301de	1.0234945
13	0x3f83b5c2	1.0289843
14	0x3f8373a1	1.0269662
15	0x3f7da45b	0.9907891

net.convblock4.2.bias f4 [16]
0	0x3cc5fe7e	0.024169203
1	0x3c2716cf	0.010198309
2	0x3ca2531f	0.019815026
3	0x3d1aa6f8	0.03775689
4	0x3c7b853b	0.015351589
5	0xbccdfd91	-0.025145324
6	0xbbcdd6f5	-0.0062817284
7	0xbae39418	-0.0017362861
8	0x3a5c236d	0.0008397613
9	0xbaaed794	-0.0013339394
10	0xbd4b3d8b	-0.04961924
11	0xbb8b328d	-0.0042479695
12	0xbc7bb9e1	-0.015364141
13	0xbca87fc4	-0.020568736
14	0xbd0d4194	-0.03448637
15	0xbb61440d	-0.0034372837

net.convblock5.0.weight f4 [16, 16, 3, 3]
0	0x3d225adb	0.039637428
1	0xbcacc393	-0.02108935
2	0xbd91139d	-0.07083819
3	0x3c029f26	0.007972514
4	0xbd593ad2	-0.05303461
5	0xbddb9647	-0.107220225
6	0xbd4e88af	-0.05042332
7	0xbd3343a3	-0.043765675
8	0x3c854877	0.016269905
9	0xbd8e4702	-0.069471374
10	0x3dafd316	0.08585183
11	0xbd330eb7	-0.043715205
12	0x3cd722e0	0.026261747
13	0xbd65194c	-0.055932328
14	0x3d1870bc	0.037216887
15	0xbd6dcfcc	-0.0580595
16	0x3d8619a2	0.06547858
17	0xbd1b4e25	-0.03791632
18	0xbd86321b	-0.065525256
19	0xbd4a67f7	-0.049415555
20	0x3d16d9e7	0.0368289
21	0x3ced7162	0.02898473
22	0x3c9b72d8	0.01897566
23	0x3cd7c35b	0.02633827
24	0xbd88d7e2	-0.066818014
25	0xbd23d546	-0.039998315
26	0xbcf18d20	-0.029486239
27	0xbc3d8797	-0.011567972
28	0xbc8f6b91	-0.017507346
29	0xbcb268d6	-0.021778505
30	0xbddb2f9b	-0.107024394
31	0x3d9f5cd3	0.07781377
32	0x3a15680d	0.00056994037
33	0xbd08d452	-0.03340561
34	0xbb0aa4e0	-0.0021155402
35	0xbb9f1336	-0.004854585
36	0x3b6e7649	0.0036386421
37	0x3bf36ed4	0.007428983
38	0xbacb820e	-0.001552643
39	0xbd925b9f	-0.071463816
40	0xbd7e7377	-0.062121835
41	0x3c7a8aeb	0.01529191
42	0xbc8296c2	-0.015941028
43	0x3c8f5bd9	0.017499851
44	0xbcb7f1c7	-0.022454156
45	0xbcf4d928	-0.029888704
46	0xbda9c80b	-0.08290108
47	0xbc82b283	-0.015954262
48	0xbc0e60fe	-0.008690117
49	0xbc955fb3	-0.01823411
50	0xbbf946a5	-0.0076072984
51	0x3c824df8	0.015906319
52	0x3d169b0b	0.036768954
53	0xbc8eda6a	-0.017438132
54	0x3d3b6d49	0.04575852
55	0xbd6302b0	-0.055422485
56	0x3d9481a0	0.072512865
57	0xbd227634	-0.03966351
58	0xbc5db3eb	-0.013531665
59	0xbd9af09b	-0.07565423
60	0x3d44cb2d	0.048045326
61	0x3d5dbcbe	0.054135077
62	0xbcf0fac7	-0.029416455
63	0xbd23e46f	-0.040012773
64	0x3cb61c0c	0.02223017
65	0xbda0d0e9	-0.078523465
66	0xbb48c96a	-0.003063763
67	0xbd0c1afa	-0.034205414
68	0xbce37b4c	-0.027768753
69	0xbd9807f2	-0.074233904
70	0xbd834ce0	-0.06411147
71	0xbe038493	-0.12843542
72	0xbd8e7414	-0.06955734
73	0xbbdbacc4	-0.006703945
74	0x3d722f02	0.05912686
75	0x3d2c7c75	0.04211088
76	0x3c95a20d	0.018265748
77	0x3d73f456	0.05955919
78	0x3d67f920	0.05663407
79	0xbd613d60	-0.054990172
80	0xbb0a2033	-0.002107632
81	0x3de93202	0.11386491
82	0xbd6ad9e2	-0.057336695
83	0xbca872a9	-0.020562487
84	0x3dc54230	0.09631765
85	0xbd82bdc4	-0.06383851
86	0x3b0265e8	0.0019897167
87	0xbd4ef9e4	-0.050531283
88	0xbdac413c	-0.0841088
89	0xbd55ac51	-0.052166287
90	0xbd0d3c8b	-0.034481566
91	0xbc04ed3e	-0.008113204
92	0xbcccf004	-0.025016792
93	0xbcd4cba1	-0.025976004
94	0x3d0dd6c0	0.03462863
95	0x3c8c1446	0.01709951
96	0xbb92c1b0	-0.0044786558
97	0xbda075ea	-0.0783499
98	0xbda1c4ea	-0.078988865
99	0xbcf80e37	-0.030280216
100	0x3cbf45fc	0.0233488
101	0xbddd7eff	-0.10815238
102	0x3d4813b8	0.04884693
103	0x3b9bdbeb	0.004756441
104	0x3cb81b92	0.022474084
105	0x3ca6a28e	0.020341184
106	0xbd3b9895	-0.04579981
107	0xbcd9bf9d	-0.026580626
108	0x3d5149c1	0.051095728
109	0x3d8d6213	0.06903472
110	0xbd9f87da	-0.077895835
111	0x3cbb28cf	0.022846607
112	0x3d10a655	0.035314877
113	0x3d7a8df1	0.061170522
114	0xbd082ef7	-0.033247914
115	0x3d7c394f	0.06157809
116	0xbd9a6d9b	-0.07540437
117	0xbd2bcec6	-0.04194524
118	0xbd07fe02	-0.033201225
119	0x3d2d7d32	0.042355724
120	0x3d20b993	0.039239477
121	0x3cd5615a	0.026047397
122	0x3cd4fe42	0.026000146
123	0x3dfd8bf3	0.12380209
124	0x3c1c07b2	0.009523319
125	0x3ba5d220	0.0050604492
126	0x3da0d0d5	0.078523315
127	0xbba86456	-0.005138914
128	0x3da4317f	0.08017253
129	0x3d4e9d58	0.050443023
130	0x3d7dccbe	0.061962835
131	0x3d3f1c54	0.046657875
132	0x3d365a9a	0.044519998
133	0xbd99f6f3	-0.07517805
134	0xbd986e93	-0.07442965
135	0xbc2232a7	-0.009899772
136	0x3a6401ab	0.00086977583
137	0xbc4a258f	-0.012338056
138	0xbc63f419	-0.013913178
139	0xbd659d83	-0.056058418
140	0x3c5422ee	0.012947781
141	0xbcb1233a	-0.021623243
142	0xbdd0cf7e	-0.10195826
143	0xbd2dcb8e	-0.042430453
144	0xbb35f0aa	-0.0027761855
145	0xbd052f15	-0.032515604
146	0xbe010884	-0.12600905
147	0xbd8cd643	-0.06876805
148	0xbb77d3f6	-0.0037815548
149	0x3d62b379	0.05534694
150	0xb9d865ce	-0.0004127458
151	0xbd2c834f	-0.042117413
152	0xbd696150	-0.05697757
153	0x3c5ccfe3	0.013477298
154	0x3d583593	0.052785467
155	0x3d3abc29	0.0455896
156	0x3d46a339	0.048495505
157	0xbd924c96	-0.07143514
158	0xbcfcaf93	-0.030845439
159	0x3cc43267	0.023949815
160	0xbb07f09b	-0.0020742777
161	0xbc19cbd4	-0.009386975
162	0xbb39ec4b	-0.0028369601
163	0xbd186b37	-0.037211623
164	0x3d962cf1	0.07332791
165	0x3d88debe	0.0668311
166	0x3cf5294f	0.029926924
167	0x3cf7d7ff	0.030254362
168	0x3d51c3a3	0.051211964
169	0x3d4a219b	0.049348455
170	0x3bf80b5c	0.0075697135
171	0xbc95a0c5	-0.018265137
172	0xbdac2f90	-0.08407509
173	0xbd95af69	-0.073088475
174	0xbd5c1f4b	-0.05374078
175	0xbaf80c1b	-0.0018924506
176	0xbbd664d3	-0.006542781
177	0xb54be97e	-7.596317e-07
178	0x3ce882a4	0.028382607
179	0x3d1f3b44	0.03887488
180	0x3d8dd34f	0.069250695
181	0xbc112a31	-0.008860157
182	0x3b6a4434	0.0035746219
183	0x3da4fcf6	0.08056061
184	0x3c7fb835	0.015607883
185	0xbda8be09	-0.08239371
186	0x3cf21b3f	0.029554008
187	0xbd32c4e1	-0.04364479
188	0xbd8a7c14	-0.06761947
189	0xbc895fe9	-0.016769366
190	0x3dc2ec8a	0.095177725
191	0xbcd96d14	-0.02654127
192	0x3cf57c5d	0.029966528
193	0xbc9d9bdd	-0.01923936
194	0x3d025113	0.0318156
195	0x3cb8d58a	0.02256276
196	0x3d84cd6d	0.06484494
197	0x3d836de8	0.06417447
198	0x3d874252	0.066044465
199	0x3c486612	0.012231367
200	0x3da231be	0.07919644
201	0xbd9fa0ed	-0.07794366
202	0x3cc35e64	0.02384872
203	0xbcf17c10	-0.029478103
204	0x3dba6586	0.09101395
205	0x3c7619e2	0.015020819
206	0x3d81ac1f	0.063316576
207	0x3d1823d7	0.037143555
208	0xbc509d91	-0.012732879
209	0xbceccc55	-0.028906027
210	0x3b04a120	0.002023764
211	0x3db6560d	0.08903132
212	0xbd6216d2	-0.055197544
213	0xbd054a2b	-0.032541435
214	0xbd6f002c	-0.058349773
215	0x3cbb2946	0.02284683
216	0x39e3f275	0.00043477459
217	0x3c551b06	0.013006931
218	0x3c604834	0.01368909
219	0x3db44853	0.08802857
220	0x3d54b832	0.051933475
221	0xbd4c9b83	-0.049952995
222	0x3d9cdffe	0.076599106
223	0x3d84f600	0.06492233
224	0xbd37eef7	-0.04490563
225	0xbb546096	-0.0032406203
226	0xbb9829ca	-0.0046436535
227	0xbdcd995e	-0.10039018
228	0x3c992aae	0.01869711
229	0xbda8ee5c	-0.082485884
230	0x3bd10bb8	0.006379571
231	0xbd7fe6d2	-0.062475987
232	0x3d627212	0.055284567
233	0xbb6066b0	-0.0034240894
234	0xbd39d68d	-0.045370627
235	0x3d998c54	0.074974686
236	0xbc9d1cf0	-0.019178838
237	0x3cd8eccd	0.026480103
238	0x3ca45975	0.020062188
239	0x3d4359a9	0.04769293
240	0xbd1c3830	-0.038139522
241	0xbce46fad	-0.027885282
242	0xbd1ffff1	-0.039062444
243	0xbd43885d	-0.047737468
244	0xbde882c3	-0.11353066
245	0x3c8c42a0	0.017121613
246	0xbd656504	-0.05600454
247	0x3d7378ce	0.05944138
248	0xbd214e3a	-0.039381243
249	0xbcd4c5ed	-0.025973285
250	0xbd16cad1	-0.036814515
251	0xbd7dcd6b	-0.06196348
252	0xbd9c9bd3	-0.076469086
253	0x3c8a369b	0.016871741
254	0xbdb3aa59	-0.087727256
255	0x3c657277	0.014004341

net.convblock5.0.bias f4 [16]
0	0xbd3afad0	-0.04564935
1	0xbda4a1a6	-0.080386445
2	0x3d17a6ea	0.037024416
3	0x3c9c88b4	0.019108154
4	0xbd322c2e	-0.043499164
5	0xbdb42140	-0.087954044
6	0xbce9b2f8	-0.028527722
7	0xbd8576ff	-0.06516837
8	0x3c637ee7	0.013885236
9	0x3d0e5f80	0.034759045
10	0x3b1e0b18	0.00241155
11	0x3d2391a6	0.039933823
12	0x3d31a131	0.043366615
13	0x3ad1cee1	0.0016007089
14	0xbd89ab9d	-0.06722186
15	0x3d0c66fd	0.034277905

net.convblock5.2.weight f4 [16]
0	0x3f7625d5	0.9615148
1	0x3f751a5e	0.9574336
2	0x3f853184	1.0405736
3	0x3f73a3e8	0.95171976
4	0x3f81cfe3	1.0141567
5	0x3f8501f4	1.0391221
6	0x3f820401	1.0157472
7	0x3f886c74	1.0658097
8	0x3f84b373	1.0367264
9	0x3f7c50d4	0.98560834
10	0x3f814f84	1.0102391
11	0x3f7b188c	0.9808433
12	0x3f75db20	0.96037483
13	0x3f823d18	1.0174894
14	0x3f7a00b1	0.97657305
15	0x3f849bcd	1.0360047

net.convblock5.2.bias f4 [16]
0	0xbbadabcd	-0.0053000213
1	0xbd40c939	-0.0470669
2	0xbcdb7957	-0.026791258
3	0x3af71a7c	0.0018852497
4	0xbd417f19	-0.04724035
5	0xbc96a7e8	-0.01839061
6	0xbca05b66	-0.019574832
7	0xbb61575f	-0.0034384353
8	0xbc34a610	-0.0110259205
9	0xbaaf1383	-0.0013357255
10	0xbd4266c9	-0.047461305
11	0xbc91d574	-0.017801978
12	0x3c1a62d2	0.009422975
13	0xbae1c511	-0.0017224868
14	0x3b560b5b	0.0032660577
15	0xbd6a7507	-0.057240512

net.convblock6.0.weight f4 [16, 16, 3, 3]
0	0x3c0f763e	0.0087562185
1	0xbd500e4f	-0.050794896
2	0x3c950f16	0.01819567
3	0x3d0892fe	0.033343308
4	0x3d2ca2bd	0.042147387
5	0xbd16a339	-0.036776755
6	0x3dbe7ac6	0.09300761
7	0xbd43993b	-0.047753554
8	0xbd34e158	-0.044160217
9	0xbafea0f2	-0.0019426628
10	0xbd53ed4d	-0.05173998
11	0x3c8da0f3	0.01728866
12	0x3d9f0fdc	0.07766697
13	0x3da1c9d1	0.078998215
14	0x3cc05dbb	0.023482194
15	0x3d70b71e	0.058768384
16	0xbd5599bf	-0.052148577
17	0xbcfd9eed	-0.03095957
18	0xbd010cfb	-0.03150652
19	0xbd6ae5b6	-0.057347976
20	0x3cc45b5d	0.023969347
21	0xbd9c465a	-0.07630606
22	0xbd209427	-0.03920379
23	0x3cab355c	0.020899467
24	0xbd86009f	-0.06543087
25	0xbc8a47bd	-0.01687991
26	0xbcea0742	-0.028567914
27	0x3ca464dd	0.020067627
28	0x3d02a695	0.031897146
29	0x3ceabb0b	0.028653642
30	0xbd384f00	-0.044997215
31	0x3d1d6e98	0.03843555
32	0xbc245080	-0.010028958
33	0x3a9ed79f	0.0012118703
34	0xbd1541d6	-0.03643974
35	0x3c977c5e	0.01849192
36	0xbddb7180	-0.10715008
37	0x3d0af203	0.033922207
38	0x3c9e0615	0.01929001
39	0xbd86b4b0	-0.06577432
40	0xbd28fd00	-0.041256905
41	0xbd11f395	-0.03563269
42	0xbd89516e	-0.067049846
43	0xbd252561	-0.04031885
44	0xbe109683	-0.14119916
45	0x3cfa8877	0.03058265
46	0xbdac32ec	-0.0840815
47	0xbca219be	-0.019787665
48	0x39d5c123	0.00040770424
49	0xbcfc11cf	-0.03077021
50	0xbba6d3ce	-0.005091167
51	0x3bebe0a1	0.0071984087
52	0xbbbdb798	-0.0057897083
53	0x3bef14fa	0.007296202
54	0xbc4f2d81	-0.012645126
55	0x3be22203	0.006901027
56	0xbde94be4	-0.11391428
57	0x3bccb1a9	0.0062467647
58	0x3d08d4dd	0.033406127
59	0xbd15c95c	-0.036568984
60	0xbbbdab29	-0.005788226
61	0x3cb1b280	0.02169156
62	0xbdf67b7d	-0.12035272
63	0x3bc000f6	0.0058594896
64	0x3a8d7426	0.0010792061
65	0xbd1399f4	-0.036035493
66	0x3d920375	0.071295656
67	0x3d020b39	0.031748984
68	0xbd6ce7b4	-0.057838157
69	0xbd98e9d3	-0.074664734
70	0x3cd8ff1e	0.026488837
71	0xbdfa1992	-0.122119084
72	0xbd73321e	-0.059373967
73	0x3c8659b9	0.016400205
74	0xbd256584	-0.040380016
75	0x3d86bb2f	0.06578671
76	0x3cc05ddb	0.023482254
77	0x3d07a0fb	0.033112507
78	0x3d0c034b	0.034182828
79	0xbd38e120	-0.04513657
80	0x3d67aea1	0.056563023
81	0x3d055283	0.032549392
82	0x3d019952	0.03164036
83	0xbaf505b3	-0.0018693715
84	0xbd98de4a	-0.07464273
85	0x3d4320b7	0.04763862
86	0xbc2fd2db	-0.010731424
87	0x3d3d0bff	0.04615402
88	0xbd8a6101	-0.06756783
89	0x3c5d7972	0.013517724
90	0x3c695cda	0.014243329
91	0xbd4b1289	-0.049578223
92	0xbd2dda16	-0.04244431
93	0x3c9d8f22	0.01923329
94	0x39445edc	0.00018727354
95	0xbd8e0c6d	-0.06935964
96	0xbdd54ca3	-0.10415008
97	0xbd25d68a	-0.040487804
98	0xbdbfec30	-0.09371221
99	0x3da93a7e	0.082631096
100	0xbdc12eff	-0.09432792
101	0xbd523627	-0.051321175
102	0xbd471fc2	-0.04861427
103	0xbb9d036f	-0.004791669
104	0x3d0b2536	0.033971034
105	0x3d210d53	0.039319348
106	0x3d8a87f7	0.067642145
107	0x3d040926	0.032235287
108	0xbc950fa3	-0.018195933
109	0x3c8a6a35	0.016896347
110	0x3da6bed5	0.08141867
111	0x3d8bc0b8	0.068238676
112	0x3cca2f68	0.024680808
113	0xbd04bd9b	-0.032407384
114	0x3d3c4e2f	0.045973
115	0xbaf3a291	-0.0018587877
116	0xbd9200ad	-0.07129035
117	0xbd92539a	-0.07144852
118	0x3c6a35dc	0.014295068
119	0xbcc94dea	-0.024573285
120	0x3d5704b5	0.052494723
121	0x3d71e1cd	0.05905323
122	0xbd927051	-0.07150329
123	0x3c92b151	0.017906817
124	0xbdc54b0d	-0.096334554
125	0xbdc59efc	-0.096494645
126	0xbd1a04f9	-0.0376024
127	0x3b2f9686	0.00267926
128	0x3d06fcc0	0.032955885
129	0xbd03d16a	-0.032182135
130	0xbd222a91	-0.039591376
131	0x3d90f63d	0.07078216
132	0xbd8706e9	-0.06593115
133	0xbd23c7c1	-0.039985422
134	0x3d5e153f	0.05421948
135	0x3d7872ef	0.060656484
136	0x3d66a560	0.056310058
137	0x3d7f12bd	0.06227373
138	0x3d9c0550	0.07618201
139	0x3a02163e	0.0004962421
140	0xbcf7c952	-0.030247364
141	0x3d380544	0.044926897
142	0x3cdc29f0	0.026875466
143	0xbd4eb1f8	-0.050462693
144	0x3d33af88	0.04386857
145	0x3d569d39	0.052396033
146	0xbb8a530b	-0.0042213253
147	0x3dbd2716	0.09235971
148	0xbda9fd4c	-0.08300266
149	0xbdc3ca30	-0.095600486
150	0x3cdf6434	0.02726946
151	0xbd60a767	-0.054847147
152	0x3d09aaf4	0.0336103
153	0xbd0f690c	-0.03501229
154	0xbca28d3e	-0.01984274
155	0xbdb79e27	-0.08965712
156	0xbdc6663f	-0.09687471
157	0xbe05f3ea	-0.13081327
158	0x3c81f2ad	0.015862787
159	0x3cae1246	0.021248948
160	0xbd93565b	-0.071942054
161	0xbcbaab5a	-0.022786785
162	0xbdca9813	-0.09892287
163	0x3d093ff7	0.033508267
164	0x3c3a416c	0.011368137
165	0xbcc552d7	-0.024087353
166	0xbcd0d675	-0.025492886
167	0xbd9f603d	-0.07782028
168	0xbd5f10c5	-0.054459352
169	0xbdf0df61	-0.11761356
170	0xbd9a512a	-0.07535012
171	0xbddcb5af	-0.10776841
172	0x3cfcebcf	0.030874161
173	0x3d037b77	0.032100167
174	0x3c861961	0.016369523
175	0xbda1603f	-0.078796856
176	0xbbdfcb13	-0.0068296283
177	0xbc3c25da	-0.011483634
178	0xbdbdbbc2	-0.092643276
179	0x3cc72194	0.024308003
180	0xbc13f895	-0.009031435
181	0xbcb7ed88	-0.02245213
182	0xbd0ba25c	-0.034090385
183	0xbd6df141	-0.058091406
184	0xbd38a1b1	-0.045076076
185	0xbde21f9f	-0.110411875
186	0x3d2b8d7e	0.041882984
187	0xbd5b8048	-0.053589135
188	0xbe01b8b6	-0.12668118
189	0x3b8bab4b	0.004262363
190	0x3d91fd3c	0.07128379
191	0xbd5a91a1	-0.05336154
192	0xbbf52b02	-0.0074819336
193	0xbdb49e2d	-0.08819232
194	0xbdb0610d	-0.08612261
195	0xbccf238e	-0.025285508
196	0xbda8aa87	-0.082356505
197	0x3d8c0808	0.06837469
198	0x3dbee834	0.09321633
199	0x3dc6402a	0.09680207
200	0x3ce21cd0	0.02760163
201	0xbd275411	-0.040851656
202	0x3d47950b	0.048726123
203	0xbd0b458f	-0.034001883
204	0x3dc1656c	0.09443173
205	0xbccf1f26	-0.025283407
206	0xbddda50d	-0.108224966
207	0x3d4154b1	0.04719991
208	0x3d0667de	0.0328139
209	0x3dcbf0a5	0.09958009
210	0x3e137876	0.14401421
211	0x3dc1d41c	0.09464285
212	0xbd6d8384	-0.05798675
213	0xbcd0e895	-0.025501529
214	0xbcd746d9	-0.0262789
215	0xbc086068	-0.008323766
216	0xbd8275cb	-0.063701235
217	0x3c7ce7b1	0.015436099
218	0xbe0e4330	-0.13892817
219	0xbc86090d	-0.016361738
220	0x3bc1ffff	0.0059204097
221	0x3c81dddf	0.015852867
222	0xbd0ed975	-0.034875352
223	0x3d21e6f5	0.0395269
224	0x3cab9025	0.020942757
225	0x3ce291a0	0.02765733
226	0xbc8f67f5	-0.017505625
227	0xbc5fb029	-0.01365284
228	0x3c6097ca	0.013708064
229	0xbd666fbe	-0.05625891
230	0xbc255d11	-0.01009299
231	0xbca99f16	-0.02070574
232	0xbc4f0f3f	-0.012637912
233	0x3d87b2e7	0.0662592
234	0x3c9919d3	0.018689072
235	0xbd519bd0	-0.051173985
236	0xbcf87f65	-0.030334184
237	0x3d606d06	0.054791473
238	0xbc978c85	-0.018499622
239	0xbde4547a	-0.11148925
240	0x3cf6109d	0.030037219
241	0xbe2488fc	-0.1606788
242	0xbe005273	-0.12531452
243	0xbd8748b5	-0.06605665
244	0xbc51edd1	-0.0128130475
245	0x3acaeb53	0.0015481509
246	0xbd825714	-0.06364265
247	0xbd190943	-0.03736235
248	0xbd0aee25	-0.03391852
249	0xbd5fe359	-0.054660175
250	0xbd460742	-0.048346765
251	0x3b2a9e09	0.0026034138
252	0xbdbe03e7	-0.09278088
253	0xbc93f6a1	-0.018061938
254	0x3d06ca0e	0.032907538
255	0xbd2a543b	-0.041584235

net.convblock6.0.bias f4 [16]
0	0xbc41af93	-0.011821645
1	0x3dba7e20	0.09106088
2	0xbda48760	-0.08033633
3	0xbd2f8890	-0.042854846
4	0xbcb9a39e	-0.022661027
5	0x3bfc1e94	0.007694075
6	0x3c11d672	0.008901225
7	0xbd2496e3	-0.04018296
8	0xbd1a34ca	-0.037648
9	0xbde5abee	-0.112144336
10	0xbd733a5f	-0.05938184
11	0xbc210da9	-0.009829917
12	0x3d454070	0.048157156
13	0x3d06ce61	0.032911662
14	0x3d432eda	0.047652103
15	0xbcfca15f	-0.030838666

net.convblock6.2.weight f4 [16]
0	0x3f8038fd	1.0017391
1	0x3f845c80	1.0340729
2	0x3f7ec1af	0.9951429
3	0x3f81b672	1.0133803
4	0x3f7d6ba8	0.98992395
5	0x3f81fa46	1.0154502
6	0x3f7d8902	0.9903718
7	0x3f7fdd99	0.99947506
8	0x3f7f10f7	0.9963526
9	0x3f80e2ff	1.0069274
10	0x3f7b89c8	0.9825711
11	0x3f81c1b8	1.0137243
12	0x3f71babb	0.94425553
13	0x3f85a126	1.0439804
14	0x3f83888d	1.0276047
15	0x3f8019e9	1.0007907

net.convblock6.2.bias f4 [16]
0	0xbddb8bc4	-0.107200176
1	0xbde8ca7c	-0.11366746
2	0xbd84ca63	-0.06483915
3	0xbd7bb590	-0.06145245
4	0xbd525953	-0.051354717
5	0xbbe8f270	-0.007108979
6	0xbdc9afd5	-0.098479904
7	0xbd7592ab	-0.059954327
8	0xbd94fcba	-0.07274766
9	0xbc4d36ce	-0.0125252735
10	0xbdd111a6	-0.10208444
11	0xbdb64aff	-0.08901023
12	0xbd3ec03a	-0.04657004
13	0xbd19fc86	-0.03759434
14	0xbdefd79d	-0.11711047
15	0xbcb427d4	-0.021991648

net.convblock7.0.weight f4 [8, 16, 1, 1]
0	0xbe3ef147	-0.18646728
1	0x3c5a94ad	0.013341111
2	0x3e93d0c4	0.28870213
3	0xbdbb4504	-0.09144023
4	0x3cdd1c7b	0.02699112
5	0xbde48875	-0.111588396
6	0xbd8d79e9	-0.06908018
7	0xbe6a1d3b	-0.22862713
8	0xbe87507b	-0.2642859
9	0x3df232fe	0.11826132
10	0xbe9339f6	-0.28755158
11	0x3c2f1e03	0.010688308
12	0x3d66b83d	0.056328047
13	0x3e67c3b3	0.22633247
14	0x3d08d38f	0.033404883
15	0x3d62e991	0.055398528
16	0xbe1a5cb3	-0.15074424
17	0xbdb345b6	-0.08753531
18	0xbe707314	-0.23481399
19	0xbe818e8c	-0.25304067
20	0x3e5b04dc	0.21388572
21	0x3e2274db	0.1586489
22	0xbe28696f	-0.1644647
23	0xbe6572d3	-0.22407083
24	0x3e00f3bf	0.12592982
25	0xbe3dea3b	-0.18546383
26	0xbe07b7ae	-0.13253662
27	0xbdb4b3a9	-0.0882333
28	0x3e0bb394	0.13642722
29	0xbe32866d	-0.17434092
30	0xbe19f8f7	-0.15036379
31	0x3e52c5a2	0.20583203
32	0xbe8603d5	-0.261748
33	0xbe48efa7	-0.1962267
34	0xbe77de9b	-0.24206011
35	0xba085d29	-0.000520187
36	0xbdf6b0bf	-0.120454304
37	0x3e03aa17	0.12857853
38	0xbe9cf78c	-0.30657613
39	0x3e084ec5	0.13311298
40	0x3e70dd53	0.23521928
41	0xbda04a79	-0.078267045
42	0x3e36ea49	0.1786281
43	0xbe4a6c40	-0.19767857
44	0xbbba6650	-0.005688466
45	0xbddacd4b	-0.10683688
46	0x3d0744a9	0.033024464
47	0xbd968b06	-0.07350735
48	0xbc553397	-0.013012788
49	0xbe8f5146	-0.27991694
50	0xbe308aef	-0.17240499
51	0xbcc3cf0d	-0.02390244
52	0x3d03a82c	0.032142803
53	0x3c9125ee	0.017718282
54	0xbdabdc53	-0.08391633
55	0xbe327ed6	-0.17431197
56	0xbdfddb59	-0.12395353
57	0x3e59762b	0.21236484
58	0xbe092be3	-0.13395648
59	0x3e4d1a95	0.20029671
60	0x3e6928db	0.22769491
61	0x3dbdf518	0.092752635
62	0x3bba0199	0.00567646
63	0xbe033737	-0.12814032
64	0xbc9de8df	-0.01927608
65	0xbd3c9479	-0.046040032
66	0x3c825081	0.015907528
67	0x3e74873c	0.23879713
68	0xbd13fcf5	-0.03612991
69	0xbe0242c6	-0.12720785
70	0x3cf4ecdd	0.029898101
71	0x3e00e0cd	0.12585755
72	0xbdae9c32	-0.08525886
73	0x3e825fda	0.25463754
74	0xbe28fb41	-0.16502096
75	0x3e753f2f	0.23949884
76	0xbdb9c94b	-0.09071597
77	0x3e3f5a07	0.18686686
78	0x3e2d1813	0.16903715
79	0x3d8692de	0.065709814
80	0xbd07427e	-0.033022396
81	0x39f232fc	0.00046195823
82	0x3e0e1aa3	0.13877349
83	0x3d0e178e	0.034690432
84	0xbe804e77	-0.25059864
85	0xbde2a4d3	-0.11066594
86	0xbd97475d	-0.07386658
87	0x3de6b318	0.11264628
88	0x3de27c52	0.110588685
89	0x3e8249d5	0.25446954
90	0xbe1bff3a	-0.1523408
91	0xbe1027ae	-0.14077637
92	0xbe2cbfa3	-0.16869979
93	0x3e4c3b42	0.1994448
94	0xb9412a8a	-0.00018421761
95	0x3d670e86	0.056410335
96	0x3e26277a	0.16225997
97	0xbd64c41f	-0.0558511
98	0x3d985504	0.074380904
99	0xbe6dc42a	-0.23219362
100	0x3e6bd545	0.23030575
101	0xbe31bdea	-0.17357603
102	0x3d37c975	0.04486986
103	0x3dbd53c4	0.09244493
104	0xbc61b3a3	-0.013775739
105	0x3e016c08	0.12638867
106	0x3dc3ed03	0.09566691
107	0xbb72c716	-0.0037044934
108	0xbe1b0c9e	-0.15141532
109	0x3da2fa0c	0.07957849
110	0x3e8db69c	0.27678382
111	0x3e0e1ce5	0.1387821
112	0x3dfaf5c8	0.1225391
113	0x3bef0d54	0.00729529
114	0x3e3365a5	0.17519243
115	0xbe48e767	-0.19619523
116	0xbe6ed6c5	-0.23324116
117	0x3e688c17	0.2270969
118	0xbcfd235b	-0.030900648
119	0x3dad962b	0.08475908
120	0xbe4e943c	-0.20173734
121	0xbce29a16	-0.027661365
122	0xbe855ae5	-0.2604591
123	0xbe00b996	-0.12570795
124	0xbdad6f8b	-0.08468541
125	0x3e237025	0.15960748
126	0xbe8402b7	-0.2578332
127	0xbd5c32e4	-0.05375947

net.convblock7.0.bias f4 [8]
0	0xbe19d636	-0.15023121
1	0x3e7b9bf0	0.24571204
2	0xbd08be6f	-0.033384737
3	0x3e7a9aa7	0.24473058
4	0x3d0339e0	0.032037616
5	0x3bda28c5	0.006657692
6	0x3e7ff722	0.24996617
7	0xbbfd8df5	-0.00773787

net.convblock7.2.weight f4 [8]
0	0x3f841219	1.0318023
1	0x3f7fc49f	0.99909395
2	0x3f8142cd	1.0098511
3	0x3f6e8d8d	0.9318474
4	0x3f77df1f	0.9682483
5	0x3f808e47	1.004342
6	0x3f7f5c84	0.9975054
7	0x3f84c64f	1.0373019

net.convblock7.2.bias f4 [8]
0	0x3d157ebb	0.036497813
1	0xbc611e37	-0.013740114
2	0x3b899446	0.004198584
3	0xbc8d2520	-0.017229617
4	0x3c342933	0.010996151
5	0x3d05c583	0.032659065
6	0xbdcf2303	-0.101141
7	0x3d84deb2	0.06487788

net.convblock8.0.weight f4 [10, 8, 3, 3]
0	0x3e3fc2ae	0.18726608
1	0xbbcf01da	-0.0063173594
2	0x3d7692be	0.060198538
3	0x3d8a5e4a	0.067562655
4	0xbd6eb275	-0.05827566
5	0x3cb19fa6	0.021682572
6	0x3dee412e	0.11633526
7	0x3e007428	0.1254431
8	0xbc06af30	-0.008220479
9	0xbd43d6e4	-0.047812358
10	0x3def0b38	0.11672062
11	0x3e0b0111	0.13574626
12	0xbbdfe669	-0.006832887
13	0xbd04b487	-0.032398727
14	0x3bef5ce2	0.0073047737
15	0xbd868d91	-0.065699704
16	0xbdb23739	-0.08701939
17	0xbe2fa24c	-0.17151755
18	0xbe0d3535	-0.13789828
19	0xbd46e6ba	-0.04855988
20	0xbd38168e	-0.044943385
21	0xbe0bc7de	-0.13650462
22	0xbd66359e	-0.056203477
23	0x3c3e4438	0.011612944
24	0xbd9f3561	-0.07773853
25	0xbc9e0cff	-0.019293306
26	0xbe1ee837	-0.1551827
27	0xbd016262	-0.031587966
28	0x3d92dccd	0.07171021
29	0x3c54ed64	0.012996051
30	0x3c640dab	0.013919274
31	0x3b6c0ca5	0.003601828
32	0x3d43c047	0.04779079
33	0x3cdfb76d	0.027309144
34	0xbbea3f82	-0.007148684
35	0x3d2e33a8	0.042529732
36	0x3d40786b	0.04698984
37	0xbbf62eda	-0.0075129094
38	0xbbfbbdfb	-0.0076825595
39	0xbd6c6037	-0.057708945
40	0x3d9f1d33	0.07769241
41	0x3dc7ae6e	0.09750067
42	0x3bc739a5	0.00607987
43	0x3d5eaaf5	0.054362256
44	0x3daa9ae9	0.08330328
45	0x3c3b9901	0.011450053
46	0x3d772051	0.060333554
47	0xbe029acf	-0.12754367
48	0xbdbb01e8	-0.09131223
49	0xbc527d49	-0.012847253
50	0x3c998342	0.018739346
51	0xbd7bdd40	-0.061490297
52	0xbce5877c	-0.028018706
53	0xbd150f9b	-0.036391836
54	0x3cd57621	0.026057305
55	0x3bd3a62e	0.006459019
56	0x3c0c5a2c	0.0085664205
57	0x3d9a5a37	0.07536738
58	0xbd6c16d2	-0.05763895
59	0x3d854eef	0.06509196
60	0x3c846d3b	0.016165366
61	0x3cc92fc3	0.024558907
62	0x3cd659de	0.026165899
63	0xbdde9f73	-0.10870256
64	0x3d8fbe95	0.070187725
65	0x3c49d675	0.012319197
66	0xbd59ea13	-0.053201746
67	0x3b8b4178	0.004249748
68	0xbdace456	-0.08441989
69	0xbe02297e	-0.1271114
70	0xbd9eb8ab	-0.07750066
71	0xbcc50a1c	-0.024052672
72	0xb9beca1b	-0.00036390204
73	0x3a164f31	0.00057338463
74	0xbd7036ff	-0.0586462
75	0xbd108226	-0.03528037
76	0x3d7519b7	0.059838977
77	0xbd97d130	-0.07412946
78	0xbdaebc4e	-0.0853201
79	0x3cc1594b	0.023602149
80	0xbd8c251e	-0.06843017
81	0x3d47f65f	0.048818942
82	0xba22ad87	-0.0006205667
83	0x3d239c34	0.03994389
84	0xbcd846a5	-0.026400873
85	0x3ac9c7a9	0.0015394586
86	0xbca71b25	-0.020398686
87	0x3daf1d05	0.08550457
88	0x3d6c74a4	0.057728425
89	0xbb03078c	-0.0019993512
90	0xbd5eec64	-0.05442466
91	0x3d6f9291	0.058489386
92	0xbd5a5a1a	-0.053308584
93	0xbd544376	-0.05182215
94	0xbe0b20da	-0.1358675
95	0x3c8dd822	0.017314974
96	0x3d6e3cd5	0.058163483
97	0xbd8864b4	-0.066598326
98	0xbd537f21	-0.05163491
99	0xbde2d322	-0.11075427
100	0xbd95f25f	-0.07321619
101	0xbd4f14d1	-0.05055696
102	0xbdca4dde	-0.09878133
103	0xbdb1c20b	-0.08679589
104	0x3d7c6478	0.061619252
105	0xbddde24c	-0.10834178
106	0x3b93811e	0.004501476
107	0xbbb0abef	-0.00539159
108	0xbdb4a4f5	-0.088205256
109	0xbdeeb812	-0.116562024
110	0xbe0d503a	-0.13800135
111	0xbdcdb336	-0.100439474
112	0xbca29658	-0.01984708
113	0xbd596d19	-0.05308256
114	0xbe0f3501	-0.13985063
115	0x3cfbcd5f	0.030737577
116	0x3d1d8888	0.038460284
117	0x3c99813f	0.018738387
118	0xbc062790	-0.008188143
119	0x3d7d27ef	0.06180566
120	0xbc9cafdf	-0.01912683
121	0xbde44cab	-0.11147436
122	0x3d90ad1b	0.07064267
123	0x3d3c6347	0.045993116
124	0xbdd74f28	-0.10513145
125	0x3cc4090d	0.023930097
126	0xbbe435fd	-0.0069644437
127	0xb571fcca	-9.014735e-07
128	0x3cc55caa	0.024092037
129	0x3d8fb12f	0.07016217
130	0xbc32aa5b	-0.010904874
131	0x3c888513	0.016665017
132	0xbd14f617	-0.036367502
133	0xbc930bd1	-0.01794997
134	0xbbfcd021	-0.0077152406
135	0x3d2683fa	0.040653206
136	0x3d2dd421	0.04243863
137	0x3d8b4f60	0.06802249
138	0x3d853c1a	0.06505604
139	0xbdd88462	-0.10572125
140	0x3d8f5389	0.06998355
141	0x3dbee0e0	0.09320235
142	0xbe048903	-0.12942891
143	0xbdb762e9	-0.089544125
144	0x3cb72e9e	0.022361096
145	0x3d039845	0.032127637
146	0xba82bc32	-0.00099743
147	0x3d70f030	0.05882281
148	0xbd793cad	-0.06084888
149	0x3d81e055	0.06341616
150	0x3c8a51fd	0.016884798
151	0x3dc10571	0.09424866
152	0x3d38e846	0.04514339
153	0xbdda3bcd	-0.10655937
154	0x3d417476	0.047230206
155	0xbdcb7dd9	-0.09936113
156	0x3b82e499	0.003994536
157	0x3d5bab29	0.053630028
158	0xbd872444	-0.06598714
159	0x3d0f9dba	0.03506253
160	0xbbe776ea	-0.007063736
161	0x3cf49231	0.029854866
162	0x3c3129bb	0.010813172
163	0x3da00259	0.07812948
164	0x3d36b34f	0.044604596
165	0xbd1ee156	-0.038789116
166	0xbdc1ec56	-0.09468906
167	0xbdfc243a	-0.12311597
168	0xbd997fb5	-0.07495061
169	0x3d600059	0.05468783
170	0x3d3e7fec	0.046508715
171	0x3cb6266a	0.022235114
172	0x3ccee9db	0.025257995
173	0x3c23312b	0.009960453
174	0x3c6e8d00	0.014559984
175	0x3c4ec574	0.012620319
176	0x3d042dce	0.032270245
177	0x3cba194e	0.022717144
178	0x3d29bd62	0.041440375
179	0x3d5d086c	0.05396311
180	0xbe0e5ad6	-0.13901839
181	0xbd8b65f4	-0.068065554
182	0xbe14a271	-0.14515091
183	0x3d4dcc1f	0.050243493
184	0xbc01af25	-0.007915293
185	0x3d814e4b	0.06313761
186	0xbc3b5027	-0.011432684
187	0x3c2ff540	0.0107396245
188	0xbd377f75	-0.044799287
189	0x3d7830de	0.06059348
190	0x3cfb98ec	0.030712567
191	0x3d79cc59	0.060985897
192	0xbcd00035	-0.025390724
193	0x3d728e4c	0.059217736
194	0x3d8fef31	0.07028044
195	0xbd29d6e1	-0.04146469
196	0xbde2ae9a	-0.11068459
197	0xbcd2ccbb	-0.025732389
198	0x3c898173	0.016785359
199	0xbd035f9b	-0.0320736
200	0xbcd31563	-0.025767034
201	0xbd17cdd9	-0.037061546
202	0x3d599e7a	0.05312965
203	0xbd3739a5	-0.04473271
204	0xbdb7e29d	-0.0897877
205	0x3b9499bb	0.0045349277
206	0xbd88d3e8	-0.06681043
207	0xbd82a089	-0.06378276
208	0xbda60368	-0.081061184
209	0xbcdbfeb2	-0.026854847
210	0xbd163db1	-0.036679927
211	0xbd761f0a	-0.060088195
212	0xbd067c79	-0.03283355
213	0x3e0fcf27	0.14043866
214	0x3de32179	0.11090369
215	0xbc86d10c	-0.016457103
216	0xbbaab4dc	-0.0052095484
217	0xbdec9370	-0.11551559
218	0xbc5c02ea	-0.013428429
219	0xbddae592	-0.10688318
220	0xbe0373ef	-0.12837194
221	0x3d5b1a7e	0.05349206
222	0x3da76558	0.08173627
223	0xbe390ccd	-0.1807129
224	0x3dade9df	0.08491873
225	0xbd157947	-0.036492612
226	0x3da62713	0.081129216
227	0x3e0f8274	0.14014608
228	0xbc5c82aa	-0.013458887
229	0x3d606bca	0.054790296
230	0xbc985bb0	-0.018598408
231	0x3d3a91fb	0.045549374
232	0x3da12926	0.078691766
233	0x3da0ac6c	0.07845387
234	0x3dc3b73e	0.09556435
235	0x3da9d81a	0.08293171
236	0x3db43c53	0.088005684
237	0x3c726648	0.014794894
238	0x3d806651	0.06269515
239	0x3d07ef66	0.033187293
240	0x3c51795d	0.012785283
241	0x3cd00574	0.025393225
242	0x3de61357	0.112341575
243	0x3dbe120d	0.09280787
244	0xbd08cbe6	-0.033397578
245	0xbd026ec1	-0.031843904
246	0x3db13104	0.08651927
247	0xbdb769be	-0.089557156
248	0x3d54bd62	0.051938422
249	0x3d68664e	0.05673819
250	0x3c1d3fc5	0.009597723
251	0xbd637f10	-0.055541098
252	0xbd0b1a93	-0.03396089
253	0xbdde5137	-0.10855334
254	0xbe32296c	-0.17398614
255	0x3dd21454	0.102577835
