output/csv/version_2/checkpoints/epoch=4-step=275.ckpt (torch, 191717 bytes, 188 tensors)

net.model.convblock1.0.weight f4 [10, 1, 3, 3]
0.023328464 -0.24174446 -0.04174859 0.17961232 -0.17273289 -0.11513656 0.10146913 -0.08986379
-0.035217986 0.09727517 0.015115257 0.06960899 0.17536137 0.009519283 -0.14153033 0.121146716
-0.17340848 -0.036373917 -0.077726945 0.14550684 0.3295173 -0.09967354 0.22165102 0.16415843
-0.23380244 -0.32002243 -0.20320968 -0.24472119 -0.010076326 0.10824718 -0.04010057 -0.055629313
0.058600232 0.05811673 0.1943415 0.31850702 0.2919326 0.10081238 -0.062254198 -0.013718059
0.068232484 0.047246516 0.1729561 -0.03771325 -0.13469467 0.1016435 -0.19692549 0.051082008
-0.21765344 0.2552771 0.08557292 -0.101815276 -0.22845738 -0.13914844 0.10801959 0.2855202
0.173189 0.017138746 0.25877383 0.0076259593 0.21969312 0.31434774 0.26359075 0.118014775
-0.11422731 -0.35324523 0.11091461 -0.03561819 0.043698404 -0.18142924 -0.2550685 0.017142346
-0.02286653 -0.2518227 0.20886694 0.15885568 -0.07896872 -0.20141229 0.15128002 0.2810287
0.29572368 0.1952328 0.06027819 0.22597231 0.26113656 0.33546656 -0.27698064 -0.04591658
0.13199995 0.061310083
00000000: 561b bf3c dc8b 77be 9200 2bbd 4bec 373e
00000010: e4e0 30be b7cc ebbd 0ccf cf3d 820a b8bd
00000020: bc40 10bd 3438 c73d fca5 773c 288f 8e3d
00000030: ee91 333e c4f6 1b3c 54ed 10be c51b f83d
00000040: fe91 31be d1fc 14bd 4e2f 9fbd bfff 143e
00000050: 7eb6 a83e a421 ccbd 7cf8 623e 2619 283e
00000060: e869 6fbe fbd9 a3be 3316 50be 3198 7abe
00000070: 2d17 25bc b3b0 dd3d 7f40 24bd 90db 63bd
00000080: cc06 703d cf0b 6e3d 7501 473e 5a13 a33e
00000090: 3178 953e b976 ce3d 42fe 7ebd b6c1 60bc
000000a0: 79bd 8b3d 9085 413d 671b 313e 3579 1abd
000000b0: 66ed 09be 782a d03d d6a6 49be 5e3b 513d
000000c0: 8be0 5ebe aeb3 823e db40 af3d 8784 d0bd
000000d0: bbf0 69be ee7c 0ebe 6039 dd3d b42f 923e
000000e0: 7558 313e 8e66 8c3c 017e 843e 2fe3 f93b
000000f0: 3cf7 603e 30f2 a03e 5ef5 863e bbb1 f13d
00000100: 02f0 e9bd 8fdc b4be 3327 e33d 61e4 11bd
00000110: 19fd 323d 96c8 39be 5798 82be 1b6e 8c3c
00000120: 9752 bbbc e8ee 80be 37e1 553e 10ab 223e
00000130: 5aba a1bd 063f 4ebe 26e9 1a3e fee2 8f3e
00000140: 1869 973e 1beb 473e 43e6 763d 4965 673e
00000150: b1b3 853e 46c2 ab3e 68d0 8dbe 0613 3cbd
00000160: ff2a 073e 4820 7b3d

net.model.convblock1.0.bias f4 [10]
0.20532678 -0.08987534 0.15055373 -0.21023513 0.29610667 0.030880839 0.0129441 0.29745007
-0.051958077 -0.15002607
00000000: 2f41 523e 9010 b8bd c22a 1a3e e147 57be
00000010: 4b9b 973e d0f9 fc3c 7e13 543c 604b 983e
00000020: fed1 54bd 6fa0 19be

net.model.convblock1.2.weight f4 [10]
0.96935165 1.0258493 1.025725 1.0266671 0.9994626 0.9668792 0.9481545 0.99737024
1.0034301 1.0266888
00000000: 6e27 783f 084f 833f f54a 833f d469 833f
00000010: c8dc 7f3f 6585 773f 41ba 723f a853 7f3f
00000020: 6670 803f 8a6a 833f

net.model.convblock1.2.bias f4 [10]
-0.0509455 0.030445443 -0.04078519 -0.013364299 -0.010222674 -0.0356859 0.028159667 0.054890055
0.040211845 0.0438408
00000000: 3bac 50bd b968 f93c 5f0e 27bd eff5 5abc
00000010: 017d 27bc 612b 12bd 1aaf e63c 65d4 603d
00000020: 2db5 243d 6992 333d

net.model.convblock1.2.running_mean f4 [10]
0.31513545 0.07215795 0.25215906 0.14408243 0.313724 0.145065 0.51524156 0.44104895
0.18128534 0.27620593
00000000: 6f59 a13e 8cc7 933d fe1a 813e 588a 133e
00000010: 6fa0 a03e eb8b 143e dfe6 033f 2bd1 e13e
00000020: dda2 393e dd6a 8d3e

net.model.convblock1.2.running_var f4 [10]
0.031507183 0.043530043 0.12687042 0.14941613 0.20725009 0.009269287 1.2797147 0.05594769
0.19036998 0.43288
00000000: ad0d 013d 8f4c 323d 52ea 013e 8b00 193e
00000010: 5e39 543e 35de 173c b1cd a33f 6829 653d
00000020: 59f0 423e 73a2 dd3e

net.model.convblock2.0.weight f4 [16, 10, 3, 3]
0.06712293 0.039551858 -0.05186514 -0.015545731 0.0025822495 -0.045004413 -0.09713885 0.052589186
-0.019979287 -0.07047447 -0.044607595 -0.0011554431 0.086196676 -0.06238676 -0.061245404 -0.015248823
0.0018019013 0.062426057 -0.013070562 -0.021931875 -0.07071857 0.06446259 0.03384896 0.039661013
-0.04780975 0.0923764 0.06542141 -0.07678289 -0.08495415 0.051659305 0.029598935 0.089508444
0.010604294 0.045134224 -0.06810189 -0.11732141 -0.06607112 0.043630593 0.024218889 0.022377891
0.08866335 -0.09795156 -0.07768636 -0.07622066 0.062376946 -0.008010821 0.024504587 -0.016678998
-0.07470332 0.0016794233 -0.059250943 0.03832695 0.14038439 0.10983731 -0.09427998 0.0404634
0.08596461 -0.08412712 -0.05377287 0.063915744 -0.020265754 -0.008855427 0.0064884042 -0.024420874
0.06356673 -0.017797977 -0.07278243 0.012892271 0.016568417 0.056811094 -0.09832477 0.032358527
-0.034796607 -0.008262423 0.040521186 0.09476281 -0.0026285353 -0.066324 0.044465583 -0.1027224
-0.053163514 -0.030819563 0.062911004 -0.012673356 -0.0019693628 -0.09118716 0.02807284 -0.062900186
0.082377635 -0.011367827 0.062149793 0.036501266 0.017143195 -0.10238498 -0.085744396 -0.00111043
-0.041202977 0.060892902 -0.020693105 -0.11327361 -0.07382572 0.12539734 0.034609284 0.034222145
0.020066015 -0.0077982466 -0.005283323 -0.15525669 -0.0066662794 0.018521233 -0.025819125 -0.009988055
-0.035142902 -0.0994048 0.019196918 0.0840258 -0.0901299 0.055990826 -0.04365704 -0.046629176
-0.0072176186 -0.0022531485 0.11191591 0.085420996 0.008408769 -0.0025836483 -0.11174964 -0.038350336
-0.043428253 -0.059664793 0.03323853 -0.013553944 -0.03929061 0.048581664 -0.0667506 -0.06868727
0.04757799 0.006338308 0.10794968 -0.091546 0.035802204 -0.093492284 0.004920031 0.0006359289
-0.05871383 0.03302963 -0.073003605 -0.017400444 0.03216294 0.026046498 0.117923066 0.03602883
0.0030850428 -0.14804608 -0.06928743 0.04442185 -0.04232864 0.0034092863 0.020897128 0.063492164
-0.06826645 -0.069045685 0.054630928 -0.05836066 -0.007823799 -0.09459346 0.004503843 0.000515408
0.058510676 0.07968055 0.07266825 -0.1291017 0.029839791 0.022068625 -0.002016913 -0.026695518
-0.012360541 0.12420032 0.0076479493 -0.021068333 -0.073490225 -0.0532101 -0.06691758 -0.05463033
0.016702887 -0.016233716 0.07509185 -0.03156722 0.038231265 -0.060755815 0.019369097 0.0812162
-0.034296922 -0.006047602 -0.05394608 -0.056474376 0.03664479 -0.022198802 0.11882775 -0.008041806
-0.018331094 0.13188432 -0.05563548 0.025095647 -0.03860385 -0.10329387 -0.12720817 0.0074322163
0.036650073 -0.067572825 -0.098570175 0.053773038 -0.018473575 -0.08169442 -0.096008494 -0.028440239
-0.0660399 0.121513456 -0.050258085 -0.00046262192 -0.027709963 0.06170705 0.033088963 0.028869245
-0.12117082 -0.042086665 0.04083768 -0.033844244 -0.043857884 -0.011936714 -0.11815294 0.08657954
0.020874826 -0.08389544 0.011673057 -0.05697734 0.059485387 -0.108007036 -0.08550573 -0.055891108
-0.07012257 -0.017996902 -0.020525124 -0.016307391 0.04033364 -0.05537684 0.052345786 0.0037299965
0.08369314 0.054169293 0.07337945 -0.04360091 0.011523654 -0.0918254 0.019530473 -0.01564836
00000000: bf77 893d 2101 223d 8b70 54bd 86b3 7ebc
00000010: f53a 293b 8c56 38bd bcf0 c6bd c267 573d
00000020: 9aab a3bc eb54 90bd 74b6 36bd 3d72 97ba
00000030: e287 b03d 4289 7fbd 76dc 7abd 33d6 79bc
00000040: c62d ec3a 77b2 7f3d e925 56bc 7aaa b3bc
00000050: e6d4 90bd f604 843d 35a5 0a3d 9673 223d
00000060: 28d4 43bd d72f bd3d a9fb 853d 5940 9dbd
00000070: 71fc adbd b598 533d 7779 f23c 3450 b73d
00000080: a2bd 2d3c aade 383d 0179 8bbd 3546 f0bd
00000090: 4c50 87bd feb5 323d b166 c63c d751 b73c
000000a0: 2195 b53d d49a c8bd 071a 9fbd 9419 9cbd
000000b0: f87e 7f3d d23f 03bc d8bd c83c 65a2 88bc
000000c0: 0efe 98bd 1820 dc3a 1eb1 72bd b8fc 1c3d
000000d0: edc0 0f3e 62f2 e03d dd15 c1bd f3bc 253d
000000e0: 370e b03d d74a acbd f140 5cbd 42e6 823d
000000f0: 5e04 a6bc 5a16 11bc ae9c d43b 490e c8bc
00000100: 462f 823d 10cd 91bc f40e 95bd 1b3a 533c
00000110: 7dba 873c c0b2 683d 7f5e c9bd 608a 043d
00000120: e386 0ebd 1d5f 07bc 8bf9 253d 0113 c23d
00000130: 8143 2cbb e1d4 87bd 8b21 363d 1f60 d2bd
00000140: fcc1 59bd 4f79 fcbc 7cd7 803d e8a3 4fbc
00000150: 6d10 01bb 55c0 babd 03f9 e53c d0d1 80bd
00000160: 9bb5 a83d 1f40 3abc c890 7e3d 5a82 153d
00000170: e36f 8c3c 37af d1bd c29a afbd d98b 91ba
00000180: 74c4 28bd d66a 793d 9684 a9bc fffb e7bd
00000190: f031 97bd 2968 003e 77c2 0d3d 852c 0c3d
000001a0: 7c61 a43c 6f88 ffbb ba1f adbb 9cfb 1ebe
000001b0: ce70 dabb d7b9 973c a182 d3bc f0a4 23bc
000001c0: 01f2 0fbd be94 cbbd db42 9d3c b815 ac3d
000001d0: 0696 b8bd a356 653d b9d1 32bd 3cfe 3ebd
000001e0: c681 ecbb 8fa9 13bb 2b34 e53d 34f1 ae3d
000001f0: efc4 093c 6d52 29bb ffdc e4bd 3e15 1dbd
00000200: d3e1 31bd 1263 74bd 2025 083d 5d11 5ebc
00000210: 31ef 20bd 91fd 463d 8ab4 88bd e9ab 8cbd
00000220: 23e1 423d 95b1 cf3b b914 dd3d 787c bbbd
00000230: 55a5 123d e278 bfbd 3638 a13b 77b4 263a
00000240: ea7d 70bd 144a 073d ea82 95bd 608b 8ebc
00000250: 49bd 033d 775f d53c a681 f13d f792 133d
00000260: 6e2e 4a3b 6499 17be 91e6 8dbd b0f3 353d
00000270: cc60 2dbd 556e 5f3b 7430 ab3c 2e08 823d
00000280: 48cf 8bbd d367 8dbd aec4 5f3d 960b 6fbd
00000290: 642f 00bc 37ba c1bd f994 933b 721c 073a
000002a0: e4a8 6f3d 8e2f a33d 17d3 943d 3c33 04be
000002b0: 9472 f43c 43c9 b43c 2f2e 04bb 8fb0 dabc
000002c0: de83 4abc bd5c fe3d a69b fa3b 7f97 acbc
000002d0: 0b82 96bd d5f2 59bd 160c 89bd 0ec4 5fbd
000002e0: 7ed4 883c 92fc 84bc c1c9 993d a14c 01bd
000002f0: 6398 1c3d 17db 78bd f1ab 9e3c ae54 a63d
00000300: ee7a 0cbd f62a c6bb 91f6 5cbd ad51 67bd
00000310: d918 163d 43da b5bc f75b f33d c7c1 03bc
00000320: 172b 96bc af0c 073e 07e2 63bd 6395 cd3c
00000330: 121f 1ebd bd8b d3bd dc42 02be f389 f33b
00000340: 631e 163d 9f63 8abd 29df c9bd 1e41 5c3d
00000350: e555 97bc 674f a7bd 1aa0 c4bd 81fb e8bc
00000360: ed3f 87bd 0cdc f83d 6cdb 4dbd 108c f2b9
00000370: 0100 e3bc 88c0 7c3d 4b88 073d 327f ec3c
00000380: 6828 f8bd 1163 2cbd 6945 273d 43a0 0abd
00000390: 53a4 33bd 3592 43bc 2bfa f1bd 9d50 b13d
000003a0: af01 ab3c 5fd1 abbd 5a40 3f3c 1261 69bd
000003b0: f3a6 733d cb32 ddbd a11d afbd 13ee 64bd
000003c0: 6c9c 8fbd 3d6e 93bc 4e24 a8bc 1497 85bc
000003d0: e334 253d d3d2 62bd 8968 563d f572 743b
000003e0: 4f67 ab3d 9fe0 5d3d f747 963d de96 32bd
000003f0: b5cd 3c3c f50e bcbd 5ffe 9f3c fd30 80bc

net.model.convblock2.0.bias f4 [16]
-0.058438174 0.033520684 0.09598349 -0.07771176 0.058854315 -0.062140606 0.06795393 0.07278862
0.080228835 0.057252526 -0.13801637 0.09538949 -0.01592848 0.10559871 -0.089785 0.013612317
00000000: de5c 6fbd fc4c 093d fe92 c43d 5827 9fbd
00000010: 3911 713d 2687 7ebd 6e2b 8b3d 3312 953d
00000020: 044f a43d a081 6a3d 2a54 0dbe 915b c33d
00000030: 727c 82bc 2344 d83d 33e1 b7bd 3206 5f3c

net.model.convblock2.2.weight f4 [16]
1.0549316 1.0026952 0.92998886 1.0170807 0.98630345 1.0010768 0.95869535 0.99166226
0.9562037 1.0167266 1.0058354 0.97195697 1.0399423 0.9270593 0.9981951 1.0698719
00000000: 0008 873f 5158 803f c013 6e3f b32f 823f
00000010: 627e 7c3f 4923 803f 0f6d 753f 94dd 7d3f
00000020: c4c9 743f 1924 823f 37bf 803f 2cd2 783f
00000030: d41c 853f c253 6d3f b789 7f3f 90f1 883f

net.model.convblock2.2.bias f4 [16]
-0.090335995 0.056109507 -0.08160109 -0.038727365 0.083371535 -0.064233474 0.09744176 -0.09937745
-0.063528575 -0.06903691 -0.01068289 -0.050028052 0.11595725 0.059770852 -0.17546263 0.022683367
00000000: 1402 b9bd 15d3 653d 791e a7bd 96a0 1ebd
00000010: b2be aa3d d78c 83bd 8c8f c73d 6886 cbbd
00000020: 451b 82bd 3963 8dbd 4a07 2fbc 37ea 4cbd
00000030: ff7a ed3d 48d2 743d 7aac 33be 78d2 b93c

net.model.convblock2.2.running_mean f4 [16]
0.14110401 0.20710057 0.43343002 0.24948736 0.38829803 0.09560847 0.17157319 0.31130838
0.347247 0.33464533 0.14881836 0.4214463 0.1994224 0.29818627 0.18885973 0.25978482
00000000: 927d 103e 2c12 543e 8aea dd3e 9d79 7f3e
00000010: 00cf c63e 60ce c33d e2b0 2f3e d063 9f3e
00000020: 5cca b13e a256 ab3e d763 183e cfc7 d73e
00000030: 6335 4c3e dfab 983e 7264 413e 8402 853e

net.model.convblock2.2.running_var f4 [16]
0.07411522 0.21977136 0.11866819 0.27951843 0.10404737 0.06146009 0.07899555 0.10905931
0.5924455 0.4493744 0.20621134 0.1047912 0.1819511 0.2813956 0.2732905 0.118192025
00000000: b8c9 973d be0b 613e 4f08 f33d 0a1d 8f3e
00000010: ca16 d53d 93bd 7b3d 6bc8 a13d 7d5a df3d
00000020: 82aa 173f 6714 e63e 1129 533e c59c d63d
00000030: 6451 3a3e 1613 903e bbec 8b3e a90e f23d

net.model.convblock3.0.weight f4 [8, 16, 1, 1]
-0.043079883 0.045813866 -0.10680539 -0.14034413 0.14839265 0.20437068 -0.1852502 0.052557174
-0.16962914 0.11671085 -0.104345486 -0.05912852 0.06732203 -0.28114238 -0.102454886 -0.18377513
0.07299097 0.11394477 -0.18918832 0.0831275 0.124710664 0.18287724 0.15611337 -0.20213927
-0.05202497 0.09910455 -0.11341675 -0.20756923 0.13195093 -0.22315358 -0.10297576 -0.011170561
-0.16691943 0.19033271 0.0030218896 0.13249554 0.18831676 -0.1908301 0.033944134 0.11791734
-0.15030643 0.0629983 -0.10139659 0.047819868 0.071851626 0.13768311 -0.25548616 0.076541275
0.0154640395 0.028546905 0.11393916 0.0005257361 0.036567077 -0.22947587 -0.2308045 -0.084425345
-0.16169862 -0.12140159 -0.06629352 -0.14390942 -0.23800343 0.19766647 -0.18970464 -0.2167728
-0.17027822 0.08192096 0.11082768 -0.21283208 0.14809042 -0.02078366 0.15208018 -0.09244164
-0.018680638 -0.26684836 0.17088991 0.0895441 0.036919728 0.09072422 -0.22746252 0.13366203
0.033811077 -0.19186406 -0.10214932 0.089755476 0.21033977 -0.117814444 -0.06070333 0.13942127
0.021765755 -0.15051046 -0.032181513 -0.011126018 0.13279806 0.17890047 -0.23693073 0.02575733
0.017950742 0.22552662 -0.05097134 0.15834996 -0.2513556 0.15324631 -0.03722342 0.13265815
-0.13658792 0.20170155 0.1423122 -0.14053807 0.21253319 0.1473168 -0.021552421 0.06034284
0.15447505 -0.15394546 -0.042502433 -0.2644131 0.16950351 0.16818382 0.1876615 0.043669295
-0.018807719 -0.25743496 0.2531345 0.20941341 -0.17272241 -0.06539121 -0.15149477 -0.20999189
00000000: 8874 30bd 52a7 3b3d c9bc dabd 5fb6 0fbe
00000010: 3ef4 173e 8c46 513e 3ab2 3dbe 3146 573d
00000020: 43b3 2dbe 1906 ef3d 16b3 d5bd bf30 72bd
00000030: 22e0 893d e5f1 8fbe ded3 d1bd 8c2f 3cbe
00000040: 4a7c 953d e05b e93d 95ba 41be c03e aa3d
00000050: 4e68 ff3d 2c44 3b3e 2fdc 1f3e 99fd 4ebe
00000060: 2318 55bd 54f7 ca3d 0b47 e8bd 078d 54be
00000070: 251e 073e 5f82 64be f5e4 d2bd bb04 37bc
00000080: edec 2abe 94e6 423e e50a 463b e9ac 073e
00000090: 1cd6 403e f768 43be 0109 0b3d a57e f13d
000000a0: eee9 19be 4105 813d 04a9 cfbd c4de 433d
000000b0: f226 933d cdfc 0c3e 15cf 82be acc1 9c3d
000000c0: e25c 7d3c 33db e93c ef58 e93d 8dd1 093a
000000d0: 5cc7 153d b9fb 6abe 0458 6cbe 32e7 acbd
000000e0: 5394 25be 66a1 f8bd e6c4 87bd fe5c 13be
000000f0: 2cb7 73be 1469 4a3e ef41 42be b0f9 5dbe
00000100: 6a5d 2ebe 2dc6 a73d 9ff9 e23d a7f0 59be
00000110: 04a5 173e 7e42 aabc e8ba 1b3e 0b52 bdbd
00000120: 2308 99bc 59a0 88be c4fd 2e3e e662 b73d
00000130: 2439 173d 9fcd b93d efeb 68be b3de 083e
00000140: 7c7d 0a3d 0378 44be aa33 d1bd b8d1 b73d
00000150: 4f63 573e b348 f1bd 0ea4 78bd 73c4 0e3e
00000160: 194e b23c 6a1f 1abe c3d0 03bd e749 36bc
00000170: 37fc 073e af31 373e f89d 72be 0901 d33c
00000180: 6f0d 933c 73f0 663e 53c7 50bd 7e26 223e
00000190: aeb1 80be 9aec 1c3e 9677 18bd 8ad7 073e
000001a0: b4dd 0bbe da8a 4e3e 4aba 113e 36e9 0fbe
000001b0: 4da2 593e 37da 163e b48e b0bc 0e2a 773d
000001c0: b52e 1e3e e1a3 1dbe 0817 2ebd 2761 87be
000001d0: 5492 2d3e 6138 2c3e 562a 403e 93de 323d
000001e0: a512 9abc 84ce 83be d89a 813e 7870 563e
000001f0: 25de 30be d4eb 85bd 7221 1bbe 1d08 57be

net.model.convblock3.0.bias f4 [8]
0.22575413 0.32447338 0.19359097 -0.030287756 -0.069784895 0.32840538 0.23993535 0.18186481
00000000: 172c 673e 6021 a63e b63c 463e 071e f8bc
00000010: 62eb 8ebd c024 a83e 9db1 753e c53a 3a3e

net.model.convblock3.2.weight f4 [8]
0.9388036 1.0377628 0.96073765 1.016158 0.9796504 0.97657615 1.0616118 0.9875041
00000000: 6f55 703f 69d5 843f e7f2 753f 7711 823f
00000010: 5eca 7a3f e500 7a3f e5e2 873f 12cd 7c3f

net.model.convblock3.2.bias f4 [8]
0.057870217 -0.010418273 0.035178002 0.047577303 -0.112097956 0.024176013 -0.07509093 -0.0006008425
00000000: 5209 6d3d 67b1 2abc cf16 103d 6be0 423d
00000010: 9d93 e5bd c60c c63c 46c9 99bd dc81 1dba

net.model.convblock3.2.running_mean f4 [8]
0.34076434 0.53612083 0.5442016 0.21086754 0.371296 0.58364964 0.7641469 0.5350719
00000000: aa78 ae3e 373f 093f cc50 0b3f a9ed 573e
00000010: 821a be3e 106a 153f 229f 433f 79fa 083f

net.model.convblock3.2.running_var f4 [8]
0.14455466 0.63543653 0.26703587 0.06074281 0.18051274 0.23523138 1.3624994 0.34604874
00000000: 2306 143e f8ab 223f edb8 883e 74cd 783d
00000010: 55d8 383e 7fe0 703e 6166 ae3f 4d2d b13e

net.model.convblock4.0.weight f4 [16, 8, 3, 3]
-0.12667698 0.019398082 0.030590428 -0.021514228 0.08927578 0.069792815 0.019907156 0.004385988
0.058629327 -0.147839 -0.04358835 -0.018043313 -0.024380963 0.068967685 0.06528052 -0.042567708
0.048828114 0.0838419 -0.11160555 -0.1488813 -0.118497126 -0.027941061 -0.004540401 -0.10993255
0.007842235 0.022549782 0.0705866 0.14333072 0.097712815 0.055287052 0.037472617 -0.021069635
-0.07474471 -0.002712639 0.0022802975 0.0027775345 0.0053552175 0.028874284 -0.028652655 0.10068916
0.01965319 0.008614464 0.047491267 0.029716725 0.07718508 -0.037616644 0.021969838 -0.10995551
0.03469021 -0.028151965 0.062919125 -0.06950535 -0.079047464 0.07125706 -0.1541156 -0.14654188
-0.15553007 0.06034672 -0.06015331 -0.13746782 0.027208168 0.07834501 0.018890202 0.07653194
0.06904103 -0.0017220689 0.08153491 -0.0429802 0.1097502 -0.07949011 -0.03033442 -0.06747662
0.036244567 -0.09431389 -0.031130148 -0.0057635005 -0.008595208 -0.08963954 0.012540793 -0.04499865
-0.092140265 0.11917484 -0.0007612915 -0.011118954 0.065344684 0.012280089 -0.009784014 0.02431793
-0.018390773 0.0042611356 0.03914077 -0.030053167 0.08761567 -0.015553167 -0.014685659 -0.16219275
-0.062257864 -0.058695603 -0.06788079 -0.09464469 0.013316047 0.007942051 0.11019099 0.024416659
0.036536794 0.084283285 0.043662723 -0.020115405 0.014050986 -0.07584699 -0.029149987 -0.084519655
-0.11229031 0.022361657 0.043280687 -0.019675478 0.024739264 -0.045870755 0.015482346 0.0365102
0.007488745 0.0505351 -0.11814423 -0.0018610526 -0.12223911 -0.06389553 0.062358845 0.11865566
0.14405954 0.11399883 -0.07485103 0.13812585 -0.062016536 -0.062457666 -0.082839474 -0.058582317
0.041876804 -0.12367725 0.07749294 0.052750926 -0.05796244 0.10696296 0.10065166 0.105173156
0.03819196 -0.0138047645 -0.015184495 -0.13580501 0.05297603 -0.15468118 0.06519401 -0.066701494
-0.09048849 -0.14528874 -0.029179329 0.038790908 -0.0653772 -0.059975997 -0.13857183 -0.048613887
-0.11293879 -0.035993855 -0.011224451 0.095139794 0.084416464 -0.10167896 -0.072440445 0.04454113
-0.022711245 0.07156746 0.0021971443 0.029229015 -0.03919089 -0.099514395 -0.027593989 0.007801125
-0.12127451 -0.00075125095 0.045654733 0.12452773 -0.00054133276 -0.09291958 0.033856187 0.09419482
0.018192466 -0.06643595 0.12692375 0.083659805 0.078797325 -0.07989772 -0.08673146 -0.040591735
0.10538427 0.044969164 -0.08074471 -0.055185474 -0.039323527 0.0025565815 0.080280595 -0.013737455
0.03278253 0.012061978 -0.022204738 0.07859294 -0.15319395 0.061274394 -0.09637862 0.08231251
-0.017488068 -0.09142305 0.06922515 -0.03198903 0.015126971 0.028362604 0.028556699 -0.05905341
0.01485341 -0.05357112 0.013091902 -0.017264428 0.034258805 -0.021501604 0.03472228 -0.06035739
0.00977837 -0.024669616 -0.0017001313 0.018061912 -0.061862536 -0.008577391 -0.08941499 0.03854588
-0.019622903 0.121755354 0.03549145 0.0450879 0.087300055 -0.10896689 -0.084104635 -0.09928429
0.103982344 -0.049030162 0.041869715 0.067151405 0.07259267 -0.09102671 0.03521652 0.008292143
0.07931657 -0.08777372 -0.0038716977 0.020957341 -0.08769261 0.049705338 0.118071444 -0.040355556
00000000: 9cb7 01be bae8 9e3c c798 fa3c 9b3e b0bc
00000010: 38d6 b63d 89ef 8e3d 5514 a33c 56b8 8f3b
00000020: 4e25 703d 1b63 17be b389 32bd 92cf 93bc
00000030: 96ba c7bc ee3e 8d3d cbb1 853d 7a5b 2ebd
00000040: fdff 473d 4db5 ab3d 7391 e4bd 5774 18be
00000050: 9fae f2bd a7e4 e4bc a5c7 94bb 5124 e1bd
00000060: b87c 003c 52ba b83c b58f 903d 4ac5 123e
00000070: a81d c83d ad74 623d e37c 193d 3a9a acbc
00000080: c113 99bd 88c6 31bb 0b71 153b 4c07 363b
00000090: d27a af3b c389 ec3c f9b8 eabc 1e36 ce3d
000000a0: baff a03c ae23 0d3c 3486 423d 7d70 f33c
000000b0: 3613 9e3d e913 1abd 17fa b33c 5b30 e1bd
000000c0: 5217 0e3d f39e e6bc bedb 803d d258 8ebd
000000d0: a3e3 a1bd 39ef 913d 7bd0 1dbe 130f 16be
000000e0: 4643 1fbe 1f2e 773d 5163 76bd 5dc4 0cbe
000000f0: aae3 de3c 5973 a03d a0bf 9a3c c7bc 9c3d
00000100: 6265 8d3d 0bb7 e1ba c6fb a63d 020c 30bd
00000110: b6c4 e03d b6cb a2bd e47f f8bc 2f31 8abd
00000120: 2f75 143d a427 c1bd a704 ffbc bfdb bcbb
00000130: ead2 0cbc ef94 b7bd e677 4d3c 8150 38bd
00000140: 09b4 bcbd f011 f43d 6891 47ba 462c 36bc
00000150: 6fd3 853d 6d32 493c 214d 20bc 6536 c73c
00000160: 3fa8 96bc ffa0 8b3b 1252 203d 0f32 f6bc
00000170: d86f b33d b6d2 7ebc 1e9c 70bc db15 26be
00000180: 1a02 7fbd cd6a 70bd 1505 8bbd 13d5 c1bd
00000190: 8d2b 5a3c 601f 023c d0ab e13d 7205 c83c
000001a0: 9ba7 153d b79c ac3d afd7 323d 10c9 a4bc
000001b0: 1b36 663c ab55 9bbd f4cb eebc a418 adbd
000001c0: 76f8 e5bd cb2f b73c 1747 313d 782e a1bc
000001d0: ffa9 ca3c f9e2 3bbd aaa9 7d3c b88b 153d
000001e0: 2564 f53b e5fd 4e3d 9af5 f1bd 90ee f3ba
000001f0: 8058 fabd a9db 82bd fd6b 7f3d bd01 f33d
00000200: 5884 133e 3878 e93d 7f4b 99bd dd70 0d3e
00000210: 0d05 7ebd 9cd3 7fbd bea7 a9bd 03f4 6fbd
00000220: 0387 2b3d 804a fdbd 9eb4 9e3d 5b11 583d
00000230: 066a 6dbd 650f db3d 7522 ce3d 0665 d73d
00000240: 2c6f 1c3d 612d 62bc 63c8 78bc 7810 0bbe
00000250: 65fd 583d be64 1ebe 7084 853d cb9a 88bd
00000260: 0852 b9bd 92c6 14be 7d09 efbc 37e3 1e3d
00000270: 7be4 85bd 64a9 75bd c6e5 0dbe 5b1f 47bd
00000280: 744c e7bd 4b6e 13bd c2e6 37bc a7d8 c23d
00000290: 8ae2 ac3d 0f3d d0bd a85b 94bd c370 363d
000002a0: ef0c babc f691 923d f7fd 0f3b b071 ef3c
000002b0: a086 20bd 34ce cbbd ca0c e2bc 94a0 ff3b
000002c0: c55e f8bd 99ef 44ba 7500 3b3d 6508 ff3d
000002d0: 3ae8 0dba 9f4c bebd c9ac 0a3d 37e9 c03d
000002e0: 5e08 953c 920f 88bd 4df8 013e d555 ab3d
000002f0: 7e60 a13d 6aa1 a3bd 44a0 b1bd 8543 26bd
00000300: b5d3 d73d 9631 383d 7c5d a5bd 2a0a 62bd
00000310: b511 21bd 528c 273b 276a a43d 1013 61bc
00000320: f946 063d 9a9f 453c b6e6 b5bc 56f5 a03d
00000330: e0de 1cbe dcfa 7a3d 2762 c5bd 7693 a83d
00000340: 2343 8fbc 023c bbbd eac5 8d3d ee06 03bd
00000350: 1dd7 773c b158 e83c bdef e93c fde1 71bd
00000360: b85b 733c 646d 5bbd 6b7f 563c 216e 8dbc
00000370: f652 0c3d 2224 b0bc f338 0e3d 5039 77bd
00000380: 7535 203c ef17 cabc f1d6 deba 93f6 933c
00000390: 9263 7dbd 2f88 0cbc 351f b7bd 49e2 1d3d
000003a0: 36c0 a0bc df5a f93d 7c5f 113d 17ae 383d
000003b0: 5fca b23d 082a dfbd 0d3f acbd 9055 cbbd
000003c0: b2f4 d43d dad3 48bd 947f 2b3d ad86 893d
000003d0: 77ab 943d 366c babd 333f 103d c5db 073c
000003e0: ba70 a23d b5c2 b3bd 4fbc 7dbb bbae ab3c
000003f0: 2f98 b3bd d397 4b3d 71cf f13d de4b 25bd

net.model.convblock4.0.bias f4 [16]
-0.05190528 0.011158935 -0.09484989 -0.10886142 0.06904254 0.033458672 -0.15090743 0.032224655
-0.16033202 0.07559383 -0.06588524 0.10371436 -0.060207475 -0.16800308 0.014504547 -0.11383647
00000000: a29a 54bd f7d3 363c a940 c2bd bcf2 debd
00000010: 2d66 8d3d f60b 093d 7a87 1abe 00fe 033d
00000020: 142e 24be f0d0 9a3d d7ee 86bd 3268 d43d
00000030: 1d9c 76bd 0009 2cbe 7ba4 6d3c 1823 e9bd

net.model.convblock4.2.weight f4 [16]
1.0326443 1.0095242 1.0060886 0.92052716 1.026704 1.0058953 0.9825569 1.0475016
1.0433855 0.99011075 0.9577051 0.97077364 0.9705649 1.0652667 0.9824937 0.95955443
00000000: b02d 843f 1738 813f 83c7 803f aba7 6b3f
00000010: 096b 833f 2dc1 803f d988 7b3f 8814 863f
00000020: a88d 853f e677 7d3f 292c 753f 9f84 783f
00000030: f176 783f a95a 883f b584 7b3f 5ca5 753f

net.model.convblock4.2.bias f4 [16]
0.09739676 0.14267339 0.023156308 0.033274766 -0.036071133 0.01696218 -0.1065678 0.14369977
0.052084085 -0.031286318 0.031748414 0.030699035 0.09237322 0.06544238 -0.04343234 -0.09562546
00000000: f477 c73d f918 123e 4cb2 bd3c 1f4b 083d
00000010: 53bf 13bd 45f4 8a3c 3840 dabd 0826 133e
00000020: 1f56 553d 1526 00bd a00a 023d 8b7c fb3c
00000030: 2c2e bd3d a806 863d 1ce6 31bd 48d7 c3bd

net.model.convblock4.2.running_mean f4 [16]
0.37274107 0.3217166 0.22614191 0.16266228 0.22637978 0.37773296 0.20651132 0.32869908
0.23095126 0.29898158 0.29226595 0.33006236 0.23467928 0.21756577 0.26864314 0.21773137
00000000: ebd7 be3e 0ab8 a43e bf91 673e f190 263e
00000010: 1ad0 673e 3766 c13e b477 533e 3f4b a83e
00000020: 7d7e 6c3e 1d14 993e e2a3 953e effd a83e
00000030: c44f 703e 90c9 5e3e 988b 893e f9f4 5e3e

net.model.convblock4.2.running_var f4 [16]
0.29549208 0.48655653 0.18607804 0.094849214 0.13231783 0.20242909 0.17280628 0.16918528
0.25642312 0.24580748 0.3229645 0.17894897 0.0981932 0.262999 0.22151086 0.16049214
00000000: bd4a 973e f01d f93e 3e8b 3e3e 4e40 c23d
00000010: 537e 073e 9249 4f3e 21f4 303e e83e 2d3e
00000020: e449 833e f5b4 7b3e 9a5b a53e 663e 373e
00000030: 8419 c93d cea7 863e bed3 623e 0d58 243e

net.model.convblock5.0.weight f4 [16, 16, 3, 3]
0.08051878 0.053106412 0.04441185 -0.059747666 0.014893674 -0.046430457 -0.08873234 -0.0006798616
-0.05201045 0.028505675 -0.07453393 -0.097789355 -0.045397993 -0.013014105 0.005756165 0.034058966
0.05681687 0.065123424 0.029887345 -0.09261515 -0.08413523 -0.076958515 0.04006813 -0.04857624
-0.03867217 -0.033250757 0.04588492 -0.04884061 0.04024145 -0.040590446 -0.040827695 -0.035430506
-0.0121535715 -0.073072955 -0.03108125 0.0029360882 -0.0017186927 -0.072455354 -0.06911498 -0.04518275
-0.040759195 -0.09879094 0.09299588 0.031117253 -0.036111966 0.055242173 0.055213943 0.008787433
-0.050047673 0.02789709 -0.11086582 -0.053839833 -0.10247926 -0.07715813 -0.016541472 -0.028353605
0.009771219 -0.019637974 -0.011428417 -0.055651102 -0.007637117 0.01969832 -0.009838124 0.004340945
0.04056207 0.06618686 0.019111304 -0.009317908 -0.033741087 0.073469155 -0.018678611 -0.08483812
-0.050057903 -0.08296783 -0.040872116 0.008067056 0.012507079 -0.0030822868 0.08445262 -0.010152468
0.086365655 0.044924077 -0.006193012 -0.030436 0.0083085345 0.039278645 -0.01582111 -0.08841849
0.06481815 -0.032190457 -0.023037484 0.02564286 0.049131513 0.0069154566 -0.024693241 0.03286107
-0.022833047 -0.027005274 -0.055377226 0.07123471 0.053610392 -0.07712912 -0.02171403 -0.08095432
0.03459385 0.036127847 0.038759973 -0.09219733 -0.034027245 0.025794446 -0.09811101 -0.03249623
-0.014921081 0.04850849 -0.04847957 0.028811106 -0.03754682 0.031456303 -0.01708918 0.015371936
0.07721141 0.0067033255 0.039605264 0.07060041 0.054849233 -0.083084986 0.027870126 -0.06882052
-0.073334746 -0.060850848 0.016499093 0.070792526 0.0266934 -0.016858159 -0.019559937 0.0069912323
0.047066823 0.093284145 -0.049670063 -0.039730955 -0.035147622 0.034126468 -0.024587754 -0.018637216
-0.037620526 -0.094824366 -0.003410046 -0.0431227 0.057211373 -0.10383482 0.031937134 0.07171403
-0.03103078 0.024969338 0.012329895 0.010486946 0.031409945 -0.062095713 0.053218585 -0.09894058
-0.10102134 0.028126087 -0.0036926966 -0.032946344 -0.09578986 0.01340247 -0.033413608 0.055645224
0.038330406 0.06458422 0.0043017627 0.059443206 -0.016976694 0.0010147734 0.04743947 0.06313953
-0.04509242 -0.009150348 0.011880404 0.006743373 -0.037190177 -0.13024284 -0.08208534 0.029155008
0.075633116 0.009152516 -0.020505743 0.0122496 0.014299135 0.010252502 -0.029752787 -0.0880335
-0.076469496 -0.019459132 0.052533705 -0.009481229 0.019512912 0.04470227 0.013572043 0.073514655
0.06973388 -0.13391145 -0.042223528 0.043941226 0.006586702 -0.011356688 -0.01735426 0.020907605
-0.0056585344 -0.05525648 0.054268736 -0.038952813 -0.03848563 0.10653677 0.010529268 0.017047618
0.07022994 -0.024388134 0.056491613 -0.09075203 -0.035424344 0.023804938 -0.05028337 0.007242076
0.04600443 0.067015104 -0.026952142 -0.032467414 -0.041971657 -0.027992517 0.043145206 0.060542956
0.053008214 0.08472466 0.035672452 0.067050844 0.050090656 -0.080387704 -0.031145742 -0.0015078019
-0.025661023 0.05286352 0.048420116 -0.03629303 -0.061559122 -0.037749715 0.09675881 -0.037563875
0.081950925 0.036866374 -0.06133546 -0.04979987 -0.061087005 -0.023211418 0.0061633573 0.07000894
00000000: 08e7 a43d 1c86 593d 33e9 353d f8b9 74bd
00000010: 9904 743c dd2d 3ebd 4db9 b5bd bd38 32ba
00000020: e908 55bd bc84 e93c 3fa5 98bd c945 c8bd
00000030: 3ff3 39bd 1d39 55bc 369e bc3b 6a81 0b3d
00000040: ceb8 683d 6e5f 853d 4ed6 f43c 03ad bdbd
00000050: 174f acbd 6d9c 9dbd 7b1e 243d e1f7 46bd
00000060: b666 1ebd f231 08bd d3f1 3b3d 170d 48bd
00000070: 38d4 243d 2b42 26bd f13a 27bd 941f 11bd
00000080: c61f 47bc 46a7 95bd 1b9e febc 636b 403b
00000090: c245 e1ba 7963 94bd 288c 8dbd 8c11 39bd
000000a0: 1df3 26bd e852 cabd a074 be3d 9ce9 fe3c
000000b0: 24ea 13bd 9e45 623d 0428 623d 2af9 0f3c
000000c0: cafe 4cbd 7088 e43c 9e0d e3bd 2887 5cbd
000000d0: a5e0 d1bd 1505 9ebd fb81 87bc d245 e8bc
000000e0: 7717 203c d1df a0bc 413e 3bbc 69f2 63bd
000000f0: c840 fabb 5f5e a13c 1530 21bc 7c3e 8e3b
00000100: 6a24 263d fa8c 873d 4f8f 9c3c 24aa 18bc
00000110: 1834 0abd ff76 963d e303 99bc 9cbf adbd
00000120: 8409 4dbd 0aeb a9bd 8569 27bd af2b 043c
00000130: 7eea 4c3c 3100 4abb 7ff5 ac3d 8a56 26bc
00000140: 7ae0 b03d 4f02 383d c0ee cabb eb54 f9bc
00000150: 8520 083c a5e2 203d 469b 81bc c114 b5bd
00000160: 61bf 843d 24da 03bd 1bb9 bcbc fa10 d23c
00000170: 203e 493d 0e9b e23b 7b49 cabc 5499 063d
00000180: 5f0c bbbc 2a3a ddbc 3bd3 62bd 81e3 913d
00000190: 9296 5b3d dff5 9dbd 9fe1 b1bc 61cb a5bd
000001a0: 48b2 0d3d cbfa 133d c7c2 1e3d f4d1 bcbd
000001b0: 2760 0bbd e04e d33c 6dee c8bd c41a 05bd
000001c0: 8d77 74bc d7b0 463d 8392 46bd 4505 ec3c
000001d0: b2ca 19bd 53d8 003d 9cfe 8bbc 93da 7b3c
000001e0: 0421 9e3d 92a7 db3b 2139 223d f396 903d
000001f0: 97a9 603d 7628 aabd e44f e43c c6f1 8cbd
00000200: 8730 96bd bd3e 79bd 1b29 873c acfb 903d
00000210: 1eac da3c 1f1a 8abc 293c a0bc b516 e53b
00000220: 24c9 403d c20b bf3d d672 4bbd edbc 22bd
00000230: f4f6 0fbd 32c8 0b3d 426c c9bc 13ad 98bc
00000240: fb17 1abd 4733 c2bd 147b 5fbb 6ea1 30bd
00000250: 7956 6a3d 5aa7 d4bd 83d0 023d cede 923d
00000260: 4334 febc 7f8c cc3c 5403 4a3c 71d1 2b3c
00000270: b7a7 003d 1358 7ebd bbfb 593d 5ca1 cabd
00000280: 47e4 cebd ae68 e63c 2b01 72bb bff2 06bd
00000290: 792d c4bd 0996 5b3c b5dc 08bd 3fec 633d
000002a0: 5800 1d3d bb44 843d cdf5 8c3b b87a 733d
000002b0: b512 8bbc 2502 853a e44f 423d 4c4f 813d
000002c0: d4b2 38bd 57eb 15bc 07a6 423c 83f7 dc3b
000002d0: ba54 18bd 615e 05be 5c1c a8bd 7cd6 ee3c
000002e0: 89e5 9a3d 6ff4 153c a9fb a7bc 8cb2 483c
000002f0: eb46 6a3c 1cfa 273c 1ebc f3bc e84a b4bd
00000300: 0a9c 9cbd c268 9fbc 952d 573d 2857 1bbc
00000310: 8bd9 9f3c ba19 373d 465d 5e3c da8e 963d
00000320: a3d0 8e3d 1520 09be 94f2 2cbd b7fb 333d
00000330: 43d5 d73b 6711 3abc 852a 8ebc 6d46 ab3c
00000340: 3a6b b9bb 9e54 62bd e548 5e3d fc8c 1fbd
00000350: 1ca3 1dbd f32f da3d f382 2c3c 72a7 8b3c
00000360: b7d4 8f3d a0c9 c7bc c063 673d 33dc b9bd
00000370: 1e19 11bd 9302 c33c eff5 4dbd f04e ed3b
00000380: 246f 3c3d 373f 893d bdca dcbc 8dfc 04bd
00000390: 79ea 2bbd 9050 e5bc 07b9 303d e4fb 773d
000003a0: 241f 593d 1f84 ad3d 471d 123d f451 893d
000003b0: dc2b 4d3d 4fa2 a4bd 5b25 ffbc 70a1 c5ba
000003c0: 1137 d2bc 6b87 583d 2c54 463d 00a8 14bd
000003d0: 6b25 7cbd 729f 1abd 7c29 c63d 94dc 19bd
000003e0: e3d5 a73d 3201 173d e43a 7bbd f3fa 4bbd
000003f0: 5e36 7abd df25 bebc fdf5 c93b d960 8f3d

net.model.convblock5.0.bias f4 [16]
-0.06612727 -0.022502964 0.0007384581 -0.0341471 0.009609535 -0.06954924 -0.10777669 -0.08974393
-0.122357495 0.048185684 -0.012954662 0.067741245 0.04086697 0.0015514592 -0.007264941 -0.029346352
00000000: bc6d 87bd 2358 b8bc 1695 413a d4dd 0bbd
00000010: 5071 1d3c d56f 8ebd 06ba dcbd aacb b7bd
00000020: 9196 fabd 5a5e 453d ca3f 54bc ecbb 8a3d
00000030: 2064 273d 555a cb3a be0e eebb c367 f0bc

net.model.convblock5.2.weight f4 [16]
0.9742073 1.0023417 0.9568889 1.0042748 1.0760698 0.9833093 0.97362465 0.9672358
0.9980192 1.0256057 0.9905996 0.95741934 1.0438069 1.0245013 1.0121388 0.9889922
00000000: a665 793f bc4c 803f acf6 743f 148c 803f
00000010: a8bc 893f 29ba 7b3f 773f 793f c49c 773f
00000020: 307e 7f3f 0c47 833f ef97 7d3f 6f19 753f
00000030: 779b 853f dc22 833f c48d 813f 982e 7d3f

net.model.convblock5.2.bias f4 [16]
-0.0010150488 0.11508494 -0.023313927 0.031156199 0.101335086 -0.007963423 -0.0068580485 -0.10362942
-0.103411414 0.09043236 -0.038148057 0.026605006 0.03953518 0.026832692 0.13942824 -0.0304292
00000000: 630b 85ba a7b1 eb3d d9fc bebc 493b ff3c
00000010: c588 cf3d 0479 02bc 7bb9 e0bb a93b d4bd
00000020: 5dc9 d3bd 9a34 b93d 2341 1cbd bef2 d93c
00000030: a4ef 213d 3cd0 db3c 47c6 0e3e a846 f9bc

net.model.convblock5.2.running_mean f4 [16]
0.27882534 0.2728634 0.21871948 0.2921498 0.31173113 0.2025419 0.2900184 0.26799434
0.1638886 0.36967278 0.2957083 0.45672372 0.25141716 0.31315708 0.35980216 0.2625993
00000000: 32c2 8e3e c0b4 8b3e 00f8 5f3e a994 953e
00000010: 399b 9f3e 2567 4f3e 4b7d 943e 8e36 893e
00000020: 6ad2 273e c045 bd3e 1467 973e b1d7 e93e
00000030: c0b9 803e 2056 a03e fd37 b83e 6a73 863e

net.model.convblock5.2.running_var f4 [16]
0.22172326 0.19574907 0.14889422 0.19960019 0.27036706 0.10864291 0.22212757 0.13692896
0.12833007 0.18820614 0.26898307 0.24609852 0.17982349 0.17968383 0.23643786 0.12570076
00000000: 6c0b 633e 7272 483e ba77 183e fe63 4c3e
00000010: 8d6d 8a3e 2d80 de3d 6975 633e 1b37 0c3e
00000020: f568 033e 1cb9 403e 26b8 893e 4001 7c3e
00000030: a623 383e 0aff 373e c41c 723e b3b7 003e

net.model.convblock6.0.weight f4 [16, 16, 3, 3]
-0.052735608 0.07628446 0.006231561 -0.0016754823 0.0013866965 -0.053056944 0.036906634 0.020768391
0.08523863 -0.01562463 0.037864257 -0.12785745 -0.09524324 -0.048071686 -0.028229931 -0.068645336
0.028729733 0.0066180318 -0.07445317 0.04893313 -0.067805015 -0.06754508 -0.009329336 -0.016130516
-0.029496592 0.009397801 0.043000355 0.13073747 0.0997537 0.02217748 0.004519707 -0.057592258
-0.019806722 0.0151050985 0.07425129 0.017500049 -0.006407406 -0.022244466 -0.03561977 0.012984164
0.06991571 0.012173085 0.054000042 0.032947443 0.044584975 -0.057578642 0.033216223 -0.009987021
-0.102024585 0.032294214 -0.06453222 0.0022454413 -0.041430585 -0.090222314 0.087006874 0.017652083
0.11993619 0.027539516 -0.013058082 0.027743137 -0.072434746 0.037458938 -0.00020772578 -0.015706565
0.012587748 0.08664312 0.026581971 0.050804283 0.031477615 1.9126237e-06 -0.031215979 -0.00093016936
0.051101997 0.07104335 0.065491386 -0.05843714 0.05758251 -0.029106567 -0.04809435 -0.009523581
0.07209843 -0.037077807 -0.08546717 -0.00515556 -0.022944614 0.008561145 -0.075682126 0.1064197
-0.011715612 0.041567855 0.06173312 -0.02265501 0.036282822 0.10242536 -0.005947804 0.052503753
0.011443128 0.019104557 0.051825427 0.034039337 0.039550122 -0.05849036 -0.095340244 -0.0011399352
-0.0038424644 -0.057061642 -0.053489078 -0.060183167 0.051258586 0.041319184 0.008969999 0.008483565
-0.105617024 -0.03672902 0.07530604 0.019236574 -0.057492454 0.054837305 -0.0065950477 0.07484007
-0.025167545 0.0033745945 -0.018174138 -0.10961699 -0.066467986 -0.053577304 0.058562078 -0.016898423
0.07437671 -0.007924405 0.032922436 -0.12105987 0.051883098 -0.016955998 -0.10577053 0.01860076
-0.0037305942 -0.04875141 -0.03550609 0.0619049 -0.020917585 -0.011005583 -0.06592071 -0.0029857496
-0.030511534 0.05062627 -0.012668736 0.016075507 -0.0055998177 -0.025977291 0.010871266 -0.0150797535
-0.09064043 -0.016115943 0.051858667 0.08629026 -0.04528433 0.0038180493 0.023379767 0.029751334
-0.0024219416 0.0414403 -0.078394145 0.040811207 -0.0056960997 -0.09014208 -0.042639896 -0.028355999
-0.059208456 0.0152339935 -0.08584419 0.057056807 0.030466825 0.026504686 -0.04261523 -0.058478028
0.06143224 -0.06561562 -0.050190285 -0.025746893 -0.016097227 0.026542619 0.027158258 -0.01938738
0.025493344 -0.027068634 0.019097362 -0.021468023 -0.041549608 0.040271968 0.1191709 -0.008877119
-0.00314466 0.014174279 0.052697316 -0.03382323 0.053418525 -0.05791739 -0.06363487 -0.05531352
0.016888512 0.008821792 0.0724083 -0.025354134 -0.0029318016 -0.022963077 0.045595217 -0.04689194
-0.0016856408 -0.023093084 -0.073255405 -0.055326324 -0.050374664 -0.07133221 0.012145882 -0.078953914
-0.026663864 0.04196491 0.019969283 -0.097334914 -0.020464089 0.029527506 -0.091130346 -0.015933875
-0.0667155 0.05362758 -0.03852879 0.004198094 -0.0052340953 -0.031939905 -0.0150923645 0.014078632
-0.102880016 -0.0155268535 0.05507044 0.021945627 -0.06811138 -0.021330826 0.01621054 0.011308873
0.05242802 -0.10590956 -0.12174002 -0.015906133 0.061454613 -0.05598672 0.02803695 -0.06294689
0.06000782 0.026537985 -0.012007612 0.0549847 -0.0116571495 0.038163505 -0.013391929 0.0019635528
00000000: 4b01 58bd 073b 9c3d 1f32 cc3b db9b dbba
00000010: d0c1 b53a 3d52 59bd 692b 173d 7922 aa3c
00000020: 9791 ae3d 73fe 7fbc 8d17 1b3d 10ed 02be
00000030: e30e c3bd d1e6 44bd 7542 e7bc ed95 8cbd
00000040: 9e5a eb3c 13dc d83b e77a 98bd 1b6e 483d
00000050: 5bdd 8abd 1355 8abd 12da 18bc 2524 84bc
00000060: d6a2 f1bc 3cf9 193c 2421 303d 0be0 053e
00000070: ab4b cc3d 8cad b53c 0d1a 943b dce5 6bbd
00000080: b541 a2bc 607b 773c 0f11 983d 435c 8f3c
00000090: 38f5 d1bb 073a b6bc 09e6 11bd 88bb 543c
000000a0: f82f 8f3d 9e71 473c 262f 5d3d e6f3 063d
000000b0: bc9e 363d 95d7 6bbd bc0d 083d 9aa0 23bc
000000c0: 44f2 d0bd f046 043d 7829 84bd 4128 133b
000000d0: 1eb3 29bd 7ac6 b8bd a930 b23d 1a9b 903c
000000e0: 1ba1 f53d 8d9a e13c 91f1 55bc 9345 e33c
000000f0: ab58 94bd 8b6e 193d f7d0 59b9 0eab 80bc
00000100: d73c 4e3c f371 b13d 6fc2 d93c 2718 503d
00000110: acee 003d a05a 0036 a7b8 ffbc 9cd6 73ba
00000120: 5450 513d 2d7f 913d 5920 863d c85b 6fbd
00000130: a3db 6b3d e570 eebc 95fe 44bd cb08 1cbc
00000140: 57a8 933d e6de 17bd 6909 afbd f9ef a8bb
00000150: 58f6 bbbc 0b44 0c3c 3bff 9abd 92f2 d93d
00000160: d7f2 3fbc 0e43 2a3d dedb 7c3d 0097 b9bc
00000170: 4c9d 143d 63c4 d13d cce5 c2bb 2d0e 573d
00000180: f57b 3b3c 2981 9c3c e646 543d d56c 0b3d
00000190: 4fff 213d 9693 6fbd bf41 c3bd e169 95ba
000001a0: dbd1 7bbb 78b9 69bd 5d17 5bbd a082 76bd
000001b0: 86f4 513d 4e3e 293d e7f6 123c a7fe 0a3c
000001c0: bd4d d8bd 2b71 16bd 0e3a 9a3d 0596 9d3c
000001d0: 357d 6bbd 159d 603d 451b d8bb c045 993d
000001e0: 2b2c cebc 4d28 5d3b eee1 94bc df7e e0bd
000001f0: 5e20 88bd e073 5bbd cade 6f3d 906e 8abc
00000200: d152 983d 5dd5 01bc add9 063d 3dee f7bd
00000210: 5f83 543d 4ee7 8abc 389e d8bd 9f60 983c
00000220: fc7c 74bb 8faf 47bd d56e 11bd fe8f 7d3d
00000230: 5b5b abbc c350 34bc 7001 87bd 91ac 43bb
00000240: 53f3 f9bc 7e5d 4f3d 8890 4fbc c8b0 833c
00000250: ad7e b7bb 54ce d4bc 651d 323c 1211 77bc
00000260: b1a1 b9bd 9505 84bc c169 543d f3b8 b03d
00000270: 107c 39bd 3d38 7a3b ed86 bf3c 12b9 f33c
00000280: 70b9 1ebb 4ebd 293d 1c8d a0bd a729 273d
00000290: 59a6 babb 699c b8bd 2ca7 2ebd d74a e8bc
000002a0: 9184 72bd 0098 793c 14cf afbd 66b4 693d
000002b0: 9095 f93c 5b20 d93c 4f8d 2ebd a886 6fbd
000002c0: 5fa0 7b3d 7b61 86bd 5494 4dbd 26eb d2bc
000002d0: 55de 83bc e86f d93c ff7a de3c 48d2 9ebc
000002e0: 6bd7 d03c 0abf ddbc 1272 9c3c b5dd afbc
000002f0: ec2f 2abd 38f4 243d df0f f43d 5671 11bc
00000300: a416 4ebb 3c3b 683c 24d9 573d 3a8a 0abd
00000310: 62cd 5a3d c93a 6dbd 0053 82bd 6e90 62bd
00000320: c759 8a3c 4789 103c ce4a 943d 79b3 cfbc
00000330: 7823 40bb 101d bcbc 0dc2 3a3d c311 40bd
00000340: b8f0 dcba b52d bdbc ee06 96bd db9d 62bd
00000350: aa55 4ebd 9f16 92bd 85ff 463c 97b2 a1bd
00000360: 2d6e dabc 66e3 2b3d 9f96 a33c 8757 c7bd
00000370: 4ea4 a7bc abe3 f13c 8ca2 babd c287 82bc
00000380: 23a2 88bd 98a8 5b3d 5dd0 1dbd 2a90 893b
00000390: c682 abbb 6bd3 02bd f745 77bc 10aa 663c
000003a0: c2b2 d2bd 5864 7ebc 8b91 613d 51c7 b33c
000003b0: fb7d 8bbd fcbd aebc f7cb 843c da48 393c
000003c0: c3be 563d 1de7 d8bd d552 f9bd 944d 82bc
000003d0: d5b7 7b3d 5552 65bd bfad e53c 4dea 80bd
000003e0: c3ca 753d 3066 d93c 93bb 44bc a337 613d
000003f0: a1fd 3ebc 5651 1c3d d269 5bbc f3ae 003b

net.model.convblock6.0.bias f4 [16]
0.01816816 -0.0075495993 -0.033009246 -0.026491376 -0.053345297 0.06455062 -0.079923116 0.06622712
0.093098395 -0.12151996 0.086211585 -0.017281424 -0.009227588 -0.011562207 -0.14213012 -0.0068911687
00000000: 65d5 943c a162 f7bb b434 07bd 7104 d9bc
00000010: 9980 5abd 1e33 843d bbae a3bd 16a2 873d
00000020: 5faa be3d 75df f8bd b38f b03d c691 8dbc
00000030: 4f2f 17bc 696f 3dbc 8f8a 11be 50cf e1bb

net.model.convblock6.2.weight f4 [16]
0.99707323 1.0375162 0.98757905 0.95221364 0.9820786 1.0293514 0.9867518 0.8822433
0.9655628 1.066097 1.0094726 1.080391 0.9402754 1.0816358 0.97525275 0.9967184
00000000: 3140 7f3f 55cd 843f fbd1 7c3f 46c4 733f
00000010: 8169 7b3f c9c1 833f c49b 7c3f b2da 613f
00000020: 202f 773f de75 883f 6636 813f 414a 8a3f
00000030: e3b5 703f 0b73 8a3f 2aaa 793f f028 7f3f

net.model.convblock6.2.bias f4 [16]
-0.17162238 -0.10339816 -0.22793001 -0.1416387 0.06862302 -0.12242596 -0.2175177 -0.11154884
-0.09855886 -0.1667736 -0.13965586 -0.12433285 -0.022767263 -0.1692393 -0.22728941 -0.10665974
00000000: c7bd 2fbe 6ac2 d3bd 7c66 69be bc09 11be
00000010: 3a8a 8c3d 76ba fabd f6bc 5ebe b873 e4bd
00000020: 3ad9 c9bd b3c6 2abe f201 0fbe 39a2 febd
00000030: 6982 babc 114d 2dbe 8ebe 68be 6c70 dabd

net.model.convblock6.2.running_mean f4 [16]
0.3260374 0.3534308 0.24775913 0.34831527 0.29086885 0.26230937 0.26041225 0.25056466
0.31703994 0.21265279 0.35238525 0.35319817 0.25324714 0.40503255 0.2532959 0.31704167
00000000: 60ee a63e e2f4 b43e 92b4 7d3e 6156 b23e
00000010: c3ec 943e 6a4d 863e c154 853e 034a 803e
00000020: 0f53 a23e a7c1 593e d76b b43e 64d6 b43e
00000030: 9ca9 813e 6d60 cf3e 00b0 813e 4953 a23e

net.model.convblock6.2.running_var f4 [16]
0.2743703 0.29524064 0.19373284 0.22567202 0.18052803 0.16514155 0.22399817 0.14367954
0.16265891 0.13974817 0.18923151 0.32895133 0.19566326 0.52159005 0.24478707 0.28498507
00000000: 447a 8c3e c829 973e e761 463e 9116 673e
00000010: 57dc 383e de1a 293e c75f 653e bb20 133e
00000020: 0f90 263e 251a 0f3e e8c5 413e 4f6c a83e
00000030: f35b 483e ed86 053f 76a9 7a3e 90e9 913e

net.model.convblock7.0.weight f4 [8, 16, 1, 1]
-0.14186701 0.03470301 -0.17729941 0.21504176 0.03000033 -0.01619165 -0.03319574 -0.115353726
-0.039209593 0.07281989 -0.043569285 0.04116438 0.13419326 -0.22303736 -0.10094205 -0.14909612
-0.2613474 -0.226972 -0.24226896 0.13476929 -0.23337075 -0.13150415 -0.19583663 -0.17115012
-0.25297168 0.13750556 0.09775016 -0.20534813 -0.15562724 -0.13239062 0.07604507 -0.14538325
0.01038805 -0.26739663 0.05874687 -0.11358064 0.07479296 0.068962604 0.08610779 0.16673131
0.114396125 0.06379035 -0.023757864 -0.11212296 0.09111909 -0.14131272 -0.12640676 -0.28776878
-0.035070445 0.16162166 -0.21691452 -0.14489369 0.095207706 -0.3127498 -0.18741477 0.083122425
0.1128573 -0.037962914 0.19384933 0.11565221 0.19430608 0.097871825 -0.13422962 0.064717345
-0.26741463 -0.0148187205 0.04420465 -0.109526664 0.07244419 0.09592217 -0.06164365 -0.047560144
-0.12398579 -0.008893971 0.07791652 -0.11704745 -0.0069051464 -0.1329091 -0.1363445 0.11870234
0.09889859 -0.21203184 -0.23211612 0.1385635 -0.16171354 0.03442507 0.047271 0.074557155
-0.24297188 -0.12209366 0.09131236 -0.2809364 -0.17551526 -0.12141298 -0.2279288 0.04211096
0.01270999 -0.22941789 0.111773364 -0.22421832 0.18461299 0.09771169 -0.18006147 0.15651505
0.015044031 -0.23609997 -0.27664042 0.013014482 -0.09496484 -0.24470307 0.16883689 0.092447
-0.16009445 0.040100124 -0.20519598 0.03319134 0.24153347 -0.108532205 0.017795743 0.06408004
0.14460698 -0.19295734 0.18296272 -0.092648916 0.071816094 0.025097162 -0.008070837 0.21302398
00000000: 9645 11be be24 0e3d fa8d 35be e833 5c3e
00000010: 41c3 f53c 5aa4 84bc 42f8 07bd 933e ecbd
00000020: 3d9a 20bd 9822 953d b575 32bd fb9b 283d
00000030: f569 093e e863 64be b5ba cebd a7ac 18be
00000040: 54cf 85be 596b 68be 5b15 78be f600 0a3e
00000050: bef8 6ebe 06a9 06be 6689 48be fa41 2fbe
00000060: 8185 81be 42ce 0c3e 3c31 c83d c846 52be
00000070: bf5c 1fbe 6891 07be 85bd 9b3d 59df 14be
00000080: a432 2a3c 36e8 88be 8fa0 703d f79c e8bd
00000090: 0d2d 993d 443c 8d3d 4859 b03d 9dbb 2a3e
000000a0: 8448 ea3d 84a4 823d da9f c2bc b9a0 e5bd
000000b0: a59c ba3d 48b4 10be c670 01be 6e56 93be
000000c0: 07a6 0fbd 2680 253e d71e 5ebe 035f 14be
000000d0: 42fc c23d be20 a0be a8e9 3fbe 173c aa3d
000000e0: ba21 e73d 007f 1bbd 7080 463e 11db ec3d
000000f0: 2cf8 463e 0671 c83d 7d73 09be 878a 843d
00000100: 92ea 88be 38ca 72bc ef0f 353d 844f e0bd
00000110: 9f5d 943d d872 c43d 0d7e 7cbd 6dce 42bd
00000120: 43ec fdbd 05b8 11bc b292 9f3d 93b6 efbd
00000130: 9144 e2bb 5319 08be e59d 0bbe 361a f33d
00000140: 588b ca3d e01e 59be d9af 6dbe 97e3 0d3e
00000150: 3c98 25be 4d01 0d3d 3c9f 413d 6cb1 983d
00000160: 9fcd 78be 3e0c fabd f901 bb3d e5d6 8fbe
00000170: 46ba 33be 5ea7 f8bd 2b66 69be 8b7c 2c3d
00000180: 903d 503c 86ec 6abe 6fe9 e43d 7d99 65be
00000190: 300b 3d3e 111d c83d 0962 38be 7b45 203e
000001a0: 3d7b 763c 31c4 71be d0a3 8dbe b23a 553c
000001b0: ed7c c2bd 7193 7abe 94e3 2c3e da54 bd3d
000001c0: cdef 23be 0740 243d e51e 52be a4f3 073d
000001d0: 8d54 773e 2246 debd 61c8 913c 653c 833d
000001e0: da13 143e 9c96 45be 945a 3b3e b7be bdbd
000001f0: 5114 933d 9098 cd3c 8b3b 04bc f522 5a3e

net.model.convblock7.0.bias f4 [8]
0.08908837 -0.050052647 0.14924638 0.20323879 0.040868927 -0.11005764 -0.10006179 0.3040633
00000000: f773 b63d 0104 4dbd 0bd4 183e d41d 503e
00000010: 2d66 273d e665 e1bd 32ed ccbd 2fae 9b3e

net.model.convblock7.2.weight f4 [8]
0.95758206 0.94454587 0.9996173 1.0327338 0.9410242 1.0323392 0.92132986 1.0639312
00000000: 1924 753f c2cd 713f ebe6 7f3f 9f30 843f
00000010: f6e6 703f b123 843f 46dc 6b3f e62e 883f

net.model.convblock7.2.bias f4 [8]
-0.08222747 0.10821195 -0.1066157 -0.0053823907 0.110027276 -0.012194572 -0.042690963 0.074824154
00000000: e066 a8bd 3a9e dd3d 5559 dabd c45e b0bb
00000010: fb55 e13d becb 47bc b8dc 2ebd 683d 993d

net.model.convblock7.2.running_mean f4 [8]
0.30734822 0.15451938 0.3867506 0.5986812 0.20057695 0.16697672 0.31957898 0.69169587
00000000: bf5c 9d3e 543a 1e3e 2d04 c63e 2c43 193f
00000010: 0b64 4d3e f2fb 2a3e db9f a33e fb12 313f

net.model.convblock7.2.running_var f4 [8]
0.16610502 0.13945521 0.23490342 0.5966232 0.08931646 0.12371901 0.27543512 0.59450763
00000000: 6f17 2a3e 59cd 0e3e 868a 703e 4cbc 183f
00000010: 8ceb b63d 6460 fd3d d505 8d3e a731 183f
