output/lightning_logs/version_1/checkpoints/epoch=4-step=275.ckpt (torch, 191717 bytes, 188 tensors)

net.model.convblock1.0.weight f4 [10, 1, 3, 3]
0	0x3e031293	0.12800054
1	0x3e7e3c31	0.24827649
2	0xbe15a2ba	-0.14612857
3	0xbdf5cae0	-0.12001586
4	0xbe3f0298	-0.18653333
5	0x3d1ad9c2	0.037805326
6	0xbd0a1917	-0.033715334
7	0x3dbc05f9	0.09180827
8	0x3e23586b	0.15951698
9	0x3e918599	0.2842224
10	0x3e562a82	0.20914653
11	0x3ec01d73	0.37522468
12	0xbe89f451	-0.2694421
13	0x3ea4bae7	0.32173845
14	0x3e1f07cb	0.15530317
15	0xbda8f858	-0.08250493
16	0x3dffb3e6	0.12485485
17	0x3ccfa396	0.025346559
18	0xbe79803f	-0.24365328
19	0x3e545c2c	0.20738286
20	0x3e77005b	0.2412123
21	0x3e9ac2db	0.30226788
22	0x3ccb6346	0.02482761
23	0x3ca7156c	0.020395957
24	0xbe257c3e	-0.16160676
25	0x3d712fd2	0.058883496
26	0x3e8a7b88	0.27047372
27	0x3e36ecab	0.17863719
28	0xbe294641	-0.16530706
29	0xbe54664f	-0.20742153
30	0xbe72be79	-0.23705472
31	0x3e952d79	0.29136255
32	0x3bcdf7d5	0.0062856474
33	0x3e464e12	0.19365719
34	0xbe13301e	-0.14373824
35	0x3ea3b20c	0.31971776
36	0x3e9f0d07	0.31064627
37	0xbc9be4aa	-0.019029934
38	0xbd91c26a	-0.0711716
39	0xbdf4e6ed	-0.11958108
40	0x3eb3304e	0.3499779
41	0xbc9e458f	-0.019320277
42	0xbd897aed	-0.06712899
43	0xbd763aae	-0.060114555
44	0xbda664de	-0.08124708
45	0xbea91ba4	-0.330289
46	0x3e0490de	0.12945887
47	0xbd9cac21	-0.076500185
48	0x3e33e69c	0.17568439
49	0xbe85bb34	-0.26119387
50	0x3eafbb2f	0.34322497
51	0x3e6918e2	0.22763398
52	0x3ea07abe	0.31343645
53	0xbe940d86	-0.28916568
54	0x3d9c6ebd	0.07638309
55	0xbe4fc1f6	-0.20288834
56	0x3d3c7be4	0.04601659
57	0xbe4b67de	-0.19863841
58	0xbdc0b11c	-0.09408781
59	0x3e5eb511	0.21748759
60	0x3dc60122	0.09668185
61	0xbe814249	-0.25245884
62	0x3eacd432	0.33755642
63	0x3e8d19ec	0.2755884
64	0x3e0cc789	0.13747992
65	0xbdb52d59	-0.0884654
66	0x3e356159	0.17712916
67	0x3e81c91e	0.25348753
68	0x3e368b3f	0.17826556
69	0xbcd3f77a	-0.025874842
70	0x3e2a8f88	0.16656315
71	0x3e03468c	0.1281988
72	0xbe98ff41	-0.29882243
73	0xbe987fa5	-0.29784885
74	0x3c97b428	0.018518522
75	0xbd98ed24	-0.07467106
76	0x3df02bf4	0.117271334
77	0xbe3a3c4c	-0.18187064
78	0xbe896e96	-0.26842183
79	0x3d0f8d44	0.03504683
80	0x3e3a9b3e	0.18223283
81	0xbea75c2c	-0.3268751
82	0x3e7a21de	0.24426982
83	0xbe230a4e	-0.159219
84	0xbc9d0cc8	-0.019171134
85	0xbeba6fbf	-0.3641338
86	0xbe841f7e	-0.25805277
87	0x3e3caa43	0.18424325
88	0xbe9269ad	-0.2859625
89	0x3e53c5bb	0.20680897

net.model.convblock1.0.bias f4 [10]
0	0x3d70ce2b	0.058790367
1	0xbe4dae52	-0.20086029
2	0x3d2a4c0b	0.041576426
3	0x3e60a078	0.21936214
4	0xbe6dc5d6	-0.2322
5	0xbe71a60d	-0.235985
6	0xbe0ba695	-0.13637765
7	0x3df8bc7f	0.12145328
8	0xbdfd5392	-0.123694554
9	0xbe99fa5a	-0.30073816

net.model.convblock1.2.weight f4 [10]
0	0x3f7a5a3a	0.97793925
1	0x3f81ed93	1.0150627
2	0x3f800c71	1.0003797
3	0x3f816872	1.0109999
4	0x3f820e08	1.0160532
5	0x3f822a58	1.0169172
6	0x3f7e2942	0.99281704
7	0x3f869e7a	1.0517113
8	0x3f82e2be	1.0225446
9	0x3f5e8724	0.8692496

net.model.convblock1.2.bias f4 [10]
0	0x3cf41627	0.02979572
1	0x3d2d03ac	0.04223983
2	0xbc7faa0a	-0.015604505
3	0xbc26bf31	-0.0101774195
4	0x3c502a02	0.012705328
5	0x3c5912df	0.013249128
6	0x3c73352f	0.014844223
7	0x3e078d25	0.13237436
8	0x3c887384	0.016656645
9	0xbdaff73e	-0.085920796

net.model.convblock1.2.running_mean f4 [10]
0	0x3db94ca9	0.09047825
1	0x3eaa394e	0.33246845
2	0x3e81725b	0.2528256
3	0x3e7acfbe	0.2449331
4	0x3d8a2aed	0.06746469
5	0x3dada41b	0.08478566
6	0x3d830ef7	0.06399339
7	0x3ecf81a7	0.40528604
8	0x3e183b91	0.14866473
9	0x3ce14840	0.027500272

net.model.convblock1.2.running_var f4 [10]
0	0x3d18f502	0.037343033
1	0x3f22df2b	0.6362178
2	0x3ea3970f	0.31951186
3	0x3dbd5bdb	0.09246036
4	0x3d1a808f	0.03772026
5	0x3d85ded2	0.0653664
6	0x3d3e2d2f	0.04642981
7	0x3f43bdda	0.76461565
8	0x3c520cd4	0.012820441
9	0x3b43b628	0.0029863212

net.model.convblock2.0.weight f4 [16, 10, 3, 3]
0	0xbce0600b	-0.027389547
1	0xbd884ba2	-0.06655051
2	0xbe05187e	-0.12997624
3	0xbd7f94f5	-0.062397916
4	0xbd53186a	-0.051536955
5	0x3da3a5cd	0.07990608
6	0xbc51531f	-0.012776165
7	0xbd2b3e6c	-0.041807577
8	0x3ccc9c4b	0.02497687
9	0xbd677701	-0.056509975
10	0x3e01c971	0.126745
11	0x3dbf4fdb	0.09341403
12	0xbd59e592	-0.05319745
13	0x3d227394	0.039661005
14	0x3c443e99	0.011977815
15	0xbdd3bf45	-0.10339216
16	0xbdaa29bd	-0.08308742
17	0xbdc456d7	-0.09586876
18	0xbd87ce53	-0.0663115
19	0xbd226ba8	-0.03965345
20	0x3c608f7e	0.013706086
21	0xbd87e30d	-0.066351034
22	0xbc86ed9e	-0.016470727
23	0xbd18bb6c	-0.037288114
24	0x3d5c7533	0.053822707
25	0x3d038d0e	0.032116942
26	0xbddfc33e	-0.10925911
27	0xbde4f8bb	-0.11180254
28	0xbdbe7f00	-0.09301567
29	0x3b9dccfc	0.004815696
30	0x3d8a6cd9	0.06759042
31	0x3cb00bf6	0.021490078
32	0xbc3db6df	-0.011579244
33	0x3c8add0e	0.01695111
34	0x3e083cdd	0.13304467
35	0x3c90f3a8	0.01769431
36	0xbda44459	-0.08020849
37	0x3c29d69c	0.010366108
38	0x3d9aca59	0.07558126
39	0xbd8742a0	-0.066045046
40	0xbcf7eaad	-0.03026327
41	0x3d83edfb	0.064418755
42	0x3d0f0c27	0.0349237
43	0xbcb675c6	-0.022272956
44	0xbc64a41a	-0.0139551405
45	0xbdd4c73d	-0.10389564
46	0xbdce8e44	-0.10085729
47	0x3cf6ed58	0.030142471
48	0x3cf0830b	0.029359361
49	0xbd3de52a	-0.046361126
50	0xbda6522f	-0.08121144
51	0x3d708c71	0.058727685
52	0x3b0e87fe	0.0021748538
53	0x3d7fd020	0.062454343
54	0x3da6891c	0.0813162
55	0x3d028b94	0.031871393
56	0xbd9d3937	-0.076769285
57	0xbde7ead7	-0.11324089
58	0xbde2653f	-0.110544674
59	0xbbdac64b	-0.0066764704
60	0xbc40cce6	-0.011767602
61	0x3d19b1e8	0.03752318
62	0x3d0cd3b9	0.034381602
63	0xbe001005	-0.12506111
64	0x3c8d4ed7	0.017249508
65	0x3d9abd60	0.07555652
66	0xbd577f50	-0.05261165
67	0x3d884f42	0.06655742
68	0xbd947576	-0.072489664
69	0xb9f7721c	-0.0004719653
70	0xbcfc1b75	-0.030774811
71	0xbd915f33	-0.07098236
72	0xbd78c1b8	-0.06073162
73	0xbcff3522	-0.031153265
74	0xbdbdbb92	-0.09264292
75	0xbcffe6cc	-0.031237982
76	0x3d65f663	0.056143176
77	0xbd87ac67	-0.0662468
78	0x3d8d9e6d	0.06914983
79	0x3d08466d	0.03327029
80	0x3d869469	0.06571276
81	0x3ce3474c	0.027743958
82	0x3de54124	0.11194065
83	0xbd7f16d9	-0.06227765
84	0x3dc62a4b	0.096760355
85	0x3d8bb55d	0.06821702
86	0xbd4b4973	-0.049630594
87	0xbc4163fe	-0.011803625
88	0x3cd64572	0.026156161
89	0xbc9a6c61	-0.018850507
90	0x3ba0ef30	0.004911326
91	0x3b257832	0.0025248644
92	0xbd552f2e	-0.052046947
93	0x3d4159f2	0.04720492
94	0xbd88dd58	-0.06682843
95	0xbcd34d70	-0.025793761
96	0xbd235185	-0.039872665
97	0xbd317ef6	-0.04333397
98	0xbd0e33e7	-0.034717467
99	0xbc25b818	-0.010114692
100	0xbc2d484f	-0.010576322
101	0x3c04b0ea	0.00809882
102	0x3a656740	0.0008751042
103	0x3d554e41	0.052076582
104	0xbd96a023	-0.073547624
105	0xbc03895d	-0.008028355
106	0xbd3cf87d	-0.046135414
107	0x3d54022c	0.051759884
108	0xbd5d7ebc	-0.05407594
109	0x3d790fbd	0.060806025
110	0x3d1157b9	0.03548405
111	0xbd8955bb	-0.06705805
112	0xbd4a1fa6	-0.04934659
113	0x3d8dd857	0.06926029
114	0xbd6937d7	-0.05693802
115	0x3c14205a	0.009040916
116	0x3b2c842d	0.00263239
117	0x3cf50a01	0.029911997
118	0xbddcf312	-0.107885495
119	0x3c566982	0.013086678
120	0xbc4c85b7	-0.012483052
121	0xbda50bc0	-0.08058882
122	0x3dafdafd	0.085866906
123	0xbd1f73c2	-0.038928755
124	0xbd16a8f7	-0.03678223
125	0xbd8d6605	-0.06904224
126	0x3c6c38cc	0.014417838
127	0x3d9fb1a7	0.07797556
128	0xbe132e3e	-0.14373109
129	0x3cbec43f	0.023286937
130	0x3dd08657	0.10181873
131	0x3d33840a	0.043827094
132	0x3d9c38ee	0.07628046
133	0xbcb6e870	-0.022327632
134	0xbd48e2c5	-0.04904439
135	0xbda687e2	-0.08131386
136	0xbd727517	-0.059193697
137	0xbdc55844	-0.09635976
138	0xbc754674	-0.014970411
139	0x3d8a7283	0.067601226
140	0xbd7047a1	-0.05866206
141	0x3bb1ec11	0.0054297526
142	0xbd5a3ebe	-0.053282492
143	0xbdc36d66	-0.095423505
144	0xbd5edf74	-0.05441232
145	0xbd15d1e1	-0.03657711
146	0x3dd51137	0.10403674
147	0xbd754ffb	-0.05989073
148	0x3dbf483d	0.0933995
149	0xbc8bcbc8	-0.017064944
150	0x3cf0584c	0.029338978
151	0xbd9861c8	-0.07440525
152	0x3dc08b4a	0.09401567
153	0x3da83186	0.08212571
154	0xbdc34cb1	-0.09536112
155	0x3da3ab7b	0.07991692
156	0x3b8bfb06	0.0042718677
157	0xbd86915b	-0.06570693
158	0x3c26ec6a	0.010188201
159	0xbdb15200	-0.086582184
160	0xbd15c57a	-0.03656528
161	0x3c69b173	0.014263499
162	0xbd5fd34c	-0.054644868
163	0x3c78c4d1	0.015183643
164	0x3dc0a45f	0.09406351
165	0xbd21fc5f	-0.03954732
166	0x3c646be6	0.013941741
167	0x3dcaef79	0.09908957
168	0x3d2f2946	0.04276397
169	0xbd22e444	-0.039768472
170	0x3d6ea8f5	0.0582666
171	0xbdcd3969	-0.10020716
172	0xbd22002c	-0.039550945
173	0xbcb9a905	-0.022663603
174	0xbb94b8c7	-0.0045386287
175	0xbc3edea8	-0.011649765
176	0x3d9475ab	0.07249006
177	0xbd0e73bd	-0.034778345
178	0xbdbe3060	-0.092865705
179	0xbc02c035	-0.007980396
180	0x3d19973d	0.037497748
181	0x3d73afa6	0.059493683
182	0x3db5131a	0.08841534
183	0x3b8eb803	0.004355432
184	0xbd5cbdf0	-0.053892076
185	0x3d67ea6f	0.056620058
186	0xbdb8bf89	-0.090209074
187	0x3de6af30	0.11263883
188	0xbb20c149	-0.002452927
189	0x3bda00c3	0.006652923
190	0xbcbd6be8	-0.023122743
191	0x3daf2c47	0.08553367
192	0x3ca44007	0.020050062
193	0x3bb875e0	0.005629286
194	0x3df36614	0.11884704
195	0xbdce8096	-0.100831196
196	0xbdad17f3	-0.084518336
197	0x3d947abf	0.072499745
198	0x3bb2ecb4	0.005460346
199	0xbd28cbac	-0.04120986
200	0x3c07bd7b	0.008284922
201	0x3c030acf	0.007998182
202	0xbc421404	-0.011845592
203	0x3d10ad0a	0.035321273
204	0xbdb29b8d	-0.08721075
205	0x3cf2153f	0.029551147
206	0xbd9c7dc2	-0.07641174
207	0x3bd26fc9	0.0064220172
208	0x3da45e01	0.08025742
209	0x3cf0f9f7	0.029416068
210	0xbdd394aa	-0.1033109
211	0xbd894a83	-0.06703665
212	0xbcc9c922	-0.02463204
213	0xbe0b96db	-0.13631766
214	0x3b9140a7	0.004432756
215	0x3d0db44e	0.03459578
216	0xbc901739	-0.017589198
217	0xbcbf4d90	-0.023352414
218	0xbbccfc21	-0.006255642
219	0xbdf087ab	-0.117446266
220	0xbd94bc21	-0.07262445
221	0x3df6179d	0.120162226
222	0x3b0fe2a2	0.0021955152
223	0x3d96a1fb	0.07355114
224	0xbd8171c7	-0.063205294
225	0xbd500a57	-0.05079111
226	0xbd0f2975	-0.034951646
227	0x3c3b5cc2	0.011435689
228	0xbd9f93ec	-0.07791886
229	0xbd86dcd8	-0.06585091
230	0xbc909a4a	-0.017651696
231	0x3d1fb101	0.038987163
232	0xbd463c80	-0.04839754
233	0xbd6c6f48	-0.057723314
234	0xbcc49a48	-0.023999348
235	0xbc6021a7	-0.013679898
236	0x3d031226	0.03199973
237	0x3ca30d70	0.019903868
238	0xbdab4980	-0.083636284
239	0x3d2796cf	0.040915307
240	0xbcb76ba0	-0.022390187
241	0x3be4238a	0.0069622444
242	0xbd2ff5a4	-0.04295887
243	0xbdb310d1	-0.08743442
244	0x3e025550	0.12727857
245	0x3de64f69	0.11245615
246	0xbd57f04e	-0.052719407
247	0xbd3ef077	-0.046616044
248	0xbc88b87d	-0.016689533
249	0xbd04612e	-0.03231924
250	0x3ac2fafd	0.0014875826
251	0x3d8c6be6	0.068565175
252	0x3cbe65cd	0.023241902
253	0x3c032cca	0.008006284
254	0xbddb2008	-0.10699469
255	0x3d14d39b	0.036334615

net.model.convblock2.0.bias f4 [16]
0	0xbda2c3ff	-0.079475395
1	0x3c598166	0.01327548
2	0x3c718b73	0.01474272
3	0x3d92cfc2	0.07168533
4	0x3d054e54	0.032545403
5	0x3b691106	0.0035563125
6	0xbda683f1	-0.081306346
7	0xbde008dd	-0.109391905
8	0x3c504489	0.012711653
9	0xbda9499a	-0.082659915
10	0x3ccdaa90	0.025105745
11	0xbcd5a330	-0.02607879
12	0xbd354b58	-0.044261307
13	0x3d9144b6	0.07093184
14	0x3d0085cd	0.031377602
15	0x3b47adae	0.0030468511

net.model.convblock2.2.weight f4 [16]
0	0x3f85149a	1.0396912
1	0x3f751c70	0.9574652
2	0x3f8aa01d	1.0830113
3	0x3f6faec4	0.93626046
4	0x3f85994b	1.0437406
5	0x3f68c7c7	0.90929836
6	0x3f805e90	1.0028858
7	0x3f870a39	1.0549995
8	0x3f84c9fd	1.0374142
9	0x3f7bb750	0.9832659
10	0x3f841ef8	1.0321951
11	0x3f736b66	0.9508575
12	0x3f728f3c	0.9474981
13	0x3f81a490	1.0128345
14	0x3f83424c	1.0254607
15	0x3f80b4e2	1.0055201

net.model.convblock2.2.bias f4 [16]
0	0xbda01bea	-0.07817824
1	0x3d6f2e38	0.058393687
2	0x3b60b2f6	0.0034286357
3	0xbdd1ffec	-0.10253891
4	0xbdd313d8	-0.10306519
5	0xbda3731a	-0.07980938
6	0xbd02669e	-0.031836145
7	0xbdb0ff4e	-0.086424455
8	0xbd7e842e	-0.062137775
9	0xb9b2195a	-0.00033969694
10	0xbcb58b92	-0.022161279
11	0xbdb96d78	-0.09054083
12	0xbc9f416c	-0.019440375
13	0xbd4cb802	-0.04998017
14	0xbda1d715	-0.07902352
15	0x3c5e4e4d	0.013568473

net.model.convblock2.2.running_mean f4 [16]
0	0x3e7a79c5	0.24460514
1	0x3eb28028	0.348634
2	0x3e81c5f4	0.2534634
3	0x3e9c8fd4	0.30578482
4	0x3e98ce8c	0.29845083
5	0x3e42295f	0.18961094
6	0x3de41ef4	0.11138716
7	0x3e14dff4	0.14538556
8	0x3e9e15c2	0.30875975
9	0x3e288c89	0.1645986
10	0x3e70ddbd	0.23522086
11	0x3e04074a	0.12893406
12	0x3e5929d6	0.21207365
13	0x3ebeb7bc	0.37249553
14	0x3ea5e003	0.3239747
15	0x3ef43a21	0.477006

net.model.convblock2.2.running_var f4 [16]
0	0x3d887e51	0.06664718
1	0x3da4c1e3	0.080447935
2	0x3e1bb497	0.15205608
3	0x3dc5ff9e	0.09667896
4	0x3e52ef4a	0.20599094
5	0x3e45ca9f	0.19315575
6	0x3dc16400	0.094429016
7	0x3d196824	0.037452832
8	0x3d9961cf	0.07489359
9	0x3e211470	0.15730453
10	0x3e60bc4d	0.21946831
11	0x3da605ce	0.08106576
12	0x3e7b7e2e	0.24559852
13	0x3dc8ff02	0.09814264
14	0x3e608123	0.21924262
15	0x3e307edb	0.17235892

net.model.convblock3.0.weight f4 [8, 16, 1, 1]
0	0xbe654e74	-0.22393209
1	0xbe3ed032	-0.18634108
2	0x3d3719d9	0.044702385
3	0xbd187778	-0.03722331
4	0xbe2d23fb	-0.16908257
5	0x3e24034e	0.16016886
6	0x3e5cd42a	0.21565309
7	0x3cb90973	0.022587514
8	0xbdbf5259	-0.093418784
9	0x3e715b91	0.23570086
10	0x3d2aef06	0.041731857
11	0x3c1dc4ae	0.009629412
12	0xbd98a783	-0.07453825
13	0xbcccf78e	-0.025020387
14	0xbd682ec8	-0.05668524
15	0xbe83cc25	-0.25741687
16	0xbe602adc	-0.2189135
17	0xbe0822ef	-0.13294576
18	0xbc0f0101	-0.008728267
19	0x3e33e87f	0.17569159
20	0xbe4b566e	-0.19857189
21	0x3e1bab84	0.15202147
22	0xbe011569	-0.12605824
23	0x3e5c810a	0.215336
24	0xbe6fe94e	-0.23428842
25	0xbe40e17e	-0.18836018
26	0xb793c171	-1.7613844e-05
27	0x3e44004d	0.1914074
28	0xbd2e9c41	-0.042629484
29	0xbc61dc7b	-0.013785477
30	0xbe4877af	-0.19576906
31	0xbe044f03	-0.12920766
32	0xbd5297a6	-0.051414154
33	0x3e148c5f	0.14506672
34	0x3e157ba4	0.14597946
35	0x3d0574b6	0.032582007
36	0xbdaf1192	-0.08548273
37	0xbe2be7ac	-0.16787595
38	0x3e25800a	0.16162124
39	0xbe35465a	-0.17702618
40	0xbe90666c	-0.28203142
41	0x3e0910f9	0.13385381
42	0x3e33ab86	0.175459
43	0x3e1b0aeb	0.15140884
44	0x3e4d10bd	0.20025916
45	0x3d6b43a1	0.057437543
46	0xbdd1a947	-0.10237365
47	0xbe032b50	-0.12809491
48	0x3d26102c	0.040542766
49	0xbd35a999	-0.044351194
50	0xbe192ea4	-0.14959198
51	0x3df24d15	0.118311085
52	0xbe1615f4	-0.14656812
53	0x3e26b254	0.16278964
54	0xbb8b4f87	-0.0042514238
55	0xbdcbc655	-0.09949938
56	0x3e0b4460	0.13600302
57	0xbe143026	-0.14471492
58	0x3d661fc7	0.05618265
59	0x3c1fae49	0.009746143
60	0xbd6473f2	-0.055774637
61	0xbe0cafb1	-0.13738896
62	0xbe893595	-0.26798692
63	0xbdbe199e	-0.0928223
64	0x3e0e4fce	0.1389763
65	0x3d548e47	0.0518935
66	0x3e2adcc8	0.16685784
67	0xbe6727e2	-0.22573808
68	0x3e544b8b	0.20731942
69	0xbe3bf89e	-0.18356559
70	0xbc511f57	-0.01276382
71	0xbc3d26f1	-0.011544929
72	0x3db368ce	0.08760224
73	0xbd1b282d	-0.03788011
74	0x3de8d112	0.11368002
75	0xbce8936c	-0.028390609
76	0x3e2c2833	0.1681221
77	0xbdaa0b6e	-0.08302961
78	0x3d270384	0.040774837
79	0xbe15d225	-0.14630945
80	0xbe21802e	-0.15771553
81	0x3e6b9209	0.23004927
82	0x3d37f9f7	0.04491612
83	0x3bcadb26	0.0061906753
84	0x3e717c3b	0.23582546
85	0x3e34d15d	0.17657991
86	0xbca5b60e	-0.020228412
87	0xbd95544a	-0.072914675
88	0xbd9f76eb	-0.07786354
89	0xbdbf5483	-0.09342291
90	0x3b027d2f	0.001991104
91	0x3e0bb1bf	0.13642024
92	0xbe6280b9	-0.22119416
93	0xbea2c656	-0.31791943
94	0x3e185025	0.14874323
95	0x3e293351	0.16523482
96	0x3ea925e2	0.33036715
97	0xbe424761	-0.18972541
98	0xbd1fea18	-0.03904161
99	0x3e577d74	0.2104395
100	0xbd1b2657	-0.03787836
101	0x3e176315	0.1478389
102	0x3da35ca4	0.07976654
103	0x3e637677	0.2221316
104	0x3e549507	0.20759974
105	0xbdc44d3e	-0.09585045
106	0xbda1916c	-0.07889065
107	0x3dfdd0c1	0.12393332
108	0xbe1089e8	-0.14115107
109	0xbe11a31e	-0.1422238
110	0x3e16218d	0.14661236
111	0x3ca002ac	0.019532524
112	0xbe28f102	-0.16498187
113	0x3de74728	0.11292869
114	0xbe9d8ba1	-0.3077059
115	0x3e492247	0.19641982
116	0xbc8a847f	-0.016908882
117	0xbdeec694	-0.116589695
118	0xbe217ed4	-0.15771037
119	0x3d1cd44b	0.038288396
120	0xbe23a9e3	-0.15982775
121	0xbe13055b	-0.14357512
122	0xbdbdb750	-0.0926348
123	0xbc0b1310	-0.008488432
124	0xbdd5283a	-0.10408063
125	0x3e78f247	0.24311171
126	0xbe86228e	-0.26198238
127	0x3e1d00d7	0.15332352

net.model.convblock3.0.bias f4 [8]
0	0x3e1d3a25	0.15354212
1	0xbe0ce2d0	-0.13758397
2	0x3df77aff	0.120840065
3	0xbe8e71a4	-0.27821076
4	0x3cf717bc	0.030162685
5	0x3d490afe	0.04908275
6	0x3c35709f	0.011074214
7	0xbb2c83a6	-0.0026323586

net.model.convblock3.2.weight f4 [8]
0	0x3f846ac9	1.0345088
1	0x3f793924	0.97352815
2	0x3f8c27fc	1.0949702
3	0x3f707831	0.939334
4	0x3f7314b8	0.9495349
5	0x3f89bc91	1.0760671
6	0x3f80574c	1.0026641
7	0x3f6e7319	0.93144375

net.model.convblock3.2.bias f4 [8]
0	0x3bde322d	0.0067808838
1	0xbd9e5345	-0.07730726
2	0x3c9c44e7	0.019075824
3	0xbd8a60a1	-0.06756712
4	0xbd08b83a	-0.033378817
5	0xba05f06a	-0.0005109372
6	0xbddd4758	-0.10804623
7	0x3cc83f30	0.024444193

net.model.convblock3.2.running_mean f4 [8]
0	0x3eadd506	0.33951586
1	0x3e51adb3	0.20476417
2	0x3efef007	0.497925
3	0x3db496c2	0.08817817
4	0x3e916591	0.28397802
5	0x3ed53ac6	0.41646403
6	0x3f07fec1	0.531231
7	0x3eae3043	0.34021196

net.model.convblock3.2.running_var f4 [8]
0	0x3f26d9cf	0.651761
1	0x3e80cd22	0.25156504
2	0x3f80ce60	1.0062981
3	0x3df203f3	0.118171595
4	0x3eb9b6c1	0.36272243
5	0x3f74ac31	0.95575243
6	0x3f77e984	0.9684069
7	0x3e7b0bbd	0.24516197

net.model.convblock4.0.weight f4 [16, 8, 3, 3]
0	0xbdb9ef63	-0.090788625
1	0xbd4964c5	-0.049168367
2	0x3c0cf7ab	0.0086039705
3	0xbd5d8ac9	-0.054087434
4	0x3d4d55b2	0.050130554
5	0xbb8ff09f	-0.004392698
6	0x3c576c11	0.013148324
7	0x3e00ed34	0.12590486
8	0xbc7f21df	-0.01557204
9	0x3d8a0fd4	0.067413
10	0xbdf5dedb	-0.12005397
11	0xbca1db57	-0.01975791
12	0xbda51f33	-0.080625914
13	0x3d9616f3	0.07328596
14	0xbcfdeb91	-0.030996116
15	0x3d6b2142	0.057404764
16	0xbd5d24f5	-0.053990323
17	0xbc184596	-0.009293934
18	0xbd53829e	-0.051638238
19	0x3e03b873	0.1286333
20	0xbdb6abf3	-0.089195155
21	0xbd544089	-0.051819358
22	0xbdb0ddba	-0.08636041
23	0x3d0adf5f	0.03390443
24	0x3dc6479a	0.09681626
25	0xbd9dc8d9	-0.07704324
26	0x3ddca93c	0.107744664
27	0xbda81cb7	-0.08208602
28	0x3d8a1653	0.06742539
29	0x3cc299cc	0.023754977
30	0xbaec08e5	-0.0018008022
31	0x3cdc0b1c	0.026860766
32	0xbd97407e	-0.07385348
33	0xbcc0221b	-0.023453763
34	0xbd81f012	-0.06344618
35	0x3d3404c1	0.043949846
36	0xbdb248af	-0.087052695
37	0xbca932e9	-0.020654159
38	0x3daca468	0.084297955
39	0xbd577f29	-0.052611504
40	0xbbb06ce0	-0.0053840727
41	0x3d0885eb	0.03333084
42	0x3db5df48	0.08880478
43	0x3c26d336	0.010182193
44	0xbd94545b	-0.07242652
45	0xbe013494	-0.12617713
46	0xbdc7c4f3	-0.09754362
47	0x3e176488	0.14784443
48	0x3d0b871a	0.03406439
49	0x3d2dfd53	0.042477917
50	0x3e29992f	0.16562341
51	0xbbee84ef	-0.0072790305
52	0x3d7af098	0.061264604
53	0x39d83bde	0.00041243335
54	0xbdf1cfce	-0.11807214
55	0xbd6df3f3	-0.058093976
56	0x3dd8293c	0.1055474
57	0x3da904b3	0.082528494
58	0x3d0d5c98	0.034512132
59	0x3c892bb3	0.01674447
60	0xbd4de6f2	-0.050269075
61	0x3d6d5fe3	0.057952773
62	0x3d8eea43	0.069782756
63	0xbda00644	-0.07813695
64	0x3de55e46	0.11199622
65	0x3de2a955	0.11067454
66	0xbdf79c1a	-0.12090321
67	0xbdb11968	-0.08647424
68	0xbdd7c234	-0.10535088
69	0x3d00a34c	0.031405732
70	0xbe543f78	-0.20727336
71	0xbe08f746	-0.13375577
72	0xbdf89a43	-0.12138798
73	0x3d384686	0.04498913
74	0x3df30c44	0.11867574
75	0x3d25b3b3	0.040454578
76	0xbd970b8b	-0.073752485
77	0xbca4f0ab	-0.02013429
78	0xbd3ce517	-0.046116915
79	0xbd81938d	-0.06326971
80	0x3d8b7f35	0.06811372
81	0xbc87653b	-0.016527763
82	0xbc350032	-0.01104741
83	0x3c92601e	0.017868098
84	0x3bf6fb83	0.0075373068
85	0xbd7ce856	-0.06174501
86	0xbc345e63	-0.011008832
87	0xbda2e34e	-0.07953511
88	0xbdc3b2e2	-0.095556036
89	0xbd107485	-0.03526737
90	0xbd9eed80	-0.07760143
91	0x3dfb28da	0.12263651
92	0x3d96f52a	0.0737098
93	0xbdd6584c	-0.1046606
94	0x3d21652e	0.039403133
95	0xbc544e59	-0.012958133
96	0xbd84cf18	-0.064848125
97	0xbd6c0ac7	-0.057627466
98	0x3ced356e	0.028956141
99	0x3da5f2c0	0.081029415
100	0xbe1d6879	-0.15371884
101	0x3d5e8620	0.05432713
102	0x3d274c4d	0.04084425
103	0x3d8428ff	0.06453132
104	0xbe21e91a	-0.15811577
105	0xbd825b90	-0.063651204
106	0xbd4845cf	-0.0488947
107	0xbd596f26	-0.053084515
108	0xbcc2f923	-0.023800438
109	0xbc9ca14a	-0.019119877
110	0x3e1541b4	0.14575845
111	0x3de6269f	0.11237835
112	0x3d4d23a6	0.050082825
113	0x3d52f160	0.051499724
114	0xbdc6bccf	-0.09703981
115	0x3db1f324	0.086889535
116	0xbc42bcab	-0.011885802
117	0xbde851f3	-0.113437556
118	0xbd5dfb63	-0.05419482
119	0xbd742089	-0.05960134
120	0xbd0a09e3	-0.033700835
121	0xbcc0b681	-0.023524525
122	0x3d92b979	0.07164282
123	0x3de948d0	0.11390841
124	0xbc7ff57a	-0.015622491
125	0x3e104f3c	0.14092726
126	0x3bc758d8	0.006083589
127	0xbd5d9128	-0.05409351
128	0xbdeb6a0e	-0.11494838
129	0x3d7eb12c	0.062180683
130	0xbaf57c50	-0.0018729065
131	0xbdfba2e2	-0.12286927
132	0xbd0ccb34	-0.034373477
133	0x3d01a9ee	0.0316562
134	0x3db67504	0.08909038
135	0x3d00056a	0.031255163
136	0x3d05db2a	0.032679714
137	0xbdd3ac47	-0.10335594
138	0x3d28579e	0.041099183
139	0xbcd4325a	-0.025902916
140	0xbdcf0fa1	-0.10110403
141	0xbc9aa1ef	-0.018876044
142	0x3daab5d3	0.083354615
143	0xbd307b47	-0.043086316
144	0x3ca8d3b5	0.020608762
145	0x3d8a07c0	0.067397594
146	0x3de2ca74	0.11073771
147	0x3c25c79c	0.010118391
148	0x3ce913af	0.028451769
149	0xbdcf545e	-0.10123514
150	0x3d201efe	0.039092056
151	0x3ce5993b	0.028027168
152	0x3db0bdda	0.08629961
153	0x3da87503	0.08225443
154	0xbc2feb6f	-0.010737284
155	0xbd50f51c	-0.051015005
156	0xbd99a09f	-0.07501339
157	0x3e122bfe	0.14274594
158	0xbcc05178	-0.023476347
159	0x3d17ea37	0.0370886
160	0xbcfdcd97	-0.030981822
161	0xbe2319c9	-0.15927805
162	0x3dc91662	0.09818722
163	0x3dc4642c	0.09589419
164	0x3dd40799	0.10353012
165	0x3d17c6c8	0.037054807
166	0xbc33d978	-0.010977142
167	0xbe15e5e4	-0.14638478
168	0xbd86c373	-0.06580248
169	0xbd736216	-0.059419714
170	0x3d8c33bc	0.06845805
171	0xbd342419	-0.043979738
172	0xbda84b0b	-0.08217438
173	0x3c9a7608	0.01885511
174	0xbbbdd4af	-0.005793176
175	0x3c92d139	0.01792203
176	0x3d8b6c56	0.06807773
177	0xbd8e15df	-0.06937765
178	0x3d87ff5d	0.066405036
179	0x3d95b6b6	0.0731024
180	0x3df7388c	0.12071332
181	0x3ddcaf60	0.107756376
182	0xbd0e2892	-0.03470666
183	0xbd89a02b	-0.06720003
184	0xbdd28d77	-0.102808885
185	0xbd15df72	-0.036590047
186	0x3d7153d7	0.058917847
187	0xbddbf730	-0.10740507
188	0xbdadc5a5	-0.08484963
189	0x3cf74f92	0.03018931
190	0xbdbff812	-0.093734875
191	0x3da42b75	0.08016101
192	0xbd0e3182	-0.034715183
193	0x3ca5fb96	0.020261567
194	0x3d47a806	0.048744224
195	0xbd36bcd4	-0.044613674
196	0x3d2b6564	0.04184474
197	0x3c300540	0.010743439
198	0xbd04115e	-0.032243125
199	0xbdbe099a	-0.09279175
200	0xbd6895ff	-0.056783672
201	0xbd5404f8	-0.05176255
202	0xbd840b36	-0.06447451
203	0x3c2b5e92	0.010459559
204	0x3de7c019	0.113159366
205	0x3be78c7d	0.007066308
206	0xbd503f4a	-0.050841607
207	0xbe03a670	-0.1285646
208	0x3d2035e7	0.039113905
209	0x3c8d7090	0.017265588
210	0x3c83b542	0.016077641
211	0xbbacaf4e	-0.0052699214
212	0x39f659a0	0.00046987552
213	0xbd4c6b72	-0.049907155
214	0xbc95e453	-0.01829735
215	0xbc770e7f	-0.01507914
216	0xbd09323c	-0.033495173
217	0xbdcf52b2	-0.10123195
218	0x3d854ebc	0.06509158
219	0xbe176c2f	-0.14787363
220	0x3cfaf654	0.030635037
221	0xbd3465e5	-0.044042487
222	0xbd561c07	-0.052272823
223	0xbdc08f02	-0.094022766
224	0xbdd27af1	-0.102773555
225	0x3d3dc89d	0.046333898
226	0x3d6641de	0.05621516
227	0xbd730203	-0.05932809
228	0xbda59dd7	-0.08086746
229	0x3d1e798a	0.038690127
230	0xbdb774d9	-0.08957834
231	0xbcf915dd	-0.030405933
232	0xbd17b0a7	-0.037033703
233	0x3cc9a1c1	0.024613263
234	0xbd9bd267	-0.076084904
235	0xbcb317f7	-0.021862013
236	0xbd290c15	-0.041271288
237	0xbe09b4e0	-0.13447905
238	0x3d8a463a	0.06751676
239	0x3d1589e4	0.036508456
240	0xbd757f17	-0.059935655
241	0xbdce6207	-0.10077291
242	0xbd049968	-0.032372862
243	0x3de9c133	0.11413803
244	0x3e0b47a1	0.13601543
245	0xbe031415	-0.1280063
246	0x3de31f5c	0.11089966
247	0x3e142cbb	0.14470188
248	0xbbffea8c	-0.0078099426
249	0x3de17929	0.110094376
250	0x3d066a08	0.032815963
251	0x3d78ecba	0.060772635
252	0x3db75211	0.089512
253	0xbd144905	-0.03620245
254	0x3c7d7ef2	0.015472161
255	0xbd34920a	-0.044084586

net.model.convblock4.0.bias f4 [16]
0	0x3cf0240c	0.029314063
1	0xbd74e6df	-0.05979049
2	0xbda97b7d	-0.08275507
3	0xbdfd2353	-0.12360253
4	0xbdb708fd	-0.08937261
5	0xbc950fd9	-0.018196033
6	0x3d58eb5e	0.05295884
7	0x3c10afb8	0.008830957
8	0x3db50005	0.08837894
9	0x3dc0647b	0.09394165
10	0xbd8dccfb	-0.069238625
11	0xbdd05bcc	-0.10173759
12	0x3d84b777	0.06480306
13	0x3df1e4ad	0.118111946
14	0xbd083517	-0.033253755
15	0x3dd41bcb	0.103568636

net.model.convblock4.2.weight f4 [16]
0	0x3f815810	1.0105
1	0x3f834f66	1.0258605
2	0x3f75234b	0.9575698
3	0x3f80c114	1.0058923
4	0x3f7fd438	0.99933195
5	0x3f895ffb	1.0732416
6	0x3f6e94e6	0.9319595
7	0x3f873c5d	1.0565296
8	0x3f78b0ed	0.9714497
9	0x3f7518a5	0.9574073
10	0x3f7709f4	0.9649956
11	0x3f801bd7	1.0008496
12	0x3f815550	1.010416
13	0x3f81712c	1.0112662
14	0x3f6c7b9c	0.9237611
15	0x3f865453	1.0494484

net.model.convblock4.2.bias f4 [16]
0	0x3dc703c3	0.09717514
1	0xbc953f42	-0.01821864
2	0xbd1e7e17	-0.038694467
3	0x3d7a6d95	0.06113966
4	0x3d9e052b	0.077158295
5	0x3de002f4	0.10938063
6	0x3c54c893	0.012987274
7	0x3d53e591	0.051732603
8	0x3d11e393	0.035617422
9	0xbbec33ad	-0.0072083087
10	0x3d8fbe16	0.07018678
11	0xbb40ae4d	-0.0029400766
12	0x3c94dccb	0.018171689
13	0x3d79bfff	0.060974117
14	0x3d24ef83	0.04026748
15	0x3e007c8d	0.12547512

net.model.convblock4.2.running_mean f4 [16]
0	0x3e9a871c	0.30181205
1	0x3e933d0c	0.28757513
2	0x3e5f8b56	0.21830496
3	0x3e2d1b96	0.16905054
4	0x3e2724c7	0.16322623
5	0x3ea86f91	0.32897618
6	0x3e932538	0.28739333
7	0x3e9b6e4a	0.3035758
8	0x3ee060f9	0.43823984
9	0x3e7c557f	0.24641989
10	0x3e4ea685	0.2018071
11	0x3e66cc5c	0.22538894
12	0x3e691d72	0.22765139
13	0x3e918477	0.28421375
14	0x3e7e3c22	0.24827626
15	0x3e9fafd4	0.31188834

net.model.convblock4.2.running_var f4 [16]
0	0x3e906d5b	0.28208432
1	0x3e3ffb6e	0.18748257
2	0x3e482a9b	0.19547503
3	0x3e4b5dc3	0.19859986
4	0x3e070bfb	0.13188164
5	0x3ef11a4d	0.47090378
6	0x3e607b3a	0.21922007
7	0x3e287b03	0.16453175
8	0x3e993ea9	0.29930618
9	0x3e808d2c	0.25107706
10	0x3e11b46a	0.14228979
11	0x3e4d1dca	0.20030895
12	0x3e196571	0.14980103
13	0x3e0428c6	0.12906179
14	0x3e42ac7d	0.19011112
15	0x3e753ad0	0.23948216

net.model.convblock5.0.weight f4 [16, 16, 3, 3]
0	0xbd8c6751	-0.068556435
1	0xbcbfc92f	-0.023411362
2	0x3d1628be	0.03665995
3	0xbd962417	-0.07331102
4	0xbcc84354	-0.024446167
5	0xbdab7687	-0.08372217
6	0xbd02caa5	-0.031931538
7	0xbd7999ec	-0.060937807
8	0xbdc1a6b8	-0.09455627
9	0xbc67bfe6	-0.014144873
10	0x3d8cf0ae	0.068818435
11	0xbd3246e8	-0.043524653
12	0x3caa8eff	0.020820139
13	0xbd2c2768	-0.04202977
14	0xbda0f1cf	-0.07858621
15	0xbc9272dc	-0.017877035
16	0xbd639e6d	-0.05557101
17	0xbd9e67d1	-0.07734645
18	0x3ca4eae9	0.020131545
19	0xbd841bbf	-0.06450605
20	0xbca3c581	-0.019991638
21	0xba8eef2e	-0.0010905021
22	0xbc0e08fa	-0.008669132
23	0x3d998ba4	0.074973375
24	0xbcdc7f91	-0.026916297
25	0x3d628f08	0.055312186
26	0xbddb9028	-0.10720855
27	0xbcc26ca5	-0.023733446
28	0x3db51729	0.08842308
29	0xbcd911c7	-0.026497735
30	0x3c319cc4	0.0108405985
31	0x3d5085a1	0.05090869
32	0xbad32ab0	-0.0016110744
33	0xbdf54a71	-0.11977089
34	0xbd0be22d	-0.034151245
35	0xbd196441	-0.037449125
36	0xbcb5af85	-0.02217842
37	0xbd6d533a	-0.0579407
38	0x3d545cac	0.05184619
39	0xbddec037	-0.10876506
40	0xbbf28716	-0.0074013574
41	0xbc7a9096	-0.015293261
42	0xbd0bd46b	-0.034138124
43	0xbd216033	-0.039398383
44	0xbb6a6914	-0.0035768198
45	0x3c9e3354	0.019311585
46	0xbd51a977	-0.051187005
47	0xbdc39d91	-0.09551538
48	0x3d9e1074	0.07717982
49	0xbc8cf312	-0.017205749
50	0xbd059fd6	-0.032623135
51	0xbd020925	-0.031747002
52	0xbd9514ae	-0.07279335
53	0xbded64c6	-0.11591487
54	0x3d94cb64	0.07265356
55	0xbd3a83ae	-0.045535736
56	0xbd89b21b	-0.06723424
57	0x3d8a0359	0.0673892
58	0x3c63b1a2	0.013897331
59	0x3c60b34f	0.0137146255
60	0xbd8e4d0d	-0.0694829
61	0x3c7f2cbf	0.015574633
62	0xbdb29b49	-0.087210245
63	0x3d3c72b3	0.046007823
64	0x3d2391c7	0.039933946
65	0x3dacba5c	0.08433983
66	0xbe03f658	-0.12886941
67	0xbd5f5292	-0.054522105
68	0x3cfaccad	0.030615175
69	0xbc1b9874	-0.009496797
70	0xbda8919d	-0.082308985
71	0xbd0771fb	-0.033067685
72	0x3dc85604	0.09782031
73	0xbd1ef89e	-0.03881132
74	0xbdc52b61	-0.096274145
75	0x3c15db7a	0.009146566
76	0x3cd3b420	0.025842726
77	0xbac62691	-0.0015117695
78	0x3cbcc23b	0.023041835
79	0x3d6d5176	0.057939015
80	0xbd9872a0	-0.07443738
81	0xbcdd7bda	-0.027036596
82	0x3a2e5de7	0.0006651566
83	0xbcf89c4c	-0.030347966
84	0x3d6cb6f6	0.057791673
85	0xbb85cef2	-0.0040835077
86	0xbd3a6a9d	-0.04551183
87	0x3d8f1697	0.069867305
88	0x3c51dc7f	0.012808918
89	0xbddb923e	-0.10721253
90	0x3c4bbbea	0.012434939
91	0xbb2a22c4	-0.0025960663
92	0xbd5e1360	-0.054217696
93	0x3bbaeeba	0.005704728
94	0x3d744ff1	0.05964655
95	0xbd38b176	-0.045091115
96	0x3d433223	0.047655236
97	0x3d8ea740	0.06965494
98	0x3d15c775	0.03656717
99	0xbd7ff051	-0.062485043
100	0xbc07cf79	-0.008289211
101	0xbcf33ac1	-0.029691102
102	0xbc0afa09	-0.008482465
103	0xbca6a4c8	-0.020342246
104	0xbcb660eb	-0.022263011
105	0xbc3ed148	-0.011646576
106	0x3ca37f73	0.019958233
107	0xbcdbb77d	-0.026820892
108	0x3de306b4	0.11085263
109	0x3c9195cf	0.01777163
110	0x3d8aed6f	0.06783568
111	0xbd041c25	-0.032253403
112	0xbd83d12d	-0.064363815
113	0xbdea209a	-0.114319995
114	0x3cc714df	0.024301944
115	0xbc07f328	-0.008297719
116	0xbd319274	-0.04335256
117	0xbc9213b8	-0.017831668
118	0xbcbdb98c	-0.023159765
119	0xbd85436a	-0.06506999
120	0x3d1b91fc	0.03798102
121	0x3d6574e9	0.056019697
122	0xbbb43709	-0.0054997248
123	0xbca528b7	-0.020161016
124	0x3d26c1aa	0.040712036
125	0x3d51455e	0.051091544
126	0x3db3d753	0.08781304
127	0xbd213ca0	-0.039364457
128	0x3d3e96a3	0.046530377
129	0xbcecd413	-0.028909719
130	0xbc891724	-0.016734667
131	0x3d723564	0.05913295
132	0xbdcdedd2	-0.10055126
133	0xbd4e24db	-0.050328117
134	0x3d38d780	0.04512739
135	0x3c066d56	0.008204779
136	0xbdb3761e	-0.087627634
137	0xbda93a97	-0.08263128
138	0xbd82e252	-0.063908234
139	0xbca12b22	-0.019673888
140	0x3d143878	0.036186665
141	0x3d0957bf	0.033530947
142	0xbd4b549d	-0.04964124
143	0xbe031037	-0.12799154
144	0xbd831545	-0.06400541
145	0x3d1e6234	0.038667873
146	0x3d0505e7	0.032476332
147	0xbce4a408	-0.027910247
148	0x3c9849b4	0.018589832
149	0x3d66cdfe	0.056348793
150	0xbdf2909a	-0.11843987
151	0xbcd815d0	-0.026377589
152	0xbd2e8c0b	-0.042614024
153	0x3d8a764f	0.06760847
154	0xbda622f9	-0.08112139
155	0xbd38b404	-0.04509355
156	0xbcf3d70f	-0.029765634
157	0xbdf7a80b	-0.120925985
158	0xbd9851bf	-0.07437467
159	0xbd3ca9e4	-0.046060458
160	0x3d818b6c	0.06325421
161	0x3d96c6bb	0.073621236
162	0x3d55f169	0.05223218
163	0x3d23bdf2	0.039976068
164	0xbd12e35f	-0.03586137
165	0xbc782173	-0.015144694
166	0xbd5a9310	-0.053362906
167	0x3cb0873d	0.021548862
168	0x3d05636f	0.03256553
169	0xbc29d674	-0.010366071
170	0xbd075f91	-0.033050124
171	0xbb945c7c	-0.0045276266
172	0x3c613fbe	0.0137481075
173	0xbcefb111	-0.029259237
174	0x3d0e5959	0.034753177
175	0xbd39561f	-0.045248147
176	0xbce391b3	-0.027779436
177	0x3d496f33	0.049178313
178	0xbd5037d9	-0.05083451
179	0x3d095720	0.033530354
180	0xbd8a302b	-0.067474686
181	0xbd8d4e66	-0.06899719
182	0xbd350592	-0.044194765
183	0x3d430d4c	0.047620103
184	0xbd5e7901	-0.054314617
185	0x3d831394	0.064002186
186	0x3d1257d6	0.035728298
187	0xbc5c652f	-0.013451858
188	0xbda3ace2	-0.07991959
189	0xbd8a6d63	-0.06759145
190	0xbdd33f53	-0.103148125
191	0xbdd87be8	-0.10570508
192	0x3d0798d7	0.033104744
193	0x3bec2d78	0.0072075687
194	0x3d52ab68	0.051432997
195	0x3cf361f5	0.029709795
196	0x3ca521e1	0.020157756
197	0x3bc94b7e	0.0061430326
198	0xbcd97b07	-0.026547922
199	0x3cfaad77	0.030600293
200	0xbd7acc1d	-0.061229814
201	0xbc3f48ca	-0.011675069
202	0x3d804a9c	0.062642306
203	0xbc725181	-0.01478994
204	0xbd0794e8	-0.033100992
205	0xbd40bfdc	-0.04705797
206	0x3c0e98d6	0.008703431
207	0x3da62ba8	0.081137955
208	0x3e04350a	0.12910858
209	0x3cb2abd6	0.021810453
210	0xbdc2d7ef	-0.09513842
211	0xbb8b3bb4	-0.0042490605
212	0xbba5aaa4	-0.0050557423
213	0x3d000a99	0.031260107
214	0xbc37a69f	-0.011209159
215	0xbc5b3ec0	-0.01338166
216	0x3d7e1e43	0.06204058
217	0x3d302064	0.04299964
218	0x3ca73438	0.020410642
219	0xbc2f68cf	-0.010706141
220	0xbdc55888	-0.096360266
221	0xbdc3fa26	-0.095691964
222	0xbda85c64	-0.08220747
223	0x3d5212d1	0.051287476
224	0xbd0d07a0	-0.0344311
225	0xbc5956b6	-0.013265302
226	0xbd8b0103	-0.06787302
227	0xbd22953e	-0.03969311
228	0x3b8438fa	0.0040351124
229	0xbd1e3007	-0.03862002
230	0x3d6d247e	0.05789613
231	0x3d400e9b	0.04688893
232	0xbc6e7c43	-0.0145559935
233	0x3c740f8e	0.014896287
234	0x3c976ddb	0.018485
235	0xbc0fd418	-0.008778594
236	0xbd87bbde	-0.0662763
237	0x3d26403c	0.040588602
238	0x3d26a728	0.040686756
239	0x3d3b1020	0.045669675
240	0x3cd8a2cc	0.026444815
241	0x3d0167d3	0.031593155
242	0xbd44fbe9	-0.048091803
243	0xbe360c62	-0.17778161
244	0x3c9ecd21	0.019384922
245	0xbdb0c76b	-0.08631786
246	0xbd5a90c0	-0.0533607
247	0x3c8697e2	0.016429845
248	0x3c8846ce	0.016635325
249	0x3dc91ac9	0.09819562
250	0x3cc80bfa	0.024419773
251	0x3d22038c	0.039554164
252	0xbc2d60cb	-0.010582159
253	0xbd167b30	-0.036738575
254	0x3d36a059	0.044586513
255	0xbd3f81dd	-0.046754707

net.model.convblock5.0.bias f4 [16]
0	0xbd8d0c85	-0.068871535
1	0xbc968bf9	-0.018377291
2	0xbdfbd1bf	-0.12295865
3	0x3cf73d34	0.030180551
4	0x3c406b88	0.011744387
5	0x3bd3d406	0.006464484
6	0x3d7fcc76	0.06245085
7	0xbd5d1f2e	-0.053984813
8	0xbd0bad8b	-0.03410105
9	0xbd312b77	-0.043254342
10	0xbda6bc27	-0.08141356
11	0xbcb4b51b	-0.022059014
12	0x3c139b4a	0.009009192
13	0xbd8d19d6	-0.068896934
14	0x3d797abc	0.060908064
15	0xbdbaa6b6	-0.09113829

net.model.convblock5.2.weight f4 [16]
0	0x3f881cec	1.0633826
1	0x3f8255c6	1.0182426
2	0x3f7c0e0d	0.9845894
3	0x3f82e5cb	1.0226377
4	0x3f7c628f	0.9858789
5	0x3f75c636	0.9600557
6	0x3f7d46a9	0.98935944
7	0x3f749769	0.95543534
8	0x3f757d56	0.9589437
9	0x3f84625e	1.0342519
10	0x3f758d58	0.959188
11	0x3f84e99b	1.0383791
12	0x3f7ece24	0.99533296
13	0x3f8280e2	1.0195582
14	0x3f816e4b	1.0111784
15	0x3f7af4fa	0.98030055

net.model.convblock5.2.bias f4 [16]
0	0x3dc5864e	0.09644757
1	0x3e167a9e	0.14695212
2	0xbd5f2ae5	-0.054484267
3	0x3b05fcdc	0.0020444905
4	0xbb7311ae	-0.0037089395
5	0xbb86d108	-0.004114274
6	0x3e0fea79	0.14054288
7	0xbd9a9b09	-0.07549102
8	0xbdb9f017	-0.09078997
9	0x3d5e92b2	0.05433912
10	0xbd8ef730	-0.06980741
11	0xbb3a461f	-0.0028423143
12	0x3e0e99d0	0.13925862
13	0x3dc7818b	0.09741505
14	0x3da6885a	0.08131476
15	0x3c9c1fa5	0.019058058

net.model.convblock5.2.running_mean f4 [16]
0	0x3e8faf87	0.28063604
1	0x3e981385	0.29702392
2	0x3e53619b	0.20642702
3	0x3e85f095	0.26160112
4	0x3e78d535	0.24300082
5	0x3ebf12d0	0.3731904
6	0x3ebfbd22	0.37448984
7	0x3ea289e3	0.31745824
8	0x3e8277a5	0.25481907
9	0x3ea57049	0.3231223
10	0x3ebd5195	0.36976305
11	0x3eb82bdd	0.35970965
12	0x3e97145f	0.2950773
13	0x3e99829f	0.29982468
14	0x3eae60d4	0.3405825
15	0x3e4eaffd	0.20184322

net.model.convblock5.2.running_var f4 [16]
0	0x3e4e0fc6	0.20123205
1	0x3e606dac	0.21916837
2	0x3e251ef6	0.16125092
3	0x3e212451	0.1573651
4	0x3dc681cf	0.09692728
5	0x3e38f496	0.18062052
6	0x3e5eda08	0.2176286
7	0x3ea41f28	0.3205502
8	0x3e2cdc97	0.16881023
9	0x3e4feca7	0.2030512
10	0x3ec16247	0.37770292
11	0x3edcda04	0.43135083
12	0x3e223dcf	0.1584389
13	0x3e6fa2f5	0.23402007
14	0x3e92f013	0.28698787
15	0x3dc9c66e	0.098523006

net.model.convblock6.0.weight f4 [16, 16, 3, 3]
0	0x3d85fd35	0.06542436
1	0xbccc0034	-0.02490244
2	0x3df193e8	0.11795789
3	0xbb44d1a6	-0.0030032187
4	0xbb53f392	-0.0032341224
5	0x3c0be383	0.00853813
6	0x3bf2bcb6	0.00740775
7	0x3cb0b378	0.021569952
8	0x3dcc84ab	0.09986242
9	0x3b6e7633	0.003638637
10	0x3d875ee2	0.06609894
11	0x3d55c049	0.05218533
12	0x3c4e15b4	0.012578417
13	0x3d77a75d	0.060462344
14	0xbc31ac50	-0.010844305
15	0x3c8eb4ca	0.017420191
16	0x3cf5a0af	0.029983846
17	0x3cac1c7d	0.021009678
18	0xbc30c2e2	-0.010788651
19	0xbcca0520	-0.024660647
20	0xbd957f73	-0.072997
21	0xbc22052f	-0.009888931
22	0xbced367f	-0.02895665
23	0x3d20827f	0.03918695
24	0x3dab8847	0.08375602
25	0x3d0d6d36	0.03452798
26	0x3d11fea2	0.035643227
27	0xbd1948f1	-0.037423078
28	0xbdb36e4b	-0.08761271
29	0xbc04ebc5	-0.008112852
30	0x3c0a49c6	0.0084404405
31	0x3d7991f7	0.06093022
32	0x3dab39f6	0.083606645
33	0xbbe3fa25	-0.00695731
34	0x3c2e7a28	0.0106492415
35	0x3c809a30	0.015698522
36	0xbdc38204	-0.09546283
37	0x3d181a85	0.037134666
38	0xbc45a52a	-0.012063304
39	0x3cc69813	0.024242437
40	0xbc82f486	-0.015985738
41	0xbde5059a	-0.11182709
42	0xbc4bc005	-0.012435918
43	0xbc97165d	-0.01844328
44	0xbe2386f3	-0.15969448
45	0x3c890c28	0.01672943
46	0x3d5502cf	0.05200463
47	0x3d5ed801	0.054405216
48	0xbd76d701	-0.060263637
49	0x3d6a3db1	0.05718774
50	0x3d1f3e43	0.038877737
51	0xbd54d16b	-0.05195753
52	0x3da3a3d5	0.07990233
53	0xbc42a340	-0.011879742
54	0xbd0c39e6	-0.034234904
55	0x3ca0e9a4	0.019642659
56	0x3d54daea	0.051966585
57	0x3cd36979	0.02580713
58	0xbda097e4	-0.07841471
59	0x3cace2e6	0.021104287
60	0x3d0ed338	0.034869403
61	0xbccb1d0b	-0.024794122
62	0x3d65d4ef	0.056111272
63	0x3b3e0e55	0.0029000242
64	0x3cc68e49	0.024237769
65	0x3b88661a	0.004162562
66	0xbc3ed9e0	-0.011648625
67	0xbdb34452	-0.087532654
68	0xbb025af8	-0.0019890647
69	0xbcb8d0a6	-0.022560429
70	0x3cc40674	0.023928858
71	0x3de67658	0.11253041
72	0x3cc187c8	0.023624316
73	0x3ca64bc3	0.020299798
74	0x3c50ea73	0.01275121
75	0xbcf0f988	-0.02941586
76	0xbc9fecc3	-0.019522076
77	0xbca63990	-0.02029112
78	0xbccbe308	-0.02488853
79	0xbd76c5dc	-0.060247287
80	0xbce0e1cb	-0.027451416
81	0xbdeec797	-0.116591625
82	0xbd786651	-0.06064445
83	0xb96b0a47	-0.00022415175
84	0x3b824715	0.003975759
85	0x3d606927	0.05478778
86	0xbd530b17	-0.051524248
87	0xbda82fbd	-0.0821223
88	0xbd71ae6d	-0.059004236
89	0xbe02cc62	-0.12773278
90	0x3cc8a5fe	0.024493214
91	0xbc838d15	-0.016058484
92	0x3cd375ca	0.025813002
93	0xbdefff31	-0.11718596
94	0xbd827b4f	-0.063711755
95	0xbc42019a	-0.011841202
96	0xbded941c	-0.11600515
97	0xbd8e7fbd	-0.06957958
98	0x3cf01928	0.02930887
99	0x3b1406d8	0.0022587087
100	0x3d7bb7ee	0.061454706
101	0xbd833ce9	-0.06408102
102	0x3d42f432	0.047596164
103	0x3c5d8f91	0.013522998
104	0xbd807812	-0.062729016
105	0xbdadc4bb	-0.08484789
106	0xbdd4f4f1	-0.10398281
107	0xbdeca1dd	-0.115543105
108	0x3d149d75	0.036282975
109	0x3d38e2e8	0.04513827
110	0x3d2c6c7f	0.042095657
111	0x3ccc2468	0.024919704
112	0xbcb37182	-0.02190471
113	0x3c7f9e7d	0.015601751
114	0x3ca777f7	0.020442946
115	0xbe036226	-0.1283041
116	0xbda386bc	-0.07984683
117	0xbd288e2b	-0.041151207
118	0x3c898fce	0.016792204
119	0x3d17fad7	0.037104454
120	0xbbfe1596	-0.007754038
121	0xbb5a594e	-0.003331739
122	0xbb8b4454	-0.0042500887
123	0x3de890b6	0.113557264
124	0x3d7af54b	0.061269086
125	0x3de06b22	0.10957934
126	0x3b5c2e4d	0.0033596933
127	0x3c12bafb	0.008955712
128	0xbd4f5828	-0.05062118
129	0xbb3fa19f	-0.002924062
130	0x3d4161ba	0.04721234
131	0xbca1c9de	-0.019749578
132	0x3d1e4542	0.03864027
133	0x3c5d974e	0.013524843
134	0x3c9448a8	0.018101051
135	0x3d1a784b	0.037712377
136	0x3b259043	0.0025262989
137	0x3d852ab0	0.065022826
138	0x3cc74467	0.024324609
139	0xbd0f780e	-0.035026602
140	0xbb726ddd	-0.0036991753
141	0x3d93b3a3	0.07211997
142	0xbcc2cfd0	-0.023780733
143	0x3daf43ce	0.085578546
144	0x3c2e2b85	0.010630493
145	0xbd3c23f3	-0.04593272
146	0xbd6beb96	-0.05759772
147	0x3b83ad96	0.004018496
148	0xbd7ec217	-0.062196817
149	0x3c2aae5c	0.010417547
150	0xbddb6dda	-0.10714312
151	0x3d92f8e4	0.07176378
152	0x3d840a24	0.06447247
153	0xbcfd7165	-0.03093786
154	0xbd26558a	-0.04060892
155	0xbc3f46ae	-0.011674566
156	0xbd014680	-0.031561375
157	0xbbc18743	-0.005906017
158	0xbce0080d	-0.027347589
159	0xbda8e917	-0.08247583
160	0x3b8034c0	0.0039125383
161	0xbdb3d8ea	-0.087816074
162	0x3e08cfcc	0.13360518
163	0xbc146706	-0.009057766
164	0x3db1e15f	0.08685564
165	0x3bccde98	0.006252121
166	0x3d2a8a5e	0.041635863
167	0x3d234859	0.039863918
168	0x3d1330d9	0.035935257
169	0x3d8489a1	0.06471563
170	0x3c24c944	0.010057751
171	0xbd817a35	-0.06322137
172	0xbca2da3f	-0.019879458
173	0x3cfe1874	0.03101752
174	0x3ca02195	0.019547263
175	0xbc8715c6	-0.016489875
176	0xbd511459	-0.051044796
177	0x3ccffe42	0.025389794
178	0x3c7b19d6	0.015325984
179	0x3cae6eca	0.021293063
180	0xbdcf261a	-0.10114689
181	0xbd866adc	-0.065633506
182	0xbd633217	-0.05546769
183	0x3d9e479d	0.07728503
184	0xbb7358a2	-0.0037131687
185	0x3cb74f24	0.022376604
186	0x3d0ca876	0.034340344
187	0x3d21561d	0.039388765
188	0x3d32984e	0.04360228
189	0xbceda8cc	-0.029011153
190	0xbd653a7e	-0.055963986
191	0xbd0d16b2	-0.034445472
192	0xbc5c05d6	-0.013429126
193	0xb98764b9	-0.0002582425
194	0x3d4c99de	0.049951427
195	0xbcd52640	-0.026019216
196	0xbca8161f	-0.02051836
197	0x3c273fd5	0.01020809
198	0xbd201c85	-0.0390897
199	0xbdad1e97	-0.084531
200	0xbd64b486	-0.055836223
201	0x3d84ae58	0.06478566
202	0xbbeeb91b	-0.00728525
203	0x3d53d670	0.051718175
204	0x3ce96a46	0.028493058
205	0x3cee7f08	0.029113308
206	0xbcabfbf9	-0.020994173
207	0x3d5de4c4	0.054173246
208	0x3d07c398	0.033145517
209	0x3af777f4	0.0018880353
210	0xbca0db88	-0.01963593
211	0x3cc3ebb5	0.023916105
212	0x3d88a29a	0.06671639
213	0x3d368f88	0.044570476
214	0xbd2763c1	-0.040866617
215	0x3c887ba3	0.016660517
216	0xbd2892d5	-0.041155655
217	0xbddab4da	-0.10679026
218	0xbdd85c4d	-0.1056448
219	0xbd0af858	-0.033928245
220	0x3d2d72f4	0.042345956
221	0xbd687c14	-0.056758955
222	0xbc63862b	-0.013886969
223	0x3c8e34cf	0.017359165
224	0x3d086c39	0.033306334
225	0x3b11ba41	0.002223626
226	0x3c52547b	0.0128375245
227	0xbc4338d3	-0.011915403
228	0x3d2e5412	0.042560644
229	0x3d55358f	0.05205303
230	0x3cf53f0e	0.029937293
231	0x3d349419	0.04408655
232	0xbc6da99c	-0.01450577
233	0xbd84e65b	-0.06489249
234	0xbcd4f7bf	-0.02599704
235	0xbd9207de	-0.07130407
236	0xbcc9e70b	-0.024646303
237	0xbd6dc9d7	-0.058053818
238	0x3b1ab122	0.0023604115
239	0xbd81c0b5	-0.06335584
240	0xbc12cc11	-0.008959786
241	0xbc095352	-0.0083816815
242	0x3c25fbc8	0.01013083
243	0xbd2ba45a	-0.041904785
244	0x3d6cfd51	0.05785877
245	0xbc999f20	-0.018752635
246	0x3d3f8404	0.04675676
247	0x3d05f77c	0.032706723
248	0x3d904b15	0.07045571
249	0xbdbcdee9	-0.09222204
250	0xbdd27f4d	-0.10278187
251	0x3b7aa5ad	0.0038245723
252	0xbd79eca8	-0.06101671
253	0x3d13b40e	0.036060385
254	0xbd18cb0b	-0.037303012
255	0xbd10e3aa	-0.035373367

net.model.convblock6.0.bias f4 [16]
0	0xbcd26aa7	-0.025685621
1	0xbdf0bb8c	-0.11754522
2	0xbd82ed99	-0.063929744
3	0xbbc6d3ac	-0.0060677137
4	0xbdd0c663	-0.10194089
5	0xbd30f7b9	-0.043204997
6	0x3bf8e2e2	0.007595406
7	0xbe002458	-0.12513864
8	0xbcb71adf	-0.02235168
9	0x3b71ffbd	0.0036926114
10	0xbc5505db	-0.013001884
11	0xbd56bd22	-0.052426465
12	0x3da3c06d	0.07995687
13	0xbe3b4e37	-0.18291555
14	0xbd8b9fd2	-0.06817593
15	0x3c4b3b88	0.01240433

net.model.convblock6.2.weight f4 [16]
0	0x3f824172	1.0176222
1	0x3f853d46	1.0409324
2	0x3f7acb2e	0.9796628
3	0x3f657381	0.8962937
4	0x3f6c24c9	0.9224363
5	0x3f843b10	1.0330524
6	0x3f83ef4f	1.0307406
7	0x3f6ea69f	0.93222994
8	0x3f7f9b20	0.99846077
9	0x3f82592e	1.0183465
10	0x3f8aef74	1.0854325
11	0x3f7beb82	0.9840623
12	0x3f81cf4c	1.0141387
13	0x3f835ddc	1.0263019
14	0x3f7f8155	0.9980672
15	0x3f806caa	1.0033162

net.model.convblock6.2.bias f4 [16]
0	0xbe1622ea	-0.14661756
1	0xbe287fc2	-0.16454986
2	0xbe13950f	-0.1441233
3	0x3aa59e5e	0.0012635698
4	0xbe262fbd	-0.16229148
5	0xbe4d04dd	-0.20021386
6	0xbe5f48df	-0.21805142
7	0xbe4bbf1b	-0.1989712
8	0xbd051f8c	-0.03250079
9	0xbd1395ad	-0.036031414
10	0xbd57497f	-0.052560326
11	0xbd2f91ae	-0.04286354
12	0xbc76269b	-0.015023853
13	0xbe489bb1	-0.19590642
14	0xbe3bbc4e	-0.18333551
15	0xbd3a80d0	-0.045533

net.model.convblock6.2.running_mean f4 [16]
0	0x3ebdd434	0.3707596
1	0x3e502237	0.20325552
2	0x3e86f598	0.26359248
3	0x3e594f9a	0.21221772
4	0x3e3c8d8e	0.18413374
5	0x3e7f0862	0.24905542
6	0x3e8b84cc	0.27249753
7	0x3e3c974b	0.18417089
8	0x3e913c26	0.28366202
9	0x3eaee12a	0.34156162
10	0x3eb15f96	0.3464324
11	0x3e773573	0.24141483
12	0x3f06f565	0.5271819
13	0x3e1b9ad2	0.15195778
14	0x3e7dd4de	0.24788234
15	0x3e81756e	0.25284904

net.model.convblock6.2.running_var f4 [16]
0	0x3e875443	0.26431474
1	0x3e2b1f00	0.16711044
2	0x3e576a59	0.21036662
3	0x3dcce014	0.10003677
4	0x3e2bec43	0.16789345
5	0x3e721cdd	0.23643823
6	0x3e5747ca	0.21023479
7	0x3e068167	0.131353
8	0x3e462118	0.19348562
9	0x3ea8cf96	0.32970876
10	0x3eaffb90	0.34371614
11	0x3e38bff7	0.18041979
12	0x3ee1b312	0.44081932
13	0x3de8b148	0.11361939
14	0x3e30daad	0.17270918
15	0x3e4e35aa	0.20137659

net.model.convblock7.0.weight f4 [8, 16, 1, 1]
0	0xbdd3ba84	-0.103383094
1	0xbd89db91	-0.06731332
2	0xbd9274d4	-0.071511894
3	0xbd6c3f12	-0.057677336
4	0xbe222e59	-0.15837993
5	0x3d516e8e	0.051130824
6	0xbd929d62	-0.07158925
7	0xbde39762	-0.11112858
8	0x3e089e55	0.13341649
9	0x3c88060f	0.016604451
10	0xbe1f0a45	-0.15531261
11	0xbe0c7860	-0.13717794
12	0xbe42e2e9	-0.19031872
13	0x3dc5dea7	0.09661608
14	0x3ddf927c	0.109166116
15	0xbd369f4a	-0.044585504
16	0xbdbdcd10	-0.09267628
17	0x3e43d5e1	0.19124557
18	0xbe891385	-0.26772705
19	0x3e8f52c0	0.2799282
20	0xbe815a4f	-0.25264212
21	0xbe9fd121	-0.3121424
22	0x3d83009c	0.063966006
23	0xbe3d4b41	-0.18485738
24	0x3e164ee3	0.1467853
25	0xbda97af8	-0.082754076
26	0x3d9c6baf	0.076377265
27	0xbd9fcf72	-0.07803239
28	0x3e388114	0.1801799
29	0x3e8a23b0	0.26980352
30	0x3e01b4bd	0.12666602
31	0xbd3e2841	-0.046425108
32	0xbcd2c691	-0.02572945
33	0xbe41b84e	-0.18917963
34	0xbe06a1da	-0.13147679
35	0x3d04d4d6	0.03242954
36	0xbe1ec8a3	-0.15506224
37	0xbe371f12	-0.17882946
38	0x3db42b1c	0.08797285
39	0xbdc192ad	-0.09451804
40	0xbd54bdcb	-0.051938813
41	0xbe60851d	-0.21925779
42	0xbe9b28e1	-0.30304626
43	0xbd0776b0	-0.033072174
44	0x3cbf4aa7	0.023351027
45	0xbe01175e	-0.1260657
46	0xbe71db76	-0.23618874
47	0xbd0478b6	-0.03234168
48	0xbe20bc6d	-0.15696879
49	0xbe370f2a	-0.17876878
50	0xbbb8e5f6	-0.005642648
51	0xbc5da534	-0.013528157
52	0x3db5400e	0.08850108
53	0x3d59b836	0.053154193
54	0x3d58c2e5	0.05292024
55	0xbc4eeb4b	-0.01262934
56	0xbe390753	-0.180692
57	0xbe98c325	-0.29836383
58	0x3dbdb104	0.09262279
59	0xbe8918ee	-0.26776832
60	0xbc758247	-0.014984674
61	0x3cdb2c2c	0.026754461
62	0x3e5dcd60	0.21660376
63	0xbe9dbe37	-0.30809185
64	0xbe1a4f55	-0.15069325
65	0x3d032882	0.032021053
66	0xbdae33c9	-0.08505971
67	0x3e236141	0.15955068
68	0x3ded9fb1	0.11602724
69	0x3d875151	0.06607307
70	0xbe20e7ce	-0.15713426
71	0xbcf92f84	-0.030418165
72	0x3d7d786f	0.061882433
73	0xba7aaf5a	-0.00095628726
74	0x3d3d6c84	0.046246067
75	0x3e1dc2a6	0.15406284
76	0x3cfc362f	0.030787556
77	0xbd8d6f4a	-0.06905992
78	0x3c8b7b88	0.017026678
79	0x3e02ab08	0.12760556
80	0xbe8280e1	-0.25488952
81	0x3e66b785	0.22530945
82	0xbe8b23da	-0.2717579
83	0xbe0a6070	-0.1351335
84	0x3d320832	0.043464847
85	0xbd295680	-0.04134226
86	0x3e55f057	0.20892464
87	0x3dd3d282	0.103428856
88	0xb951ddc8	-0.00020014413
89	0xbd23ac78	-0.0399594
90	0xbeb58f8b	-0.35461077
91	0x3dc93e78	0.09826368
92	0xbe502a39	-0.20328607
93	0x3e23fc04	0.16014105
94	0x3e3b4255	0.18287022
95	0x3d610b7a	0.054942586
96	0xbe99e154	-0.30054724
97	0xbde68c78	-0.11257261
98	0x3e0f8532	0.14015654
99	0x3d63ec89	0.0556455
100	0x3de57be8	0.11205274
101	0x3e127104	0.14300925
102	0xbd393d87	-0.045224693
103	0x3e4d2a14	0.20035583
104	0xbc8fc12a	-0.017548162
105	0x3e470f64	0.19439465
106	0x3dc03d6e	0.09386717
107	0x3d0cf00b	0.03440861
108	0xbdec7362	-0.11545445
109	0x3e18ef37	0.14935003
110	0x3d8cc5f3	0.06873693
111	0xbcd5b5ff	-0.026087759
112	0x3dbf9765	0.09355048
113	0x3c734cc1	0.0148498425
114	0xbda0cb88	-0.078513205
115	0x3e14fc8e	0.14549467
116	0xbd8e2350	-0.06940329
117	0xbe4cfb30	-0.20017695
118	0xbd8cf6c8	-0.06883007
119	0xbe59ce71	-0.21270157
120	0x3e6dc21f	0.23218583
121	0x3e7fe811	0.2499087
122	0xbc930441	-0.017946364
123	0x3dd25954	0.10270944
124	0xbcc1bea7	-0.02365048
125	0x3d044074	0.03228803
126	0xbe937f9d	-0.288083
127	0x3e39ce20	0.18145037

net.model.convblock7.0.bias f4 [8]
0	0xbdbd22b9	-0.092351384
1	0x3d4c304d	0.04985075
2	0x3e60786a	0.21920934
3	0x3e836b3e	0.25667757
4	0x3e2bf511	0.16792704
5	0xbd3c75aa	-0.04601065
6	0x3c6389f2	0.013887869
7	0xbdc11050	-0.094269395

net.model.convblock7.2.weight f4 [8]
0	0x3f8b9499	1.0904723
1	0x3f835845	1.0261313
2	0x3f667176	0.9001688
3	0x3f7454dc	0.95441985
4	0x3f8061f4	1.0029893
5	0x3f6c6f3b	0.92357224
6	0x3f83f1c8	1.0308161
7	0x3f820ebd	1.0160748

net.model.convblock7.2.bias f4 [8]
0	0x3c008917	0.007845185
1	0x3dc507f3	0.09620657
2	0x3c9dff9b	0.019286921
3	0xbdac0994	-0.084002644
4	0x3cc0eedc	0.023551397
5	0xbde96776	-0.11396687
6	0xbe2b01d8	-0.16699922
7	0x3d20daa7	0.039271023

net.model.convblock7.2.running_mean f4 [8]
0	0x3dd3024b	0.10303172
1	0x3f1969dc	0.59927154
2	0x3e6dfa33	0.23239975
3	0x3ea28f9e	0.31750196
4	0x3ee53d65	0.44773403
5	0x3eb2e598	0.3494079
6	0x3ef2cbfd	0.47421256
7	0x3f055446	0.52081716

net.model.convblock7.2.running_var f4 [8]
0	0x3d9e7e44	0.07738927
1	0x3f33fe1e	0.7030963
2	0x3e0aa087	0.13537799
3	0x3e4e13c9	0.20124735
4	0x3e81a40f	0.2532048
5	0x3ec2aaea	0.38021022
6	0x3f0d7bc5	0.5526698
7	0x3f25ce57	0.64767975
