output/lightning_logs/version_4/checkpoints/epoch=4-step=275.ckpt (torch, 191717 bytes, 188 tensors)

net.model.convblock1.0.weight f4 [10, 1, 3, 3]
0.1049079 -0.10302334 -0.35649994 -0.35563082 0.14565878 -0.29167157 0.05813639 -0.36664784
0.025357226 -0.16780981 -0.24424316 0.14180423 0.18346661 -0.38483426 0.105632134 -0.18911107
-0.10683682 -0.11728004 0.1640095 0.015438122 -0.23466308 0.18723445 0.0770806 -0.21525715
-0.087294094 0.25368562 -0.11707292 -0.26113042 -0.08073042 0.09910344 -0.23651399 0.17783706
0.04759969 0.010423976 0.03742777 0.17307943 -0.05470771 -0.3352864 0.30718467 -0.17069551
0.17842416 0.10026912 -0.04576505 0.22768955 0.05033564 0.15851949 0.039607577 -0.024742989
0.3289093 0.14310838 -0.20689778 -0.13506937 0.11084928 -0.28860134 -0.32070735 -0.17135587
0.18528315 -0.25777856 0.13121083 -0.004254828 -0.009223931 0.31011748 0.13218242 0.01929336
0.17457773 -0.16443689 0.3185071 -0.24801514 -0.22542825 -0.20989762 0.34509775 -0.0033647937
-0.15106368 0.055123385 -0.11455115 0.15434739 -0.005529484 0.18587719 0.22861215 0.073027804
0.26257622 0.21768734 0.26652563 0.12516816 -0.048636682 0.05526482 0.107000805 -0.19276927
0.28531617 -0.16038296
00000000: f4d9 d63d e7fd d2bd 2987 b6be 3e15 b6be
00000010: 9327 153e fa55 95be 6c20 6e3d 44b9 bbbe
00000020: f5b9 cf3c 56d6 2bbe e11a 7abe 2135 113e
00000030: acde 3b3e ff08 c5be a955 d83d 55a6 41be
00000040: 43cd dabd 8530 f0bd 1bf2 273e 2df0 7c3c
00000050: 854b 70be 63ba 3f3e 6fdc 9d3d 5f6c 5cbe
00000060: 3fc7 b2bd 15e3 813e edc3 efbd e3b2 85be
00000070: fe55 a5bd bff6 ca3d b930 72be eb1a 363e
00000080: e4f7 423d 53c9 2a3c dd4d 193d bc3b 313e
00000090: 3115 60bd a9aa abbe 4f47 9d3e ceca 2ebe
000000a0: d3b4 363e e559 cd3d 2274 3bbd 7327 693e
000000b0: be2c 4e3d ef52 223e 8e3b 223d cfb1 cabc
000000c0: cd66 a83e 018b 123e 03dd 53be a04f 0abe
000000d0: f304 e33d 8ec3 93be c133 a4be ea77 2fbe
000000e0: deba 3d3e 8dfb 83be 225c 063e 166c 8bbb
000000f0: f81f 17bc b8c7 9e3e d45a 073e 1c0d 9e3c
00000100: 81c4 323e 2562 28be 5d13 a33e aef7 7dbe
00000110: aad6 66be 67ef 56be a7b0 b03e df83 5cbb
00000120: 70b0 1abe 0fc9 613d cb99 eabd 3e0d 1e3e
00000130: ac30 b5bb 9756 3e3e 4e19 6a3e 9a8f 953d
00000140: 6470 863e 6ee9 5e3e 0c76 883e 152c 003e
00000150: 4237 47bd 5d5d 623d 3d23 db3d 4f65 45be
00000160: f614 923e 6e3b 24be

net.model.convblock1.0.bias f4 [10]
-0.21841574 0.3939322 0.117461376 0.31821525 -0.30358118 -0.059674457 -0.21865483 0.30600336
0.113410294 0.0437911
00000000: 60a8 5fbe 7bb1 c93e 978f f03d 1ced a23e
00000010: fe6e 9bbe 346d 74bd 0de7 5fbe 79ac 9c3e
00000020: a843 e83d 4c5e 333d

net.model.convblock1.2.weight f4 [10]
0.9640904 0.92165005 1.0412285 0.98675495 0.999785 1.0837756 0.9761427 0.9705275
0.99525326 1.0116633
00000000: a1ce 763f 42f1 6b3f fa46 853f f99b 7c3f
00000010: e9f1 7f3f 29b9 8a3f 7de4 793f 7e74 783f
00000020: ebc8 7e3f 2f7e 813f

net.model.convblock1.2.bias f4 [10]
0.12373247 0.06870908 -0.03129472 0.030374866 -0.01270136 0.012384227 0.08805164 0.051894743
0.027431568 0.048539657
00000000: 7367 fd3d 59b7 8c3d e42e 00bd b6d4 f83c
00000010: 5d19 50bc 36e7 4a3c 6b54 b43d 958f 543d
00000020: 2bb8 e03c 85d1 463d

net.model.convblock1.2.running_mean f4 [10]
0.17577204 0.55857986 0.17748465 0.37434936 0.08776511 0.120943256 0.093349576 0.3328968
0.2646568 0.23248842
00000000: 96fd 333e 17ff 0e3f 89be 353e b8aa bf3e
00000010: 32be b33d 19b1 f73d 102e bf3d 7371 aa3e
00000020: 1981 873e 7211 6e3e

net.model.convblock1.2.running_var f4 [10]
0.014381239 0.083041966 0.07625248 0.09550499 0.07971185 0.11764581 0.09623929 0.054538112
0.3378416 0.2900094
00000000: 4a9f 6b3c e811 aa3d 432a 9c3d 1f98 c33d
00000010: f73f a33d 49f0 f03d 1b19 c53d 5b63 5f3d
00000020: 93f9 ac3e 1d7c 943e

net.model.convblock2.0.weight f4 [16, 10, 3, 3]
0.025400698 0.0029696848 -0.004300863 -0.0718798 -0.04718772 0.049161144 0.047305707 -0.023137966
0.05880723 0.050696835 -0.0030459745 -0.052776318 0.0050290786 0.11068997 -0.0018680479 0.014722445
0.04968012 -0.050633952 0.022368813 -0.019450132 0.031038504 -0.09038642 0.045563005 -0.028984556
0.010691491 -0.08150123 -0.08048739 -0.108788185 0.0062714107 -0.1397351 -0.06324635 -0.10590381
0.062043685 0.08068287 0.10554352 0.009281614 -0.07014355 -0.073653355 -0.042431563 -0.07240493
0.028649066 -0.08334251 0.055278987 0.069891185 0.032659173 0.005590704 0.011526556 0.093318686
-0.092816226 0.053792126 0.049016442 -0.11067256 0.0054814075 -0.091547586 -0.03785311 -0.14983544
-0.056373674 -0.039793298 -0.015616601 -0.10020837 0.079852045 0.0634893 0.017844334 -0.09198644
0.040338986 0.012891177 0.07666405 0.037952274 0.063031316 -0.04245496 -0.008867049 -0.023167187
-0.036385328 0.007584766 -0.0754296 0.015236603 -0.016890394 0.074184135 0.05566107 0.03799854
-0.009268157 0.010858839 -0.026306204 0.101999894 0.039446387 -0.046040773 -0.09219629 -0.09498105
-0.024485745 -0.08034407 -0.016729003 -0.07202101 -0.102226526 0.054171786 -0.066465355 -0.028691398
0.042334955 -0.15047905 -0.052630268 0.022149194 0.030537829 -0.052413914 -0.0117426235 0.009489268
-0.048565846 -0.020996807 -0.03576286 0.12224688 -0.0131556215 -0.0607179 0.029035965 -0.024189683
0.039741807 -0.08256753 -0.16054401 -0.040447455 -0.060055804 -0.026501771 -0.045995705 -0.036971796
0.07144576 0.019776346 -0.00932954 0.100346796 -0.07192971 0.02273793 -0.09232457 -0.111862406
0.031089723 -0.035089426 -0.042653624 0.010589971 -0.008455735 0.004716037 -0.036701046 0.033312097
-0.0034978383 -0.0092506055 0.029349202 -0.063051485 0.05165059 -0.13370337 0.033909082 0.0055308226
0.020906368 -0.057326343 -0.025383709 -0.068090454 -0.04187755 -0.073711164 0.07656424 -0.088014334
-0.0071205245 -0.01652028 0.043276608 -0.10099467 0.022752127 0.0051606568 -0.020932797 -0.09300724
0.022272889 -0.03513305 0.01454553 0.100828744 0.14975457 0.036777318 0.09553069 0.110009566
-0.030728707 -0.009040047 -0.07782321 0.14283511 -0.045821514 -0.008053072 0.10560283 0.036631756
0.048536927 -0.11802536 -0.07657216 -0.0156077305 -0.13087836 -0.09499428 0.027131787 -0.07102869
-0.014864029 -0.06618933 0.048678815 0.008631584 -0.08317778 -0.046818852 0.08298014 -0.11433205
-0.11501988 0.08505702 0.045769338 -0.07815921 -0.06020339 -0.042702638 0.050130136 0.080690324
-0.037025876 0.0071496703 -0.08760982 -0.039870013 0.0681698 0.07569885 0.060203075 -0.082829215
0.08311623 0.09017372 -0.073519036 -0.11426687 0.04637444 -0.052866332 -0.08613368 -0.0746323
0.05485025 -0.050444502 -0.03745188 -0.039224867 -0.08607305 -0.09039689 -0.10627542 0.0610226
-0.022881033 -0.011029225 0.09914539 -0.01318125 0.073131256 0.0032213184 -0.02682667 0.08170614
-0.079023205 0.07529762 -0.08241193 0.09378151 0.07358202 0.02566072 -0.0356648 -0.045521062
0.06546183 0.076155566 0.034762166 0.06858347 0.077289715 0.037337534 0.051834073 -0.017350761
-0.03934404 0.0052514537 0.038179126 0.091957755 0.10432773 -0.007296989 0.004352961 -0.06994283
00000000: 2015 d03c 0b9f 423b 41ee 8cbb b735 93bd
00000010: e947 41bd 325d 493d a1c3 413d d58b bdbc
00000020: dadf 703d 7ca7 4f3d f99e 47bb fb2b 58bd
00000030: f8ca a43b 6cb1 e23d 49d9 f4ba 6936 713c
00000040: 627d 4b3d 8c65 4fbd cd3e b73c e255 9fbc
00000050: 7644 fe3c 841c b9bd 46a0 3a3d 0571 edbc
00000060: 5d2b 2f3c 1eea a6bd 93d6 a4bd 57cc debd
00000070: 6880 cd3b b816 0fbe 4d87 81bd 19e4 d8bd
00000080: 8521 7e3d 0f3d a53d 3327 d83d e911 183c
00000090: 6ca7 8fbd 92d7 96bd b8cc 2dbd 0949 94bd
000000a0: 72b1 ea3c 7aaf aabd 386c 623d 1c23 8f3d
000000b0: a0c5 053d 3932 b73b e1d9 3c3c de1d bf3d
000000c0: 6f16 bebd 2255 5c3d 77c5 483d 4ca8 e2bd
000000d0: 619d b33b 4d7d bbbd dd0b 1bbd 766e 19be
000000e0: 15e8 66bd 4cfe 22bd c6dc 7fbc 0c3a cdbd
000000f0: 7889 a33d ae06 823d 482e 923c 6363 bcbd
00000100: 7e3a 253d 8435 533c 0b02 9d3d d873 1b3d
00000110: 9016 813d 41e5 2dbd 1947 11bc 1dc9 bdbc
00000120: c808 15bd a189 f83b d67a 9abd f2a2 793c
00000130: b95d 8abc daed 973d ddfc 633d 5ba4 1b3d
00000140: 78d9 17bc 46e9 313c 1c80 d7bc 52e5 d03d
00000150: 8992 213d 4095 3cbd 69d1 bcbd 6d85 c2bd
00000160: 5496 c8bc 6f8b a4bd 430b 89bc c07f 93bd
00000170: 245c d1bd 3ce3 5d3d fd1e 88bd 390a ebbc
00000180: 6b67 2d3d 2e17 1abe d692 57bd 3a72 b53c
00000190: 782a fa3c f9af 56bd 2264 40bc e078 1b3c
000001a0: fbec 46bd 7f01 acbc 147c 12bd 925c fa3d
000001b0: ad8a 57bc 55b3 78bd d5dc ed3c 7129 c6bc
000001c0: 4ec8 223d 2a19 a9bd a665 24be 3bac 25bd
000001d0: 13fd 75bd 3e1a d9bc fe65 3cbd bd6f 17bd
000001e0: 2852 923d 0102 a23c edda 18bc 9f82 cd3d
000001f0: e24f 93bd e544 ba3c aa14 bdbd 1e18 e5bd
00000200: e0af fe3c eeb9 0fbd 91b5 2ebd 8f81 2d3c
00000210: ec89 0abc fc88 9a3b d653 16bd 4472 083d
00000220: fd3b 65bb da8f 17bc bd6d f03c 2321 81bd
00000230: 928f 533d 89e9 08be 40e4 0a3d e73b b53b
00000240: d543 ab3c 07cf 6abd 7ff1 cfbc 0273 8bbd
00000250: cb87 2bbd e1f5 96bd b6cd 9c3d dc40 b4bd
00000260: 4a53 e9bb 8a55 87bc d042 313d 4bd6 cebd
00000270: ab62 ba3c ba1a a93b 427b abbc 947a bebd
00000280: a275 b63c ace7 0fbd 6050 6e3c 4d7f ce3d
00000290: 4359 193e d0a3 163d 98a5 c33d b24c e13d
000002a0: c5ba fbbc b51c 14bc c661 9fbd 5e43 123e
000002b0: 57af 3bbd 08f1 03bc 4c46 d83d 2e0b 163d
000002c0: a8ce 463d 48b7 f1bd ddd1 9cbd 91b7 7fbc
000002d0: fa04 06be 5c8c c2bd 7b43 de3c 7d77 91bd
000002e0: 4288 73bc 458e 87bd 7063 473d 7d6b 0d3c
000002f0: 1d59 aabd 20c5 3fbd 7ef1 a93d ec26 eabd
00000300: 8b8f ebbd 6032 ae3d a178 3b3d f011 a0bd
00000310: d497 76bd f6e8 2ebd 4255 4d3d f840 a53d
00000320: 72a8 17bd c847 ea3b c76c b3bd bd4e 23bd
00000330: 9c9c 8b3d 0008 9b3d 8097 763d 5da2 a9bd
00000340: d838 aa3d 00ad b83d 2691 96bd c004 eabd
00000350: 20f3 3d3d 5e8a 58bd db66 b0bd d2d8 98bd
00000360: a8aa 603d e59e 4ebd 2467 19bd 41aa 20bd
00000370: 1147 b0bd 0122 b9bd eda6 d9bd d5f2 793d
00000380: 0171 bbbc ecb3 34bc bd0c cb3d 2bf6 57bc
00000390: d7c5 953d c11c 533b 9bc3 dbbc 8c55 a73d
000003a0: ebd6 a1bd a335 9a3d 96c7 a8bd 8510 c03d
000003b0: 2cb2 963d 6e36 d23c 4115 12bd 4b74 3abd
000003c0: da10 863d 73f7 9b3d c662 0e3d 7e75 8c3d
000003d0: 124a 9e3d 3eef 183d f74f 543d 2f23 8ebc
000003e0: 3727 21bd 6314 ac3b b761 1c3d 5954 bc3d
000003f0: c7a9 d53d 951b efbb 49a3 8e3b 303e 8fbd

net.model.convblock2.0.bias f4 [16]
-0.024135435 -0.023737345 0.040701427 -0.08114724 -0.005504547 -0.16261192 0.034117162 -0.10014008
0.0019867779 0.12026332 -0.18384062 0.03027563 -0.014562062 -0.03955998 0.03787072 0.12343349
00000000: adb7 c5bc d274 c2bc 8ab6 263d 8630 a6bd
00000010: 7d5f b4bb bd83 26be 70be 0b3d 3e16 cdbd
00000020: 9a34 023b 9e4c f63d b740 3cbe 9904 f83c
00000030: b795 6ebc a509 22bd 541e 1b3d b3ca fc3d

net.model.convblock2.2.weight f4 [16]
1.0221988 1.0218897 0.9775038 1.0168036 1.0442077 0.9007592 0.9406564 0.9972388
0.9962845 0.99575686 1.0286388 0.9857867 1.0153128 0.9675601 1.0466434 1.000234
00000000: 69d7 823f 48cd 823f b03d 7a3f 9f26 823f
00000010: 99a8 853f 2898 663f dcce 703f 0b4b 7f3f
00000020: 800c 7f3f ece9 7e3f 70aa 833f 845c 7c3f
00000030: c5f5 813f 05b2 773f 69f8 853f ab07 803f

net.model.convblock2.2.bias f4 [16]
-0.080388255 -0.03430218 -0.07910336 -0.11358159 -0.14683224 -0.11825823 -0.050309673 -0.06695503
-0.040519338 -0.0025503645 -0.16086347 0.10350307 -0.14281732 -0.14203034 -0.05922622 -0.07110426
00000000: 99a2 a4bd 7180 0cbd f100 a2bd 779d e8bd
00000010: 315b 16be 5f31 f2bd 8411 4ebd b81f 89bd
00000020: 9bf7 25bd 0424 27bb 65b9 24be 6bf9 d33d
00000030: b43e 12be 6770 11be 3197 72bd 1c9f 91bd

net.model.convblock2.2.running_mean f4 [16]
0.28898305 0.16847797 0.44252908 0.16403808 0.26046512 0.13039367 0.25747854 0.07898484
0.23800045 0.22960924 0.16432899 0.2691284 0.18193115 0.1257423 0.2768678 0.28069374
00000000: 96f5 933e 7d85 2c3e 2c93 e23e 99f9 273e
00000010: af5b 853e eb85 053e 3ad4 833e cec2 a13d
00000020: 64b6 733e af1e 6b3e dc45 283e 33cb 893e
00000030: 294c 3a3e 97c2 003e 9ec1 8d3e 17b7 8f3e

net.model.convblock2.2.running_var f4 [16]
0.06796157 0.14822221 0.9256989 0.1846756 0.106915325 0.1358407 0.4102707 0.042514678
0.062478628 0.2244912 0.05026487 0.37617898 0.18501128 0.10940342 0.07382963 0.37760034
00000000: 702f 8b3d 90c7 173e 9afa 6c3f 9a1b 3d3e
00000010: 6cf6 da3d d319 0b3e 000f d23e df23 2e3d
00000020: 97e9 7f3d 05e1 653e 89e2 4d3d 889a c03e
00000030: 9973 3d3e e60e e03d fd33 973d d554 c13e

net.model.convblock3.0.weight f4 [8, 16, 1, 1]
0.034837347 0.20981945 0.14268732 -0.11426354 -0.06809679 0.038192917 0.15519813 0.06376199
-0.07692147 -0.16794832 -0.26090434 0.088778146 0.1798687 0.0820305 -0.0954691 0.18031114
0.26428384 -0.07908829 0.14534324 0.055986885 -0.042976193 -0.23371261 -0.19137903 0.1338438
-0.18612467 0.1419704 0.20974702 0.113670595 0.053468116 -0.017553601 0.044839244 0.21061337
-0.14006001 0.063190326 0.17956881 0.1325764 -0.22564553 0.20490928 0.022115588 0.030999864
0.057297826 0.13686268 -0.20036888 0.27563405 0.12669921 0.15677631 -0.1495063 0.21668512
0.23085879 -0.07096423 -0.20527777 -0.10771822 -0.012137152 -0.009302223 0.06902875 0.00075024465
0.10961176 -0.0548365 -0.18035832 0.14326414 -0.27217516 -0.18836902 0.07610813 0.012279231
0.052247334 0.24485482 -0.009122242 -0.09750522 0.2630358 -0.1557591 0.085932024 -0.034105375
-0.27006513 0.20166302 0.25885487 0.15456136 0.043732468 -0.112971 -0.047195707 -0.09208971
0.16620512 0.10976063 0.09850995 0.25212345 0.2754357 0.086174816 -0.17275476 0.060898505
0.23062153 -0.00041559408 0.014421013 0.010689735 0.125659 0.06484183 0.21232997 0.05578614
0.18919213 0.12927638 -0.06403029 -0.1270299 0.19004942 0.19642113 -0.048801057 0.12924524
0.16267335 0.017440857 -0.019388389 -0.16153567 0.13760714 -0.059566744 0.27082583 0.21474025
0.0066502723 0.19323266 -0.22382858 0.10951327 -0.09726316 0.1362266 0.1909601 0.14179628
0.030138962 0.26521695 -0.1853163 0.23370486 -0.1718711 0.055474576 0.083540924 -0.16894445
00000000: 9bb1 0e3d e9da 563e a01c 123e 0103 eabd
00000010: 5476 8bbd 2d70 1c3d 42ec 1e3e a595 823d
00000020: 0189 9dbd a5fa 2bbe 4195 85be 51d1 b53d
00000030: 802f 383e 9bff a73d 4e85 c3bd 7ca3 383e
00000040: 3650 873e 0bf9 a1bd dcd4 143e 8152 653d
00000050: ce07 30bd 5c52 6fbe ddf8 43be 590e 093e
00000060: 7797 3ebe b060 113e ecc7 563e 21cc e83d
00000070: 6201 5b3d 92cc 8fbc 5ba9 373d 08ab 573e
00000080: e46b 0fbe ee69 813d e3e0 373e 1cc2 073e
00000090: 9f0f 67be bdd3 513e c02b b53c 6df3 fd3c
000000a0: 20b1 6a3d bb25 0c3e 802d 4dbe e81f 8d3e
000000b0: 70bd 013e f889 203e 2e18 19be b4e2 5d3e
000000c0: 3f66 6c3e b255 91bd 5634 52be 5f9b dcbd
000000d0: e8da 46bc 5a68 18bc f25e 8d3d 11ac 443a
000000e0: 217c e03d 3d9c 60bd daaf 38be d6b3 123e
000000f0: 8b5a 8bbe cfe3 40be 94de 9b3d d42e 493c
00000100: 4d01 563d 39bb 7a3e 7575 15bc d1b0 c7bd
00000110: a1ac 863e 507f 1fbe 21fd af3d 14b2 0bbd
00000120: fa45 8abe c080 4e3e a088 843e 5545 1e3e
00000130: d120 333d 575d e7bd 4950 41bd 8899 bcbd
00000140: ad31 2a3e 2eca e03d 96bf c93d 5316 813e
00000150: e805 8d3e 6c7c b03d a0e6 30be b670 793d
00000160: 0d28 6c3e 18e4 d9b9 1d46 6c3c 0024 2f3c
00000170: c1ac 003e cbcb 843d 076d 593e 0280 643d
00000180: 95bb 413e 0761 043e 5022 83bd 2014 02be
00000190: 519c 423e 9f22 493e 9ee3 47bd dd58 043e
000001a0: d893 263e 21e0 8e3c 66d4 9ebc 9b69 25be
000001b0: e3e8 0c3e 42fc 73bd afa9 8a3e dee4 5b3e
000001c0: 87ea d93b c8de 453e 5233 65be 7e48 e03d
000001d0: e831 c7bd fc7e 0b3e 0b8b 433e 0b33 113e
000001e0: fce5 f63c 84ca 873e 8ec3 3dbe 5450 6f3e
000001f0: fafe 2fbe 4f39 633d 8117 ab3d c6ff 2cbe

net.model.convblock3.0.bias f4 [8]
0.2555019 0.060789768 0.12370346 0.13309044 -0.03569622 -0.1507207 -0.063608326 -0.10015608
00000000: 25d1 823e b1fe 783d 3d58 fd3d dc48 083e
00000010: 3336 12bd 8756 1abe 1545 82bd a21e cdbd

net.model.convblock3.2.weight f4 [8]
1.0484257 0.9973426 1.0161903 0.95444685 0.9639173 0.9398489 0.9466778 1.1001247
00000000: d032 863f d851 7f3f 8612 823f a156 743f
00000010: 49c3 763f f099 703f 7a59 723f e3d0 8c3f

net.model.convblock3.2.bias f4 [8]
0.00055610423 -0.0049516256 -0.038012445 0.011823134 -0.041688867 -0.11702084 -0.05548357 0.07273828
00000000: 86c7 113a 3f41 a2bb f0b2 1bbd d1b5 413c
00000010: f2c1 2abd 9fa8 efbd bd42 63bd cff7 943d

net.model.convblock3.2.running_mean f4 [8]
0.4699609 0.38913745 0.7678415 0.45911208 0.3473719 0.55982095 0.5116868 0.48987165
00000000: b79e f03e 063d c73e 4391 443f bd10 eb3e
00000010: bbda b13e 6d50 0f3f e8fd 023f 75d0 fa3e

net.model.convblock3.2.running_var f4 [8]
0.75797296 0.6592186 1.8777975 0.19360827 0.60866934 1.2728721 1.1299055 1.1042136
00000000: 840a 423f 8dc2 283f ab5b f03f 3f41 463e
00000010: c1d1 1b3f 79ed a23f bea0 903f df56 8d3f

net.model.convblock4.0.weight f4 [16, 8, 3, 3]
-0.07579461 0.10301465 0.0969526 0.0751275 0.061990347 0.04408986 -0.011015826 -0.10296901
-0.01402054 -0.0034293435 0.104242496 -0.021261951 0.11375637 -0.08650073 -0.08342461 -0.076828174
0.055350125 -0.018801063 -0.059282366 -0.0041794386 0.07818732 0.09851806 -0.094816394 0.10503056
0.08610177 0.074325666 -0.107327215 -0.042593483 -0.11022797 0.0067825573 0.10248603 -0.03435077
0.036994815 0.09130291 -0.09674268 0.052373484 0.08258742 -0.020032262 0.029659726 -0.11587673
0.046273194 0.0053956304 -0.11451016 0.055337943 0.12535562 0.119454615 0.010711282 0.046161223
0.08214858 -0.023345353 0.045586567 0.07411669 -0.011591144 0.08692116 0.09543654 0.13558193
-0.015129579 0.10052202 0.041634973 -0.0023254792 0.07391067 -0.101753205 -0.044440996 0.012795881
0.06633384 0.09401586 0.04042154 0.12721457 0.07184043 0.019357996 -0.011623715 0.0070213834
0.08724311 -0.016536763 0.015603155 0.10663305 -0.018434804 -0.016764777 0.094826594 -0.05205131
-0.14279756 0.017696243 0.00566744 0.07021832 -0.052298166 0.043115105 0.040970556 -0.054618917
0.1312284 -0.0053339708 0.075019576 -0.05782615 0.019546993 0.0938317 -0.010936419 0.027060738
0.10709689 -0.00031734022 -0.06221105 -0.08522019 0.021355825 0.01793777 0.06044971 0.023637194
0.0828869 0.010608519 0.06689289 0.08778626 0.0893515 0.023063784 0.051637 -0.078026004
-0.08766695 -0.045563325 -0.02378181 -0.09801201 0.040836934 -0.09675921 0.061932955 0.0077403993
-0.056721233 0.03845799 0.029127494 -0.14540075 0.06924175 -0.098641254 -0.03874613 -0.05214208
-0.08312899 0.09766043 0.009977879 -0.061994392 0.03037967 -0.029484037 0.028192837 -0.008608257
-0.19920424 -0.047568075 0.0057834447 -0.11677738 -0.012877416 0.017859621 0.05842176 0.15281019
-0.073985636 -0.005335768 -0.032146875 0.048881587 0.09957765 0.038172323 -0.014956484 -0.03286218
0.04159678 0.018677544 0.062549286 0.018788755 -0.050453797 -0.035051294 0.05541486 -0.06831344
-0.03173257 0.033886522 0.13128953 0.09117798 0.034015287 0.012019178 -0.06568123 0.07716568
0.043184306 -0.08478597 0.12468759 -0.14811288 0.02935458 0.0134303095 -0.071373634 -0.09889094
0.05603008 -0.075951874 0.04018745 0.056679945 -0.114122495 0.022782575 -0.07798323 -0.115456074
0.016460067 0.10473337 -0.107764795 -0.06600938 0.10074123 0.061882563 -0.086494915 0.058360174
-0.05542462 -0.0883819 0.00028106125 0.028650187 0.06881025 0.15037824 -0.014980934 0.05276106
0.011594162 -0.044556625 -0.09310182 -0.06680191 -0.13092087 0.054160632 -0.02198776 0.06175605
-0.03715162 0.050033752 0.106862366 -0.0053253393 0.14795077 -0.01933816 -0.018107845 0.124002896
0.029407805 -0.054496296 -0.030038686 0.03229137 0.06107627 0.15550375 0.11900507 0.0014831102
0.10650449 -0.027370855 -0.02799891 0.07018868 -0.012442443 -0.14277415 -0.049326748 0.0061364714
-0.08744905 -0.00055992283 0.026014995 0.018003715 0.10147316 -0.023325155 0.028247412 0.031080153
0.08365822 0.11697571 0.0706925 0.064363815 -0.10776772 -0.00059726293 0.08632818 -0.0051588314
-0.14436376 -0.15132914 -0.090735905 -0.06733796 0.053098593 -0.07106739 -0.13548087 0.059464533
00000000: 343a 9bbd 58f9 d23d 168f c63d 72dc 993d
00000010: 97e9 7d3d 9297 343d b97b 34bc 6be1 d2bd
00000020: 68b6 65bc d6be 60bb 177d d53d 8b2d aebc
00000030: 1af9 e83d 4b27 b1bd 86da aabd 1758 9dbd
00000040: d0b6 623d b004 9abc 11d2 72bd acf3 88bb
00000050: ac20 a03d d6c3 c93d 192f c2bd 431a d73d
00000060: 2056 b03d 0e38 983d 5fce dbbd 8176 2ebd
00000070: 34bf e1bd 3740 de3b 32e4 d13d 65b3 0cbd
00000080: e087 173d 05fd ba3d 0721 c6bd 9485 563d
00000090: 9823 a93d b31a a4bc f4f8 f23c c750 edbd
000000a0: f688 3d3d d4cd b03b 4e84 eabd 0aaa 623d
000000b0: 395d 003e 9fa4 f43d 5f7e 2f3c 8d13 3d3d
000000c0: 843d a83d c13e bfbc fbb8 3a3d 7eca 973d
000000d0: c8e8 3dbc b903 b23d 3c74 c33d fdd5 0a3e
000000e0: 0ee2 77bc 7dde cd3d 6f89 2a3d 1167 18bb
000000f0: 7a5e 973d fc63 d0bd c307 36bd d1a5 513c
00000100: 09da 873d 638b c03d 0f91 253d 8944 023e
00000110: 1321 933d a994 9e3c 6571 3ebc a213 e63b
00000120: 84ac b23d 1b78 87bc 60a4 7f3c 6e62 da3d
00000130: 9604 97bc 4956 89bc 7234 c23d c133 55bd
00000140: 8639 12be b6f7 903c efb5 b93b 9fce 8f3d
00000150: 9a36 56bd 7799 303d bed0 273d 16b8 5fbd
00000160: bd60 063e 97c8 aebb dda3 993d 1ddb 6cbd
00000170: 0421 a03c d62a c03d aa2e 33bc 7bae dd3c
00000180: 9d55 db3d af60 a6b9 04d1 7ebd ec87 aebd
00000190: 69f2 ae3c 3bf2 923c 1d9a 773d caa2 c13c
000001a0: 9bc0 a93d 5bcf 2d3c 24ff 883d 48c9 b33d
000001b0: ebfd b63d 43f0 bc3c 5281 533d 19cc 9fbd
000001c0: bb8a b3bd 9ca0 3abd 12d2 c2bc 85ba c8bd
000001d0: a144 273d b129 c6bd 69ad 7d3d 2da3 fd3b
000001e0: 8654 68bd 2086 1d3d c89c ee3c efe3 14be
000001f0: 9ece 8d3d 6d04 cabd 43b4 1ebd ef92 55bd
00000200: 883f aabd 3102 c83d 427a 233c d5ed 7dbd
00000210: c9de f83c 8288 f1bc aaf4 e63c a609 0dbc
00000220: 32fc 4bbe bed6 42bd 0d83 bd3b fb28 efbd
00000230: ccfb 52bc 574e 923c a84b 6f3d 467a 1c3e
00000240: c885 97bd abd7 aebb 71ac 03bd 0f38 483d
00000250: 5eef cb3d 955a 1c3d 0a0c 75bc 7e9a 06bd
00000260: 6361 2a3d a601 993c d719 803d e0ea 993c
00000270: a4a8 4ebd f291 0fbd b1fa 623d ebe7 8bbd
00000280: 03fa 01bd 98cc 0a3d c370 063e 85bb ba3d
00000290: 9d53 0b3d 16ec 443c e183 86bd 0a09 9e3d
000002a0: 07e2 303d 44a4 adbd 355c ff3d e7aa 17be
000002b0: 0479 f03c cd0a 5c3c 572c 92bd 5587 cabd
000002c0: cc7f 653d a88c 9bbd 989b 243d 3b29 683d
000002d0: 0eb9 e9bd 86a2 ba3c acb5 9fbd 3c74 ecbd
000002e0: 43d7 863c 737e d63d cab3 dcbd ed2f 87bd
000002f0: 6b51 ce3d 9278 7d3d 3f24 b1bd 140b 6f3d
00000300: ed04 63bd 9201 b5bd 675b 9339 ccb3 ea3c
00000310: 63ec 8c3d c1fc 193e 9772 75bc fb1b 583d
00000320: 71f5 3d3c 0281 36bd 2bac bebd 71cf 88bd
00000330: 1f10 06be 8ad7 5d3d ad1f b4bc e9f3 7c3d
00000340: 4c2c 18bd 31f0 4c3d a8da da3d 2f80 aebb
00000350: 6880 173e 106b 9ebc e756 94bc 3bf5 fd3d
00000360: a3e8 f03c 8237 5fbd b113 f6bc f543 043d
00000370: 1c2b 7a3d 603c 1f3e eeb8 f33d ec64 c23a
00000380: 071f da3d d838 e0bc f85d e5bc 15bf 8f3d
00000390: 63db 4bbc 6333 12be d80a 4abd 7414 c93b
000003a0: 7d18 b3bd c9c7 12ba 661d d53c 877c 933c
000003b0: 29d1 cf3d 6514 bfbc 1e67 e73c ce9b fe3c
000003c0: 0055 ab3d f690 ef3d 3bc7 903d 2dd1 833d
000003d0: 53b5 dcbd a391 1cba d4cc b03d 6a0b a9bb
000003e0: 18d4 13be 07f6 1abe bfd3 b9bd 7ce8 89bd
000003f0: e97d 593d c88b 91bd 7fbb 0abe 1591 733d

net.model.convblock4.0.bias f4 [16]
-0.13741493 0.07276257 0.10813086 -0.06723722 -0.10587085 -0.09838991 -0.011918476 -0.045128535
-0.031167153 0.121882625 0.05422783 0.0010392206 0.16953631 -0.082199775 -0.032061487 0.06128259
00000000: 80b6 0cbe 8b04 953d b673 dd3d abb3 89bd
00000010: d1d2 d8bd a680 c9bd b645 43bc b3d8 38bd
00000020: 4252 ffbc 999d f93d 001e 5e3d 7536 883a
00000030: ed9a 2d3e 5b58 a8bd e852 03bd 7403 7b3d

net.model.convblock4.2.weight f4 [16]
0.93624365 0.991421 1.0062888 1.0262926 0.96322024 1.0479877 0.9487563 1.0550064
0.95591664 0.9506 1.0823146 1.0215193 0.96740973 0.9858708 1.0390474 0.9880938
00000000: aaad 6f3f c4cd 7d3f 12ce 803f 8e5d 833f
00000010: 9a95 763f 7624 863f b1e1 723f 730a 873f
00000020: f4b6 743f 865a 733f 4989 8a3f 25c1 823f
00000030: 2aa8 773f 0762 7c3f 81ff 843f b7f3 7c3f

net.model.convblock4.2.bias f4 [16]
-0.053656034 0.0869562 -0.023252852 0.09215768 0.054452494 0.012208771 -0.02676317 0.019866569
0.04478284 0.047924332 0.009557159 0.089019716 -0.014103902 -0.017782852 0.02286644 -0.060444523
00000000: 6ec6 5bbd 1816 b23d c47c bebc 2abd bc3d
00000010: 9409 5f3d 4c07 483c 6f3e dbbc 37bf a23c
00000020: 366e 373d 4e4c 443d a195 1c3c f84f b63d
00000030: 0d14 67bc 58ad 91bc 6652 bb3c ad94 77bd

net.model.convblock4.2.running_mean f4 [16]
0.32104576 0.3135425 0.33669564 0.40398377 0.20951642 0.2585714 0.23140766 0.2849617
0.14506203 0.28816184 0.32144222 0.21136172 0.41192985 0.21025448 0.2399409 0.19840546
00000000: 1c60 a43e a488 a03e 5f63 ac3e f6d6 ce3e
00000010: 798b 563e 7863 843e 21f6 6c3e 80e6 913e
00000020: 248b 143e f389 933e 1394 a43e 356f 583e
00000030: 78e8 d23e f34c 573e 11b3 753e cd2a 4b3e

net.model.convblock4.2.running_var f4 [16]
0.43093348 0.17236166 0.2809847 0.6432986 0.2523392 0.17572947 0.23453234 0.21898253
0.14427331 0.13734186 0.12974879 0.2520958 0.14716351 0.14972347 0.19924682 0.097880065
00000000: 50a3 dc3e 937f 303e 3add 8f3e 38af 243f
00000010: 9b32 813e 6df2 333e 3f29 703e f53c 603e
00000020: 62bc 133e 58a3 0c3e dedc 043e b312 813e
00000030: 08b2 163e 1c51 193e 5c07 4c3e 5875 c83d

net.model.convblock5.0.weight f4 [16, 16, 3, 3]
-0.009191496 -0.10682658 -0.022553697 0.021424053 -0.09094404 0.055797152 -0.061574303 0.08012222
-0.036095 -0.001031347 0.050020553 -0.06205863 0.05252771 0.011845481 -0.11241556 0.03806491
-0.008458214 0.034737304 -0.0116579225 -0.023198225 -0.10792647 -0.06772577 -5.542195e-05 -0.09677353
0.078583695 0.027162494 -0.0294301 -0.00726628 -0.06232562 -0.06461835 0.052120235 0.017854668
-0.050589316 0.0764231 -0.026046686 0.031085258 -0.024304913 -0.08193825 -0.019970912 0.011454096
0.04421717 0.021398418 -0.0019297544 -0.014581719 0.014813245 0.04918181 0.025791977 -0.041534048
-0.020953234 0.026767528 -0.044316713 -0.010979915 0.011737731 0.096550204 -0.012256766 -0.048203778
-0.0650672 0.021401709 -0.09917643 0.058896415 -0.06416772 -0.034332544 0.044997126 0.06271469
0.026164826 0.043438815 -0.10484851 -0.12387198 0.008500962 0.035689645 -0.0149916345 -0.04838565
-0.14110829 0.033887196 -0.014533612 0.0042186193 -0.01845224 -0.046968166 0.03517067 0.014465524
-0.13107342 0.010376545 -0.085906826 0.04856644 0.01952611 -0.061016373 -0.07343819 0.01334301
-0.030322578 0.04589753 0.053444747 0.06663871 0.09105997 -0.116697125 -0.08544956 0.077329375
-0.029422894 0.06166816 -0.014829841 -0.11120717 -0.037285313 0.030827621 0.09215458 -0.054334003
-0.060856722 0.027616119 0.036234234 -0.03504252 0.098467 -0.07847967 -0.019317757 0.020722238
0.027588801 0.025579851 -0.009676438 -0.020311046 -0.014648683 -0.009126698 -0.06153739 -0.01639991
-0.09319011 -0.052625682 -0.017107818 -0.019644864 -2.9513396e-05 0.02580317 0.04587432 -0.07043922
-0.034807604 0.0912322 -0.030424144 -0.04917367 -0.04619413 0.039734937 0.1069597 -0.011137098
-0.057912122 -0.043643292 0.043135587 -0.027525144 -0.00013165326 0.0063734185 0.07430587 -0.021311782
0.032855637 0.015102184 -0.04592005 -0.061847325 0.053799517 -0.08492651 0.027456775 -0.061678115
-0.008127751 -0.05282011 0.02426411 -0.06827781 0.032326605 -0.013286113 -0.04936142 -0.03985943
0.10375107 -0.046080064 0.049639024 0.008646003 0.015384496 -0.02243818 0.035201844 -0.009907316
0.12649088 0.02470024 -0.008014872 0.086798295 0.012378129 -0.049579866 0.053698253 -0.0039142366
0.051626455 0.055916164 -0.08328717 -0.02158055 0.022709014 -0.066389605 -0.008040463 0.055660874
-0.015248363 0.007036977 -0.026790626 0.013009146 0.026692268 -0.03069905 0.013941076 -0.022375265
0.008371402 -0.019270677 -0.05333258 -0.02425237 -0.030903786 0.023885438 0.060185835 0.0035399182
-0.07822061 -0.05932233 0.01143661 0.071223 -0.03618232 -0.07229045 -0.03186045 -0.103148356
-0.033212114 0.050639786 -0.030664604 -0.05942959 -0.01056791 -0.09007709 -0.027640164 -0.062941015
0.055390015 0.022645272 0.05964249 -0.00898078 0.002519173 0.0038993477 -0.0010536761 -0.030878551
0.075399265 -0.049232688 0.0025056982 0.05638156 0.037686475 -0.049250457 -0.09272714 0.04949961
0.078708775 -0.060759377 -0.08429831 -0.019221107 0.06256086 0.03201284 0.004073654 -0.03569721
-0.10064917 0.08062015 0.014375495 -0.00033446177 -0.0071658567 0.07470076 -0.08949229 0.064876884
0.017279092 0.014847311 0.038433712 0.088661015 -0.05931975 -0.08749291 -0.03035605 -0.041738383
00000000: ee97 16bc e5c7 dabd 88c2 b8bc 7f81 af3c
00000010: de40 babd 8e8b 643d 5635 7cbd 1e17 a43d
00000020: 5ad8 13bd 432e 87ba 5ae2 4c3d 3131 7ebd
00000030: 4c27 573d 8c13 423c 213a e6bd f3e9 1b3d
00000040: 5294 0abc b448 0e3d df00 3fbc 340a bebc
00000050: 8e08 ddbd cfb3 8abd de74 68b8 3331 c6bd
00000060: 7df0 a03d e183 de3c 6517 f1bc f919 eebb
00000070: 2649 7fbd a056 84bd 077c 553d f443 923c
00000080: be36 4fbd b783 9c3d dc5f d5bc 83a6 fe3c
00000090: 191b c7bc 3ecf a7bd 0a9a a3bc f6a9 3b3c
000000a0: 101d 353d bc4b af3c d0ef fcba 2ae8 6ebc
000000b0: 41b3 723c de72 493d b249 d33c 9b1f 2abd
000000c0: 1ea6 abbc 9347 db3c 7185 35bd 1ae5 33bc
000000d0: 9d4f 403c 1dbc c53d 9ad0 48bc 5371 45bd
000000e0: f441 85bd a352 af3c 031d cbbd 5e3d 713d
000000f0: 5e6a 83bd 48a0 0cbd e84e 383d 8f70 803d
00000100: 9e57 d63c e6ec 313d d1ba d6bd 98b0 fdbd
00000110: 9e47 0b3c 4e2f 123d 799f 75bc 0830 46bd
00000120: b17e 10be 4dcd 0a3d 631e 6ebc 583c 8a3b
00000130: 2729 97bc b161 40bd 1f0f 103d ce00 6d3c
00000140: 1c38 06be 6202 2a3c ebef afbd 9aed 463d
00000150: 38f5 9f3c 4eec 79bd c366 96bd a49c 5a3c
00000160: 0e67 f8bc 0cff 3b3d e1e8 5a3d e079 883d
00000170: a67d ba3d e7fe eebd 2e00 afbd dd5e 9e3d
00000180: 4808 f1bc c197 7c3d ddf8 72bc 96c0 e3bd
00000190: 7cb8 18bd 358a fc3c 8abb bc3d 558d 5ebd
000001a0: e644 79bd 333b e23c 596a 143d bf88 0fbd
000001b0: 11a9 c93d f3b9 a0bd 4640 9ebc afc1 a93c
000001c0: e901 e23c d68c d13c ec89 1ebc 5a63 a6bc
000001d0: 0801 70bc 2588 15bc a10e 7cbd 1b59 86bc
000001e0: 75da bebd 078e 57bd b225 8cbc 44ee a0bc
000001f0: 8993 f7b7 2b61 d33c b6e6 3b3d 7042 90bd
00000200: 6b92 0ebd f3d7 ba3d 0e3c f9bc 556a 49bd
00000210: 0e36 3dbd 1ac1 223d b00d db3d 6078 36bc
00000220: 4335 6dbd 4fc3 32bd f1ae 303d 697c e1bc
00000230: 670c 0ab9 1cd8 d03b ad2d 983d 0c96 aebc
00000240: a293 063d 276f 773c aa16 3cbd 9f53 7dbd
00000250: e25c 5c3d f3ed adbd 08ed e03c 31a2 7cbd
00000260: 422a 05bc e659 58bd 87c5 c63c 3dd5 8bbd
00000270: e768 043d ffad 59bc 332f 4abd a443 23bd
00000280: 717b d43d 73be 3cbd 4a52 4b3d f7a7 0d3c
00000290: 410f 7c3c 46d0 b7bc cf2f 103d 4c52 22bc
000002a0: d386 013e 2858 ca3c cf50 03bc 4ec3 b13d
000002b0: a3cd 4a3c 4214 4bbd b3f2 5b3d ff42 80bb
000002c0: 4376 533d 5908 653d 7792 aabd b2c9 b0bc
000002d0: 4108 ba3c 46f7 87bd 25bc 03bc a8fc 633d
000002e0: 45d4 79bc 7196 e63b 0478 dbbc 5024 553c
000002f0: bea9 da3c 937c fbbc 1c69 643c 554c b7bc
00000300: 3428 093c 8add 9dbc 4373 5abd e8ac c6bc
00000310: f029 fdbc 65ab c33c 6c85 763d f9fd 673b
00000320: 2132 a0bd f9fb 72bd 9e60 3b3c 5ddd 913d
00000330: ea33 14bd 040d 94bd 1a80 02bd 723f d3bd
00000340: 6d09 08bd aa6b 4f3d 5634 fbbc 716c 73bd
00000350: 0725 2dbc 567a b8bd a06d e2bc 38e7 80bd
00000360: a4e0 623d 9482 b93c af4b 743d 1f24 13bc
00000370: b618 253b 338c 7f3b 811b 8aba 04f5 fcbc
00000380: ee6a 9a3d 37a8 49bd a436 243b 5af0 663d
00000390: 225d 1a3d d9ba 49bd bae7 bdbd 1ac0 4a3d
000003a0: 1132 a13d d3de 78bd 98a4 acbd 9575 9dbc
000003b0: e81f 803d e51f 033d 497c 853b 3d37 12bd
000003c0: 2721 cebd 2d1c a53d 3287 6b3c b35a afb9
000003d0: 90cf eabb b6fc 983d bc47 b7bd 2cde 843d
000003e0: e28c 8d3c 2342 733c ab6c 1d3d e893 b53d
000003f0: 44f9 72bd 7c2f b3bd 40ad f8bc def5 2abd

net.model.convblock5.0.bias f4 [16]
-0.029098477 -0.051248837 -0.051227413 0.028018631 -0.0056165145 0.033574283 0.061308257 -0.0907277
0.0019741363 0.032882493 0.08495761 -0.11343628 -0.1808374 0.018906282 -0.013296298 -0.08141144
00000000: ee5f eebc 4dea 51bd d6d3 51bd 5487 e53c
00000010: bd0a b8bb 3085 093d 5e1e 7b3d 72cf b9bd
00000020: 8360 013b cbaf 063d 41fe ad3d 4851 e8bd
00000030: 702d 39be 59e1 9a3c b7d8 59bc 0bbb a6bd

net.model.convblock5.2.weight f4 [16]
0.99726474 0.99783 1.0550721 0.9960014 1.0337733 1.0181804 0.96707296 0.9998052
0.937967 1.0068308 0.9907868 0.9912401 1.026566 0.93267673 0.9817102 1.0082463
00000000: be4c 7f3f c971 7f3f 9a0c 873f f3f9 7e3f
00000010: af52 843f bc53 823f 1892 773f 3cf3 7f3f
00000020: 9b1e 703f d5df 803f 34a4 7d3f e9c1 7d3f
00000030: 8466 833f e7c3 6e3f 5c51 7b3f 370e 813f

net.model.convblock5.2.bias f4 [16]
-0.11692668 -0.048482157 0.023784138 -0.04148916 -0.022679217 0.053527284 -0.052891508 0.09242815
0.027503211 -0.036514882 0.05548916 -0.09982082 0.01049648 -0.059856743 -0.027431108 0.0010736585
00000000: 4177 efbd 3a95 46bd f4d6 c23c 8af0 29bd
00000010: c4c9 b9bc 6d3f 5b3d c4a4 58bd f84a bd3d
00000020: 6a4e e13c a190 15bd 9a48 633d dc6e ccbd
00000030: 6ef9 2b3c 582c 75bd 34b7 e0bc 00ba 8c3a

net.model.convblock5.2.running_mean f4 [16]
0.40649885 0.24121355 0.3005923 0.27324167 0.43638262 0.32314703 0.3553457 0.28941202
0.29141122 0.3229421 0.37032235 0.23050213 0.20275278 0.2593584 0.28524795 0.20221998
00000000: 9e20 d03e af00 773e 3ce7 993e 55e6 8b3e
00000010: 8b6d df3e 8773 a53e dfef b53e d02d 943e
00000020: da33 953e ab58 a53e e49a bd3e c008 6c3e
00000030: 6d9e 4f3e a0ca 843e 050c 923e c112 4f3e

net.model.convblock5.2.running_var f4 [16]
0.23126964 0.29300025 0.29054186 0.14175193 0.5058849 0.13939737 0.1621415 0.19340344
0.283292 0.20581509 0.22858097 0.26806197 0.15649964 0.16130742 0.27715608 0.085119076
00000000: f3d1 6c3e 2104 963e e7c1 943e 6b27 113e
00000010: ac81 013f 2fbe 0e3e 6c08 263e 8d0b 463e
00000020: a60b 913e 31c1 523e 2111 6a3e 6b3f 893e
00000030: 7141 203e c62d 253e 67e7 8d3e e952 ae3d

net.model.convblock6.0.weight f4 [16, 16, 3, 3]
-0.010825431 0.004463115 0.038220372 -0.031049406 0.010335217 0.030929085 -0.063624285 0.0056008934
0.026364975 0.051653672 0.03503658 0.109560825 0.038912803 0.011331207 0.042068284 -0.07743504
-0.059720907 -0.12051468 0.07732657 -0.058745824 -0.00208265 -0.03639493 0.061725117 -0.025886815
0.06676442 0.041412525 -0.0679099 -0.023088377 -0.043659642 -0.049804557 0.012933904 0.019588761
-0.10632062 0.029426308 -0.06945694 -0.15040061 0.012754851 -0.08536038 -0.05515904 0.047279052
-0.042920716 0.021213545 0.022854816 0.026170462 -0.08179838 -0.10461185 -0.08695991 -0.05822677
0.057383038 0.028943153 -0.06944367 0.0036324055 0.06613749 0.00839432 0.058038108 0.0043580206
-0.02726985 0.04192822 0.014818949 0.07441355 0.0049332236 -0.07612977 0.007655699 -0.09817161
0.0499465 -0.012235599 -0.12763947 -0.031887338 0.022020383 -0.005876758 0.030322984 -0.0070116897
-0.09230136 -0.059068695 -0.070736155 0.018219825 0.006662332 -0.0037376918 0.059687283 -0.025188325
0.03520015 -0.053047992 -0.050124314 -0.16569318 -0.005616068 -0.00445788 -0.07989559 0.011665521
0.062682 0.058709685 -0.0009868435 0.036076587 -0.0025030244 -0.08407392 -0.04232439 -0.02938468
-0.049551994 -0.005401888 -0.044079613 0.036161274 0.0076726363 0.042290974 -0.0088096075 0.042485476
-0.007105063 0.0020023335 0.01216062 -0.034735393 0.07455928 0.007087093 0.011084053 -0.04401567
-0.026020171 -0.0466844 -0.0016756905 -0.06250571 0.010249098 0.007391651 -0.04278846 0.04793311
-0.018923895 0.0033633278 -0.047951642 0.007284287 0.00086824567 -0.019596979 0.13866146 0.071888424
-0.052929137 0.026757475 0.087957196 -0.010018886 -0.008489843 -0.030669706 0.10925551 -0.026423536
-0.015160468 -0.023321986 0.029953068 0.10215455 0.10915366 0.0007866929 -0.0050141914 0.11660236
0.08314619 0.084084935 -0.032856565 0.038745925 0.00871259 -0.08891209 0.023673352 -0.07907441
-0.11323373 0.024929615 -0.055074085 0.020421036 0.015492433 0.014551792 0.0010383207 0.009149274
-0.013874098 -0.04160473 0.0026896636 -0.07393863 0.026552007 0.047971588 -0.047783207 0.038480036
0.09462597 -0.11489796 -0.031432133 0.071522355 0.062089093 -0.00018145493 -0.049036387 -0.06781029
6.0160164e-05 0.0072538396 -0.03994887 0.043231465 0.002292519 0.04469976 0.039205916 0.01296766
-0.019083234 0.07133717 0.056625277 -0.029384267 0.03277268 0.032102376 0.031150706 0.032568168
-0.04925748 -0.026181323 0.12751615 0.0328912 -0.059406783 -0.12797177 0.030099548 0.010132309
0.087008506 -0.0051467614 0.11759997 -0.010665243 -0.09919425 0.048145518 -0.05209262 -0.066626914
0.013719987 -0.05891722 0.081577815 0.09346516 0.047777392 0.008151679 0.018234346 -0.08169295
-0.049805798 -0.05524292 0.04937322 0.0651955 -0.030333847 -0.06294769 0.0072962865 0.0043394514
-0.09073317 0.014849135 -0.048957825 -0.034790866 0.017084058 0.10280424 0.06076621 0.039734907
0.0543719 0.10845119 0.00070312474 -0.05338061 -0.102781035 -0.06493478 -0.041243825 0.024306636
0.030954903 -0.076398894 0.06408553 0.01584056 -0.10084388 -0.11386103 -0.0044992487 -0.061532483
-0.033331558 0.07631113 0.04630883 0.028880162 0.007002858 -0.029604614 -0.041800566 -0.101322815
00000000: 265d 31bc 523f 923b f78c 1c3d 535b febc
00000010: 0b55 293c fe5e fd3c 734d 82bd b387 b73b
00000020: 5cfb d73c cd92 533d 8482 0f3d 6d61 e03d
00000030: 0863 1f3d 87a6 393c cb4f 2c3d 4396 9ebd
00000040: e99d 74bd 67d0 f6bd 655d 9e3d 769f 70bd
00000050: 127d 08bb da12 15bd 7ad3 7c3d 9610 d4bc
00000060: c9bb 883d 2ea0 293d 5814 8bbd d623 bdbc
00000070: 74d4 32bd ddff 4bbd bae8 533c 9c78 a03c
00000080: a0be d9bd 710f f13c 713f 8ebd 9e02 1abe
00000090: b9f9 503c 6cd1 aebd 72ee 61bd aea7 413d
000000a0: a2cd 2fbd 07c8 ad3c 063a bb3c 7063 d63c
000000b0: e985 a7bd bd3e d6bd 0a18 b2bd 327f 6ebd
000000c0: 7a0a 6b3d 311a ed3c 7c38 8ebd a70d 6e3b
000000d0: 1873 873d 5488 093c 5eb9 6d3d bacd 8e3b
000000e0: 0565 dfbc edbc 2b3d 2dcb 723c 2266 983d
000000f0: e1a6 a13b ede9 9bbd a8dc fa3b 320e c9bd
00000100: b494 4c3d d277 48bc ecb3 02be 4c9c 02bd
00000110: 1764 b43c d291 c0bb e867 f83c 51c2 e5bb
00000120: 7f08 bdbd 04f2 71bd 1ede 90bd be41 953c
00000130: b14f da3b 10f4 74bb a77a 743d bf57 cebc
00000140: 082e 103d da48 59bd 274f 4dbd 79ab 29be
00000150: fe06 b8bb 6813 92bb 4da0 a3bd be20 3f3c
00000160: 6c5f 803d 9179 703d f958 81ba 0bc5 133d
00000170: c809 24bb f32e acbd 575c 2dbd 24b8 f0bc
00000180: 08f7 4abd 5202 b1bb d38c 34bd d81d 143d
00000190: bd6a fb3b 4d39 2d3d 2c56 10bc 4005 2e3d
000001a0: 97d1 e8bb 9539 033b 563d 473c b346 0ebd
000001b0: 89b2 983d d83a e83b e399 353c c649 34bd
000001c0: 4128 d5bc 2438 3fbd d8a2 dbba fe02 80bd
000001d0: d5eb 273c aa35 f23b f442 2fbd 8255 443d
000001e0: 4906 9bbc 476b 5c3b f168 44bd 07b1 ee3b
000001f0: fb9a 633a d889 a0bc 45fd 0d3e 3d3a 933d
00000200: 39cc 58bd 7e32 db3c e722 b43d 4126 24bc
00000210: fc18 0bbc 093f fbbc 5ac1 df3d 2c76 d8bc
00000220: 9d63 78bc c00d bfbc 2360 f53c 6836 d13d
00000230: f48b df3d 113a 4e3a 164e a4bb 38cd ee3d
00000240: 8d48 aa3d b934 ac3d 9b94 06bd 0cb4 1e3d
00000250: 40bf 0e3c 8b17 b6bd 9eee c13c c4f1 a1bd
00000260: 16e7 e7bd 3139 cc3c 5d95 61bd 044a a73c
00000270: f9d3 7d3c a46a 6e3c 4318 883a d6e6 153c
00000280: 2f50 63bc b969 2abd 1145 303b 236d 97bd
00000290: 9883 d93c db7d 443d 53b8 43bd 3e9d 1d3d
000002a0: 43cb c13d 9f4f ebbd fbbe 00bd 507a 923d
000002b0: 2251 7e3d f044 3eb9 61da 48bd 1fe0 8abd
000002c0: 7c54 7c38 9eb1 ed3b 6da1 23bd 7a13 313d
000002d0: 163e 163b 1817 373d 6296 203d 4f76 543c
000002e0: 7154 9cbc 3919 923d e8ef 673d 46b7 f0bc
000002f0: a53c 063d c87d 033d c42f ff3c 3366 053d
00000300: 36c2 49bd 377a d6bc 9893 023e ecb8 063d
00000310: 8754 73bd 080b 03be 5493 f63c fc01 263c
00000320: 8431 b23d 2aa6 a8bb 41d8 f03d 45bd 2ebc
00000330: 5b26 cbbd 3c34 453d 125f 55bd b173 88bd
00000340: ccc9 603c 2f53 71bd 4512 a73d a96a bf3d
00000350: 3ab2 433d 9f8e 053c 3260 953c a24e a7bd
00000360: 2a01 4cbd 6646 62bd 933b 4a3d 3885 853d
00000370: b07e f8bc b8ea 80bd b015 ef3b f531 8e3b
00000380: 50d2 b9bd c949 733c 0088 48bd de80 0ebd
00000390: def3 8b3c 088b d23d fde5 783d 12c1 223d
000003a0: 12b5 5e3d a81b de3d e751 383a a0a5 5abd
000003b0: dd7e d2bd 87fc 84bd 49ef 28bd b61e c73c
000003c0: 2395 fd3c 0677 9cbd 463f 833d 10c4 813c
000003d0: 3c87 cebd f92f e9bd 6f6e 93bb 7c09 7cbd
000003e0: ac86 08bd 0249 9c3d 54ae 3d3d 1796 ec3c
000003f0: 3b78 e53b 6085 f2bc 1237 2bbd 5682 cfbd

net.model.convblock6.0.bias f4 [16]
-0.10958684 0.006203329 -0.18191658 -0.19477782 0.090706095 -0.031788565 0.06395861 -0.098356254
-0.04302872 0.061843004 -0.038683146 0.20130652 -0.10066406 0.06144654 -0.048130162 0.031062871
00000000: 116f e0bd 4c45 cb3b 5748 3abe d673 47be
00000010: 1ec4 b93d ba34 02bd bbfc 823d 016f c9bd
00000020: e23e 30bd 174f 7d3d 3872 1ebd 4c23 4e3e
00000030: f528 cebd 5eaf 7b3d 2224 45bd 9077 fe3c

net.model.convblock6.2.weight f4 [16]
1.0601716 1.0354736 1.0451179 1.0163758 0.9395574 0.964428 1.0078778 0.9794605
0.93690264 1.0441184 0.9666601 0.9852569 1.0175314 1.0274291 1.0663698 0.9934043
00000000: b4b3 873f 668a 843f 6cc6 853f 9a18 823f
00000010: d586 703f c1e4 763f 2402 813f ecbd 7a3f
00000020: dad8 6f3f aca5 853f 0977 773f cc39 7c3f
00000030: 783e 823f cc82 833f ce7e 883f bf4f 7e3f

net.model.convblock6.2.bias f4 [16]
-0.07728247 -0.02638483 -0.095373675 -0.13941851 -0.07348941 -0.078824304 -0.0040933467 -0.030892925
-0.20718285 -0.10305034 -0.16361381 0.021519858 0.021141073 -0.07082652 -0.08950973 -0.029411122
00000000: 4646 9ebd 0025 d8bc 4653 c3bd bac3 0ebe
00000010: 9e81 96bd a36e a1bd 7b21 86bb 2913 fdbc
00000020: be27 54be 0f0c d3bd 618a 27be 6a4a b03c
00000030: 0b30 ad3c 7f0d 91bd e150 b7bd 98ef f0bc

net.model.convblock6.2.running_mean f4 [16]
0.24298844 0.30424884 0.210917 0.28436086 0.45144904 0.28871948 0.34031844 0.20479582
0.3062811 0.33923936 0.31227374 0.33640456 0.26306537 0.30411527 0.3432915 0.33419818
00000000: f6d1 783e 81c6 9b3e a0fa 573e bf97 913e
00000010: 5424 e73e 0ad3 933e 383e ae3e ffb5 513e
00000020: e0d0 9c3e c8b0 ad3e 58e2 9f3e 383d ac3e
00000030: 81b0 863e ffb4 9b3e e7c3 af3e 061c ab3e

net.model.convblock6.2.running_var f4 [16]
0.2358222 0.19123091 0.123277575 0.16323848 0.29656243 0.15371247 0.16187638 0.15329479
0.27784175 0.21924214 0.39506343 0.16082597 0.21041714 0.21883975 0.33058602 0.18500192
00000000: 607b 713e 09d2 433e f478 fc3d fd27 273e
00000010: 08d7 973e cd66 1d3e ecc2 253e 4ff9 1c3e
00000020: 4641 8e3e 0381 603e c145 ca3e 90af 243e
00000030: 9777 573e 8717 603e 9242 a93e 2571 3d3e

net.model.convblock7.0.weight f4 [8, 16, 1, 1]
-0.05877204 0.026985947 -0.03261644 -0.2334073 -0.17200999 0.0325333 0.19986795 0.20700793
-0.21515574 0.07715201 0.10055131 0.12314855 -0.062195145 -0.073720925 -0.361455 0.073729165
0.16560937 -0.13444276 -0.21315268 -0.12848602 0.24100275 -0.17249085 0.23974493 -0.17546721
-0.19369099 0.04757609 0.022694914 0.08766447 0.16555859 0.035485253 -0.29286152 0.038348757
0.082753055 0.013660547 0.16492781 -0.2894559 -0.109298445 -0.07653006 -0.016708452 0.1800625
-0.11763854 -0.020650791 0.061735045 0.24956731 0.030578196 0.24502903 0.14962058 0.32822156
-0.29592854 -0.14385164 -0.1002837 -0.084745936 0.1799855 -0.009801585 0.121545725 -0.2683995
-0.24680069 -0.18959063 -0.19444473 0.040875338 0.046948716 -0.3472633 0.18968938 -0.08241902
-0.22530568 0.09786378 0.042864263 -0.19424063 -0.32886302 0.070283554 -0.07010551 0.07355556
0.19574234 -0.21450324 0.015364055 0.15231594 0.24513265 0.012768824 0.055859573 -0.20494829
-0.07148912 0.22818957 0.10572082 -0.14946102 0.14173964 0.20583567 -0.017971886 0.27995127
-0.2245858 0.30347502 -0.18583524 0.21156166 -0.087187015 0.086552024 -0.121871054 -0.14433646
0.14692289 0.14224231 0.0042801467 -0.17464413 0.2190804 0.27606055 0.21860224 0.1119026
0.10559203 0.16376942 0.010019089 -0.050447058 0.21744934 -0.014053583 0.11958244 -0.025140047
-0.062328324 -0.20169555 0.2121013 -0.21649677 0.012458261 0.13865279 -0.16798627 -0.12700567
0.097955056 0.006585283 0.14510903 -0.07219383 -0.03292303 0.0928242 -0.09493945 -0.03912075
00000000: f3ba 70bd a211 dd3c d198 05bd 5302 6fbe
00000010: 6323 30be a341 053d 2faa 4c3e e3f9 533e
00000020: c951 5cbe df01 9e3d d8ed cd3d 4f35 fc3d
00000030: 56c0 7ebd fffa 96bd a110 b9be 51ff 963d
00000040: 8195 293e 5dab 09be b244 5abe d791 03be
00000050: 6dc9 763e 71a1 30be b27f 753e adad 33be
00000060: ee56 46be 25df 423d afea b93c 6e89 b33d
00000070: 3188 293e fc58 113d f2f1 95be 9613 1d3d
00000080: 6f7a a93d 7dd0 5f3c d6e2 283e 9033 94be
00000090: ddd7 dfbd cbbb 9cbd 2ae0 88bc 4e62 383e
000000a0: 7aec f0bd d92b a9bc e3dd 7c3d 938e 7f3e
000000b0: 207f fa3c e4e8 7a3e 2336 193e a80c a83e
000000c0: f283 97be d84d 13be 8a61 cdbd 478f adbd
000000d0: 1e4e 383e d496 20bc f7ec f83d a96b 89be
000000e0: 52b9 7cbe 0c24 42be 851c 47be e66c 273d
000000f0: 4c4d 403d 7fcc b1be ef3d 423e 4ecb a8bd
00000100: 88b6 66be ce6c c83d 7092 2f3d 04e7 46be
00000110: bc60 a8be d3f0 8f3d 7a93 8fbd 4ca4 963d
00000120: ae70 483e bda6 5bbe 84b9 7b3c b6f8 1b3e
00000130: 0e04 7b3e 5434 513c 02cd 643d f7dd 51be
00000140: e368 92bd 87aa 693e 2884 d83d 4f0c 19be
00000150: 3224 113e 96c6 523e c739 93bc c655 8f3e
00000160: d2f9 65be 1461 9b3e 984b 3ebe 9fa3 583e
00000170: 1b8f b2bd 3042 b13d 8897 f9bd f0cc 13be
00000180: f472 163e f8a7 113e 7940 8c3b e9d5 32be
00000190: 9d56 603e cf57 8d3e 44d9 5f3e 312d e53d
000001a0: a240 d83d 2cb3 273e 1b27 243c 93a1 4ebd
000001b0: 0aab 5e3e 0041 66bc a3e7 f43d 80f2 cdbc
000001c0: fc4b 7fbd 4789 4ebe 1531 593e 54b1 5dbe
000001d0: bc1d 4c3c fffa 0d3e 9804 2cbe c60d 02be
000001e0: a99c c83d 5cc9 d73b 7697 143e 5cda 93bd
000001f0: 4dda 06bd 9d1a be3d 9d6f c2bd 143d 20bd

net.model.convblock7.0.bias f4 [8]
0.30321816 0.079516016 -0.03729853 0.29383537 0.010921526 -0.12275051 0.012946488 0.17262472
00000000: 693f 9b3e 4bd9 a23d 58c6 18bd 9771 963e
00000010: 33f0 323c 9f64 fbbd 821d 543c 89c4 303e

net.model.convblock7.2.weight f4 [8]
1.0486312 1.0011175 0.93440145 0.93352807 1.016026 1.0220246 0.9832421 0.9654585
00000000: 8c39 863f 9e24 803f ef34 6f3f b2fb 6e3f
00000010: 240d 823f b4d1 823f c1b5 7b3f 4a28 773f

net.model.convblock7.2.bias f4 [8]
0.075907916 -0.004602648 0.062186465 -0.08178518 0.06833663 0.118201755 0.040567607 0.061470028
00000000: 9c75 9b3d cfd1 96bb 3cb7 7e3d fd7e a7bd
00000010: 13f4 8b3d c313 f23d 382a 263d ffc7 7b3d

net.model.convblock7.2.running_mean f4 [8]
0.53129196 0.3707228 0.7061147 0.30839887 0.37989753 0.6657931 0.7982801 0.2629961
00000000: c002 083f 61cf bd3e efc3 343f 75e6 9d3e
00000010: ee81 c23e 6b71 2a3f 165c 4c3f 6da7 863e

net.model.convblock7.2.running_var f4 [8]
0.4408187 0.3652897 0.67729527 0.19326691 0.4479546 0.8936323 0.80517477 0.28102636
00000000: fdb2 e13e 4007 bb3e 3963 2d3f c3e7 453e
00000010: 4e5a e53e 16c5 643f ef1f 4e3f b0e2 8f3e
