output/lightning_logs/version_0/checkpoints/epoch=9-step=4300.ckpt (torch, 191781 bytes, 188 tensors)

net.model.convblock1.0.weight f4 [10, 1, 3, 3]
00000000: 6e54 343c 79cf 493e ed39 3cbe 21f2 98bd
00000010: 3fc4 993d 684f 2c3e 7692 febc 8375 d1bd
00000020: 535a a53e 58a6 43be db99 033d 8909 863d
00000030: 54ad 1a3e 6ba9 953e 1f6a 4f3d c135 893e
00000040: c3d7 97be 5772 aabe 89ad 1fbc 3ece b03d
00000050: 9fa7 e9be 6039 903d 40d3 883e 0fbf 263e
00000060: fb1b 103e b319 943e 02f9 65be e954 063e
00000070: 1fd4 51bd 3ddd 513c 49d7 abbe 7cb5 06be
00000080: 1652 af3e a856 a5bc 4f92 313d a182 503d
00000090: 24b1 7f3e f8bb 81be f54b e4bc 1dee 2bbe
000000a0: 6823 723e 9efb afbe ead9 723e 3ea9 963c
000000b0: 8173 acbe ffb0 063d 9a82 a6be 892b 1a3e
000000c0: 2b0a 52be 70d4 22bb cac1 32be b466 ecbd
000000d0: 67b3 a1bc e954 84be 4320 843e 0ca3 67bb
000000e0: adf2 a0bc c0da 9ebe 95a1 503d b33a a13e
000000f0: 73fb 97bb 5b41 b8be d8e7 4fbe 180e 703e
00000100: 56e3 5f3e 891d 2cbe c0fd c139 e423 3dbe
00000110: e01f 9abe 4000 edbd a0ca 6fbd b844 bb3e
00000120: 1b8e 853e f0d0 e53e 5b93 1b3e 9a08 19be
00000130: 55c3 18be 98cc c73e 8cac b83d 47f2 56be
00000140: 0cfb 023e d6c2 bc3d 049d c53e 7d77 753e
00000150: a4db bb3d a362 97be 9a9d 103e a21c bdbd
00000160: b7a6 69be 6d92 61be
0.011006458 0.19708051 -0.18381472 -0.074680574 0.07508134 0.16827166 -0.031075697 -0.10227492
0.32295474 -0.19106424 0.03212915 0.065447874 0.15105182 0.29230818 0.050638314 0.26798823
-0.296568 -0.3329036 -0.009745964 0.086330876 -0.45635697 0.070421934 0.2672367 0.1628382
0.14073174 0.28925857 -0.2245827 0.13118328 -0.051227685 0.012809095 -0.33562687 -0.13155168
0.34242314 -0.020182922 0.04335242 0.050905827 0.24969918 -0.2533872 -0.02786825 -0.16790052
0.23646319 -0.34371656 0.2371594 0.018391248 -0.33681872 0.03288364 -0.32521516 0.1505567
-0.20511691 -0.002484586 -0.17456737 -0.115430266 -0.019738866 -0.2584603 0.25805864 -0.0035344986
-0.019646967 -0.31026268 0.050935347 0.31490096 -0.0046381294 -0.35987362 -0.20303285 0.23442876
0.21864066 -0.16808142 0.00037000887 -0.18470722 -0.30102444 -0.11572313 -0.058542848 0.36575866
0.2608498 0.4488597 0.1519293 -0.14944687 -0.14918263 0.3902328 0.09017286 -0.20990859
0.1279108 0.092168495 0.38596356 0.23971362 0.091727525 -0.2956744 0.1412262 -0.09233977
-0.22817503 -0.22028513

net.model.convblock1.0.bias f4 [10]
00000000: 2e3d d4be a957 9c3e 9262 dd3d 8d6d 6dbe
00000010: fa10 8b3d 5edf 7fbe 14ce acbc 41b7 ad3e
00000020: 5d63 8c3e 5d8c 97be
-0.41452926 0.3053563 0.108098164 -0.23186322 0.067903474 -0.24987552 -0.02109436 0.33928874
0.27419558 -0.29599276

net.model.convblock1.2.weight f4 [10]
00000000: 441e 6b3f 5d0f 853f 4cc1 873f 72ef 743f
00000010: d89c 763f d72b 763f 137f 843f 1030 7a3f
00000020: 93b7 823f 3485 873f
0.91843057 1.0395314 1.0605865 0.95677865 0.96333075 0.96160644 1.035128 0.9772959
1.0212272 1.0587525

net.model.convblock1.2.bias f4 [10]
00000000: 68a3 02be 62ec 213d 5e0a 0f3d 693d 29be
00000010: 0b91 ebbd b44c 2a3e af15 b63b 281a 17be
00000020: ae22 e4bd a06f e9bd
-0.12757647 0.039532073 0.034921996 -0.16527332 -0.11502274 0.16630822 0.005556784 -0.14756072
-0.11139427 -0.11398244

net.model.convblock1.2.running_mean f4 [10]
00000000: 2b11 8a3d 8634 b03e 44e7 3f3e 00d4 403d
00000010: da30 653e 1f6a b53d a7cb f03d acf5 c43e
00000020: da81 c93e 5bdb b93d
0.06741556 0.34415072 0.18740565 0.04707718 0.22381917 0.088581316 0.117575936 0.38468683
0.3935688 0.09075042

net.model.convblock1.2.running_var f4 [10]
00000000: 6859 1f3d 0478 cc3d 6065 583e 4166 003d
00000010: f6ba 243d 4e4a a03b e0c7 dd3c 807b 823d
00000020: e0c7 253f 86d7 d13d
0.038903624 0.09983829 0.21132421 0.031347517 0.040217362 0.0048916703 0.027072847 0.06371212
0.6475811 0.10246186

net.model.convblock2.0.weight f4 [16, 10, 3, 3]
00000000: 8f31 24bd 278f 0cbe 7aaa fd3c 35c3 34bd
00000010: 423d 54bd c4c6 e7bd 16b3 71bd 0a42 643c
00000020: 09be bdbd a922 123d 3da7 323c f9dd dabc
00000030: 03ac 8fbc 4796 fa3d 8b30 153d 7d25 433e
00000040: cad6 1d3e 125f 3ebc 95ef 863d a431 1c3e
00000050: 5a94 bf3c 28a8 3e3d 014b 333e 94a5 d1bc
00000060: 9428 363c d839 cc3d bba4 40bd 7273 9abc
00000070: 7a53 cfbb fa6b 003e 2f67 df3d b6f6 123e
00000080: 185b 94bc 2f4f d53d 54e5 173e 08eb b3bd
00000090: 0d93 01bd ae32 d33d 5d4d 8e3c 737f 093d
000000a0: 9a7a 473d 97fd 3b3d 70c2 8abc d8d7 4d3c
000000b0: 3c14 913d 2423 8fbd cfea c2bd 00af 65bd
000000c0: b88d b4bc b314 babc f29c 5e3d 0206 a8bd
000000d0: 07c1 353c ec7b db3c f429 58be 0729 0fbe
000000e0: 8633 bfbd 8ba4 0cbe 89a0 3ebd ea00 cc3a
000000f0: e3ef 19be daa0 b6bd 14e2 f13c 77eb 413c
00000100: d786 40bd 2070 1d3d 36cd bd3c ccaf 543d
00000110: 2c57 32bd dc34 cdbd f27c b03d d397 e03d
00000120: 49c3 883c a97f 573c 46ff 35bd 36c0 8b3d
00000130: b70c 65bd a901 8abb 320f 1f3d ea07 f63b
00000140: 5c03 80bd 1b07 fc3b 96dd cbbc f988 853d
00000150: ba8f 5cbd 3fa5 bebb 6997 9cbb 872f 67bb
00000160: 9e7a e93d c05b a0bd 666b acbc 31b4 4cbb
00000170: 4d69 9b3c f589 93bc 2611 863c 1b06 663d
00000180: 0cf4 573c 5f15 b03c ef2d 11be c20a d1bd
00000190: efad 9dbb 178f 3d3d 7cda 42be 6cc4 2cbd
000001a0: 4248 de3b 8678 cb3d 3047 d9ba 754c 6abc
000001b0: e4a1 1bbe 75db 0cbd aac9 3e3e e625 653d
000001c0: 8e35 903b 9ead 693d 4c50 bfbc e09e a43d
000001d0: 5206 0d3e 1d04 5b3c c444 b6bd b43e ca3c
000001e0: d2a9 c63d 3a27 c33c cadd 56bd 05fd b2bd
000001f0: f664 f8bd 3c39 f5bd e882 37bd de27 8dbd
00000200: 496e e8bd 3d0d b1bd 8d39 683c f058 8d3c
00000210: 547a 1cbe dfdb 48bd 842d 20be a14a d3bd
00000220: a38a 633d 5d5d 73bd 6e24 d63c 866c 573c
00000230: 3358 d3bd aaef d1bc 62ea 16be 8bc0 1dbb
00000240: e3ca dbbd 7b92 e6bc 5025 da3c 2709 c4bd
00000250: 981b c9bc 6f16 193d 923a 0fbe 4e0a ddbd
00000260: 34f5 afbb f19c bcbd 8cc9 6c3c a15d 3c3e
00000270: edd6 273d 9a05 2cbd 52df a63c b693 253c
00000280: c4bd 123d 8732 57bd f865 94bd 4b05 d63c
00000290: 422a 813d 7c45 3fbc 26b5 64bb 9036 163e
000002a0: c655 693c 84b0 023e e473 023d 3579 4ebc
000002b0: 2107 7dbd 9261 59bb d366 20be 3da2 033b
000002c0: bf62 5a3d c656 97bd b119 dabd ed14 113e
000002d0: e886 b3bd 9ac8 7bbe 1f94 e9bd a135 6d3d
000002e0: c8bd a33c 9327 2f3d e57d 32bb 48aa c3ba
000002f0: 8a64 943d ee58 00bb 4947 193d d1b0 0e3d
00000300: 06e2 08bb e8b6 28bd 0059 de3c 4bff 933d
00000310: 456a bc3d 9df0 4039 c83b 4dbd cc79 16be
00000320: 4a87 1bbe 5b8b 423e 1d79 1a3d e0d1 903d
00000330: 2434 8a3d 0ce6 a53d ded3 823d 84fc b6bd
00000340: afcd 3dbe d8a8 22bb d459 cf3c 44b8 9abd
00000350: 8208 8dbb 5e11 ecbb 4ae7 3f3d df18 30bd
00000360: a754 d63d 33af 8dbd 2916 27bd f1fd 2f3c
00000370: dda7 043d d448 bcbd 2b1c 953d 1473 493c
00000380: 49f5 0dbc b203 ecbc b8b6 843d ba5f dbbc
00000390: a61e cb3c 755b 4abd 6d90 b9bd 156c d1bb
000003a0: 2baf a5bd f3dd 3d3e 39a3 7abd 0a6c a5bd
000003b0: 6303 86bd 0b13 dbbd ec54 00bd cb84 e73d
000003c0: 43f2 7ebd c6d8 e8bc 2969 57bc 9901 e8bb
000003d0: 2796 8ebd b12b 49bd 2b09 9b3a 6216 61bd
000003e0: b054 4dbd 4aa7 eabc 22d3 673a 9a61 8f3c
000003f0: 1dac 35be f6c1 48be 5b9e 0cbe 9f79 7d3d
-0.040086325 -0.13726483 0.030965079 -0.044131476 -0.051816233 -0.113172084 -0.05900868 0.013931761
-0.09264762 0.035677586 0.0109041305 -0.026717173 -0.017538076 0.122356944 0.036423247 0.1905727
0.15413967 -0.011619346 0.065886654 0.15253311 0.02338617 0.046547085 0.1750908 -0.02559165
0.011118073 0.0997197 -0.0470321 -0.018853877 -0.00632709 0.1254119 0.109083526 0.14351925
-0.018109843 0.10415494 0.14833575 -0.08785063 -0.03163438 0.10312401 0.017370874 0.03356881
0.048700906 0.04589614 -0.016938418 0.012563668 0.070839375 -0.069891244 -0.095174424 -0.056075096
-0.022040233 -0.022714948 0.054348893 -0.08204271 0.011093385 0.026792489 -0.21109754 -0.13980494
-0.09335999 -0.13734643 -0.046539817 0.0015564237 -0.15032916 -0.08917399 0.029526748 0.011835924
-0.047003593 0.03843701 0.023169141 0.051925465 -0.043540165 -0.10019848 0.086175814 0.10966458
0.016694682 0.013152995 -0.0444329 0.06823771 -0.05592033 -0.0042116237 0.03883285 0.0075082676
-0.06250641 0.0076912767 -0.024885934 0.06520266 -0.053848006 -0.0058180387 -0.0047787917 -0.0035276131
0.114003405 -0.0783 -0.021047305 -0.0031235332 0.01897111 -0.018010119 0.016365599 0.056158166
0.013180744 0.021494566 -0.14177679 -0.1020713 -0.0048119943 0.04627904 -0.19028658 -0.04217951
0.006783516 0.099350974 -0.0016577002 -0.014300455 -0.15198475 -0.034388978 0.18631616 0.055944346
0.0044009155 0.05705034 -0.023353718 0.080381155 0.13771942 0.01336768 -0.08899835 0.024688102
0.097003594 0.023822416 -0.05245761 -0.08739666 -0.12128632 -0.11973807 -0.044802576 -0.0689237
-0.1134916 -0.08645103 0.014173877 0.017254323 -0.1528104 -0.04903781 -0.15642363 -0.10316969
0.055552136 -0.05941521 0.026140418 0.013148433 -0.10319557 -0.025626976 -0.14737847 -0.0024071063
-0.10732057 -0.02814602 0.02662912 -0.09572058 -0.02454929 0.03737491 -0.13987187 -0.10792981
-0.0053698067 -0.09209622 0.014452349 0.18395092 0.040976454 -0.04199753 0.02037016 0.010106018
0.035825506 -0.05253842 -0.072460115 0.02612557 0.06306888 -0.011674281 -0.0034898012 0.14669251
0.014241641 0.12762648 0.031848803 -0.01260214 -0.061774377 -0.0033169729 -0.15664224 0.0020085715
0.053316828 -0.073895976 -0.106494315 0.14168139 -0.08765966 -0.24588242 -0.11405205 0.057912473
0.019987956 0.04276235 -0.0027235684 -0.0014928067 0.07245739 -0.0019584256 0.0374215 0.034836594
-0.0020886674 -0.041190058 0.027142048 0.07226428 0.09199957 0.00018400182 -0.05010584 -0.146949
-0.15188327 0.18998472 0.03771316 0.070712805 0.06748226 0.081005186 0.06388067 -0.08934882
-0.18535493 -0.0024819877 0.025311388 -0.07554677 -0.0043039927 -0.007204219 0.046851434 -0.04299247
0.10465365 -0.06918182 -0.040792618 0.010741697 0.03238665 -0.09193578 0.07280763 0.012295503
-0.008664438 -0.028810356 0.06480163 -0.026779044 0.024794888 -0.049403626 -0.0906075 -0.006391058
-0.08090051 0.18541698 -0.061190818 -0.080772474 -0.06543615 -0.106969915 -0.031330988 0.11304625
-0.062242758 -0.028423678 -0.013147631 -0.0070802686 -0.06962233 -0.049113933 0.0011828294 -0.054952987
-0.050129592 -0.028644223 0.0008843412 0.017502595 -0.17741437 -0.1960524 -0.13732283 0.061883565

net.model.convblock2.0.bias f4 [16]
00000000: 4531 863b 9d72 6c3c 88af 873d 7557 81bb
00000010: 442a d9bd 61c9 dbbd 8322 e6bd 6e8f 35bc
00000020: d294 ab3d f492 27be 920e 1d3d 22a2 95bd
00000030: 66a0 eabd 875a a53d b2db afbc 2841 a1bc
0.004095229 0.014431623 0.06625277 -0.0039471933 -0.10603765 -0.10731769 -0.11237051 -0.01108156
0.083779946 -0.16364652 0.038343973 -0.07306315 -0.11456375 0.08073907 -0.021467064 -0.01968439

net.model.convblock2.2.weight f4 [16]
00000000: 9ee1 813f 80c6 863f 2f6e 8b3f 1c93 6d3f
00000010: 1baa 703f 3a53 6f3f ba60 773f 82a7 823f
00000020: 21ba 813f e5c1 8d3f c57d 673f 2596 843f
00000030: f303 8b3f 2820 743f eaee 743f 50d3 793f
1.0146978 1.0529327 1.0893 0.92802596 0.9400956 0.9348637 0.9663197 1.0207369
1.0134927 1.1074797 0.90426284 1.035832 1.086058 0.95361567 0.95677054 0.9758806

net.model.convblock2.2.bias f4 [16]
00000000: 5eac bfbd 5e2b 45be d827 49bd e0b9 43be
00000010: 67a0 11be 2837 f6bd 4b65 d1bd a4f3 21be
00000020: 5b41 06be ee8a 8bbd 42db 533d 9710 2ebe
00000030: b048 56be 726e 80bc 4f76 1bbe f176 8ebe
-0.09359048 -0.19254825 -0.049110264 -0.19113874 -0.14221345 -0.12022239 -0.10224398 -0.15815598
-0.13110869 -0.06813608 0.051722772 -0.16998516 -0.20926166 -0.015677664 -0.1518185 -0.2782512

net.model.convblock2.2.running_mean f4 [16]
00000000: d62e ce3e 8118 c13e 4fe1 303f 0a5c ab3e
00000010: d2bb ab3e d2d6 833e df91 953e d576 c23e
00000020: a9df f23e 07ab 833e 7312 923e 57d5 f23e
00000030: 63d7 9e3e 519b c23e 8b09 573e 4d9c e73e
0.40270108 0.37714007 0.69093794 0.33468658 0.33541733 0.25749832 0.29212853 0.37981287
0.47436264 0.2571642 0.285297 0.4742839 0.31023702 0.38009122 0.20999734 0.45236436

net.model.convblock2.2.running_var f4 [16]
00000000: 5609 933f 1048 2f3f af3a c23e d88d 8f3e
00000010: a2e7 893e 5d74 083f f514 573f bd60 453f
00000020: 4a78 f43e 62f9 103f e02b c43e e4f9 803f
00000030: bb1f 3a3f 1726 273f 3d19 933e b55f 703f
1.1487224 0.68469334 0.37935397 0.28037906 0.26934534 0.53302556 0.8401635 0.77100736
0.47748023 0.5663053 0.38314724 1.007626 0.72704667 0.65292495 0.28730193 0.9389604

net.model.convblock3.0.weight f4 [8, 16, 1, 1]
00000000: 63a8 c7bd 20a5 2e3c 0ed5 23bd 7bb8 42be
00000010: bec0 16be a913 81be 2e2f 843e 5ebd c13d
00000020: 6bcf 89be aaee 5b3c 9255 143d b512 6d3e
00000030: db02 e63d c65b 123e b5d7 89ba 2ee2 433e
00000040: d5ee d23d 2768 24be 73e8 a13e 3c30 d4bd
00000050: fe43 cabd dc3f 7c3d 04e9 5c3d cbea 03be
00000060: fe41 f4bd 025a 71be 0295 f23d 13bd a8bd
00000070: 79f7 63be 7ded 953b f704 f7b9 7917 2abe
00000080: 866b 5fbe 2201 dbbd 7183 c8bd bc41 7d3e
00000090: f438 41be 2475 f03d 3689 ea3c 59b3 76be
000000a0: 749f e3bd c602 1a3e cb15 8cbd d349 d0bd
000000b0: ef36 eb3d 7cdd 8b3e 83c2 443e 3155 9e3e
000000c0: 2077 2cbe 1044 43be 6fc3 81be d80b 343d
000000d0: e21e a0bd 93c2 32bd bda9 7cbe c057 57be
000000e0: e84a 473e 468c 753e 2a27 24bd d570 a1be
000000f0: e49d 2dbe 8ea3 243e e002 04be b49f d0bd
00000100: f9c1 053e e79f 563e 4297 803d 1f97 133e
00000110: da13 0b3d dbae 313e 05d4 4e3e 9e8b 723d
00000120: 6d50 8cbe c90d 73be e74e 073d d01a 3c3e
00000130: bb93 c73c 51cc 163d 5e76 f9bd 8f0a 003e
00000140: 28fb c9bc 9c4c 903d 1c94 543e 1428 623e
00000150: 514a 9c3e b606 dfbd 098f 84bd 5946 6e3c
00000160: 313a fe3d 8658 ff3d dc2b 513d 167e 403d
00000170: e815 063e 7d69 db3d d042 5ebd c86e 753d
00000180: 85b9 473d ed65 2d3d 99dd b4be 3563 cf3c
00000190: 3b9c 03bc 367f 513e e624 a83c a936 7b3e
000001a0: 131a a5bc 097e c4bd 9822 573e 8c38 503c
000001b0: f1e2 ddbd 02db 7f3e c90b 12bb 52b5 85bd
000001c0: 115d 7b3e ea55 ef3d 8031 c1bd cf1d 36be
000001d0: 7d6e bd3d ff63 8f3e a80d b6bc 75ce c7bd
000001e0: 7727 f23d 83f2 d33d e34a 303e 3253 5ebd
000001f0: 8827 9a3c a598 f6bd 00ac 513e 8f3d 3cbe
-0.09748914 0.010659486 -0.039998107 -0.19015686 -0.14721963 -0.25210312 0.25817245 0.09459947
-0.2691606 0.013423601 0.03621442 0.23151667 0.112310134 0.14292821 -0.0010516556 0.1912925
0.1029946 -0.16055356 0.31622657 -0.103607625 -0.0987625 0.06158434 0.05393316 -0.12882535
-0.119266495 -0.23569492 0.11844827 -0.08239188 -0.22262372 0.00457543 -0.0004711521 -0.16610517
-0.2181836 -0.106935754 -0.097906955 0.24732107 -0.18869382 0.11741093 0.02862988 -0.24091853
-0.11114398 0.1504012 -0.06840094 -0.10170331 0.11485087 0.27317417 0.19214825 0.3092437
-0.16842318 -0.19068933 -0.25344416 0.043956608 -0.078183904 -0.04364259 -0.24674125 -0.21029568
0.19462168 0.23979291 -0.040076412 -0.31531397 -0.16954762 0.16078016 -0.12891722 -0.10186711
0.13062276 0.20959435 0.0627885 0.14413117 0.03395448 0.17351858 0.20198067 0.05921518
-0.2740511 -0.23735727 0.03303423 0.18369603 0.024362436 0.036815945 -0.1218078 0.12504028
-0.024655893 0.07045862 0.20759624 0.22085601 0.3052545 -0.10889952 -0.06472594 0.014543139
0.12413443 0.124680564 0.05106722 0.046995245 0.13094294 0.1071348 -0.054262936 0.059920102
0.04876091 0.042333532 -0.35325316 0.02531586 -0.008032854 0.20458683 0.020525407 0.2453257
-0.020154035 -0.09594352 0.2100929 0.012708794 -0.10834301 0.24985889 -0.0022284857 -0.06528725
0.24547221 0.11686309 -0.094332695 -0.17784809 0.092495896 0.28005978 -0.022223309 -0.097561754
0.118239336 0.1034899 0.17216067 -0.05427856 0.018817678 -0.120408334 0.20475769 -0.18382858

net.model.convblock3.0.bias f4 [8]
00000000: bbed 213e 6e02 903d 7bf2 003d f499 803e
00000010: 3d9c 413e 0715 c0bd cbac 5e3c ccbf d43d
0.15813343 0.070317134 0.031481247 0.25117457 0.18907256 -0.09379011 0.013591002 0.10388145

net.model.convblock3.2.weight f4 [8]
00000000: a59b 7c3f 4724 6c3f a3f1 6d3f daca 6b3f
00000010: 7af0 8e3f b7e0 8a3f 9a97 733f 0f06 7f3f
0.98674995 0.92242855 0.92946833 0.921064 1.1167138 1.0849828 0.951532 0.9961862

net.model.convblock3.2.bias f4 [8]
00000000: 8eed 1a3e 6a1d f63c b2da c03d 376d f63d
00000010: 7cb8 a23e ee66 143e 4fb7 113d 667c fabc
0.15129682 0.030043323 0.09416713 0.1203255 0.31781375 0.1449239 0.035575207 -0.030576896

net.model.convblock3.2.running_mean f4 [8]
00000000: 354a a73e f53a f33e ab54 a33e cf6b 2a3f
00000010: beef 073f d72f ee3e 50e4 cb3e 2a52 e83e
0.32673803 0.47505918 0.31900534 0.6657075 0.5310019 0.46520874 0.39822626 0.45375186

net.model.convblock3.2.running_var f4 [8]
00000000: 7a92 323f 6344 9e3e 745f 203f ea19 f83e
00000010: af67 a83f a474 6e3f a390 593f 0233 783f
0.69754755 0.3091155 0.6264565 0.4845727 1.3156642 0.9314673 0.84986323 0.9695283

net.model.convblock4.0.weight f4 [16, 8, 3, 3]
00000000: b0a2 80bd b6b6 05be e7d6 78bd 1838 db3d
00000010: 4488 80bd 29ee f4bc 1523 b93d d4bf b33d
00000020: 7859 ecbd 92ca bdbc 8969 8bbd 176c 68be
00000030: b7cb 5b3b 0999 b03d f958 b6bd 6172 3f3d
00000040: 03ce 82bc 0182 ffbc 7a80 b93d 5e77 b8bd
00000050: c485 95bd a14d a4bc db65 2f3d be62 3abd
00000060: b9c1 9bbc ad8c 50bc f12d a1bc 82d6 32be
00000070: 89a3 fdbd 72d4 053e e06d 55be e829 14be
00000080: d976 683d b2e2 4fbe 052e 7dbe 24a5 bf3d
00000090: 888d 893d 102b c6bd 0220 16bd f19f e63c
000000a0: 294a cbbd 1ded ccbc da06 113c 7410 0b3e
000000b0: a6a0 69be f92e c7bc 7049 8c3d 43a8 2b3c
000000c0: 7270 41be b7a0 19bd 0544 843d bcf8 04be
000000d0: 78c3 b4bb cbc6 f23c 8b1d f83d 8556 acbc
000000e0: f7b9 663d 6553 5e3d 56f1 013d b8d8 08be
000000f0: 2afd 2c3d c3d9 413d d50c e3bd ad7c 383d
00000100: adb1 863d d844 b53d 7bf7 81bd bb30 6a3c
00000110: 012d 593d 85fb 353d 3a3c ca3d 19a1 8abd
00000120: fb2e 3c3e 9392 493d 1587 333d ac01 22bb
00000130: 4879 94bd cca8 433c fff5 35be 0cb8 febc
00000140: c02b 49bd 7aaa f5bd 8f19 e5bd 4ccf dfbd
00000150: 6636 5fbd 4397 4d3d f096 2cbd a8e9 333c
00000160: efcd cf3c 5f3e 663c e7d0 0d3d 3ef3 a63d
00000170: d712 353e 4348 713d 54e7 0e3d 9f9e 84bb
00000180: d9dc b8bd e88f 01be b74e f8bd c02d 543d
00000190: 50e0 96bd a5a6 993d 4408 2d3e d0ff af3b
000001a0: 5b22 573d a91b 9fbd 7934 203d f36c 91bd
000001b0: 0703 853e a5c1 2b3e bce6 7dbd 848e 2ebe
000001c0: a28c e2bd c143 fbbd e2c9 6dbd 5b9c 653c
000001d0: 3a2d f73d db90 2e3d 5c5b d33d a268 2b3d
000001e0: 41d6 84bd c66f 2dbd c705 8fbd 1151 103d
000001f0: 43bd c03c 03ad 55bd 89b9 923d f358 03be
00000200: ae1a 06be 93b7 b6bd 954a 803d c6a0 d93d
00000210: fd41 0d3d d9e9 873d f8d0 8cbd d8f5 1e3d
00000220: 768e 7a3d 562a 8b3d ca61 243e b837 9dbd
00000230: 530f d03c e4df ec3d cc4d e2bb f995 f53a
00000240: 98e4 18be e031 75bd 939c 94bd 46c2 bdbd
00000250: 2e27 b83d 4104 a4bd 76c4 3b3d 7533 1d3e
00000260: 481b ab3d fa76 c03d 5ea1 0f3e 5a0a 303e
00000270: 73c2 33bd aa9d da3a d84b 65bd c807 50be
00000280: a96b 05be 0c9a 2dbe b672 10be dec4 1fbe
00000290: 0aa6 4f3d 2b04 1ebe baad e5bc b0eb febc
000002a0: e3ae ac3c 1d4a cf3d a675 213e 9be9 343c
000002b0: e791 e9bd 106a 06bd 9b52 773d c892 e53b
000002c0: 0737 17bd 5d51 a23d b424 7bbe 618c 80be
000002d0: bb10 c2bd 51be d53c 6c55 4ebd ccf0 823d
000002e0: 7b9f 133b a409 2abd 05cb f33c 1fe9 6e3d
000002f0: 1e17 1e3e 9fef 9bbc d7b2 05be 717f 02be
00000300: 0d53 3abd 8836 bebd 9a13 75bd 61e5 953d
00000310: ef5e 863d af5a 0a3e 8c21 82bb 7cec 333d
00000320: 89aa 49bd c996 c53b 0771 6d3d 4200 8bbc
00000330: f356 15be 7bbd 16bc 82d2 803d 355f 00bd
00000340: ab9a 073d b99f bd3d e10c 0f3d 52f2 293d
00000350: fb12 8a3c 37ec 863c 095e 36be dcf8 76bb
00000360: 3c09 2bbd b860 d33c 2fe8 83bd 267a b2bb
00000370: 52c0 f33d 6e1e 123e c27b d4bd 3a38 b6bb
00000380: e1f0 15bd ba38 8c3d 6bab 8f3c 5b0a c6bd
00000390: d2cb c13c ed57 153e 6f77 cabd 2556 74bd
000003a0: 968c 973b f880 b73b d970 0fbe b464 ecbc
000003b0: 94ae 0c3d 6cac c6bd 60cf d8bd 4203 103e
000003c0: 79ba 173b b0d4 153d 950c 973c 9edb a9b9
000003d0: 8766 79bc b216 2abe 2b10 153e e068 16bd
000003e0: 9334 40bc ae65 85bd 4912 0cbc a449 533d
000003f0: e252 b7bd 4819 ab3d efa3 2abb bd96 88be
-0.0628103 -0.1305798 -0.06075182 0.107040584 -0.062759906 -0.02989872 0.090398945 0.08776823
-0.11540502 -0.023167882 -0.068072386 -0.22697483 0.0033538172 0.08622939 -0.08903689 0.04673994
-0.015967375 -0.03118992 0.09057708 -0.090071425 -0.073009044 -0.020056548 0.042821746 -0.045504324
-0.019013273 -0.012728852 -0.019675227 -0.1746464 -0.123847075 0.13069323 -0.20842695 -0.14469111
0.056753967 -0.20301321 -0.24724586 0.0935767 0.06716448 -0.09676182 -0.03665162 0.028152438
-0.09926254 -0.025015408 0.008851731 0.13580495 -0.22815189 -0.02431439 0.068499446 0.010477128
-0.1889055 -0.037506785 0.06458286 -0.1298551 -0.0055164658 0.029635807 0.1211501 -0.02103735
0.056329694 0.05427875 0.031724297 -0.13363922 0.042233624 0.047326814 -0.11086432 0.045040775
0.06576858 0.088510215 -0.06346031 0.014293845 0.053021435 0.04442932 0.098747686 -0.06769008
0.18377297 0.04921205 0.043829996 -0.0024720235 -0.07249695 0.0119421 -0.17769621 -0.03109362
-0.04911399 -0.119954064 -0.111865155 -0.109282106 -0.054495238 0.050193083 -0.042136133 0.010981001
0.025366751 0.014052956 0.034623053 0.081518635 0.17682968 0.058906805 0.03488858 -0.0040472294
-0.09026498 -0.12652552 -0.12124389 0.051801443 -0.07367003 0.07502488 0.16897684 0.0053710714
0.052523 -0.07768948 0.03911254 -0.071008585 0.25978872 0.16773088 -0.061987624 -0.17046553
-0.1106198 -0.122687824 -0.05805386 0.014014329 0.12069173 0.042618614 0.1032016 0.041847833
-0.06486178 -0.042342924 -0.06983524 0.03523356 0.023527747 -0.05216695 0.07164294 -0.128269
-0.13096115 -0.08921733 0.062642254 0.10626368 0.03448676 0.066364 -0.06875795 0.038808674
0.061171018 0.06795184 0.16052929 -0.07676643 0.025397932 0.11566141 -0.0069062468 0.0018736712
-0.14930952 -0.059862018 -0.07256427 -0.0926557 0.08991848 -0.08008624 0.045841657 0.1535166
0.08354813 0.09397693 0.140264 0.17191449 -0.043886613 0.0016679068 -0.055980533 -0.20315468
-0.1302935 -0.16953295 -0.14106259 -0.15602443 0.050695457 -0.15431277 -0.02803694 -0.031118244
0.021079486 0.10121558 0.15767536 0.011042024 -0.11404782 -0.032815993 0.060381513 0.007006023
-0.036917713 0.07925675 -0.2452572 -0.251071 -0.09475847 0.026091726 -0.050374433 0.063935846
0.0022525478 -0.0415131 0.029759893 0.05832779 0.15438506 -0.019035159 -0.13056503 -0.12743928
-0.04548936 -0.09287745 -0.059833147 0.07319141 0.06561076 0.13511156 -0.0039712843 0.0439267
-0.0492349 0.006029938 0.05796912 -0.016967896 -0.1458395 -0.009200449 0.06290151 -0.031340797
0.033106487 0.0925898 0.03492439 0.04149086 0.016854754 0.016470058 -0.17809309 -0.0037684953
-0.041756853 0.025802955 -0.0644077 -0.00544669 0.119019166 0.1426942 -0.103751674 -0.005560902
-0.036606673 0.06846757 0.017537793 -0.09669944 0.02365676 0.14584322 -0.098860614 -0.059652466
0.0046249134 0.005600091 -0.14007892 -0.028856613 0.03434618 -0.097008556 -0.10586429 0.14063743
0.0023151918 0.036579788 0.018438617 -0.0003239782 -0.015222198 -0.1661022 0.14556949 -0.03672111
-0.011731285 -0.065135345 -0.008549281 0.0515839 -0.089513555 0.083544314 -0.0026037653 -0.26677504

net.model.convblock4.0.bias f4 [16]
00000000: 8b27 7ebe 8ba2 b33d c895 04be 50c8 6abe
00000010: 5f0a 77bd b344 9cbd a910 29be 0d33 5d3e
00000020: b145 32be 9b01 a3bd 5e39 8a3d 9803 a23a
00000030: ff10 debd f382 6f3b e65e ac3d 5ea3 45bb
-0.24819772 0.08771237 -0.12947762 -0.22927976 -0.060312625 -0.07630291 -0.16510262 0.21601506
-0.17409398 -0.079592906 0.06749223 0.001236069 -0.108430855 0.0036546558 0.08416538 -0.003015719

net.model.convblock4.2.weight f4 [16]
00000000: eb10 8a3f 78ed 803f c70b 803f 19e2 7f3f
00000010: 5339 893f da0c 833f 4de0 833f 6769 613f
00000020: 9e30 513f 88bc 843f 5ec5 853f 930e 823f
00000030: d358 713f 1e29 743f 7630 703f 9b2f 7f3f
1.0786413 1.007247 1.0003594 0.9995437 1.0720619 1.0238297 1.0302826 0.88051456
0.8171481 1.0370035 1.0450857 1.0160698 0.9427616 0.9537524 0.93823946 0.99682015

net.model.convblock4.2.bias f4 [16]
00000000: 0e91 0b3e 4724 ee3d e8e5 ce3b 281f 4e3d
00000010: 3127 1b3d 71c6 da3d 4a7e 3c3e d3ac 3d3e
00000020: 8cb9 15bd f5e7 9e3b 1034 443e 4a58 333e
00000030: 4501 3139 2884 173e d277 743d c0dc 5a3e
0.13629553 0.11628013 0.006314028 0.05032268 0.037879173 0.10682381 0.1840755 0.18522958
-0.036553904 0.004849429 0.19160485 0.17514148 0.00016880508 0.14796507 0.059684582 0.21373272

net.model.convblock4.2.running_mean f4 [16]
00000000: eaa4 103e 0e0a d13e 9760 9e3e c2f5 2b3e
00000010: 5bee c33e daf1 763e 2b07 793e 2c5c ea3e
00000020: 2e3b 0d3e aed2 743e 59e5 bc3e 4421 b33e
00000030: 7ce5 833e a3fd ac3e 488e cb3e e4aa a93e
0.1412541 0.40827984 0.30933067 0.16792968 0.38267788 0.24115697 0.2431914 0.45773447
0.13792107 0.23908493 0.36893728 0.34986317 0.2576102 0.3378726 0.3975699 0.33138192

net.model.convblock4.2.running_var f4 [16]
00000000: b11e 563e 54fc 2f3f 5a08 dd3e 2f16 103e
00000010: 8bd6 063f e33d 783e a90d 573e 7642 463e
00000020: cfca 173e 94d9 b93e eb29 1c3f 235d c93e
00000030: 6921 cb3e 7327 d13e 0515 6e3e 1179 963e
0.20910145 0.687444 0.43170434 0.14070962 0.52671117 0.24242358 0.21001305 0.1936129
0.14823459 0.3629881 0.6100146 0.3932887 0.39673927 0.4085041 0.23250206 0.2938924

net.model.convblock5.0.weight f4 [16, 16, 3, 3]
00000000: b0c5 0a3e e2d1 6e3d 85b3 87bd ef18 08be
00000010: e905 edbc 694f acbd d9b7 f0bd 8488 8bbd
00000020: 0674 f9bc 4580 06bd a14e b73d 1e8f 053e
00000030: 1bf1 dabd e0d6 9b3d c14b c63d 6006 9ebd
00000040: a979 82bc 55c0 4dbe fec3 993d a5f7 f3bd
00000050: 7929 0fbe 88b1 b5bd b6e7 52bc 66e7 713c
00000060: 1628 38be c189 0bbd 97d2 e8bc e803 373d
00000070: ffb9 3bbd b1b0 f5bd 4372 3dbd 978f 5e3b
00000080: 3d38 8f3d ae0f 383c 6e09 fd3c 3b6a 463c
00000090: 9e98 4d3c 0203 09bd 5cea 25be 331e 1a3c
000000a0: 7688 fabd 0938 57bd 8fef 713d 3b99 3e3d
000000b0: 7cc2 323d 657b 4fbc 3777 2bb9 23e6 f93c
000000c0: 398c c83c 75eb 6e3d 883f efbd 3e72 8f3d
000000d0: 81d4 0a3e 5ffc 1d3b d71a 0bbe e9b4 8fba
000000e0: b570 d6bc ed4c 80bc a3f1 e8bc a129 3c3d
000000f0: d8a6 e03d 82fa 5c3d 9f8f f0bc 26b9 f93c
00000100: 0806 9e3d 6040 81bc 2d2b a23b ba62 fabd
00000110: e9c9 bb3d cf5b 753d cea1 bb3d 3fea ec3b
00000120: 5f49 aebd df96 e9bd 30ca 4fbd a630 e2bd
00000130: e326 7b3c d7b4 543d bb31 583d 0749 1b3e
00000140: f552 773d 4fb1 933d 4da4 c9bb b6a9 673c
00000150: e1e5 4dbd d615 fdbd 3bf5 6ebc e2d3 4fbe
00000160: a205 f1bc 31f5 0dbc 50b9 2bbd 9247 adbc
00000170: 6e68 1a3d 7b6c e63c b2ad 60bd 5437 16be
00000180: c2c2 f2bc e15b fabd abcc 5cbd 55fb 663d
00000190: 5b5e e43c cc3a 903d 6110 cdbb 1928 f6bc
000001a0: 5cb2 02be 5447 99bd 8354 45bc 3d4e 18be
000001b0: 69d7 bdbc ce58 ac3d 0b54 9a3c 79fe e4bd
000001c0: 0711 903c 9349 91bb 66df 0bbe 1e52 833d
000001d0: aa43 243d a3f3 8b3d af0d 84bb 222f 263e
000001e0: e813 533d d8ab b93c f9ce 30bc d542 b53d
000001f0: 9b70 87bd c168 9bbb 58a9 d23a 667f b03d
00000200: 5706 b8b9 099c c6bd ad5f 013d a448 e53c
00000210: de87 c2bd 5f56 44bd e49a b3bc 23a6 4c3d
00000220: 1860 27bc b459 10be ff6b 9f3d b9c4 38bc
00000230: 7371 e4bd 33f6 c13d 2659 173d 4f72 46bd
00000240: 2568 aabd b379 7dbd ce08 9e3d fc23 c9bd
00000250: ad48 fbbd 9857 103d 5f29 c8bd fbfc 71bd
00000260: 111f 47bd f33e 3e3d 2c04 c6bc 2204 7b3d
00000270: 63e7 54bd 4498 ad3c b63b ce3c 20db 873c
00000280: 7a7f 8dbb 3326 61bb 43a2 aa3d 5491 893c
00000290: e8e0 843d 5586 97bc cd67 85bd fa54 7f3c
000002a0: 7845 ab3c ce94 61bd 5833 ba3d e411 db3d
000002b0: f7bd 8d3d bf80 13bd 6172 a33d dcbc f2bb
000002c0: 65f5 1bbe 89ec babd dd5b d1bd 8687 d7bd
000002d0: 914a e23d 15d6 f03d d032 383e e132 75bd
000002e0: 2ff1 623c f6b0 6c3e 2c02 35be ef72 a8bd
000002f0: 2959 243d 77cd 9dbd 2915 e7bd 5e7c 52bc
00000300: f4a1 e0bc 29ba 77bd 3ebb 83bd 0345 edbd
00000310: 36b1 00bd 30ec fb3d bd61 2bbe 7e0f 48bd
00000320: 4007 35be 8d88 2ebe 9a1c 8abd f2e2 dbbd
00000330: db7c 2fbe 4edf 03be 2b86 f5bb 6b48 bf3c
00000340: fe64 a5bd 7756 53be 502d 1e3d 725a ee3c
00000350: 485a dcbd 6dee ffbc 0be5 90bc 5173 ba3d
00000360: 6219 a43b 6592 d8bc f42d 92bc b1e2 d1bc
00000370: 00d9 cdbd 3055 ee3c 06cb 28bd 038b 06bd
00000380: bd4a 85bc 1a85 f7bb fc2c 3c3d e2fd c33d
00000390: 4d53 97bd ea0b 903d 9f12 4abc 429d 99bc
000003a0: ae84 793d 90ba 053e e187 40bd 8d9c f73c
000003b0: deb4 a73d 7dd8 72bd 5808 433d a057 123a
000003c0: cb2b a83c c51b e3bc 11d6 a0bd 2dd3 003e
000003d0: 3bef b83d 60f4 0b3e 3794 5fbd 86e7 c8bd
000003e0: b1e4 c83c 1270 d2bd 9fd8 88bd 9ecb 983c
000003f0: b4a1 5fbd 526d b4bd 11d9 4bbc 54de e6bd
0.13551974 0.05830563 -0.066260375 -0.13290761 -0.028933482 -0.08413584 -0.11753816 -0.06813148
-0.030450832 -0.03283717 0.08950544 0.13042876 -0.106905185 0.076093435 0.09682418 -0.0771606
-0.015927153 -0.200929 0.07508086 -0.11912469 -0.13980664 -0.08871752 -0.012872627 0.014764642
-0.17984042 -0.03406692 -0.02842073 0.04468146 -0.045831677 -0.11996592 -0.046251547 0.0033960098
0.069931485 0.011234207 0.030888285 0.012110288 0.012548594 -0.033450134 -0.16202682 0.009406614
-0.12233059 -0.052543674 0.05906635 0.04653285 0.043642506 -0.012663697 -0.00016352242 0.030505246
0.024480926 0.058330018 -0.116820395 0.07004212 0.13557626 0.0024106724 -0.13584457 -0.001096395
-0.02617679 -0.015661681 -0.028435534 0.045938138 0.10969323 0.05394984 -0.029365359 0.030483793
0.07715994 -0.015777767 0.0049489946 -0.12225862 0.09169371 0.05990201 0.09161721 0.0072300727
-0.08510088 -0.114057295 -0.05072993 -0.11044435 0.015329096 0.051930275 0.0527818 0.15164576
0.06038185 0.07211553 -0.0061536194 0.014139583 -0.050268058 -0.123576805 -0.014584835 -0.2029567
-0.029421631 -0.008664415 -0.041924775 -0.021152291 0.03769725 0.0281279 -0.05485315 -0.14669544
-0.029633883 -0.12224556 -0.053906124 0.056392033 0.027877023 0.070424646 -0.006258056 -0.030048417
-0.12763351 -0.07484308 -0.012044075 -0.14873596 -0.023174005 0.08415376 0.018838903 -0.11181349
0.017586244 -0.0044338196 -0.13659438 0.06412147 0.040103592 0.068335794 -0.0040299515 0.16228917
0.051532656 0.02266495 -0.010791534 0.08850638 -0.06613275 -0.0047427122 0.0016072197 0.08618049
-0.00035099938 -0.0969773 0.031585384 0.02798874 -0.09498571 -0.047933932 -0.021924444 0.049963128
-0.010215782 -0.14096719 0.077842705 -0.011277371 -0.11154451 0.09470787 0.036950253 -0.048448857
-0.08320645 -0.06188364 0.07716523 -0.098213166 -0.12269721 0.035239786 -0.09773516 -0.05907915
-0.04861361 0.04644675 -0.024171911 0.06128324 -0.05197848 0.02119077 0.025174957 0.01658398
-0.004318175 -0.0034355044 0.0833173 0.01679293 0.0648821 -0.018496672 -0.06513939 0.015584225
0.020907149 -0.05507355 0.09091824 0.10696772 0.069209985 -0.036011454 0.079808004 -0.0074077677
-0.1523033 -0.09127147 -0.102226 -0.10523896 0.11049379 0.11759583 0.17988133 -0.059862975
0.013851448 0.2311438 -0.1767661 -0.08225047 0.040124092 -0.07705205 -0.11283333 -0.012847034
-0.027420975 -0.06048027 -0.06432198 -0.115854286 -0.031419 0.123009086 -0.16736503 -0.0488429
-0.17678547 -0.17044277 -0.067437366 -0.10736646 -0.17137472 -0.12878153 -0.0074928007 0.023349961
-0.08075903 -0.20638452 0.038617432 0.029095862 -0.10759407 -0.03124162 -0.017687341 0.09104026
0.0050079087 -0.026436994 -0.017844178 -0.02562079 -0.10051155 0.029093355 -0.041209243 -0.032847416
-0.01627099 -0.0075537087 0.045941338 0.09569909 -0.07388935 0.070335224 -0.012333541 -0.018751744
0.06091755 0.13059449 -0.047004584 0.030226016 0.081887946 -0.05928849 0.04761538 0.0005582515
0.020528695 -0.027723202 -0.0785333 0.12580557 0.090300046 0.1366744 -0.054584708 -0.098097846
0.024523111 -0.10275282 -0.06681942 0.01865178 -0.05459757 -0.08809914 -0.012441889 -0.112728745

net.model.convblock5.0.bias f4 [16]
00000000: 5f6d 0fbd 81ae 8bbe d967 6cbd 998a 82bd
00000010: 7d87 d8bd e4c8 ee3d 9940 19be a57f ee3b
00000020: 6ec6 eebc 6eaf 17be bded db3b 19dc 2e3d
00000030: 81b3 47be 4820 3fbe 3777 0f3e 69d6 92bd
-0.035016414 -0.27281573 -0.057716224 -0.06374092 -0.10572717 0.116594106 -0.14966048 0.0072784
-0.029147353 -0.14813015 0.00671169 0.04269037 -0.19502069 -0.18664658 0.1401032 -0.07169802

net.model.convblock5.2.weight f4 [16]
00000000: c862 653f de74 813f 67ec 763f 62b8 523f
00000010: 4013 6a3f f831 6a3f 175f 8a3f 258a 8a3f
00000020: a0fe 8a3f fe05 7c3f 30a2 733f 1660 643f
00000030: 8bfc 613f 3509 853f cd51 8e3f 22b8 833f
0.89603853 1.011379 0.9645447 0.82312596 0.91435623 0.91482496 1.0810269 1.0823408
1.0858955 0.98446643 0.95169353 0.89209116 0.88275975 1.0393435 1.1118714 1.0290568

net.model.convblock5.2.bias f4 [16]
00000000: 19ac 513e d753 073e 716a 403e 470f f63d
00000010: c0d2 983e b52a 903e 7812 8ebc d297 2e3d
00000020: 3c7e 5d3e ddd0 073e 6d03 0fbe c949 983e
00000030: 81cb 81be 9229 783e 9ec9 453e e85b fe3d
0.20475806 0.13215576 0.18790604 0.12014633 0.2984829 0.28157583 -0.017342791 0.042625256
0.21630186 0.13263269 -0.1396615 0.29743794 -0.25350574 0.24234608 0.19315192 0.124198735

net.model.convblock5.2.running_mean f4 [16]
00000000: 6667 f33e b602 bb3e 5060 e33e 2c63 b03e
00000010: b9c5 e43e b698 d93e 899c e83e c8c9 ac3e
00000020: 9a7b e13e f663 b13e 17d5 b23e eb4e e33e
00000030: 6e2a 0a3e f060 ba3e 36b4 243f 3bc2 ea3e
0.47539824 0.36525506 0.44409418 0.34450662 0.446821 0.42499322 0.45431927 0.33747697
0.44039613 0.34646577 0.349282 0.44396147 0.13492748 0.36402082 0.6433748 0.4585131

net.model.convblock5.2.running_var f4 [16]
00000000: e9e2 d13e 4561 083f 9baf 193f 9f06 073f
00000010: 05bc ec3e aacc e73e c4f2 a73e bf82 043f
00000020: 8a08 433f 73fc 763e 30e9 053f d31f 483f
00000030: 971c 3e3e 950e d13e 9ae6 3f3f 36aa f13e
0.4099343 0.5327342 0.6003358 0.5274448 0.46237198 0.45273334 0.32802403 0.51762
0.76184905 0.24119739 0.5230894 0.7817356 0.18565594 0.40831438 0.74961245 0.47200173

net.model.convblock6.0.weight f4 [16, 16, 3, 3]
00000000: df4f 86bc 1ce9 b2bd 5fed 94bd 3a2c 39be
00000010: b27c 1bbd 32c8 9dbd 217d d03c 19ad d43c
00000020: 158d efbc f348 fbbc 7038 e5bc da4d a9bd
00000030: 0a4e fabd f019 13be 13cb 92be dd02 27bd
00000040: 5ddd cfba 84a0 2b3d bf31 d1bc 48b7 013d
00000050: 1216 d2bd d4c1 1cbd 0b50 17be 4a13 ffbd
00000060: ead5 9b3d 0b28 88bd b21c e5bc c4de 49bd
00000070: 5f69 92bd 18ed d53b 838d c13c 22b4 053d
00000080: 746a 943d 9f3a 223d 1726 d6bd f0c3 333d
00000090: 7c6b 1c3d bd62 fabd be79 70bd 5471 48bd
000000a0: 2846 fabd b3b9 e6bd dc44 63bd 693e afbd
000000b0: 5fb4 ffbd f2b6 8ebc 2777 fe3d 9c77 5c3d
000000c0: 7932 e93c 9c91 943d df0e 55bc 220e 27bd
000000d0: 2563 e03d 8f8b d3bb 5b3f 1bbd abd4 acbd
000000e0: 0495 82bd 651b 65bc 39fc e73c 656d b13d
000000f0: 5449 85bc b5ec 4d3d 15d3 f4bc 715b 383d
00000100: 7b5d 043d 5242 3e3d 6dc5 1dbd c4ea 9c3c
00000110: dc61 6b3d 907f 2c3e e913 50bd 53bf bb3b
00000120: 36d4 c13c 3811 8b3c 7c99 c03d 0f8b 8dbd
00000130: 1d90 5dbd 440a 343d cda8 9ebd 7a4c 06bc
00000140: fa10 2c3c 43ff b0b9 98a4 3abd 8b0a 3d3d
00000150: 4aba e1bc dae3 a9bc e30e ccbc 802e c5bc
00000160: 76fa b4bc 487c dfbd 1193 0e3d af78 40bd
00000170: 0bbd 19bd 8d2b 253d e64c 2b3d cd27 96bd
00000180: 77dd 07bd f72d a83c ced8 273c a837 eebd
00000190: 20c0 60bd 18a8 893c cd26 3f3d 158b 9dbc
000001a0: 5fc7 513d 18e5 8f3c 559b 143d b39d c93d
000001b0: 7bfa 313e 70de 9a3d a628 1dbb caa9 2c3e
000001c0: e656 253e e720 233d a118 3fbd bd8f af3d
000001d0: c5ea d83d 55f2 e53c dcbb e7bc 2be2 c23d
000001e0: d0d4 c1bd 60d9 9bbc 8bac a3bb d7d8 b9bb
000001f0: a040 13bd a0fd 01bd 566f babd fbb0 52be
00000200: 2bf1 32be 6e4b 28bd fbdc 97bd f26e ecbd
00000210: 7d71 fe3d a171 493d ca87 f4bc eb7f c93c
00000220: 6d8f 733d a900 7cbd 6c36 9a3d 691e 9a3d
00000230: 043b 753d de9c 9fbd d1f8 8a3d 20d1 ce3d
00000240: 7f9b 85bd b9d5 353d ed99 163e 92e4 8cbd
00000250: cb2c 39bc ac64 1f3d 7677 30be 16cf 21be
00000260: f25e 6ebe 1ee5 cd3c b9ef 53bd 6513 63bd
00000270: 8ef9 bdbc c66b 00be cd62 71bc 1750 8fbc
00000280: bd01 b1bd 45c3 b2bd 6234 71bc b6e4 71bd
00000290: 7328 003d 66e5 4b3d 0b71 ee3d 0272 003d
000002a0: 8cea 17bc 1320 41bc 53b0 a2bc 9566 053d
000002b0: f7b3 0cbe 2a8f 22bd 3df3 0b3e eba8 c7bd
000002c0: 16fa 3abd eda5 9b3b 6d5b 6ebd 6f39 8fbd
000002d0: ad9d d83d 9b9a 83bd e638 62bb 92f5 783d
000002e0: 9287 d3bd 3072 45bd 0de5 713c 7f77 7ebd
000002f0: b083 8dbd 1ece 99bd bef8 c0bd bf65 04bc
00000300: a4bd 8fba 207c babd b677 02bd e7dc 02be
00000310: 487d cd3b 2d5e b93c 5e49 83bd 1ec9 e3bc
00000320: 6626 58bd e47c 31bd e0b1 553d 5d6f 82bc
00000330: 4d71 0c3d 9eca 6b3d 6d4e 973c 58f0 0f3e
00000340: d714 d43c 77d7 30be fcfc 103d 47a0 113d
00000350: b155 b5bd 2f58 293d 1b6d 433b 519b 363d
00000360: 7294 85bd ed43 4ebd d891 70bd f58b 7e3d
00000370: ba9c 65bd cb6a 69be 7e55 263e 34c5 7d3d
00000380: 9583 dcbc d725 04bd b931 b4bd fbd4 99bd
00000390: 0fde 8b3d 9918 af3d a060 413d 599c 433d
000003a0: 6e30 2f3d 1ab5 d5bc a047 07bd 0827 8bbd
000003b0: ac2f 1d3e 79f4 16bb 867f d3ba 76e7 d7bc
000003c0: 7e40 603d cd7a 1abd a9b8 abbd 567d bcbc
000003d0: c266 fbbd 3b0a 00be 26b4 8cbd 9cc5 233c
000003e0: c599 c7bd 88c5 7a3d ec44 a83d c57f a33d
000003f0: a5c4 d0bc 9cda 8ebd 2a54 a63d c926 853d
-0.016395507 -0.08735868 -0.072718374 -0.18083277 -0.037960716 -0.077042 0.025450291 0.025961446
-0.029242078 -0.030674433 -0.027981013 -0.08266802 -0.12221916 -0.14365363 -0.28670558 -0.040774215
-0.0015858818 0.041901127 -0.025536416 0.03166893 -0.10258116 -0.038270786 -0.14776628 -0.12454851
0.0760916 -0.066482626 -0.027967785 -0.04928471 -0.07149004 0.006528508 0.023627048 0.03264249
0.07246867 0.039606687 -0.10456484 0.043888032 0.038188443 -0.12225864 -0.058709852 -0.048936203
-0.122204125 -0.11265888 -0.05548559 -0.08556826 -0.12485575 -0.01742122 0.1242507 0.053825006
0.02846645 0.07254335 -0.013004034 -0.040784962 0.1095641 -0.0064558457 -0.037902217 -0.08439001
-0.06376079 -0.013983582 0.028318511 0.086634435 -0.016270317 0.05027457 -0.029885808 0.04500908
0.032315712 0.046449967 -0.038518358 0.019154914 0.057466373 0.16845536 -0.050800238 0.0057295947
0.02366076 0.016975984 0.09404275 -0.06911289 -0.054092515 0.043955103 -0.0774704 -0.008196944
0.010502094 -0.0003375952 -0.045567125 0.046152633 -0.02755465 -0.02073853 -0.024909442 -0.024070024
-0.022092085 -0.10912377 0.034808222 -0.046990093 -0.0375338 0.040324736 0.041821383 -0.0733181
-0.03317019 0.02052973 0.010244561 -0.11631709 -0.054870725 0.016803786 0.046667863 -0.019231359
0.051215526 0.017565295 0.03628095 0.09844532 0.17380707 0.07561958 -0.0023980527 0.16861644
0.1614643 0.0398263 -0.046654347 0.08572338 0.10591654 0.028069654 -0.02828782 0.09515794
-0.09464419 -0.01902455 -0.004994934 -0.0056716013 -0.035950303 -0.031736016 -0.09103267 -0.20575325
-0.17474811 -0.04108756 -0.074151956 -0.11544599 0.1242399 0.04918063 -0.029849906 0.024597129
0.059462953 -0.061524067 0.075299114 0.075253315 0.059870735 -0.07793592 0.06785739 0.10098481
-0.06523799 0.044393275 0.14707156 -0.06879534 -0.011302183 0.038914368 -0.1723307 -0.15801653
-0.23278406 0.025133666 -0.05174229 -0.055438418 -0.023190286 -0.12541112 -0.014733029 -0.017494245
-0.0864291 -0.08728651 -0.014721962 -0.059056006 0.031288575 0.04977932 0.11642655 0.031358726
-0.009272229 -0.011787432 -0.019859469 0.032568533 -0.13740526 -0.039687313 0.13667007 -0.097490154
-0.045648657 0.0047500045 -0.05819266 -0.069933765 0.10576949 -0.06425973 -0.0034518777 0.06078107
-0.10328592 -0.0482046 0.014764083 -0.06212568 -0.06909883 -0.07510017 -0.09422444 -0.008080899
-0.0010966551 -0.09105706 -0.031852446 -0.1277958 0.006271038 0.022627914 -0.06410478 -0.027805861
-0.052770995 -0.043331996 0.052171588 -0.015922243 0.03428774 0.057566278 0.018470014 0.14056528
0.025888843 -0.17269693 0.035397515 0.035553243 -0.08854235 0.041343864 0.002981967 0.044581715
-0.06522454 -0.050357748 -0.058732837 0.062145192 -0.05605767 -0.22794645 0.1624355 0.061955646
-0.026918212 -0.03226265 -0.08798546 -0.07511326 0.06829464 0.085496135 0.04721129 0.047756527
0.042770796 -0.026087333 -0.03302729 -0.06794554 0.15350217 -0.00230339 -0.0016136027 -0.026355486
0.054749005 -0.03771477 -0.083848305 -0.023008984 -0.12275459 -0.12503903 -0.06870298 0.009995844
-0.09746126 0.061223537 0.08216271 0.079833545 -0.025484392 -0.0697529 0.08121522 0.06501538

net.model.convblock6.0.bias f4 [16]
00000000: c67a f23c 6d70 67be 75f5 7abd 97ac 1fbe
00000010: 3e45 173d cfba a9bd a9b5 4dbe 8a2e 143b
00000020: d484 2abe fcb7 1cbe e073 72be 4428 18be
00000030: 6969 21bd c3f1 e4bd 5661 09be 5197 683e
0.029599559 -0.22601481 -0.061269242 -0.15593182 0.03693127 -0.08287584 -0.20088829 0.0022610747
-0.16652232 -0.1530456 -0.23677015 -0.1485911 -0.039407168 -0.11178925 -0.13416037 0.22713973

net.model.convblock6.2.weight f4 [16]
00000000: 66e5 653f 2244 743f d362 823f 4c18 7b3f
00000010: cd76 7f3f dad6 663f d69b 853f 4c8e 783f
00000020: b745 723f c49c 823f 9c64 6a3f 3312 703f
00000030: 6fd4 8e3f e3ff 5a3f a59c 7d3f 0468 8d3f
0.8980316 0.9541646 1.0186409 0.9808395 0.9979065 0.9017159 1.0438182 0.9709213
0.94637626 1.0204091 0.9155977 0.9377777 1.115858 0.855467 0.99067146 1.1047368

net.model.convblock6.2.bias f4 [16]
00000000: 3974 72be 3849 d2be 6b59 acbe 1a65 30be
00000010: 6fe3 57be 842e 3fbd acf0 b9bd be40 4bbe
00000020: 8d14 a6be e4f4 3abe 4df2 a7be 1e06 0bbf
00000030: dc29 81be 07f0 a8be 886a 7abe 0a68 0bbe
-0.23677148 -0.41071486 -0.3366197 -0.17226067 -0.21082853 -0.04667522 -0.09079108 -0.19848916
-0.32437554 -0.18257481 -0.32802048 -0.5430621 -0.2522725 -0.32995626 -0.24454701 -0.13613907

net.model.convblock6.2.running_mean f4 [16]
00000000: eca9 ad3e cf92 213e 6b29 d83e 2686 9c3e
00000010: d38a cd3e 0833 ef3d 0f4d d33e e24d 9b3e
00000020: 2f28 963e ff54 e13e 977d f23d a5b3 673e
00000030: f340 093f 9e15 433e 38cc 123e c4d8 603f
0.33918703 0.1577866 0.422191 0.30571097 0.40144977 0.11679655 0.4126973 0.30332857
0.29327533 0.4401016 0.118403606 0.22627123 0.5361473 0.19051215 0.14335716 0.8783076

net.model.convblock6.2.running_var f4 [16]
00000000: c100 2c3f 2d8c 7c3e e7b5 283f d70e c13e
00000010: 80d0 f03e aa11 eb3d 0216 1e3f 8e4f ba3e
00000020: 4e0e 573e 340e 2c3f 48d2 4c3e facb a73e
00000030: 4478 363f a562 a33e bf19 253e da8b ed3f
0.6718865 0.24662848 0.6590256 0.37706634 0.47034073 0.114779785 0.6175233 0.3638882
0.2100155 0.6720917 0.20002091 0.3277281 0.7127726 0.31911197 0.16123103 1.8558304

net.model.convblock7.0.weight f4 [8, 16, 1, 1]
00000000: a7d7 6f3e 6e39 8dbd 4270 223e ac7d f13c
00000010: 5e9c 15be 1ada 1e3e 1641 48bd 8429 00be
00000020: f8d2 643d 3cbf 73be 64c0 053e bee0 debd
00000030: 9d3c ec3d 6a61 bfbc 7a32 a2bc 6ae2 163d
00000040: 5e68 f3bc 85a6 563e 1c7b 3b3d f349 4bbd
00000050: 0d5b ce3c 77f4 dfbd 6a45 553e 4abe 293e
00000060: 4768 7dbe ff25 5a3e 6d4e 9c3d ed41 bbbd
00000070: 25ce b9be 5f45 3d3c a910 193e 78d7 fd3d
00000080: 1a0a a3bd dc87 46bd ab2a e83d 1717 e93d
00000090: 5647 85be 55bf a5bb b58b cebd 8d98 2bbe
000000a0: 8f9d 113e 99f8 9bbe 6b5c 5b3c 410e 0a3e
000000b0: 9fae 203e bef4 55bd a377 56bd 9f2a 80be
000000c0: d897 033e 0091 e4bd fe4c 02be 07ce 253e
000000d0: 16ac 113e 787f c7bc 7633 c33c e5db 07be
000000e0: ee27 0ebe a46a 483d 1856 be3d 9a92 8a3e
000000f0: ff7d fcbd d940 5c3d 2ceb c63d 9c4b f0bd
00000100: c678 1fbd 44fb 073c 9e36 783e 43bd 893e
00000110: fe7f c3bc ecf3 95bd 293c f2bd 290a 39be
00000120: 5ff1 61be ff5e 06be 5c10 1ebd 7cb6 34bb
00000130: b3ba 39bd e371 2b3e d255 ac3e 34b5 d73d
00000140: 72ab a93d 9e6a 873d 814e a0be 7cf2 dfbe
00000150: a5ab cc3d 0521 e13d ba3b a7be ff50 443d
00000160: fd29 a33d f65f 5bbd c1bb 3d3c 036f 1bbe
00000170: b0ce aebe 8161 1b3e 3007 17be 685c a63d
00000180: 9724 9fbe 89b4 dcbc 173a 8abd 42c1 0dbe
00000190: 6730 6b3e c886 e73a 90e8 313e 498a 773e
000001a0: 03a0 f23c ba43 9ebc 71f4 39be faa0 efbd
000001b0: 5fac 95bd 3a76 acbe 98d0 d7bb b624 99be
000001c0: 64fc 353e 8060 743e 1aa0 89be 584d 29be
000001d0: 7197 fbbb f71f 5cbd 21d9 a1be 7016 953d
000001e0: 6690 94be 904a 88bd f72b 963e b1de 393d
000001f0: cae5 743e 4e77 303e 0152 09bd bdaa 86bd
0.23422109 -0.068957195 0.15863135 0.02947887 -0.1461043 0.15512887 -0.048890196 -0.12515837
0.055865258 -0.23803419 0.13061672 -0.1088271 0.115349986 -0.02336188 -0.01979946 0.03683702
-0.029712852 0.2096196 0.045771703 -0.04963107 0.0251899 -0.109353 0.2082726 0.16576496
-0.2474681 0.21303557 0.07632146 -0.09143434 -0.36290088 0.011552184 0.14947762 0.12394613
-0.07960911 -0.04846941 0.11336263 0.11381357 -0.26030988 -0.005058209 -0.10085241 -0.16757412
0.1422026 -0.30463102 0.013388733 0.13482 0.15691613 -0.052235357 -0.05236019 -0.25032517
0.12850893 -0.11160469 -0.12724683 0.16191874 0.14225802 -0.024352774 0.02382825 -0.13267477
-0.1388242 0.048929825 0.09293765 0.27064973 -0.12328719 0.05377278 0.09712824 -0.11733171
-0.038933538 0.0082996525 0.24239585 0.26902208 -0.023864742 -0.07321915 -0.11827881 -0.18070282
-0.22064732 -0.13122176 -0.03858982 -0.002757459 -0.045344066 0.16742663 0.33659226 0.10532609
0.08284654 0.066121325 -0.31309894 -0.43739688 0.09993676 0.10992626 -0.32662755 0.047928806
0.07966993 -0.053558312 0.011580409 -0.15179066 -0.34142065 0.15173914 -0.14748836 0.08123094
-0.31082603 -0.026941555 -0.06749361 -0.13843253 0.22967683 0.0017664069 0.17373872 0.24173845
0.029617315 -0.019319404 -0.18159653 -0.11700626 -0.07308268 -0.3368395 -0.0065861456 -0.2991082
0.1777206 0.23864937 -0.2687996 -0.1653341 -0.0076779653 -0.05374142 -0.3161097 0.0727967
-0.29016417 -0.06654847 0.29330418 0.04537839 0.23915783 0.17233011 -0.03352547 -0.065755345

net.model.convblock7.0.bias f4 [8]
00000000: 55e5 f33e c823 d93e 175b 45bd 4f04 473e
00000010: e093 a23d efb8 533e 70e6 5b3e 4224 d63d
0.47635904 0.4241011 -0.048182573 0.19435237 0.07938361 0.20676015 0.21474624 0.104561344

net.model.convblock7.2.weight f4 [8]
00000000: ee27 853f 3167 873f 3baa 883f d9b1 6d3f
00000010: 5e4c 733f aef9 623f 0294 793f f5bb 7e3f
1.040281 1.0578367 1.067695 0.928495 0.950384 0.8866223 0.97491467 0.9950555

net.model.convblock7.2.bias f4 [8]
00000000: aa37 323e 6b4b 023e e077 453e 86e3 6bbd
00000010: 87ba 283e c7ba a9be 3015 083d 7f60 d0bd
0.17404047 0.12724082 0.1928401 -0.05759003 0.16477405 -0.33150312 0.03322333 -0.10174655

net.model.convblock7.2.running_mean f4 [8]
00000000: 7ff3 243f 49f8 523f 79f6 a93e 4498 d33e
00000010: 2720 e23e 8e98 023f d255 283f a1d9 cb3e
0.64434046 0.82410103 0.33195856 0.41327107 0.44165155 0.5101403 0.6575595 0.39814475

net.model.convblock7.2.running_var f4 [8]
00000000: d5bc 053f ec7b 7c3f 971c ac3e 22cc 003f
00000010: aa24 333f e7ff 0e3f 2626 eb3e 57e5 3d3f
0.5224126 0.9862659 0.33615562 0.5031148 0.6997782 0.55859226 0.45927542 0.7417807
